GRU/models/good_epochs=50.pth (torch, 608005 bytes, 9 tensors)

weight_ih_l0 f4 [384, 5]
0	0xbe0b1360	-0.1358161
1	0x3c4ef7e7	0.012632347
2	0xbd3e1ecb	-0.046416085
3	0xbe321794	-0.17391807
4	0x3de54373	0.111945055
5	0x3e29161d	0.16512342
6	0x3dcff607	0.10154348
7	0x3e0252ad	0.12726851
8	0x3d55430a	0.052065887
9	0xbd902bb0	-0.07039583
10	0xbf95f9c9	-1.1716853
11	0xbf88636b	-1.065534
12	0xbf983df4	-1.1893907
13	0xbf8b0542	-1.086098
14	0xbef20cc0	-0.47275352
15	0x3d746e2d	0.059675384
16	0x3cd02c98	0.025411889
17	0x3d49db72	0.049281545
18	0xbd9a702e	-0.07540928
19	0xbbfdc0ff	-0.007743954
20	0xbdf8d5b8	-0.121501386
21	0xbd50b28c	-0.050951526
22	0xbdc34dd3	-0.09536328
23	0xbe1a5e43	-0.1507502
24	0xbeb24a2b	-0.3482221
25	0xbdc8115f	-0.09768938
26	0x3d2bd64c	0.041952416
27	0xbd82bf76	-0.063841745
28	0x3cc0b0db	0.023521831
29	0xbdb74c1c	-0.089500636
30	0x3dc30981	0.09523297
31	0x3e21b739	0.1579255
32	0x3d72c51f	0.05927002
33	0x3e24cf36	0.1609467
34	0xbd880dca	-0.06643255
35	0xbd9994c4	-0.07499078
36	0xbe6b11fc	-0.22956079
37	0xbe55cf86	-0.20879945
38	0xbe5b8cc8	-0.21440423
39	0xbe5ccbef	-0.2156217
40	0xbf060f54	-0.5236714
41	0xbf094d92	-0.5363399
42	0xbed11a0d	-0.40840188
43	0xbf07ebb9	-0.5309406
44	0xbf7e7dac	-0.9941051
45	0x3e979220	0.29603672
46	0x3e2e1679	0.1700076
47	0x3e8ae2d6	0.27126187
48	0x3e70d8e5	0.23520239
49	0xbcd0a276	-0.025468092
50	0x3e805b8c	0.25069845
51	0x3df46b99	0.11934585
52	0x3dc41a1b	0.09575292
53	0x3ca1957b	0.019724598
54	0x3da121a0	0.078677416
55	0x3e8f3759	0.27971914
56	0x3e52b87a	0.20578185
57	0x3e14d285	0.14533432
58	0x3e3d2007	0.18469249
59	0x3e0e6612	0.13906124
60	0x3ebbb94d	0.3666481
61	0x3ea54ec4	0.32286656
62	0x3ee0e18a	0.43922073
63	0x3e9e98bb	0.309759
64	0xbe0a3fbe	-0.13500878
65	0xbd6c486e	-0.05768626
66	0xbd30d7b2	-0.043174453
67	0xbd8a9db8	-0.06768364
68	0x3df2bca6	0.11852388
69	0x3dc336fa	0.0953197
70	0xbd25bf65	-0.04046573
71	0xbd5c2e63	-0.053755175
72	0xbe246b4e	-0.16056558
73	0xbd59cf1a	-0.053176023
74	0xbde66aa2	-0.11250807
75	0xbe6fe817	-0.23428379
76	0xbe6245ee	-0.22096989
77	0xbdcf651b	-0.10126706
78	0xbe72ddb0	-0.2371738
79	0xbdad1248	-0.084507525
80	0xbd4f0070	-0.050537527
81	0xbe1bcf7c	-0.15215868
82	0xbe222176	-0.15833077
83	0xbde2e210	-0.11078274
84	0xbeabcaf8	-0.3355329
85	0x3d7f84c0	0.06238246
86	0x3c898923	0.016789025
87	0x3db88cf8	0.09011263
88	0x3cb5626f	0.022141663
89	0x3c697ce0	0.014250964
90	0x3e323960	0.174047
91	0x3d954ec3	0.07290413
92	0x3dfe5271	0.12418068
93	0xbcd3de69	-0.02586289
94	0x3e1bb0fb	0.15204231
95	0x3ce8705b	0.028373888
96	0xbe0afd87	-0.13573276
97	0xbe025c42	-0.12730506
98	0xbc51081d	-0.012758282
99	0xbe8b67a3	-0.27227506
100	0xbd3cc801	-0.046089176
101	0xbdaca52a	-0.0842994
102	0xbb57578a	-0.0032858574
103	0x3d7b95cf	0.061422165
104	0x3d5b3002	0.05351258
105	0xbd765cb7	-0.060147014
106	0xbd6c3919	-0.05767164
107	0x3c0d96b2	0.008641886
108	0xbdf3fa11	-0.11912931
109	0xbdab38c5	-0.08360437
110	0xbded4978	-0.11586279
111	0x3d674ab7	0.056467738
112	0x3d8f7c43	0.07006123
113	0x3e703cb6	0.2346066
114	0xbb3c4274	-0.0028726133
115	0x3e268412	0.16261318
116	0xbd85fc84	-0.06542304
117	0xbcb046c9	-0.021518128
118	0xbd81073f	-0.0630021
119	0xbed1180a	-0.40838653
120	0xbdf661b2	-0.12030353
121	0xbc5e36ad	-0.01356284
122	0xbdef3e76	-0.11681835
123	0xbe7411fb	-0.23834984
124	0xbe637d11	-0.22215678
125	0xbdf4cd07	-0.11953168
126	0xbe7fcb42	-0.2497988
127	0xbe6ec7db	-0.23318426
128	0xbe2fd024	-0.17169243
129	0xbe2635e0	-0.16231489
130	0x3dd680dc	0.10473797
131	0x3cb6bc78	0.022306666
132	0x3dc0b8c5	0.09410242
133	0x3e807199	0.25086668
134	0x3d3cb56b	0.04607145
135	0xbe459fa7	-0.19299184
136	0xbdaef60c	-0.085430235
137	0xbe44c836	-0.19217
138	0xbe60bf38	-0.21947944
139	0xbf67d93d	-0.90565854
140	0x3d73a0ec	0.05947964
141	0xbd7b7cc4	-0.061398283
142	0xbd92de07	-0.071712546
143	0x3d7bb5ac	0.061452553
144	0x3d1d8435	0.03845616
145	0xbd96e1fb	-0.07367321
146	0xbdb5f444	-0.088844806
147	0xbe4eff77	-0.2021464
148	0x3cd5c045	0.026092658
149	0xbdd87e4f	-0.105709665
150	0xbb5bef67	-0.0033559443
151	0xbcf6bdf3	-0.030119872
152	0xbd174ca8	-0.03693834
153	0x3de23ce5	0.11046771
154	0xbd14dc40	-0.03634286
155	0xbf3fabd6	-0.74871576
156	0xbf492b5a	-0.78581774
157	0xbf2ee281	-0.6831437
158	0xbf2ecbfe	-0.6828002
159	0xc018cb90	-2.3874245
160	0xbe06b84a	-0.13156238
161	0xbe920eb7	-0.28526852
162	0xbe28e6a5	-0.16494234
163	0xbe51ffce	-0.20507738
164	0xbed0bf82	-0.4077111
165	0xbb2ce1bd	-0.0026379668
166	0xba8a14c4	-0.0010534753
167	0xbd6d36df	-0.057913657
168	0xbe0dccfa	-0.13847724
169	0x3d3959e1	0.04525173
170	0x3e2839cd	0.16428299
171	0x3d98fd68	0.074702084
172	0x3dd5c4e4	0.104379445
173	0x3d05e716	0.032691084
174	0xbdb55596	-0.08854215
175	0xbce016d3	-0.027354633
176	0xba4f4a3b	-0.00079074845
177	0x3c388280	0.011261582
178	0x3c9d4460	0.019197643
179	0x3d11c071	0.035583917
180	0xbe03d481	-0.12874033
181	0xbddbc2b7	-0.10730498
182	0xbd848b5c	-0.06471893
183	0xbddf3bf1	-0.10900105
184	0xbe1261c2	-0.14295104
185	0x3df81416	0.12113206
186	0x3e37ddc2	0.17955688
187	0x3d5a7eb4	0.05334349
188	0x3e363a14	0.17795593
189	0xbd4b9f9b	-0.04971276
190	0xbcb5342d	-0.022119606
191	0xbbd798f4	-0.0065795127
192	0x3cb04b6d	0.02152034
193	0xbcc4d880	-0.024029016
194	0xbdaa531a	-0.083166316
195	0xbdf7d350	-0.121008515
196	0xbe0695d6	-0.13143095
197	0xbe7ee259	-0.24891032
198	0xbe884d4f	-0.26621482
199	0xbf1e13a1	-0.617487
200	0xbddd61fc	-0.10809705
201	0xbe07c0c8	-0.13257134
202	0xbe481e82	-0.19542888
203	0xbddf20fd	-0.10894964
204	0xbeae82f9	-0.340843
205	0x3d502c74	0.050823644
206	0x3d44d70f	0.04805666
207	0x3e964725	0.29351154
208	0x3e9f2438	0.3108232
209	0x3e7b9ea1	0.24572231
210	0xbe19d64d	-0.15023156
211	0xbde9795c	-0.114001006
212	0xbd305e01	-0.0430584
213	0xbd359658	-0.044332832
214	0xbccac4e2	-0.024752084
215	0xbe5a24d0	-0.21303105
216	0xbe62de97	-0.22155224
217	0xbe20761a	-0.15670052
218	0xbe3b8242	-0.18311408
219	0xbf1d5932	-0.61464226
220	0xbe40b9ce	-0.18820879
221	0xbe16dc90	-0.14732575
222	0xbe5d09b7	-0.21585737
223	0xbe888020	-0.26660252
224	0xbf206e05	-0.62667876
225	0x3e9852fd	0.29750815
226	0x3e549654	0.2076047
227	0x3e591cd0	0.21202397
228	0x3e80f452	0.25186402
229	0x3e20c4f1	0.15700127
230	0x3e3ace17	0.1824268
231	0x3e2f05cf	0.1709206
232	0x3dc8c6e7	0.098035626
233	0x3deabffc	0.11462399
234	0x3e228f73	0.15875034
235	0x3dd2d021	0.10293604
236	0x3dca4428	0.09876281
237	0x3cb4a1f7	0.022049887
238	0x3d79fdfd	0.061033238
239	0xbe5e1d07	-0.2169076
240	0x3df92e04	0.1216698
241	0x3dfca6ed	0.12336526
242	0x3e0d3651	0.13790251
243	0x3d24b131	0.040208045
244	0xbdbdc6e3	-0.0926645
245	0xbc083ee3	-0.008315775
246	0xbb8f6c07	-0.0043768915
247	0xbd879ed0	-0.06622088
248	0xbe039bdc	-0.12852424
249	0xbe85cb30	-0.26131582
250	0xbdbe648b	-0.09296521
251	0xbcfd7003	-0.0309372
252	0xbd0e6ce9	-0.034771834
253	0xbe1d2058	-0.1534437
254	0xbf3f5c15	-0.7474988
255	0x3d101160	0.03517282

weight_hh_l0 f4 [384, 128]
0	0xbff65397	-1.924426
1	0x3c4b4b51	0.012408094
2	0xbe7d1bee	-0.24717686
3	0xbd9d3909	-0.07676894
4	0xbc5ee209	-0.013603696
5	0xbe8f7982	-0.2802239
6	0xbc83d586	-0.016093027
7	0xbddb0393	-0.10694041
8	0xbe3774a2	-0.17915586
9	0x3d5aa328	0.053378254
10	0x3d841ae6	0.06450443
11	0xbd337b62	-0.04381884
12	0xbe936369	-0.2878678
13	0x3e0b2be0	0.13590956
14	0xbe5b91b9	-0.21442308
15	0xbe8b9365	-0.2726089
16	0x3c44f9d0	0.012022451
17	0xbd434b19	-0.04767904
18	0x3dd18c97	0.102318935
19	0x3e36b774	0.1784342
20	0xbcc35dd6	-0.023848455
21	0xbda77921	-0.081774004
22	0x3d47aa65	0.048746485
23	0x3e0bf417	0.13667332
24	0x3e0dfa5f	0.1386504
25	0x3de3cb2f	0.111227386
26	0xbbc1bca4	-0.0059123803
27	0xbd4766ae	-0.048681907
28	0x3dca3751	0.09873832
29	0x3dc5dc68	0.0966118
30	0xbe2fd7c9	-0.17172159
31	0x3e075ee1	0.13219787
32	0x3e57598c	0.21030253
33	0x3e4aeb25	0.19816263
34	0xbe2260fb	-0.15857308
35	0xbca5c901	-0.020237448
36	0xbe3d7dca	-0.18505016
37	0xbd0c3124	-0.03422655
38	0x3ca54433	0.020174121
39	0x3df0a08e	0.117493734
40	0x3e8591d7	0.2608783
41	0x3dd2706f	0.10275351
42	0xbdbaed7c	-0.09127328
43	0x3e319df1	0.17345406
44	0x3e8ec3e4	0.27883828
45	0xbd73ceeb	-0.059523504
46	0xbe319e74	-0.17345601
47	0xbe2e9f9b	-0.17053072
48	0x3c567cb1	0.013091252
49	0x3de4e610	0.111766934
50	0xbe1855b5	-0.14876445
51	0x3d843528	0.06455451
52	0xbc9ccfe6	-0.019142102
53	0xba9ba785	-0.0011875486
54	0xbe2e01e8	-0.16992915
55	0x3d4f2344	0.05057074
56	0xbe04abc6	-0.12956151
57	0x3e162791	0.14663531
58	0xbc472644	-0.012155119
59	0xbd75d2cc	-0.060015485
60	0xbce3abef	-0.027791945
61	0xbe5d233c	-0.21595472
62	0x3e369303	0.17829518
63	0x3ba4dc55	0.0050311484
64	0x3e8f1e62	0.27952868
65	0xbd6fe9f1	-0.058572713
66	0xbe62a3e1	-0.22132827
67	0xbe44de18	-0.19225347
68	0x3ddd70b4	0.10812512
69	0x3e068a9a	0.1313881
70	0x3e2c67c7	0.16836463
71	0x3d7335ee	0.059377603
72	0xbd2021e6	-0.039094828
73	0xbe111758	-0.14169061
74	0xbcaa5402	-0.020792011
75	0xbe28aaab	-0.16471355
76	0xbe8184aa	-0.25296527
77	0x3e69543d	0.2278604
78	0x3e584b4f	0.21122478
79	0x3e944536	0.28959054
80	0xbd28f3b0	-0.041248024
81	0x3d2f1457	0.042744007
82	0xbcf1e355	-0.029527346
83	0xbe3faaa5	-0.1871744
84	0x3e5de97f	0.21671103
85	0xbe82c27c	-0.25539005
86	0xbe942ef5	-0.28942075
87	0x3dbd3984	0.09239486
88	0xbe5e396a	-0.21701589
89	0xbe430ab2	-0.19047049
90	0xbc904f9b	-0.017616084
91	0xbde5c93f	-0.11220025
92	0xbdba3b79	-0.09093375
93	0xbdc82a8a	-0.09773739
94	0x3dcdc12f	0.100466125
95	0x3de25db4	0.11053029
96	0x3decd11d	0.11563323
97	0xbe4bf12c	-0.19916219
98	0x3d90b774	0.07066241
99	0xbc001637	-0.007817796
100	0x3e2211c7	0.15827094
101	0x3d37b24c	0.04484777
102	0xbe6c3635	-0.23067553
103	0x3ea5e307	0.3239977
104	0xbe848f73	-0.25890693
105	0x3d5a6a60	0.053324103
106	0x3ea15dd4	0.31516898
107	0xbe4fd520	-0.20296144
108	0xbd825ee6	-0.06365757
109	0x3e05a1bb	0.13049977
110	0xbd262ec8	-0.040571958
111	0xbc51d3d2	-0.01280685
112	0x3d635210	0.055498183
113	0x3dd36d07	0.1032353
114	0xbce01d5f	-0.027357755
115	0x3e8f53b0	0.27993536
116	0x3de12eb9	0.1099524
117	0xbd248b75	-0.04017206
118	0x3e81a3f3	0.25320396
119	0xbcdc04e0	-0.026857793
120	0xbea16aac	-0.31526697
121	0x3e1914dc	0.14949363
122	0x3a09af93	0.0005252298
123	0xbd6315b0	-0.055440605
124	0x3e111605	0.14168556
125	0xbda40b46	-0.08009963
126	0x3dab431c	0.083624095
127	0x3d9a8431	0.07544745
128	0x3d4e697c	0.050393566
129	0x3fd17d34	1.6366334
130	0xbe01eebc	-0.12688726
131	0x3b9f0bdb	0.004853708
132	0xbe22c513	-0.1589549
133	0xb993b6ff	-0.00028174368
134	0x3d907fd2	0.0705563
135	0xbe075f10	-0.13219857
136	0xbcfa8e54	-0.030585445
137	0xbe6b1275	-0.2295626
138	0x3d4570e6	0.04820337
139	0xbd08efb0	-0.03343171
140	0x3d8ef58a	0.069804266
141	0xbdaca860	-0.084305525
142	0xbd5c9910	-0.05385691
143	0x3ca13c64	0.019682117
144	0x3d8f2e5b	0.069912635
145	0xbe22c38a	-0.15894905
146	0x3dff0584	0.12452224
147	0xbd33c512	-0.043889113
148	0x3e1df9d0	0.15427327
149	0xbdb1f44d	-0.08689175
150	0x3eb0818b	0.34473833
151	0x3e341472	0.17585924
152	0xbcd6f41c	-0.026239447
153	0xbdade881	-0.08491612
154	0x3d9e1b65	0.07720069
155	0xbe09630b	-0.13416688
156	0x3da1cbcd	0.079002
157	0xbe1ac309	-0.15113463
158	0xbdb07a51	-0.0861708
159	0x3e1bf5c5	0.15230472
160	0x3da10fae	0.07864319
161	0x3d95e616	0.07319276
162	0xbc103055	-0.008800586
163	0x3b567b89	0.0032727441
164	0x3c969c77	0.018385155
165	0xbe58c210	-0.21167779
166	0x3e21ef87	0.15814029
167	0x3e32bc26	0.17454585
168	0xbd95dde4	-0.07317713
169	0xbdb76146	-0.089541
170	0xbda2a2cc	-0.07941207
171	0x3e466413	0.19374113
172	0x3d8d14f7	0.06888764
173	0x3e6a96d1	0.22909094
174	0xbdb0fbff	-0.086418144
175	0xbc3f0569	-0.011659005
176	0xbde185c2	-0.110118404
177	0xbd9a78d7	-0.075425796
178	0x3dbdfd1f	0.09276795
179	0xbd8cf3be	-0.06882428
180	0x3d697633	0.05699749
181	0x3e52c3da	0.20582524
182	0x3c29c2d7	0.010361395
183	0x3d73860a	0.059454
184	0xbe4b3dfc	-0.19847864
185	0x3c43f9fe	0.011961458
186	0x3e893160	0.26795483
187	0x3db549a6	0.08851938
188	0xbe3bd950	-0.18344617
189	0xbdbc111c	-0.09182951
190	0xbe38c817	-0.18045078
191	0xbdfc9a92	-0.123341694
192	0x3ddc82ec	0.10767159
193	0xbe690007	-0.22753917
194	0xbd8aac02	-0.06771089
195	0x3d814a98	0.06313056
196	0x3dc2006e	0.09472738
197	0xbc40b710	-0.0117623955
198	0xbc9cc767	-0.019138051
199	0xbe17b1f7	-0.14813982
200	0xbe265407	-0.16242991
201	0x3cb90709	0.022586362
202	0x3e4b8d46	0.1987811
203	0x3dc124c7	0.09430843
204	0x3ab2be91	0.0013637115
205	0xbd7af3e8	-0.061267763
206	0xbd8287e0	-0.06373572
207	0x3de25b0a	0.110525206
208	0xbe8381c4	-0.2568494
209	0xba07610a	-0.0005164301
210	0x3af6cd73	0.0018829539
211	0xbca4c3bb	-0.020112863
212	0x3e02822d	0.1274497
213	0xbc26bc96	-0.010176798
214	0x3db5ba8c	0.088734716
215	0x3d7628fd	0.060097683
216	0xbe57cb74	-0.21073705
217	0xbda7f055	-0.082001366
218	0x3e7e03d0	0.24806142
219	0x3db30d4c	0.087427706
220	0x3e28d419	0.16487159
221	0x3e2d3577	0.16914926
222	0x3d7fbdf6	0.06243702
223	0x3dd85334	0.10562745
224	0xbd81082c	-0.06300387
225	0xbb917877	-0.0044394094
226	0x3d5d0a2e	0.053964786
227	0xbe9e52de	-0.30922598
228	0xbd558f0b	-0.05213837
229	0x3ea70802	0.32623297
230	0xbe12451f	-0.1428418
231	0xbb4474b5	-0.002997679
232	0xbdb22675	-0.08698741
233	0xbcfcbd28	-0.030851915
234	0x3deb997f	0.115038864
235	0xbd2d962c	-0.042379543
236	0x3c61ce5f	0.013782113
237	0xbd964017	-0.07336443
238	0xbd99783b	-0.07493635
239	0x3de967a1	0.11396719
240	0xbceacf57	-0.02866332
241	0xbd4c6042	-0.049896486
242	0xbdc9b0ef	-0.098482005
243	0xbef186b4	-0.47173083
244	0x3d308951	0.043099705
245	0x3e19a75e	0.15005252
246	0xbd8a93c5	-0.06766466
247	0xbe481958	-0.19540918
248	0xbe9ad290	-0.3023877
249	0xbe3d7ace	-0.18503878
250	0x3d82db8a	0.0638953
251	0x3d3f0a96	0.046640955
252	0x3da20e2e	0.07912861
253	0x3e2fe1ea	0.17176023
254	0x3da76a00	0.08174515
255	0x3ac34673	0.0014898315

bias_ih_l0 f4 [384]
0	0xbd17c670	-0.03705448
1	0xbd1e0ef5	-0.038588483
2	0xbef2aef7	-0.47399113
3	0xbd47984e	-0.048729233
4	0x3d9a0d1f	0.07522034
5	0x3dd5e29b	0.10443612
6	0x3e1e1d28	0.1544081
7	0x3e426a38	0.18985832
8	0xbf0690a7	-0.5256447
9	0xbdc0a10f	-0.094057195
10	0xbd72888a	-0.059212245
11	0x3e7f84e8	0.24953043
12	0xbee9bf2c	-0.45653665
13	0x3daf0905	0.08546642
14	0xbe8d9cf4	-0.27658808
15	0xbdea3184	-0.114352256
16	0x3a1a8b3c	0.00058953813
17	0x3d12e712	0.035864897
18	0x3e4671a7	0.19379292
19	0xbe550d5c	-0.20805877
20	0x3d92a78d	0.07160864
21	0xba806dff	-0.0009798406
22	0xbe9590eb	-0.29212126
23	0xbec5c09d	-0.38623515
24	0x3daddff8	0.08489984
25	0xbe5bbee0	-0.21459532
26	0xbdc2d038	-0.09512371
27	0xbe906c06	-0.28207415
28	0x3d31511a	0.043290235
29	0xbd421727	-0.04738536
30	0xbd2a804c	-0.04162626
31	0xbfb3a05a	-1.403331
32	0xbe416f21	-0.18890049
33	0x3df9bb3a	0.12193914
34	0x3da5637f	0.08075618
35	0xbc9f6897	-0.019459052
36	0xbeba9978	-0.36445212
37	0xbd0dcd11	-0.034619395
38	0x3e185d0c	0.14879245
39	0xbd4dfe8d	-0.050291587
40	0xbe31b276	-0.17353234
41	0xbe87aa7c	-0.26497257
42	0x3cda9701	0.026683332
43	0x3cde8366	0.027162265
44	0xbe505d36	-0.20348057
45	0x3dea09e6	0.11427669
46	0xbcc6523e	-0.024209138
47	0xbd28ff50	-0.04125911
48	0xbedceb32	-0.4314819
49	0x3991d0db	0.00027812165
50	0xbe136dc8	-0.14397347
51	0x3dc2f350	0.095190644
52	0x3bae92f1	0.0053275754
53	0xbdbd928f	-0.092564695
54	0x3dacfb62	0.08446385
55	0x3d66151f	0.056172486
56	0xbb6bab3c	-0.0035960218
57	0xbd99cb6c	-0.07509503
58	0xbbd9db04	-0.006648423
59	0xbe596775	-0.21230872
60	0x3d2bd108	0.041947395
61	0xbe277eab	-0.16356914
62	0xbedbed8f	-0.4295468
63	0x3e3815bc	0.17977041
64	0xbc759b1b	-0.014990593
65	0xbf76c0e5	-0.96388084
66	0x3d65551c	0.05598937
67	0x3e1dca04	0.15409094
68	0xbc99016e	-0.01867744
69	0xbe08c65b	-0.13356917
70	0xbef09848	-0.4699118
71	0x3d865c25	0.06560544
72	0xbe274781	-0.1633587
73	0x3b055160	0.0020342693
74	0x3d9ddff6	0.07708733
75	0xbf154b2a	-0.58317816
76	0xbd185c06	-0.037197135
77	0xbf0a9096	-0.5412687
78	0xbe37bd03	-0.17943196
79	0xbd02dead	-0.03195064
80	0xbfae8ffc	-1.363769
81	0xbd848169	-0.064699955
82	0x3d1e3ef9	0.038634274
83	0x3c27a7a5	0.010232841
84	0xbc47e160	-0.01219973
85	0x3d65fb5e	0.056147926
86	0x3d550941	0.05201078
87	0x3d99ce6f	0.07510077
88	0xbe772d47	-0.24138366
89	0xbecff53f	-0.40616795
90	0x3e048201	0.12940218
91	0xbcc656dd	-0.024211342
92	0xbe2bcdfe	-0.16777799
93	0xbbfdd353	-0.007746139
94	0x3d2c98d6	0.042137943
95	0xbc320ea6	-0.01086775
96	0xbee3941c	-0.44448936
97	0xbeaae9cc	-0.33381498
98	0xbe1742a1	-0.1477151
99	0xbdbed458	-0.09317845
100	0xbe73f4bd	-0.23823829
101	0xbec64875	-0.38727155
102	0x3c523b7c	0.012831565
103	0x3d5fbf93	0.05462606
104	0xbe47bd5a	-0.19505826
105	0x3db457db	0.088058196
106	0x3bf33242	0.0074217627
107	0xbe103897	-0.14084087
108	0x3d5dc42d	0.054142166
109	0x3db14166	0.08655052
110	0xbd289dd8	-0.041166157
111	0xbe38695b	-0.1800894
112	0xbcc07c4c	-0.02349677
113	0xbea3aa88	-0.31966043
114	0x3d1a46fa	0.037665345
115	0x3e13c6df	0.14431332
116	0x3db2d8e6	0.08732776
117	0x3e42468e	0.18972227
118	0x3d41a782	0.04727889
119	0xbe8dd61e	-0.2770242
120	0x3c1d62f0	0.009606108
121	0xbe42d464	-0.19026333
122	0xbf522edc	-0.8210275
123	0x3e11d540	0.14241505
124	0x3b8e3acd	0.0043405057
125	0x3d9c9d01	0.076471336
126	0xbd263523	-0.04057802
127	0xbe06f2d6	-0.13178572
128	0x3ec71bc2	0.38888365
129	0x3ec7ea11	0.39045766
130	0xbeec59e3	-0.46162328
131	0x3ead06a5	0.33794132
132	0x3f9325e1	1.1495935
133	0x3ed6524a	0.41859657
134	0x3ebf1741	0.3732243
135	0x3f090582	0.5352403
136	0xbf0b79ab	-0.54482526
137	0x3eb502a3	0.35353574
138	0x3ea35569	0.319011
139	0x3fbe17a3	1.4850963
140	0x3f013e22	0.5048543
141	0x3f014f7a	0.50511897
142	0xbef62cdb	-0.48081097
143	0x3da573ab	0.080787025
144	0x3e26470c	0.1623804
145	0x3e8b11d2	0.27162033
146	0x3f335b2d	0.70061
147	0x3e231980	0.15927696
148	0x3f2cc47f	0.6748733
149	0x3e8802de	0.26564687
150	0x3e982bde	0.29720968
151	0x3e4fe3f1	0.20301796
152	0x3f441fe3	0.76611155
153	0xbeb23e0a	-0.34812957
154	0x3e81aff8	0.25329566
155	0x3cf8f2cb	0.03038921
156	0x3ee3eddd	0.44517413
157	0x3f0b410a	0.54396117
158	0x3f5d1e73	0.86374587
159	0xbf1b4a40	-0.6066017
160	0xbe911206	-0.28334063
161	0x3fa14eed	1.2602211
162	0x3fbc4b9f	1.4710578
163	0x3fa5a3de	1.2940633
164	0x3ea456b4	0.320974
165	0x3ed73465	0.4203216
166	0x3f9c37aa	1.2204487
167	0x3ee594ac	0.4483999
168	0xbca70076	-0.020385962
169	0x3b4b1729	0.0030989146
170	0x3fafd883	1.3737949
171	0x3f258433	0.64654845
172	0x3e20d025	0.15704401
173	0x3e6edcb3	0.23326378
174	0x3f0c3c6b	0.5477969
175	0x3e3c69b4	0.18399698
176	0x3ef0bb54	0.4701792
177	0xbd81e20f	-0.063419454
178	0x3edc027d	0.42970648
179	0x3f77c59e	0.96785915
180	0x3ed9c087	0.425297
181	0x3edd7770	0.43255186
182	0x3ea9cb8a	0.331631
183	0x3f8d1c8a	1.1024334
184	0x3f27bf8b	0.65526646
185	0xbd510866	-0.0510334
186	0x3eff6b99	0.49886778
187	0x3f24b3cc	0.6433685
188	0x3f1b976a	0.60777915
189	0x3facfb07	1.3514107
190	0x3e245a5a	0.16050091
191	0x3f9ced65	1.2259947
192	0x3e090577	0.13380991
193	0x3d3c8ca4	0.046032563
194	0x3f5672eb	0.837691
195	0x3f453910	0.77040195
196	0x3f2e5987	0.6810536
197	0x3eae4150	0.34034204
198	0xbf6f17aa	-0.93395483
199	0x3f1c43bb	0.6104085
200	0x3eba6e68	0.36412358
201	0x3ed1a64a	0.4094718
202	0x3f3a08aa	0.7266947
203	0x3e64e692	0.2235358
204	0x3e9f9ac7	0.31172773
205	0xbf050a2c	-0.51968646
206	0x3e8a5cd2	0.2702394
207	0x3e7d5c84	0.24742323
208	0xbf337e6f	-0.701148
209	0x3ee820d9	0.4533756
210	0x3eb470aa	0.35242206
211	0x3f45bc27	0.7724022
212	0x3ef2cecd	0.474234
213	0x3f2e7c6f	0.6815862
214	0x3f738a6a	0.9513308
215	0x3f63209d	0.8872164
216	0xbd36794e	-0.04454928
217	0xbe8f4a49	-0.27986363
218	0x3f89e4a6	1.0772903
219	0x3ed7f9ee	0.4218287
220	0xbc2a34a2	-0.010388525
221	0x3e0f76bb	0.14010136
222	0x3f51ed4d	0.8200272
223	0x3f07ba32	0.53018486
224	0xbe1e2526	-0.15443859
225	0x3e5c2622	0.21498922
226	0x3e45cd4e	0.19316599
227	0x3f07bcbc	0.5302236
228	0xbcbc1842	-0.022960786
229	0x3e968349	0.29397038
230	0x3ef3eda7	0.47642252
231	0x3ecf58d7	0.40497467
232	0xbef8de8b	-0.48607287
233	0x3eef1b13	0.46700343
234	0x3f0271ea	0.5095507
235	0xbe3ee83b	-0.18643276
236	0x3eec87e9	0.4619744
237	0x3f21feb9	0.632793
238	0x3eb39e6a	0.35081798
239	0x3e7f09cd	0.24906082
240	0x3e94b9c5	0.2904798
241	0x3d47be59	0.048765514
242	0x3ef99c53	0.48752078
243	0x3fd97b49	1.6990749
244	0x3f86d24f	1.0532931
245	0x3e1e4f94	0.15460044
246	0xbe86bed4	-0.26317465
247	0x3eddd833	0.4332901
248	0x3f0ff5b0	0.56234264
249	0x3e4acae1	0.19803955
250	0x3edb4b1d	0.42830744
251	0x3f128b8a	0.5724417
252	0x3e90164f	0.2814202
253	0x3fbbf4f5	1.468413
254	0x3f7f8187	0.9980702
255	0xbe8ca7d1	-0.27471784

bias_hh_l0 f4 [384]
0	0xbd83116f	-0.063998096
1	0x3c98578d	0.018596435
2	0xbede37cd	-0.43401948
3	0xbca5587d	-0.020183796
4	0xbd142941	-0.036172155
5	0x3d03f66a	0.03221742
6	0x3db1b2fb	0.08676716
7	0x3c8e2732	0.017352674
8	0xbf02589f	-0.50916475
9	0xbd2e586b	-0.04256479
10	0x3dae49c5	0.08510164
11	0x3eac0300	0.3359604
12	0xbeb9e635	-0.36308447
13	0xbc60be31	-0.01371722
14	0xbe8e79d4	-0.27827322
15	0xbd8455a9	-0.06461651
16	0xbb8e5f62	-0.0043448666
17	0xbbfd9972	-0.0077392394
18	0x3e356b2e	0.17716667
19	0xbe0c745e	-0.13716266
20	0x3dd66357	0.10468166
21	0x3cd11fa2	0.025527779
22	0xbe8d91dc	-0.27650344
23	0xbe8110e0	-0.25208187
24	0x3dde4c09	0.10854346
25	0xbe4f6536	-0.20253453
26	0xbd28852b	-0.041142624
27	0xbe1be442	-0.15223792
28	0xbd14761e	-0.036245458
29	0xbd3345a4	-0.043767586
30	0xbc917f63	-0.017760938
31	0xbfb4447c	-1.40834
32	0xbe4c4e8b	-0.19951837
33	0x3dc35c51	0.09539092
34	0xbd8d085b	-0.06886359
35	0xbe0661dc	-0.13123268
36	0xbe743805	-0.23849495
37	0x3d5e2e11	0.05424315
38	0x3d5070b4	0.050888732
39	0xbdc780e6	-0.09741382
40	0xbe42fc60	-0.19041586
41	0xbebb17ea	-0.36541682
42	0x3c51b078	0.012798421
43	0xbd771ef9	-0.060332272
44	0xbd972afa	-0.07381244
45	0x3b6ffb52	0.0036618304
46	0xbb1fb4ef	-0.002436932
47	0x3d060ae1	0.03272522
48	0xbee226ec	-0.4417032
49	0x3dac7eeb	0.08422645
50	0xbd086fcf	-0.033309754
51	0x3e3e5c4d	0.18589897
52	0xbcfa40f4	-0.03054855
53	0xbe165ef4	-0.14684659
54	0xbc475e06	-0.012168413
55	0x3e182aac	0.14860028
56	0x3d32cad7	0.043650474
57	0xbe18f9a6	-0.14938983
58	0x3db36a69	0.087605305
59	0xbe17cb94	-0.14823753
60	0xbdb89389	-0.09012515
61	0xbdae042f	-0.08496892
62	0xbef8aa8e	-0.48567623
63	0x3e120bd7	0.14262329
64	0xbdfb7ebf	-0.12280034
65	0xbf7d2f8e	-0.9890069
66	0x3d56b5a3	0.052419316
67	0x3d33672c	0.043799564
68	0x3dc348ef	0.09535395
69	0xbe5d3a93	-0.21604376
70	0xbed849a0	-0.4224367
71	0xbc2b63d5	-0.0104608135
72	0xbe1e7011	-0.15472437
73	0xbd202b9c	-0.03910409
74	0x3e7d2f39	0.24725045
75	0xbf275edc	-0.6537912
76	0x3c9fe0c5	0.019516358
77	0xbf0528ec	-0.52015567
78	0xbe0bc4e7	-0.13649331
79	0xbd465e0a	-0.048429526
80	0xbfba0275	-1.4532
81	0xbd3c7251	-0.046007458
82	0xbdf96acd	-0.12178574
83	0x3d3b0cae	0.04566639
84	0xbdd567f1	-0.10420216
85	0xbda8df0c	-0.08245668
86	0x3e303da8	0.1721102
87	0x3d1407e9	0.036140356
88	0xbe6289e5	-0.22122915
89	0xbeb3f165	-0.35145107
90	0x3c9bb914	0.01900915
91	0xbdd2b422	-0.10288264
92	0xbe62b069	-0.22137608
93	0xbd38e553	-0.045140576
94	0x3ca637c8	0.02029027
95	0x3d242c42	0.04008127
96	0xbed5a53e	-0.41727632
97	0xbe7abfbb	-0.24487202
98	0xbc0ff0c5	-0.008785431
99	0x3d0c7130	0.03428763
100	0xbe19a72f	-0.15005182
101	0xbe963596	-0.29337758
102	0x3d12a9bd	0.035806406
103	0xbdb98429	-0.09058411
104	0xbdf1937c	-0.117957085
105	0x3dafe454	0.08588472
106	0x3ddce86a	0.10786517
107	0xbdebb0cd	-0.115083314
108	0x3d8e8bf0	0.06960285
109	0x3b4d5859	0.0031333177
110	0xbd71f9dd	-0.05907618
111	0xbdf540fa	-0.11975284
112	0x3cceed29	0.025259571
113	0xbe50d0ea	-0.20392194
114	0x3ddb36f7	0.10703843
115	0x3e4b2d9f	0.19841622
116	0x3dc0ea19	0.094196506
117	0x3e4833cc	0.19551009
118	0xbca1dbd8	-0.01975815
119	0xbe4beaf9	-0.19913854
120	0x3da66fff	0.0812683
121	0xbd91fe41	-0.07128573
122	0xbf5d80d6	-0.86524713
123	0x3dc7c702	0.097547546
124	0xbdb29bec	-0.08721146
125	0x3e4ab5fb	0.19795983
126	0x3de1e818	0.110305965
127	0xbdd82f28	-0.10555869
128	0x3ef3b45b	0.47598538
129	0x3ebd7338	0.37001967
130	0xbf0dd195	-0.5539792
131	0x3ea9a129	0.33130768
132	0x3f93a60e	1.1535051
133	0x3ed01346	0.40639704
134	0x3ed816e5	0.42204967
135	0x3edb8d35	0.4288117
136	0xbefc6917	-0.49298927
137	0x3ed3bc3b	0.41354546
138	0x3ea1ca6c	0.31599748
139	0x3fbfca0c	1.4983535
140	0x3ed7d1cc	0.4215225
141	0x3f01f914	0.5077069
142	0xbefc5689	-0.4928477
143	0x3bd52dd2	0.0065057063
144	0x3ce53d2c	0.02798327
145	0x3e4255dc	0.18978065
146	0x3f37729e	0.71659267
147	0x3e2d0794	0.16897422
148	0x3f18bdd6	0.59664667
149	0x3ea41c85	0.3205301
150	0x3e823516	0.25431126
151	0x3e480f46	0.19537076
152	0x3f40fddf	0.75387377
153	0xbea6c712	-0.32573754
154	0x3e7d5059	0.24737681
155	0xbd8c17cf	-0.06840479
156	0x3eec04bf	0.4609737
157	0x3f169fc7	0.5883755
158	0x3f5c506d	0.8606022
159	0xbf0abae5	-0.5419143
160	0xbedb30c8	-0.42810655
161	0x3fa12d9b	1.2592043
162	0x3fa9246f	1.3214244
163	0x3fa93dfa	1.3222039
164	0x3eaec1b4	0.3413216
165	0x3eca38cd	0.3949646
166	0x3f9be8dd	1.2180439
167	0x3eb30cb8	0.3497064
168	0x3d751f12	0.059844084
169	0x3de56712	0.112013
170	0x3fba39f7	1.454894
171	0x3f188274	0.59574056
172	0x3a9eadff	0.0012106298
173	0x3ea75b35	0.32686773
174	0x3f1c5677	0.61069435
175	0x3e41766f	0.18892835
176	0x3f0149a7	0.5050301
177	0xbe206ae4	-0.15665776
178	0x3e9b61c4	0.30348027
179	0x3f7a5ffe	0.9780272
180	0x3ef80ebe	0.48448747
181	0x3ed5b8c3	0.41742525
182	0x3edfe517	0.4372947
183	0x3f8bd1fa	1.0923455
184	0x3f14c98f	0.58120054
185	0xbc7c297c	-0.01539075
186	0x3f0656ee	0.52476394
187	0x3f2325a3	0.63729304
188	0x3f298595	0.66219455
189	0x3fa87d43	1.3163227
190	0x3e6a8b9e	0.22904822
191	0x3f88ac57	1.0677594
192	0x3e37834a	0.17921177
193	0xbd9ffa28	-0.078113854
194	0x3f4658e9	0.77479416
195	0x3f3b6c2c	0.7321193
196	0x3f222d45	0.63350326
197	0x3ea2b9d5	0.31782404
198	0xbf6b66e3	-0.9195387
199	0x3f1841bd	0.5947531
200	0x3ed3210f	0.4123616
201	0x3eb4d41a	0.3531807
202	0x3f3a7e05	0.7284854
203	0x3e8a67ea	0.27032405
204	0x3e98aa7a	0.29817563
205	0xbefad62a	-0.4899152
206	0x3e4a8853	0.19778566
207	0x3e76a0cc	0.24084777
208	0xbf331ee7	-0.6996903
209	0x3ef849da	0.48493844
210	0x3e807140	0.25086403
211	0x3f31a553	0.6939289
212	0x3f021e8e	0.5082787
213	0x3f0ae10a	0.5424963
214	0x3f83d237	1.0298527
215	0x3f6bb7fb	0.92077607
216	0x3d52c0de	0.051453464
217	0xbe47b34b	-0.19501989
218	0x3f984d01	1.18985
219	0x3ea36c31	0.3191848
220	0xbbe32b76	-0.006932671
221	0x3dd55492	0.10416521
222	0x3f63621c	0.8882158
223	0x3efc0b4c	0.4922737
224	0xbdaba180	-0.08380413
225	0x3dcd1073	0.10012903
226	0x3e9ad89a	0.3024338
227	0x3ed5d18a	0.41761428
228	0xbc083abe	-0.0083147865
229	0x3eaf11bd	0.3419322
230	0x3ed600a5	0.41797367
231	0x3e905928	0.2819302
232	0xbeac4d90	-0.33652925
233	0x3ec61d91	0.38694432
234	0x3f086579	0.53279835
235	0xbd25a9a3	-0.04044498
236	0x3ef0bbd7	0.4701831
237	0x3f03152b	0.51204175
238	0x3efdfe99	0.49608305
239	0x3e8d319d	0.27576914
240	0x3ed4b264	0.4154235
241	0x3d8cff4d	0.06884632
242	0x3eec5278	0.4615667
243	0x3fd7843f	1.6837233
244	0x3f8b584a	1.0886319
245	0x3de532bf	0.1119132
246	0xbeab9407	-0.33511373
247	0x3eed476c	0.46343553
248	0x3f0569af	0.52114385
249	0x3e774281	0.24146463
250	0x3ec91e44	0.39280903
251	0x3ee92d62	0.45542437
252	0x3ed12e4e	0.4085564
253	0x3fbe6185	1.4873511
254	0x3f75e4e6	0.96052396
255	0xbecca855	-0.39972177

weight_ih_l1 f4 [384, 128]
0	0xbd6274cf	-0.05528718
1	0xbe20f22c	-0.15717381
2	0x3e285d6b	0.16441886
3	0x3ce8e9bf	0.028431771
4	0x3e2c9437	0.16853414
5	0xbd02951e	-0.03188049
6	0xbda857a5	-0.08219842
7	0x3da0fe03	0.07860949
8	0x3deed4b5	0.116616644
9	0x3d7ba01e	0.061431997
10	0xbe0ea6db	-0.13930838
11	0x3c9dfedb	0.019286564
12	0x3e04eeef	0.12981771
13	0x3cfa1015	0.030525247
14	0xba1804b8	-0.0005799043
15	0x3cbe825f	0.023255525
16	0xbd1de9ae	-0.038552932
17	0xbdff30d1	-0.12460483
18	0xbc7faeb9	-0.015605622
19	0xbd867278	-0.06564802
20	0x3e623648	0.22091019
21	0x3d545616	0.05183991
22	0x3e652bfb	0.22380058
23	0x3bb05fdf	0.0053825225
24	0x3db0e11e	0.08636688
25	0xbdc79a16	-0.097461864
26	0x3e35366b	0.1769654
27	0x3e858f2f	0.26085803
28	0x3e1d305f	0.15350483
29	0xbcae0df9	-0.021246897
30	0xbb5d81cc	-0.0033799289
31	0xbd207c52	-0.03918106
32	0xbe41c23a	-0.18921748
33	0xbdcd59a0	-0.1002686
34	0xb7dd5741	-2.6385884e-05
35	0xbd2bbefc	-0.041930184
36	0x3c40b8c2	0.0117628
37	0x3d22150d	0.039570857
38	0x3d371998	0.044702142
39	0xbd1675f4	-0.036733583
40	0x3d8e5c27	0.069511704
41	0x3e36d48f	0.17854522
42	0x3cf999dd	0.030468876
43	0xbd9e3c3d	-0.07726333
44	0xbdca6a46	-0.09883551
45	0x3d08026a	0.033205427
46	0x3dd56b5c	0.10420868
47	0x3d690c4f	0.056896504
48	0xba8f0a81	-0.0010913165
49	0xbe0741f9	-0.1320876
50	0x3d89a394	0.06720653
51	0x3d475628	0.04866615
52	0xbd215016	-0.039383017
53	0x3e49ff04	0.19726187
54	0x3d638644	0.055547968
55	0xbdf9e8fa	-0.1220264
56	0xbde39f7d	-0.11114404
57	0xbe285154	-0.16437274
58	0x3d29647f	0.041355606
59	0x3e3cf36c	0.18452233
60	0xbd8ae179	-0.06781287
61	0xbda096c1	-0.07841254
62	0xbde9bab6	-0.114125654
63	0xbe0082b6	-0.12549862
64	0xbbbac9d8	-0.005700331
65	0x3cc8ea69	0.024525838
66	0x3e10b426	0.14131221
67	0x3dd7bb4f	0.10533773
68	0xbe0b000c	-0.13574237
69	0x3e3ff2dc	0.18744987
70	0xbdceb9f2	-0.1009406
71	0xbdbd4ca9	-0.092431374
72	0xbe5c9815	-0.2154239
73	0x3d96faf5	0.07372085
74	0x3bd9c6a5	0.0066459947
75	0xb8f6d78c	-0.00011770343
76	0x3db3848d	0.087655164
77	0xbe2e52fe	-0.17023847
78	0x3d2094f6	0.03920456
79	0xbe187110	-0.1488688
80	0x3df08cc3	0.11745598
81	0xbd96b913	-0.07359519
82	0xbd16cc1a	-0.03681574
83	0x3b4bb682	0.0031084125
84	0xbe3e3ce3	-0.18577914
85	0x3c721336	0.014775088
86	0xbd5f249f	-0.054478284
87	0x3d5727ec	0.052528307
88	0x3e657bf6	0.22410569
89	0x3d8e5d5d	0.069514014
90	0xbc865bcc	-0.016401194
91	0x3db6b3a3	0.08920982
92	0x3d8d4b64	0.06899145
93	0xbe28d6e2	-0.16488221
94	0xbdc4e9b9	-0.096148916
95	0xbd63c1b2	-0.055604644
96	0xbe740aab	-0.23832195
97	0x3e13ae63	0.14421992
98	0xbe3bf7ea	-0.1835629
99	0x3cbdf595	0.023188392
100	0xbe2b243b	-0.1671304
101	0x3e255344	0.16145045
102	0x3d30b838	0.043144435
103	0xbcda3e6b	-0.026641091
104	0x3daa7880	0.08323765
105	0x3e7e44cc	0.24830931
106	0xbd233ef9	-0.039854977
107	0x3c1c7a14	0.00955059
108	0xbd401f97	-0.046905126
109	0x3e30eda1	0.17278148
110	0xbde6e11b	-0.11273404
111	0xbd4aa194	-0.0494705
112	0x3e012807	0.12612925
113	0xbcdb799f	-0.026791392
114	0xbdeda176	-0.11603062
115	0xbd448abb	-0.047983866
116	0x3d5b90e4	0.053604975
117	0x3e9ee955	0.31037393
118	0xbe02e9cf	-0.12784503
119	0x3d1941c0	0.03741622
120	0xbe513a01	-0.20432283
121	0xbce511ce	-0.027962591
122	0xbcbcb7e9	-0.023036914
123	0xbd9a947d	-0.07547853
124	0xbdd811f6	-0.10550301
125	0x3db28414	0.08716598
126	0x3d810802	0.063003555
127	0xbe0a6dea	-0.13518491
128	0x3c823da3	0.015898531
129	0x3d450b22	0.04810632
130	0x3c1915af	0.009343549
131	0xbd52fee6	-0.05151262
132	0xbdc00fd6	-0.093780205
133	0x3d76c0ac	0.06024234
134	0xbddeb1b4	-0.10873738
135	0x3e2ebe86	0.17064866
136	0xbba8b786	-0.005148831
137	0x3a921fe0	0.0011148416
138	0x3df7faed	0.12108407
139	0x3ca215c5	0.019785771
140	0x3e49cc3d	0.19706817
141	0xbd2bc369	-0.041934405
142	0x3dc5b1b6	0.09653036
143	0x3dd3d743	0.10343792
144	0x3cd2c1d7	0.025727196
145	0xbe3e1a02	-0.18564609
146	0x3d94f484	0.072732
147	0x3ca88723	0.02057225
148	0x3d434d6c	0.047681257
149	0x3d0d77de	0.034538142
150	0x3d020ab1	0.031748477
151	0x3e229e8a	0.1588079
152	0xbc1e59a9	-0.009664931
153	0xbde9dc19	-0.114189334
154	0xbdf01324	-0.11722401
155	0x3e7806a7	0.24221288
156	0x3c568da1	0.01309529
157	0x3d8645ee	0.06556307
158	0xbd9a3bf2	-0.07530965
159	0x3cb758f2	0.02238128
160	0xbe46e8ff	-0.19424818
161	0x3cb3c002	0.021942142
162	0x3ddc2cdc	0.10750744
163	0xbd6e68f8	-0.058205575
164	0x3c65f921	0.014036448
165	0xbdb959a3	-0.090503
166	0x3d92be53	0.07165208
167	0xbe0bba88	-0.13645375
168	0xbd559ea5	-0.05215325
169	0xbdb82b31	-0.08992613
170	0xbe00183d	-0.12509246
171	0xbe0cd356	-0.13752493
172	0xbdd030f9	-0.10165591
173	0x3e4476ee	0.19185993
174	0x3d80bc67	0.06285935
175	0x3d8934db	0.066995345
176	0xbe748d35	-0.23881991
177	0xbdf715b2	-0.12064685
178	0xbd99e9c7	-0.075152926
179	0x3e0f5d65	0.14000471
180	0xbe2a19c4	-0.16611391
181	0xbc9c8e63	-0.019110864
182	0xbda0739f	-0.07834553
183	0x3e0074d2	0.12544563
184	0xbd94986c	-0.07255635
185	0xbdb68b8a	-0.08913334
186	0xbc67fdf7	-0.014159671
187	0x3d7e105c	0.06202732
188	0xbdc72cac	-0.09725317
189	0xbd17c47f	-0.037052628
190	0xbd39674b	-0.045264523
191	0xbdf7a0bc	-0.120912045
192	0xbd70ea00	-0.05881691
193	0x3d4ce04e	0.0500186
194	0x3d8ab16f	0.06772124
195	0x3d7821f3	0.06057925
196	0xbd69e826	-0.05710616
197	0xbe2a35d8	-0.16622102
198	0xbd49ca01	-0.04926491
199	0xbce614e4	-0.028086133
200	0x3d81ba05	0.063343085
201	0xbd748911	-0.05970103
202	0x3e2b771b	0.16744654
203	0x3e64eb99	0.22355498
204	0x3dc356f6	0.09538071
205	0xbda84920	-0.082170725
206	0xbe7db228	-0.24774992
207	0xbd80d8cf	-0.06291353
208	0x3e3fbd4c	0.18724555
209	0x3d1c9a94	0.038233355
210	0x3ce714d1	0.028208168
211	0x3d8532b9	0.06503815
212	0xbdeb2c00	-0.11483002
213	0x3d0d9f99	0.034576032
214	0xbd3ea2dd	-0.046542037
215	0x3e4bb62f	0.19893716
216	0x3d416dba	0.047223784
217	0xbc9f8256	-0.019471329
218	0xbd9010e7	-0.07034474
219	0x3dae4587	0.08509355
220	0x3e72b96a	0.23703542
221	0x3e64c8b5	0.22342189
222	0xbd00022d	-0.031252075
223	0xbd2a5b4e	-0.04159098
224	0xbdde3a3f	-0.10850953
225	0xbc24ba82	-0.010054233
226	0xbe2de72e	-0.1698272
227	0x3df15801	0.117843635
228	0xbd825c4c	-0.063652605
229	0x3dfb7e6a	0.12279971
230	0x3d7778ac	0.060417816
231	0xbd91467d	-0.07093523
232	0x3e262635	0.16225512
233	0x3d2336f7	0.03984734
234	0x3e2026ee	0.1563985
235	0xbc35d2fd	-0.011097667
236	0x3d8caa69	0.06868441
237	0x3d5fd788	0.054648906
238	0x3c3cb05f	0.0115166595
239	0xbda6e28a	-0.08148678
240	0xbd1e0c46	-0.038585924
241	0xbba6a47e	-0.005085527
242	0xbd0803e6	-0.033206843
243	0x3e15cbe0	0.14628553
244	0x3d252316	0.040316664
245	0xbd220976	-0.039559804
246	0x3cb1484b	0.021640917
247	0x3d5ac1c5	0.05340745
248	0xbd66b39d	-0.056323636
249	0x3d60f740	0.054923296
250	0xbd020238	-0.031740397
251	0xbe82bc7d	-0.2553443
252	0xbe04df11	-0.12975718
253	0x3ddd0374	0.10791674
254	0x3dbf9c23	0.093559526
255	0xbda92cd4	-0.082605034

weight_hh_l1 f4 [384, 128]
0	0xbd8ee885	-0.06977943
1	0x3e913084	0.28357327
2	0xbd2df042	-0.042465456
3	0xbe0e8d1e	-0.1392102
4	0x3c57b2ed	0.013165218
5	0x3e36952b	0.1783034
6	0x3da1e548	0.0790506
7	0xbdeaca82	-0.114644065
8	0x3c81fed5	0.015868584
9	0xbdc912cb	-0.098180376
10	0x3b80c3a1	0.003929571
11	0xbca90f31	-0.020637127
12	0xbdfd2252	-0.12360062
13	0x3aad1e56	0.0013207893
14	0x3d8e5a74	0.06950846
15	0x3d578eb8	0.05262634
16	0xbc14c22c	-0.009079497
17	0xbdb6db24	-0.089285165
18	0x3e77ac4c	0.2418682
19	0xbb0e7c23	-0.0021741472
20	0x3bee677f	0.0072755213
21	0xbe85c9ef	-0.26130626
22	0x3e204285	0.15650375
23	0xbbf74234	-0.007545734
24	0xbe62b9a4	-0.22141129
25	0x3e61635d	0.2201056
26	0x3e3f2be4	0.18669087
27	0xbe8d2dc2	-0.27573973
28	0xbe256c89	-0.16154684
29	0xbcb4c11c	-0.022064738
30	0xbd440042	-0.04785181
31	0x3d434ca6	0.04768052
32	0xbe050fe7	-0.12994348
33	0x3d7509d8	0.05982384
34	0xbe5f547b	-0.2180957
35	0xbde52009	-0.11187751
36	0x3d0710fe	0.03297519
37	0xbe3e1bc3	-0.18565278
38	0xbe8a3e5e	-0.27000707
39	0xbd93bb67	-0.072134785
40	0xbd8d0377	-0.068854265
41	0x3e7c1d72	0.24620607
42	0x3c50beb7	0.012740782
43	0xbd58f000	-0.052963257
44	0xbe1fcd2a	-0.15605608
45	0x3e58437f	0.21119498
46	0xbd8fd597	-0.07023161
47	0x3e35ba33	0.1774681
48	0x3e5f6fc4	0.21819979
49	0xbd159b2e	-0.036524944
50	0xbc2fa1e2	-0.010719748
51	0x3e91a3a5	0.28445163
52	0x3deddedf	0.11614775
53	0xbc2ecc34	-0.010668803
54	0xbcbe504a	-0.023231644
55	0x3dbebe8e	0.09313689
56	0x3cd7e852	0.026355896
57	0x3e643375	0.22285254
58	0x3de77c3c	0.11302993
59	0x3e06379a	0.13107148
60	0x3d3722b8	0.044710845
61	0x3c884106	0.016632568
62	0x3cf0d201	0.029397013
63	0xbd50cbb5	-0.05097552
64	0x3e8c99ba	0.27461034
65	0x3e1ead10	0.15495706
66	0x3dd9bd96	0.10631864
67	0x3b459452	0.003014822
68	0xbc333de4	-0.010940049
69	0xbe1938d4	-0.14963084
70	0xbcf13a15	-0.029446641
71	0x3d9e8ce0	0.077417135
72	0xbce37c4e	-0.027769234
73	0x3d94e37c	0.07269952
74	0xbc90d9f0	-0.017682046
75	0xbd96f9a4	-0.07371834
76	0x3e8e24c0	0.27762413
77	0x3e008be8	0.1255337
78	0xbe705c80	-0.23472786
79	0x3e57cf93	0.21075277
80	0xbe3b186c	-0.18271035
81	0x3db949b8	0.09047264
82	0x3e50ce0c	0.203911
83	0xbe299749	-0.16561617
84	0x3d28229e	0.04104864
85	0x3e89c3ee	0.26907295
86	0xbe8d4a0a	-0.2759555
87	0x3ebcbf23	0.36864576
88	0x3d28e11c	0.041230306
89	0x3d155679	0.03645942
90	0xbd919900	-0.071092606
91	0xbe8d787c	-0.27630985
92	0xbea580b0	-0.32324743
93	0xbdae9a32	-0.08525504
94	0xbdb775b0	-0.08957994
95	0xbdff6df1	-0.124721415
96	0x3d007771	0.03136391
97	0xbe4bba3f	-0.19895266
98	0xbe003706	-0.1252099
99	0xbd274921	-0.040841226
100	0x3e35f99b	0.17770998
101	0x3dc39a3c	0.09550902
102	0xbeb4759e	-0.35245985
103	0xbe5c3dfa	-0.21508017
104	0x3a2747db	0.0006381252
105	0xbcceed4a	-0.025259633
106	0xbe0e90d7	-0.1392244
107	0xbe0b5180	-0.13605309
108	0x3f1a8660	0.6036129
109	0xbd575b0f	-0.052577075
110	0xbd5e441b	-0.05426417
111	0xbdc9e6ac	-0.0985845
112	0xbbb7cd7a	-0.0056092115
113	0xbe9e7b28	-0.30953336
114	0x3d9c6da3	0.07638099
115	0x3da338c9	0.07969815
116	0x3c8d9c8e	0.017286565
117	0xbe356abc	-0.17716497
118	0xbe6f9ced	-0.23399706
119	0x3cc23ef5	0.02371166
120	0x3d1cde58	0.03829798
121	0x3db84752	0.08997978
122	0xbe42baac	-0.19016522
123	0x3d16434c	0.036685273
124	0xbb4e8092	-0.003150974
125	0xbb62c650	-0.0034603067
126	0xbe38f767	-0.18063127
127	0x3cde3a99	0.02712755
128	0x3da317ee	0.079635486
129	0xbf4756b1	-0.77866656
130	0xbe89e0bf	-0.2692928
131	0x3daf4cb5	0.085595526
132	0x3e106901	0.14102556
133	0x3e39b07b	0.18133728
134	0xbdc19748	-0.09452683
135	0xbdb96bf2	-0.09053792
136	0xbe419b5e	-0.18906924
137	0xbe372ed5	-0.17888959
138	0xbe6acaad	-0.22928877
139	0x3d2fd9b2	0.04293222
140	0x3e91b692	0.28459603
141	0x3d0fc406	0.035099052
142	0xbd695736	-0.056967936
143	0x3dcb99a2	0.099414125
144	0x3e1d34c0	0.15352154
145	0xbe3139fc	-0.17307276
146	0x3d0e2360	0.034701705
147	0x3d9255b7	0.07145255
148	0x3d29394d	0.041314412
149	0xbdb2bfd8	-0.087279975
150	0x3e54ad0b	0.20769136
151	0xbbbb464b	-0.0057151667
152	0xbdf1ac0d	-0.11800394
153	0x3c44dbd8	0.012015305
154	0xbe0d0c3e	-0.13774201
155	0xbda53dba	-0.08068414
156	0xbc6ddec9	-0.014518448
157	0xbdbc325a	-0.09189291
158	0x3dbf5633	0.09342613
159	0xbe97d6b5	-0.29655996
160	0xbd1fe5ff	-0.0390377
161	0xbe4160ad	-0.18884535
162	0xbdaad0d8	-0.08340615
163	0x3d8d9967	0.06914025
164	0xbd298ed8	-0.041395992
165	0x3dacdb5f	0.08440279
166	0x3e6fa957	0.23404442
167	0x3d735c6e	0.05941432
168	0x3ca97701	0.020686628
169	0x3e109cef	0.14122365
170	0x3e40b8e2	0.18820527
171	0xbde4a75e	-0.11164735
172	0xbe13ba2f	-0.14426492
173	0x3dbf9ef7	0.09356492
174	0xbb27ad82	-0.0025585596
175	0x3d185f73	0.037200402
176	0xbe4de9f8	-0.20108783
177	0x3cf0ddb6	0.029402595
178	0xbe290fd2	-0.16509941
179	0x3da31634	0.07963219
180	0x3deceba7	0.115683846
181	0xbe6fbad9	-0.2341112
182	0xbe6dd397	-0.23225246
183	0xbcbb7731	-0.022883983
184	0x3e853c99	0.26022795
185	0x3e1aa4ff	0.15102004
186	0x3e82344b	0.2543052
187	0x3e0c8de1	0.13725998
188	0xbe1c4527	-0.15260755
189	0x3e5b2c00	0.21403503
190	0x3e5544b7	0.20826994
191	0xbe551ece	-0.20812532
192	0x3e210181	0.1572323
193	0xbceb4e4f	-0.028723864
194	0xbdd06ab6	-0.101766035
195	0xbdeb335c	-0.114844054
196	0xbcfd4a0e	-0.030919101
197	0xbe5b5f09	-0.21422972
198	0xbcc8a0f5	-0.024490813
199	0x3dc12cf8	0.09432405
200	0xbcb1d2fe	-0.021707054
201	0x3c36fed1	0.011169151
202	0x3ed21cb4	0.41037524
203	0xbc36fd56	-0.011168798
204	0xbd67ed16	-0.056622587
205	0x3e099c2c	0.13438481
206	0xbcd00624	-0.025393553
207	0xbc991a04	-0.018689163
208	0xbd98a42d	-0.07453189
209	0x3ba85336	0.0051368726
210	0x3e19a6f1	0.1500509
211	0xbe85adc6	-0.2610914
212	0x3e62f6cb	0.22164457
213	0xbc0b25a9	-0.008492866
214	0x3d534cd8	0.051586956
215	0x3e2395de	0.15975139
216	0x3d84eccb	0.06490477
217	0xbe30f5db	-0.17281286
218	0xbcf4ee15	-0.029898683
219	0xbd935019	-0.07193012
220	0xbc014fc9	-0.007892557
221	0x3dfd6499	0.12372703
222	0xbd13ec56	-0.03611406
223	0xbda5a1b6	-0.080874845
224	0xbe23dc95	-0.16002114
225	0x3c0d782b	0.008634607
226	0xbd671a75	-0.056421716
227	0xbe0b01ab	-0.13574855
228	0xbb87ac64	-0.0041404236
229	0xbe01163d	-0.1260614
230	0xbe59f1bc	-0.2128362
231	0x3d3c972e	0.046042614
232	0x3d8d22c5	0.068913974
233	0x3e05c633	0.13063888
234	0xbda7d4fa	-0.08194919
235	0xbc4a4b96	-0.012347123
236	0xbe564c98	-0.20927656
237	0x3e6f0f28	0.23345625
238	0xbe12b765	-0.14327772
239	0x3d8ee19d	0.06976626
240	0x3e37c333	0.17945556
241	0xbdc6792f	-0.09691083
242	0x3e0e9bf7	0.13926683
243	0x3e479285	0.19489487
244	0xbd6d2b3d	-0.057902563
245	0xbddf8fcc	-0.10916099
246	0xbd29c047	-0.041443136
247	0x3e35a415	0.17738374
248	0xbdc31be9	-0.09526808
249	0x3cf12e05	0.02944089
250	0xbe6e468d	-0.232691
251	0x3dac1994	0.08403316
252	0xbe3a3456	-0.18184027
253	0xbdc5d044	-0.09658864
254	0xbe573e65	-0.21019895
255	0x3e1ea1f9	0.15491475

bias_ih_l1 f4 [384]
0	0x3e970346	0.29494685
1	0x3d9cd8da	0.07658549
2	0x3c975f2a	0.018477995
3	0x3dd472fe	0.103734955
4	0xbcc032c2	-0.023461703
5	0x3e734f3e	0.23760697
6	0x3f098c2e	0.5372952
7	0xbdefebca	-0.11714895
8	0xbd5fb000	-0.054611206
9	0x3e5a08eb	0.21292464
10	0x3f61e204	0.882355
11	0x3f97488e	1.1819017
12	0x3d34a117	0.04409894
13	0x3dd6679b	0.1046898
14	0xbd48f085	-0.049057502
15	0x3e691cb3	0.22764854
16	0xbc7a8893	-0.015291351
17	0x3e072394	0.13197166
18	0x3cb4c31d	0.022065694
19	0x3e8cf913	0.2753378
20	0x3f06ee22	0.5270711
21	0x3e51e020	0.20495653
22	0xbd19eb46	-0.03757789
23	0x3e1a3c64	0.150621
24	0x3e7091c1	0.234931
25	0xbdb28eb7	-0.08718627
26	0x3e4b355b	0.19844572
27	0xbc824634	-0.015902616
28	0x3e4c7bd1	0.19969107
29	0x3e1a3715	0.15060075
30	0x3d8061a1	0.06268621
31	0x3d9bfd37	0.07616656
32	0x3de587ce	0.11207543
33	0x3d4d3f6e	0.05010932
34	0x3dc439b6	0.0958132
35	0x3dbdbac4	0.09264138
36	0x3d919fed	0.071105815
37	0x3e181f71	0.14855744
38	0x3e634c5b	0.22197096
39	0x3e5219f5	0.20517714
40	0x3e58a7af	0.21157716
41	0x3ce0ef24	0.027457781
42	0x3d4b47a1	0.049628858
43	0x3e8ab6aa	0.27092487
44	0xbd1a3fef	-0.037658628
45	0x398a2f3a	0.00026356598
46	0x3e15e69d	0.14638753
47	0x3ec0c3be	0.3764934
48	0x3e27eb78	0.16398418
49	0xbc9a543c	-0.018838994
50	0xbe02a2ba	-0.12757388
51	0xbda08d11	-0.07839406
52	0x3c6f7d33	0.014617252
53	0x3cc892f2	0.024484131
54	0x3dda12f3	0.106481455
55	0x3e467f53	0.19384508
56	0xbd4cff58	-0.050048202
57	0xbe160586	-0.14650545
58	0x3dea571c	0.11442396
59	0x3c834688	0.016024843
60	0x3e2264d6	0.15858778
61	0x3dd4044a	0.103523806
62	0x3e9959c7	0.29951307
63	0x3d1591c3	0.036515962
64	0x3d1895a1	0.037252072
65	0x3f566cd5	0.83759815
66	0x3e10d337	0.14143072
67	0x3e276b98	0.16349638
68	0x3e1c91b3	0.15289955
69	0x3edcceb3	0.4312645
70	0x3e232417	0.15931736
71	0x3c177ed3	0.009246546
72	0x3e1c832b	0.15284412
73	0x3d303b71	0.043025438
74	0x3cd5a5b3	0.026079988
75	0xbd28573b	-0.041098814
76	0xbdc223f1	-0.094795115
77	0x3ccd9395	0.025094787
78	0x3e3fbcc5	0.18724354
79	0xbd9110af	-0.0708326
80	0x3e321534	0.17390901
81	0xbdd80026	-0.10546903
82	0xbe24dcaf	-0.16099809
83	0x3d432442	0.047642
84	0x3e46bb15	0.19407304
85	0x3cbf83ca	0.023378272
86	0x3bbe425c	0.0058062505
87	0xbda849f6	-0.08217232
88	0x3d13f65a	0.03612361
89	0x3e091087	0.13385211
90	0x3d653e84	0.055967823
91	0x3de2d4f2	0.11075772
92	0xbd9dcdb1	-0.07705248
93	0x3cda4fc0	0.026649356
94	0xbe086783	-0.13320737
95	0x3e83d794	0.2575041
96	0x3e2894d3	0.16463022
97	0xbc822650	-0.01588741
98	0x3d325d8d	0.04354625
99	0x3c824c62	0.015905563
100	0x3cafdc49	0.021467345
101	0x3e4df575	0.20113166
102	0x3ce07434	0.02739916
103	0xbdea4f1c	-0.1144087
104	0x3d69d72b	0.057089966
105	0x3d6d1553	0.057881664
106	0xbececdef	-0.4039149
107	0x3e624ee3	0.22100405
108	0xbde0943a	-0.10965772
109	0x3e084c33	0.13310318
110	0x3e1d78af	0.15378068
111	0xbc353768	-0.011060573
112	0x3e251649	0.16121782
113	0x3ebe3eaf	0.371572
114	0x3d98a892	0.07454027
115	0x3e87e6a3	0.2654315
116	0x3e03e177	0.12878977
117	0xbdb9c9c8	-0.0907169
118	0xbe45eefd	-0.19329448
119	0x3d4b64c9	0.049656663
120	0x3f83e464	1.0304074
121	0x3bbb89aa	0.005723198
122	0xbd607a63	-0.054804217
123	0x3e271c5b	0.1631941
124	0x3e721a97	0.23642956
125	0x3e9114c9	0.2833617
126	0xbef30b72	-0.4746967
127	0x3e9b5691	0.30339482
128	0x3dd380fc	0.10327336
129	0x3ef22d63	0.47300252
130	0x3e9bc70e	0.30425304
131	0x3f103dc1	0.5634423
132	0x3eb7e03b	0.35913262
133	0x3f861246	1.0474327
134	0x3f9419ec	1.1570411
135	0xbe939824	-0.28827012
136	0x3ea22a0d	0.31672707
137	0x3f819a1f	1.0125159
138	0x3f6baf62	0.9206449
139	0x3f893b4b	1.072122
140	0x3f7e2894	0.9928067
141	0x3f03045f	0.51178545
142	0x3ea89ce5	0.329322
143	0x3f820d96	1.0160396
144	0x3d0d627b	0.034517746
145	0x3f028f9f	0.510004
146	0x3e615f64	0.22009045
147	0x3f5b35b5	0.85628825
148	0x3f0020d5	0.500501
149	0x3ed356fb	0.41277298
150	0x3e5c49ea	0.21512571
151	0x3f85188d	1.0398117
152	0x3f0e5b4d	0.55608064
153	0x3edbf71b	0.42961964
154	0x3f38dc33	0.72211
155	0x3eabc432	0.33548123
156	0x3f41d65a	0.757177
157	0x3f5cf911	0.86317545
158	0x3f4ffeb0	0.81248
159	0x3ecbaefe	0.39781946
160	0x3e952094	0.29126418
161	0x3e1bc4f6	0.15211853
162	0x3e8cd18e	0.27503628
163	0x3f14998d	0.580468
164	0x3f60684f	0.8765916
165	0x3e63ac01	0.22233583
166	0x3ed85e09	0.42259243
167	0x3ed01a23	0.4064494
168	0x3f1af360	0.6052761
169	0x3eb8c452	0.3608728
170	0x3e7dd07d	0.24786563
171	0x3f822763	1.016827
172	0x3f32a362	0.6978055
173	0x3ef04129	0.46924713
174	0x3f5ea200	0.8696594
175	0x3f6ef1cc	0.933377
176	0x3e140d47	0.1445819
177	0x3ea40214	0.32032835
178	0x3efa5b9e	0.48898023
179	0x3dffa896	0.12483327
180	0xbe63cc0d	-0.22245808
181	0x3eba440a	0.36380035
182	0x3e3dfe30	0.18553996
183	0x3f8b52be	1.0884626
184	0x3e8217b0	0.25408697
185	0xbf03fb06	-0.51554906
186	0x3f50b14d	0.8152054
187	0xbd19680b	-0.03745274
188	0x3f9d1069	1.2270633
189	0x3f822e76	1.0170429
190	0x3f584cfa	0.84492457
191	0x3f2b4621	0.66903883
192	0x3f0a9635	0.5413545
193	0x3eb5c30d	0.35500374
194	0x3f88c2d1	1.0684453
195	0x3f51b5e6	0.8191818
196	0x3f555981	0.833397
197	0x3f1639a0	0.5868168
198	0x3f917938	1.1365118
199	0xbea93c74	-0.33053935
200	0x3f3bfebe	0.7343558
201	0x3f5f1917	0.8714766
202	0x3f77a5c6	0.96737325
203	0x3eebb82c	0.4603895
204	0x3f157486	0.58380926
205	0x3f360956	0.71107996
206	0x3ddcfd28	0.10790473
207	0x3c08fe7c	0.008361455
208	0x3ef17528	0.47159696
209	0x3ddf6f6c	0.10909924
210	0xbea00e6e	-0.3126101
211	0x3e865779	0.2623861
212	0x3f85c281	1.0449983
213	0x3e35199c	0.1768555
214	0x3e74f017	0.23919712
215	0x3ebed1b0	0.37269354
216	0x3ec5c36c	0.38625658
217	0x3efda45d	0.49539462
218	0xbbd0cff2	-0.0063724453
219	0x3e890a2e	0.2676558
220	0x3e388a1a	0.18021432
221	0x3ead48d0	0.33844614
222	0xbec1ceeb	-0.37853178
223	0x3f3edf7a	0.7455975
224	0x3f3637d7	0.71178955
225	0x3f01d381	0.50713354
226	0x3e27e162	0.1639457
227	0x3eab763a	0.33488637
228	0x3e112d19	0.1417736
229	0xbd6f8a9f	-0.05848181
230	0xbd70df5c	-0.058806762
231	0x3ed89e02	0.4230805
232	0x3c2be449	0.010491439
233	0x3ecd5afc	0.40108478
234	0xbf1689ac	-0.5880382
235	0x3f8b2c7d	1.0872952
236	0x3f3db2dc	0.7410104
237	0x3f4fd565	0.8118499
238	0x3eb5e978	0.35529685
239	0x3dc5fee5	0.09667758
240	0x3e59a665	0.2125488
241	0x3e92699b	0.28596196
242	0x3e4c36f8	0.19942844
243	0x3ee8e518	0.45487285
244	0x3f141f1b	0.57859963
245	0xbe21acc8	-0.15788567
246	0xbe734cab	-0.23759715
247	0x3f48a230	0.7837248
248	0x3f874328	1.056737
249	0x3f578c39	0.8419834
250	0xbc908319	-0.017640637
251	0x3f0fda71	0.5619269
252	0x3f7a8f49	0.97874886
253	0x3f5e774a	0.8690077
254	0xbe1257e8	-0.14291346
255	0x3f9bc093	1.2168144
