GRU/models/model_hs=128_layers=2_epochs=10_batch=16.pth (torch, 608379 bytes, 9 tensors)

weight_ih_l0 f4 [384, 5]
00000000: af1c 1fbf 73f4 1bbf 9560 35bf 7923 24bf
00000010: b7cb a9be 5ab1 14bd 20e3 56be 1fe6 5abe
00000020: 1463 5abe f88a ffbd a3c6 eabd d350 b2bd
00000030: 7677 a0bd 9826 e7bc 8f68 eabd a867 a2bd
00000040: 451c 38be 995d ffbd 0526 66be bba9 4ebe
00000050: d78e dabd c45d 9dbd 0419 28be bd2e fbbd
00000060: 81f7 4fbd 0d23 413b 0b48 78bd 43c3 95bd
00000070: fc6e c7bc 3016 0ebe 8472 b3bc c1aa d03c
00000080: 1599 90bd 6eb6 96bd 9d6d bfbd c691 eebd
00000090: b3c7 a1bc 919e 95bc eccd 06be 1c6a 22be
000000a0: 39c5 12be d69e e3bd 0f6f 3bbe bce9 7bbe
000000b0: 30c3 6bba 5c60 0dbe 3238 6abd ba22 82bb
000000c0: 62dc e2bd 8565 ec3d 9eee 4bbe a3c9 4bbd
000000d0: 99a3 4ebe 908f bbbd 6ae9 ba3d b0ba 26bd
000000e0: 1530 2abe 52d9 0fbd a54f 2dbe a39b 72bd
000000f0: 1337 18be 7423 c3bc 5352 f1bd 35dc 0cbe
00000100: 4b3c a03d 6948 83bd 5ca1 54bd c2fa 37be
00000110: fd04 29be 61a3 3abe 3fae 77bd a196 3dbe
00000120: 9609 17be e869 d2bd 4b50 d0bd 2f59 54be
00000130: d03c 41be b940 8abe 8d2e 88be d176 4bbd
00000140: 58e5 24be 6412 1ebe 3293 bbbd 88ad 2dbe
00000150: d5c2 b7be e5c9 d3bd 97f4 67be fe4d 46be
00000160: 489b 89be 4807 9ebd 385a 61bd d2b8 06bc
00000170: b8c1 1bbe 0bf4 35be 950d 7cbd dcef 95be
00000180: e5bf 54be 77f2 41be dfb4 a7be cb4b febd
00000190: b339 02be b87e 31be cb7d 10be 0957 0ebd
000001a0: 253b a23d 0373 9abd 3439 acbd 33fd afbd
000001b0: 853e 14bd dc4d 9abd 5d3f 97bd 4a72 6d3c
000001c0: b150 193e 4f55 433e e41e d9bd e478 2dbe
000001d0: 0839 26be 4f8d 26bd 4877 0b3d 74ce 183d
000001e0: 96d0 b2bd e8dd 27be a012 1fbe a730 dbbd
000001f0: 06a8 debd 9df4 18bd 2896 c6bd 272d b5bd
00000200: b926 ffbd 299f 30be f269 8ebe 0415 82be
00000210: 8ea8 63be 880f 8bbe e830 b9bd e378 33be
00000220: 60a7 c6bd 2975 9cbd ec3e 1ebe ecb7 a3be
00000230: d703 d7bc 7de5 8d3c 873e b03d b592 353e
00000240: 5080 1abd ecca 84be f90a 62be 6206 9cbe
00000250: 9f67 4cbe 15ac 8e3c e9fc 0a3d 7489 b73b
00000260: e2fc 63bd d614 4b3d 061e 87bc a1b3 f1bb
00000270: 8d3e e4bc b4ef 23bd 0f1c 86bc dda4 00be
00000280: 1f79 edbc fe85 273d b08a dbbc 5172 53bd
00000290: 9f88 0cbd 83a0 83be 5fa4 eebd 8973 8bbe
000002a0: bb3e e3bd db6b 08be 59a5 563d 0c50 053d
000002b0: dde9 6d3c 7f6e b4bd 95a8 52bd e3a5 30bd
000002c0: 4f0d 2ebc 26cf cc3c 31b4 36bb 09d4 073d
000002d0: 1f68 a7bd 20d7 5cbe c18a e9bd 2f39 1abe
000002e0: 2f1c af3c 9e0b 743c a6c1 93bd d9ca 943d
000002f0: 8a9b 09bd d50a b1bd 672a 48be 0a3c f1bd
00000300: 4e4e fabd ba75 02be 239b 6c3c 4166 f7bd
00000310: 1709 69be 7347 5bbe efb9 08be 636e 6dbd
00000320: eadd d0bd 0b48 f1bd 5f70 f8bd aa48 c7bd
00000330: d933 cabc 7d24 80ba 0d27 c3bd 6cc7 96bd
00000340: 00a1 ffbd f585 14be 4338 1ebd 81f8 f3bd
00000350: 9404 50be 2371 19be 355b 233d 40f7 e1bd
00000360: 5208 d6bd b48f 7ebe 99be e3bd c1e9 d9bb
00000370: fb33 19be 9689 7abe 7f0f 18be 055e 78be
00000380: 6410 40be c8c5 273d 0af4 96bd 81a0 bebd
00000390: 36a0 aabc d297 4abc d86b e6bc 7654 e9bd
000003a0: e649 b1bd 3783 f7bd abd6 b4bd f693 fcbd
000003b0: 1988 38be e08f 7cbd 684d 6cbd bab9 4a3d
000003c0: 366c 17bf 9f40 1dbf 8a6c 16bf f938 28bf
000003d0: 9eda 53be 2bb2 5a3e 21fe 133e c54c 533e
000003e0: 8bda 553e 91b2 453d 6a74 8ebe 33b2 16be
000003f0: c912 32be 7e47 85be 63a3 aebe 7afa 66be
-0.6215314 -0.60919875 -0.708505 -0.64116627 -0.33163235 -0.036301948 -0.20985079 -0.21376847
-0.21326858 -0.12477678 -0.11463668 -0.08706822 -0.07835285 -0.028216645 -0.11445724 -0.07929927
-0.17979534 -0.12469024 -0.22475441 -0.20181935 -0.10671776 -0.076839 -0.16415793 -0.12264774
-0.050773147 0.0029470355 -0.06061558 -0.07312634 -0.024344914 -0.13875651 -0.021905191 0.025472047
-0.07060448 -0.073590145 -0.09347079 -0.11648898 -0.019748544 -0.018264087 -0.1316449 -0.1586079
-0.14333047 -0.1111428 -0.18304084 -0.24600881 -0.0008993624 -0.1380629 -0.0571825 -0.003971425
-0.11077191 0.11542801 -0.19915244 -0.049752843 -0.20179595 -0.09158242 0.091265514 -0.040705383
-0.16619904 -0.035119362 -0.16924913 -0.059230458 -0.14864759 -0.023820616 -0.1178328 -0.13755877
0.07824 -0.064102955 -0.051911697 -0.1796675 -0.16505809 -0.18226387 -0.06046891 -0.18514492
-0.1474975 -0.10274106 -0.10171565 -0.20737146 -0.18870854 -0.27002504 -0.26598015 -0.04967386
-0.16103113 -0.15436703 -0.09158935 -0.16960728 -0.35890833 -0.10341243 -0.22651897 -0.19365689
-0.26876283 -0.077162325 -0.05501768 -0.0082227755 -0.15210617 -0.17768876 -0.06153639 -0.2928456
-0.20776327 -0.18940149 -0.3275518 -0.124168 -0.12717323 -0.17333496 -0.14110486 -0.034750972
0.07921437 -0.07541468 -0.08409348 -0.08593216 -0.036192436 -0.07534382 -0.073851325 0.014492581
0.14972188 0.19075511 -0.10601595 -0.16940647 -0.16232693 -0.040662106 0.034049302 0.037306264
-0.08731191 -0.16393244 -0.15534449 -0.10702639 -0.10871892 -0.037342656 -0.09696609 -0.08846503
-0.12458558 -0.17248215 -0.27815205 -0.2540666 -0.22232267 -0.27160287 -0.09042531 -0.17526583
-0.09699893 -0.07639534 -0.1545369 -0.3197626 -0.026246948 0.017321343 0.08605676 0.17731746
-0.037720025 -0.25936067 -0.22074498 -0.3047362 -0.19961403 0.01741604 0.0339326 0.0056011025
-0.05566109 0.049580418 -0.016493808 -0.0073761498 -0.027861858 -0.04002352 -0.016370801 -0.1256289
-0.02898842 0.04089927 -0.02679953 -0.051622692 -0.03430998 -0.25708398 -0.11652445 -0.27236584
-0.11095949 -0.13322394 0.05240378 0.03254704 0.014521089 -0.08810138 -0.051430304 -0.043126952
-0.01062329 0.02500112 -0.0027878399 0.033161197 -0.081741564 -0.21566439 -0.11403418 -0.15060876
0.021375744 0.014895348 -0.0721467 0.072652526 -0.0335956 -0.08644644 -0.19547425 -0.1177903
-0.12221967 -0.12740222 0.014441284 -0.1208005 -0.22757374 -0.21413974 -0.13352178 -0.0579666
-0.10198577 -0.11781319 -0.12130808 -0.097306564 -0.024682926 -0.0009776499 -0.09528933 -0.073622555
-0.1248188 -0.14504226 -0.038627874 -0.11912633 -0.20314246 -0.14984564 0.039881904 -0.11033487
-0.10450806 -0.24859506 -0.11120338 -0.00665018 -0.14961235 -0.24466547 -0.14849661 -0.24254616
-0.18756253 0.040960103 -0.073707655 -0.093079574 -0.020828348 -0.012365298 -0.028127596 -0.11393063
-0.08656673 -0.12085574 -0.08830007 -0.12332909 -0.18020667 -0.061660647 -0.057691008 0.04949353
-0.5914949 -0.6142673 -0.5875937 -0.65711933 -0.20688865 0.21357028 0.14452411 0.20634754
0.20884149 0.048265997 -0.27823192 -0.14716415 -0.17389978 -0.26031107 -0.3410903 -0.22556487

weight_hh_l0 f4 [384, 128]
00000000: f23a e1be 8807 c039 d940 25bf 60dd 1b3f
00000010: dae3 c63e c4eb a0bd 9cb0 cabd bba9 aabe
00000020: 82db 9dbe 7830 863d 936d cabd 3f6c 593f
00000030: 72f4 50bd c9b8 8f3b 990d 57bf 7f8a 153e
00000040: 02be 0ebf 50e5 70be 9b64 10bd bca1 333f
00000050: eee1 443b eb6f ddbd 2f3d 593c e7f8 62be
00000060: 4e1e 2abf b289 cfbe 35aa e53d ab8c 68be
00000070: c685 a53e 796a 30bf 3c4c bfbb 4252 053f
00000080: f1d4 ee3d f5d6 783b bcc8 1d3f 13cb a73c
00000090: 6e85 26be 03b7 60be cee4 25be 4dca 1dbf
000000a0: 547c 713d 625a 213e 757d 0c3e 9318 c1be
000000b0: 6185 b53e d6c6 cf3c 9b57 c4bc cbad c8bd
000000c0: 5c30 09bf 7087 47bd d279 20bf aebf 4bbd
000000d0: a5bb c238 9a76 3f3d 6ff6 7dbf 120d 0c3d
000000e0: ce21 5dbe 755a 48be 2a5b 31bf 3e2d 31bd
000000f0: 03dc 173e a5b7 133e a98f 1cbf a0df 15be
00000100: 716e 8a3e 36fb 113f 90be 73bd 5b4d e3be
00000110: 7400 693d 0d81 813e 717f 27bf ed76 4d3f
00000120: 3899 6d3d 450b 95be d253 72be becb febd
00000130: 0848 22bf abfe 65be c2f0 833e c993 183f
00000140: 1903 debe 00c2 1e3f 1517 c93e 3a19 243f
00000150: 0dac bfbd 556e 1bbf ddba dd3e b936 b9bd
00000160: c54e b8be a881 263f f9b3 f93e 4c39 053f
00000170: 5aa8 3bbe 4cc5 393e 340f b4be 1aa5 32be
00000180: e44d aa3d 3f4e 133e 0b96 c73d d793 303f
00000190: fdef 08be 7262 1a3e 3fab c33e 8c9c 4e3e
000001a0: d42f 733d 974d 453e afb8 8dbe 2435 613d
000001b0: a494 b93e e082 b83d f1ee 1a3e f32e 863d
000001c0: 698b b4be 160e c8be eac8 803d 8382 373f
000001d0: 338b 8cbe a87f 0fbf ce28 673e 3dad 19be
000001e0: 2989 183f 992f 213c 651f 1dbd 5378 cc3e
000001f0: 0cbc c03d 9744 c2be c677 dd3e 8790 a83e
00000200: 4cfb 10bc c349 e83e d6fd 3ebd 849e cd3d
00000210: 8305 93bc db42 943d 661e 30be 1bcf 16be
00000220: 7b2d 77bd 84a8 64bc c0cc 9ebd ca16 3f3e
00000230: 03e8 4fbd e258 ca3d 9390 98bd 4da0 b4bd
00000240: 6d2b d9bd c876 b6bd e59d c53b c7ea ba3d
00000250: 64cd 3d3d da2e 94bd 70fa c2bc 4f4e b53c
00000260: cd8b 4dbe d872 0bbe 9098 743d d98c f7bc
00000270: 8a42 5bbd 7cd7 46be 392b e03d aa32 d03d
00000280: ebcb 0a3d 5348 67be 8eae 2b3e b86e 793d
00000290: 67b0 1ebc 565d fcbc 02e7 2cbe b836 f0bc
000002a0: 12f9 91bd 7bc9 d43b 95e9 8cbd 4427 91bd
000002b0: 13dc d53d c51c ba3d b15c 3f3c 120c 1bbc
000002c0: 8030 87bc 338c 04bd ebe3 26be e953 fabd
000002d0: d927 26be 3b91 f33c ddec 03be 655e cd3d
000002e0: 6b47 81bc 83ed 6c3c eec6 0fbe f028 a4bd
000002f0: a64d 183e 5652 413d 81ad 14be 1430 8abd
00000300: 290d a4bc 1d80 753d 3ac5 fe3c 1b00 99bd
00000310: c74a bc3b db89 b03d e7b8 33bd 15fe 463d
00000320: 5a26 63bd 2446 03bd fcf0 cf3d 7832 40bd
00000330: 8cff 85bd ee21 52bd 200b a53d 0a8c e03d
00000340: 287b 3f3c 0c4a ae3d f71f b73b 2cf9 323c
00000350: fa49 0e3e 8369 1abe b728 7ebd c23a e4bd
00000360: 121a 6e3d 7986 f63d b140 ec3d d88f 223e
00000370: af43 7dbd 7433 d23c aca1 85bc 4369 8cbd
00000380: 4cb9 30bd 3fe8 31bb 2282 063e 9884 083e
00000390: 8aa2 c9bc 04b7 013e 4301 0b3e a2ee 063d
000003a0: a0e2 c73d 1e87 5e3d fbf2 3ebd 237a c7bd
000003b0: a12f 5bbb 89cb 60bd bba8 2a3e 6db2 afbc
000003c0: a9b7 c4bd da2f 0fbe 3a6e 103e 4f47 253e
000003d0: 71b6 393d b3a6 ffbc 43ed 6e3d 4f92 893d
000003e0: 3c21 893d 3682 ac3a ee2e 6b3d 23d3 cf3d
000003f0: 91de a5bd 64f1 2bbe 1c54 da3d 5356 e3bc
-0.43990284 0.00036626705 -0.64552075 0.60884666 0.38845712 -0.07857469 -0.09896967 -0.3333262
-0.30831534 0.065522134 -0.09884181 0.84930795 -0.05101437 0.004386042 -0.84005123 0.14603613
-0.5575868 -0.23524976 -0.035252195 0.7016866 0.003004189 -0.10812362 0.013259216 -0.22165261
-0.6645249 -0.4053474 0.11214105 -0.2270991 0.32328624 -0.68912464 -0.0058379453 0.5207864
0.11661709 0.0037969921 0.6163442 0.020482576 -0.16261837 -0.21944813 -0.16200563 -0.6163681
0.05895646 0.15757135 0.13719733 -0.3771406 0.35453323 0.025363367 -0.023967555 -0.097987734
-0.53589416 -0.048713148 -0.62685883 -0.049743347 9.2855924e-05 0.046743967 -0.9920415 0.034192152
-0.21594927 -0.19565757 -0.6927973 -0.043256037 0.14830022 0.14425524 -0.6115671 -0.14636087
0.27037385 0.5702394 -0.059507906 -0.44394955 0.056885198 0.2529377 -0.65428835 0.8025959
0.05800745 -0.2911016 -0.23664787 -0.124412045 -0.6339116 -0.2246043 0.2576962 0.596005
-0.43361738 0.6201477 0.39275423 0.6410099 -0.09358988 -0.6071523 0.43306628 -0.09043641
-0.35997596 0.6504159 0.4877012 0.52040553 -0.1832594 0.18141669 -0.3516785 -0.17445794
0.08315638 0.14385317 0.09745415 0.68975586 -0.13372798 0.15076616 0.38216588 0.20176905
0.059371784 0.1926788 -0.27679965 0.05498232 0.36246216 0.090093374 0.15130211 0.065519236
-0.35262612 -0.39073247 0.06288321 0.7168352 -0.2744995 -0.5605416 0.2257416 -0.15007491
0.5958429 0.009838008 -0.03836002 0.3993555 0.09410867 -0.37942955 0.43255442 0.32922766
-0.008848976 0.45368776 -0.046628796 0.1004 -0.017946964 0.07239314 -0.17199096 -0.14727442
-0.060346108 -0.013956193 -0.07753897 0.18661037 -0.050758373 0.09880234 -0.0744945 -0.088196374
-0.10603986 -0.089093745 0.0060307854 0.091268115 0.046338454 -0.07235499 -0.023801059 0.022132067
-0.20072861 -0.13618028 0.059715807 -0.030218529 -0.053530253 -0.19418138 0.10945744 0.101659134
0.033885878 -0.22586183 0.16765806 0.060896605 -0.009685612 -0.030806225 -0.16884997 -0.029322967
-0.071275845 0.006493745 -0.0688049 -0.070875674 0.104423665 0.090875186 0.011679814 -0.009463327
-0.016502619 -0.032360267 -0.16297881 -0.12223036 -0.16226138 0.029732337 -0.12883325 0.1002777
-0.015781125 0.014460924 -0.1404073 -0.08015621 0.1487337 0.047197662 -0.14519311 -0.067474514
-0.020025807 0.05993663 0.031099904 -0.07470723 0.005746219 0.08620044 -0.04387751 0.048582155
-0.055456497 -0.032049313 0.10153386 -0.04692313 -0.06542882 -0.05130189 0.080587626 0.1096421
0.011687078 0.08510217 0.0055885273 0.010923665 0.13895407 -0.15079312 -0.062050547 -0.1114402
0.05813033 0.120373674 0.115357764 0.15875185 -0.061832126 0.0256593 -0.016312443 -0.068560146
-0.043145463 -0.0027146486 0.13135579 0.1333183 -0.024613637 0.12667471 0.135747 0.03294242
0.09760022 0.054328077 -0.046618443 -0.097400926 -0.0033445137 -0.054881606 0.16665928 -0.021447385
-0.09605343 -0.13983098 0.14104548 0.16140483 0.045340005 -0.031207418 0.05833174 0.06717359
0.06695792 0.0013161364 0.057417803 0.10147693 -0.08099092 -0.16791302 0.10660574 -0.027751124

bias_ih_l0 f4 [384]
00000000: 04a1 d9be 24b3 7cbd d0c0 273d 84f6 27be
00000010: 8962 d13d 5b0c 9bbd bfaa 203b cf4c 253d
00000020: cbbf 253e d496 243d 1c8c ddbd b802 a1bc
00000030: e883 8fbd 4134 39be b1ee 4a3d 3fc0 63be
00000040: 7729 383c ee95 1fbe e24f 0ebe 3922 b7bd
00000050: e5cc 9dbd db24 18be 8ce9 07bd a441 02be
00000060: 88eb 77bc 13f3 85be cf86 b1bd 5806 69bd
00000070: e020 20be 082a 88bc 64e2 a93c 4cce 09be
00000080: a116 4abe 02a5 04bd 758c febd 995b 7bbd
00000090: d843 d33c dcd3 19bd 9924 47bd c157 80bc
000000a0: a543 8abc c8f7 34bd 48f9 aabd 297f 873c
000000b0: f4b9 5ebd 3e20 b0bd 0d52 143e 7cac ae3d
000000c0: c4a6 a9be 80dd c03a 80eb 8dbe f7fe 25bd
000000d0: ea89 d93c 8cd3 ccbd ac7c 0c3e 869e a13c
000000e0: d588 67bb 18e3 0cbe 1a76 59be d901 52be
000000f0: 6d78 a2bc 8386 a7bd e0b0 14bf 2563 64bc
00000100: ff50 4f3d f220 1bbe 942d 033c e993 11be
00000110: e162 f1bd 5bce fdbc 0ce1 5ebc ae16 9c3c
00000120: f5c3 fdbc 2d29 9ebd fe1d 11bc e4e4 ecbd
00000130: f1bf 9abd 37f9 7dbe 50b4 733a f6f9 adbd
00000140: b93f e83b ef1f 413d 7a20 0bbe e43b 00be
00000150: 012b 07bd 598f 06bd d90b 343d ef73 2ebe
00000160: ceae 10be 36e7 98bd 5762 6dbe ff06 c6bb
00000170: 52ac b8bd 2120 983c 94f6 62bb 7c58 42bd
00000180: a7a7 a1bd 19dd bdbd b333 03bd 9294 4dbc
00000190: 9cb6 793d 3ea5 183d b3e7 663d 88a2 ad3d
000001a0: 66e8 cdbd 1711 0bbc 5a0b 5fbd 0fb4 20be
000001b0: 0506 c9bd 2adc 01bc 9da1 19bd 3c9b 8abd
000001c0: 0fed a9bc 588f 63bd f7f9 02bf 2735 483b
000001d0: 12de cfbe 473c af3d e252 2fbd a34b c4bd
000001e0: ef87 f7bd bc18 163d 5988 e1bd b77d d93d
000001f0: be0a 233b 33c6 cd3c 8631 54be 782d f23d
00000200: 9da4 9ebe c3b2 bd3e 2c6b 8a3d b9d4 c7be
00000210: d92a e63e 285e ee3d 816a d33e 3e78 1f3e
00000220: efcc 993e 8c20 093e fdae 063e 7a1d 223d
00000230: eb1f 22bd 6cd9 9f3e 05bd 253e 6c0a 4f3d
00000240: 3161 983d ab95 043f 933d ea3d 5267 f5be
00000250: ec64 453f d266 e13c 9f80 1a3e 640c c43e
00000260: 8ddb f1be ad9d f5be 85f9 ef3e 4528 273d
00000270: b2e7 26be 139e f2be 5635 8b3d bde7 04be
00000280: 7366 82bc 3005 bc3e 0999 fbbd 3dca 56bd
00000290: 3288 fd3d 3ee0 5c3e 8888 b13d 092e 7bbd
000002a0: d575 da3d c9b2 6ebc 6a6c 303b ea74 b0bd
000002b0: 9105 dbbe a14a 493e d41c df3d 2e38 9e3e
000002c0: dcf5 07bf 8c7b d53d 29e9 19bf cfda a53e
000002d0: 6b70 0b3d 479d c93e 0371 623e 895a 8b3e
000002e0: 9daf 743e 727c 92bd 6b03 98be ec3a 203d
000002f0: f196 0d3e 5abc 883e 3611 f8be 3b6d d83b
00000300: f55c fa3d 3d9c 55be 4cbc 533e ef51 ec3d
00000310: af6b 883e 1b41 e13e 783c 85be 9e77 2d3e
00000320: 9b86 a03e 5591 d13e 5732 453e fce8 b2bd
00000330: 9c22 30be 4481 b83c a1f8 2d3e abd5 3bbe
00000340: 9061 d43e e685 183e 7c47 623d ee85 36bf
00000350: 02a9 4f3f d39a 0bbf 7fb7 5e3e ee4f 513d
00000360: bf83 4cbd 8dcd dbbd 4934 45be 21d8 9ebe
00000370: cfcb 1a3d 5aaf 343e c1d5 74bd 9f5f 2d3f
00000380: 5df3 c43d 0f53 f8bd a37d 603d 507a c7be
00000390: 7712 c63e 6acc 2e3e f739 443f edca c03e
000003a0: e5cf 183e 74ce 983e 18c1 fc3e dd9a d0bd
000003b0: c937 95bc 0275 273e 8c5c f63d f559 723d
000003c0: 30ef b6bd dc9f 43be ad8f 4fbd 0502 683e
000003d0: 4c53 e23d 6b8d c43e 48e9 4b3e ac76 a63e
000003e0: 446d f5be 70f5 a83e 6498 97bd 67bf 5a3e
000003f0: 0769 a33e d927 c13e bc7f 5dbe db04 8a3d
-0.42505658 -0.06169428 0.040955365 -0.16402632 0.10223872 -0.07570716 0.0024515835 0.040356454
0.16186444 0.040182903 -0.10817739 -0.019654617 -0.07007581 -0.1808634 0.04954404 -0.22241305
0.011240355 -0.15584537 -0.1389766 -0.08942074 -0.07705096 -0.14857809 -0.033181712 -0.12720352
-0.015131839 -0.26162013 -0.08668291 -0.056890815 -0.15637541 -0.016621605 0.020737834 -0.13457602
-0.19735195 -0.032383926 -0.12429134 -0.06136665 0.025789186 -0.03755556 -0.048618887 -0.015666844
-0.016877959 -0.044181615 -0.08348328 0.016540127 -0.054376557 -0.085999 0.14484425 0.085289925
-0.33135045 0.001471445 -0.27718735 -0.040526357 0.02655502 -0.10001287 0.13719434 0.01972891
-0.003532936 -0.13758504 -0.21236458 -0.20508517 -0.019832814 -0.08179953 -0.5808239 -0.0139396535
0.050614353 -0.15149286 0.008006472 -0.1421658 -0.11786438 -0.030982187 -0.01360346 0.019053783
-0.030977229 -0.077226974 -0.008857248 -0.11567095 -0.07556141 -0.24802099 0.0009296583 -0.08494942
0.0070876745 0.047149595 -0.13586608 -0.12522846 -0.032999996 -0.03285155 0.04395661 -0.17036413
-0.14129183 -0.07465975 -0.23182045 -0.0060433145 -0.090172425 0.018570008 -0.0034631835 -0.047447667
-0.07893305 -0.09270687 -0.032031726 -0.012547629 0.060965165 0.037266962 0.05637331 0.08478266
-0.10054092 -0.008487961 -0.054454185 -0.15693687 -0.09815601 -0.007926026 -0.037507642 -0.0676789
-0.020742921 -0.055556625 -0.51162666 0.003054926 -0.40599114 0.08556419 -0.042803653 -0.09584739
-0.12086474 0.036644682 -0.110123344 0.10619681 0.002487823 0.025118923 -0.20722017 0.11825079
-0.30984965 0.37050447 0.06758723 -0.39029482 0.44954565 0.11639053 0.41292194 0.15573213
0.30039164 0.13391322 0.1315269 0.039578892 -0.03958122 0.31220567 0.16185386 0.05054705
0.07440413 0.51790875 0.114375256 -0.4793039 0.7710712 0.027514849 0.15088128 0.38290703
-0.47237816 -0.4797186 0.46870056 0.04080989 -0.16299322 -0.47386226 0.067972824 -0.12979026
-0.015917992 0.36722708 -0.122850485 -0.052438963 0.12379493 0.21569917 0.086686194 -0.0613232
0.10667006 -0.014568993 0.0026920089 -0.086160496 -0.42777684 0.19657375 0.108941704 0.30902237
-0.53109527 0.10423955 -0.601214 0.323935 0.034042757 0.39377806 0.22113423 0.2721751
0.23895116 -0.07152642 -0.29690108 0.039118692 0.13827111 0.267062 -0.4845063 0.006604818
0.122247614 -0.20860381 0.20677298 0.11539065 0.26644656 0.43994984 -0.26022696 0.16940162
0.31352696 0.40931192 0.19257484 -0.087358445 -0.17200702 0.022522576 0.16989376 -0.18343227
0.41480684 0.14894828 0.055243954 -0.7129811 0.8111726 -0.5453312 0.21749686 0.051101618
-0.04993033 -0.10732565 -0.19258226 -0.31024268 0.037792023 0.17645016 -0.059774164 0.6772403
0.0961673 -0.12125217 0.054807317 -0.38960505 0.38685963 0.17070165 0.7665095 0.3765482
0.14923055 0.2984501 0.4936607 -0.10185788 -0.018215077 0.16353229 0.12029371 0.05916782
-0.0893234 -0.1910395 -0.05067413 0.2265702 0.11051044 0.38389143 0.19913208 0.32512414
-0.47934926 0.32999754 -0.07402113 0.21362077 0.31916067 0.37725714 -0.21630758 0.06739207

bias_hh_l0 f4 [384]
00000000: 7c0b fdbe 74b1 21be 2cb2 893d b662 e3bd
00000010: e37f e1bc 2ec4 2ebd 897c 153b 1485 053e
00000020: 3f9e 3b3e 6a21 293c f012 49be 4cd6 643d
00000030: e0c4 4c3d d303 28be 23d9 d23d 544a 19be
00000040: 6b36 353d 6a0a d9bd a2f8 33be 2fe5 16bd
00000050: d5f9 44bd f2c8 d5bc b65f f1bc eb9e 16be
00000060: 0c66 2d3c b8b4 4dbe 1567 a5bd 265c efbd
00000070: 1cba 77be 770b 88bc 6fe4 6dbd 24ef 3ebd
00000080: d814 fcbd bd10 85bd a80c 70bc cbcb d7bc
00000090: 7205 8f3d c440 dabd b005 80bd 548b f53c
000000a0: 99a6 edbd 4064 b7bd 05cf f6bc 6b96 e5bb
000000b0: 8736 d8bd 4313 07bd 8835 a0bc 1be3 17bc
000000c0: f01b 6fbe 1f66 0dbc e921 a2be 8d16 72bd
000000d0: 2ce3 11bd 12ed 2d3d f84a 9b3d 5198 f9bd
000000e0: f984 adbc 5fe9 22be a069 64be 8231 64be
000000f0: 15b4 cebd 945b 18bd de7e 18bf 751e acbd
00000100: 4dae 11bd b9fa 33be 8dcf 91bc aee6 7abe
00000110: 20d9 43be f8ea 6ebd b735 b13c 4dce 023e
00000120: 50d2 29bd ca4b a3bd c54a 48bc 9a6c dc3a
00000130: 099c 93bd ac3f a9be fb13 1dbd 3828 343d
00000140: dffd b23d c97c be3d b307 16be b8f9 4bbe
00000150: 1305 0c3d 5a13 ccbd 157c 3d3c 27fa 1ebe
00000160: 3712 d5bd cc69 28be f27e e7bd 2c92 0bbd
00000170: 3970 95bd 6fbe d4bd 559b a73b f4a6 f0bd
00000180: e634 99bd a666 5abd 9790 bab8 5849 e6bc
00000190: 6bb8 853d cd27 bebd d4c3 e03c 909d 95ba
000001a0: ccaf c8bd 9611 4b3d ebbb 94bc a9e1 e3bd
000001b0: d36e e3bd 6ad7 01bd 2f58 a7bd 8686 8dbc
000001c0: 13a2 2dbd c83c a7bd ca3c 08bf 5f1f acbc
000001d0: a5e2 d8be 67b4 75bd 769c e03b d943 e7bc
000001e0: 1cb6 9ebc 3108 80bd e9a8 23bc dc51 123e
000001f0: 0803 a9bd 70b2 8b3d 007f 12be 5c8a 4dbb
00000200: 01ae 9cbe 1c46 ae3e 9b27 a33b d75b 05bf
00000210: 46e8 d13e 1946 db3d 8da6 fa3e 9e13 b33d
00000220: 862b 843e b6a9 133c 631f b33d 4b73 203e
00000230: 8f85 a7bd db2d 5d3e 880f 1d3e c7d7 b43d
00000240: 63ac 1c3c 82ea 053f 6353 14bc f965 eebe
00000250: b391 3a3f 8d51 48bd 589d 0e3e 519d b43e
00000260: 4ed7 cebe eeb0 11bf e5f2 d73e 29e6 223e
00000270: b863 d2bd 5b2f e1be f9f0 e63c b226 1dbe
00000280: 2a16 33be bf85 8e3e d5f6 3abe 478d d83d
00000290: 9b17 e33d 9cc6 313e b68e 4e3e 07f1 1abe
000002a0: b012 593e 6bbb 09be 5435 41bc 9805 e43c
000002b0: 6907 dabe e94e 343e 7b8b e53d bc7d 1d3e
000002c0: 0f37 f8be c0f4 163e d087 17bf 07b1 a93e
000002d0: a9a4 163e d110 fe3e 6fd8 8f3e 19a9 703e
000002e0: 38ea a13e a19e 61bd 7eeb a8be 17cf f03c
000002f0: c0a0 db3d 4181 5f3e 82fc f9be 43be 10bd
00000300: 9076 173d 2fa9 3abe 0576 563e cb93 9a3d
00000310: 44c7 b13e 9606 b73e 60c2 f8bd 0025 3f3e
00000320: a59b 903e 1ad1 cd3e 0538 423e 011f 413d
00000330: 940f 82bd 077a 593c a1ba c23c d0bd cfbd
00000340: 0c5e 783e ea49 b23d 23f6 56bc f2c5 21bf
00000350: 2139 503f 5008 efbe 87b2 503e ff7c af3c
00000360: a15d c5bd 7887 90bc 20a3 4cbe acbb f1be
00000370: d30b 2b3d 24af 593e 39fc 05bc 29b8 3e3f
00000380: 8bf1 b8bc af20 303d f4d5 9e3d f760 bebe
00000390: af98 c83e 0d3c 1d3d 8303 433f d984 ca3e
000003a0: c239 733d 28d2 a03e 10b5 ea3e d827 1bbe
000003b0: 1a3f c6bd b52f 033e aa6a d83c 56c3 013e
000003c0: fc2b a0bd d994 35be 65b6 9a3d 7f7e 8a3e
000003d0: b749 cf3d 0ad9 933e 6030 103e 8a99 4a3e
000003e0: 9423 b8be 6e42 8e3e a5f3 bb3b 029a 383e
000003f0: a2e4 9f3e 8202 743e 5617 5cbe ee65 a33d
-0.49422824 -0.15790349 0.06723437 -0.11102812 -0.027526801 -0.04266756 0.0022809824 0.13039047
0.18322085 0.010322908 -0.1963613 0.055868432 0.049992442 -0.16407709 0.10295322 -0.1496976
0.04424135 -0.105976894 -0.17575315 -0.03683966 -0.04808982 -0.026096795 -0.029464584 -0.1470906
0.010583412 -0.2008847 -0.08076302 -0.11687498 -0.24192089 -0.01660703 -0.05807918 -0.04661478
-0.12308663 -0.06497333 -0.014651455 -0.026342293 0.069834605 -0.10656884 -0.06251085 0.029973663
-0.116040416 -0.08954668 -0.030128011 -0.0070064566 -0.10557275 -0.032977354 -0.019556776 -0.009270455
-0.23350501 -0.008630305 -0.31666496 -0.059103537 -0.03561704 0.042462416 0.075826585 -0.12187255
-0.02118157 -0.15909337 -0.22305918 -0.2228451 -0.10092942 -0.03719671 -0.59568584 -0.08404247
-0.035566617 -0.17576112 -0.017799163 -0.2450206 -0.19125795 -0.058329552 0.021632059 0.1277401
-0.041460335 -0.0797344 -0.012224858 0.0016817034 -0.07207496 -0.3305639 -0.038349133 0.043983668
0.08739828 0.09301145 -0.14651375 -0.19919479 0.034184527 -0.099646285 0.011565228 -0.15525113
-0.10403865 -0.16446608 -0.1130351 -0.034074947 -0.072967954 -0.10387885 0.0051149526 -0.11750594
-0.07480793 -0.05332055 -8.896103e-05 -0.028111145 0.065293156 -0.09284935 0.027437128 -0.0011414755
-0.097991556 0.049577318 -0.018156013 -0.11127026 -0.111051224 -0.031699575 -0.081711166 -0.01727606
-0.042390894 -0.0816589 -0.53217757 -0.021011053 -0.42360416 -0.0599865 0.006854589 -0.028230594
-0.019373946 -0.062515624 -0.009989002 0.1428904 -0.08252531 0.068211436 -0.14306259 -0.0031362986
-0.30601504 0.34037864 0.0049790866 -0.5209326 0.40997523 0.107067294 0.48955193 0.08743976
0.25814456 0.00901263 0.08746221 0.15668981 -0.08179771 0.21599524 0.15337956 0.08830219
0.009562585 0.52310956 -0.009053084 -0.46562174 0.7287857 -0.048905898 0.1392721 0.35276273
-0.4039864 -0.569106 0.421775 0.15908112 -0.10272926 -0.43981442 0.028191077 -0.15346792
-0.17488924 0.27836415 -0.18258221 0.105738215 0.11088487 0.1736092 0.20171627 -0.15131007
0.21198535 -0.134504 -0.0117925 0.027834699 -0.42583779 0.17608227 0.112082444 0.15379995
-0.48479506 0.14741802 -0.5919161 0.33142874 0.1471125 0.49622205 0.28094813 0.23502006
0.31624007 -0.05508292 -0.32992166 0.029395623 0.1072402 0.2182665 -0.4882546 -0.035337698
0.036978304 -0.18228601 0.20943458 0.075477205 0.3472234 0.35747212 -0.12146449 0.18666458
0.28243747 0.40198594 0.18966682 0.04714871 -0.063506275 0.0132737225 0.023770632 -0.10143626
0.24254626 0.08705504 -0.013120207 -0.63192666 0.8133717 -0.4668603 0.20380603 0.021421907
-0.09636999 -0.017642722 -0.19984102 -0.47213495 0.041759323 0.21258217 -0.00817781 0.74499756
-0.022576114 0.04299992 0.07755652 -0.37183353 0.39178988 0.038387347 0.76177233 0.3955448
0.059381254 0.31410336 0.45841265 -0.15151918 -0.096800044 0.12811168 0.026418049 0.12672171
-0.07820889 -0.17732562 0.0755432 0.27049634 0.10121482 0.28876525 0.14080954 0.19785133
-0.35964644 0.27785057 0.005735832 0.180275 0.3122912 0.23829082 -0.21493277 0.07978426

weight_ih_l1 f4 [384, 128]
00000000: bdae bb3d 2042 5f3e ea86 e13d 0dac 80bb
00000010: faab 7c3d 81d0 893d f1f4 74bc 3499 443b
00000020: 2763 94bd bfef a33c 2044 9e3d cec2 28bc
00000030: b3e9 fabb 8608 063c 64d4 213c c7d7 febd
00000040: a602 a33d ca87 2ebd 3b56 67bc bc9c f7bd
00000050: 4870 2d3e c9ca 9e3b a705 b63d 10bd 18be
00000060: 797b 7f3d dff3 b83d 579b b1bd 9638 8f3d
00000070: 961c 8b3d 3c99 aa3d 8452 0bbe 56ad 183d
00000080: 3b51 1bbe b0fe 07be 5dcc cdbd 2ed7 cfbd
00000090: 81af 643d 061f 2ebe 9f6a b7bc 7cd7 6a3c
000000a0: 6626 e23d 32c7 a83d 15aa 893d fd90 fc3d
000000b0: 7150 25bd 086e 1dbd cef8 aa3b b764 0cbc
000000c0: f70a 793d 8916 9fbd 1846 0cbc e1f0 13bd
000000d0: c803 a23d 593a 913d 5435 523d d03e 46bd
000000e0: e008 edbd bc41 903c bf0b b83d 9f0f 46ba
000000f0: c18a d43b 281f a93d 7aea 0b3e b5a7 83bd
00000100: ff5b f6bc 3056 b1bc e584 63bc 0ab1 053d
00000110: f297 e6bc 6874 d3bd 5141 263c 9694 82bd
00000120: a905 003e 2df7 dc3d 5a69 9a3d 98d5 9dbd
00000130: 865b c43c 3e5c 19bd 0141 75bd d5c6 d8bd
00000140: 7f6e b639 5754 403d 97c7 bdbc 0a4a bfbb
00000150: 9e1d 373d dafa d03d 1fbc d03d 4928 113d
00000160: 0efa 103d b832 44bd a290 d2bd b006 a7bd
00000170: 2159 9d3d 19e0 0e3e c09c 39bb a60a 55bd
00000180: 035f eebd ce04 fbbc 34a9 3f3d 5c45 dabd
00000190: dc40 32bd 47fe a93d e6b0 20bd d800 343c
000001a0: 739b 9cbd 4107 5fbd f557 e8bd d824 1bbe
000001b0: e8d2 b93d 094d 03be 9c1e 2f3d 6363 c7bc
000001c0: b232 8d3d e82a 49bd 3986 033d dc4c 00be
000001d0: 83b2 cf3c be0a a93c db23 b93d a037 413c
000001e0: 4621 80bd 0478 363d 154b 63bd 128e 6cbb
000001f0: 9a80 dfbd dc49 7939 d86d cfbd 7572 c73b
00000200: 7c39 2dbd 7686 98bd 1c60 72bd ed8a ae3d
00000210: 7851 02bc 934f c1bc 9471 893e 90f3 a03d
00000220: 7d7a fd3d 93ff 13be dbca a7bd 8080 43bd
00000230: 4919 653d 5e1a f33d 7279 243b 7b7f d6bd
00000240: f1e4 b2ba 42be 11be 912d 1cbd c3da 85bd
00000250: e344 2c3e 8332 99bc 7c30 ad3d 0eae fd3c
00000260: f731 953d 576b 883d 2964 8b3d 1383 18bd
00000270: 01a1 77bd 7e15 fbbc b46b 113e 6303 a9bc
00000280: 0897 103d c438 75b9 2589 533d be74 f2bd
00000290: 0d2c 343d 7b6a b83d 1b61 94bd 565c 02bd
000002a0: 5e72 8b3d 13d2 25be 36fe 973d 4b7e e83c
000002b0: 58ea 553c a48e 203e 36fa 9dbc 3e6f 843d
000002c0: 1ed0 a73d 06d9 9d3d 22c5 b2bc 181d 67be
000002d0: a404 6c3d a06c aebd 137d 0a3d e2b4 a43d
000002e0: 2b5e 06be 1b90 65bd fc79 a2bd f61f f2bc
000002f0: 95c8 51be 191e be3d 895b 663d 7f87 b3bd
00000300: 0324 cd3d d67c 483d 9647 50bc 68b8 63bd
00000310: d289 a5bd 3c0a 97bd e154 9cbd 375d ffbc
00000320: f34d 84bd f2a4 c43d b48a a8bd 17fa 2e3d
00000330: f4e1 8b3c b6bd e53c ea6f 7c3a 872b 9fbd
00000340: 07c8 7b3d 4511 efbd 4e4d 6a3b 15c4 10bd
00000350: c98f 30bd 83e9 ec3c 9c64 1dbe aa16 89bd
00000360: a2bf 0abe 0b6b c6bd b105 53bd a487 703d
00000370: 0adf 263e 4753 10bd 035a e83d 7a83 fc3d
00000380: a7b2 0e3d cf06 26be 2e3b 6ebc a707 bd3d
00000390: 4a14 c23d f22f 203d dc7d 243d 910e 143e
000003a0: db83 95bd 5aa6 a13b 17d9 7ebd e40d 5f3d
000003b0: 5e23 86bd 50b0 54bb 7fd5 28bb 1e1f 873d
000003c0: 8c4f 3d3c 3cd4 cebc 6bf7 aabc 55f7 093c
000003d0: 9b1d 0bbe 2f62 1dbd c74f 2b3c 1aed 493d
000003e0: ff00 01bd 5c61 0a3e 4058 2ebd 4899 1bbd
000003f0: c2d2 d4bd 6288 da3d 9787 9c3d 351e c4bc
0.09164188 0.21802568 0.11012061 -0.00392676 0.061687447 0.06729222 -0.014950977 0.0029998543
-0.07245474 0.02001178 0.077278376 -0.010300351 -0.0076572536 0.008180743 0.009877298 -0.124435
0.079594895 -0.042609967 -0.01411968 -0.120904416 0.16937363 0.004845951 0.08887797 -0.14915872
0.062373612 0.0903089 -0.08672207 0.06993215 0.06792562 0.083300084 -0.13605696 0.03727468
-0.15167706 -0.1328075 -0.10048745 -0.10148464 0.055831436 -0.17004022 -0.022389708 0.014333602
0.1104248 0.082411185 0.06721894 0.12332342 -0.040359918 -0.038435012 0.005217648 -0.008568934
0.060801473 -0.0776797 -0.0085616335 -0.036118392 0.079108775 0.07091207 0.05132039 -0.048399746
-0.115739584 0.01760947 0.089866154 -0.00075554283 0.0064862673 0.08257896 0.13663664 -0.06428472
-0.030073164 -0.021647543 -0.013886665 0.03263954 -0.028148625 -0.10324937 0.010147409 -0.06375997
0.12502159 0.107893325 0.075396255 -0.077067554 0.023969423 -0.037441485 -0.059876446 -0.10584799
0.0003479607 0.046955433 -0.02316646 -0.0058376836 0.04470598 0.10204096 0.10192131 0.03543881
0.03539472 -0.04789993 -0.10281493 -0.081555724 0.076830156 0.13952674 -0.002832219 -0.05201211
-0.11639216 -0.03064194 0.046792224 -0.106577605 -0.043518886 0.08300453 -0.039231203 0.010986529
-0.07646837 -0.054450277 -0.113449015 -0.15150774 0.0907343 -0.12822355 0.0427538 -0.024339383
0.06894435 -0.049113184 0.032110427 -0.1252932 0.025353676 0.020635005 0.09040042 0.011793047
-0.062563464 0.04454805 -0.055491526 -0.0036095423 -0.10913201 0.00023774005 -0.10128373 0.0060866424
-0.04229115 -0.074475214 -0.05917369 0.08522592 -0.007953994 -0.023597514 0.26844466 0.07858956
0.123768784 -0.14452963 -0.081929885 -0.04772997 0.055932317 0.118702635 0.00250968 -0.10473534
-0.0013648552 -0.14232734 -0.038129393 -0.06535866 0.16823153 -0.018700844 0.08456513 0.030966785
0.07284921 0.066610985 0.068062134 -0.037234377 -0.06045628 -0.030649897 0.14201242 -0.020631498
0.035300285 -0.00023386168 0.051644463 -0.11838673 0.043987323 0.090046845 -0.07245084 -0.03182634
0.06808923 -0.16193418 0.07421534 0.028380534 0.01305636 0.15679413 -0.019284349 0.0646653
0.08193992 0.077074096 -0.021822516 -0.22569692 0.057621613 -0.08516812 0.033810686 0.08042313
-0.1312186 -0.056045633 -0.07933423 -0.029556256 -0.20486672 0.092830844 0.05623964 -0.08766078
0.10016634 0.048947178 -0.01271238 -0.055595785 -0.08082928 -0.07374999 -0.07633377 -0.031172378
-0.0646018 0.09601773 -0.082295805 0.042718973 0.017075516 0.028044563 0.00096297136 -0.07771974
0.061470058 -0.11673216 0.0035751644 -0.03534325 -0.043105874 0.02891994 -0.1537041 -0.06693776
-0.13549665 -0.096883856 -0.0515191 0.058723107 0.1629602 -0.03523567 0.113452934 0.12329765
0.034838345 -0.16213535 -0.014540477 0.09229975 0.09476526 0.039108224 0.04015909 0.14458682
-0.0730054 0.0049331607 -0.06221875 0.054456607 -0.065497145 -0.0032453723 -0.002576202 0.06597732
0.01155461 -0.025247686 -0.020869931 0.008420785 -0.13585512 -0.038423713 0.010456032 0.049298383
-0.03149509 0.13513702 -0.04256463 -0.037987977 -0.10391761 0.10670544 0.07643049 -0.023940185

weight_hh_l1 f4 [384, 128]
00000000: 150f c03f dfcb a4be 30b8 79be d367 00be
00000010: 852c 83bd 8410 0cbb 96e7 2c3e fc8b 5abc
00000020: dae7 90bc 6e3f 803c 2861 b53c 0df6 34bd
00000030: f0fa 233e 9a8d b53c 0bcb 0cbe d386 b43c
00000040: 6629 903d 2596 7ebd aa22 73bd 32fd 413e
00000050: c04b 7b3e edf1 8b3d af8d 3ebe 1711 f83c
00000060: a602 9bbd 8940 8dbd 0767 b8bc 22c6 c83d
00000070: 37df bcbd 7a32 34bd 423a 8eba 6e09 573e
00000080: 433d 09be 66c6 11bd 9303 453d 12fb c13b
00000090: 1774 5fbd 3c66 093d 0f96 cc3d f4bb 433e
000000a0: 119c 15be f292 d33c 95ff 67bc c3ff 073e
000000b0: 435d 533c 2643 47be 2aca 1e3e 7913 5a3e
000000c0: e9bf 0c3d 31a2 25bd c8d8 c53c d03e 0ebe
000000d0: 2236 42be 63fd b93d 334c c23d 22b8 0c3e
000000e0: e8cf 6fbd 84d7 0f3d cedb e5bc 8e0c 1f3e
000000f0: 32ef a63d dda8 7e3d c938 a53c 6f65 8c3b
00000100: 56b9 0f3e c0c4 2e3d d099 10be af98 4cbd
00000110: 23a4 2e3e f26b f83b 8580 203d 73f1 85be
00000120: dc16 133e c820 98bd 245c ec3d bc79 abbd
00000130: 7517 f0bd ea28 e23d 3f04 543d d8c9 66bd
00000140: e3cf bd3c ab58 4fbc d713 cabd 2e5b b2bd
00000150: 5206 173e f4bb 2a3e 0fd1 3ebd 80aa 853d
00000160: ca5c c03d 6752 bbbb 7974 dd3d 12f9 8f3e
00000170: 8d1f 65be 540a 1c3e 3dc5 3e3c e852 2abe
00000180: 5af1 4f3e 64eb dcbc bd40 87be 0212 443d
00000190: ea40 2d3e 85ff 183e 5518 533e d269 b0bd
000001a0: 37a7 69be 5d35 eabd c0ac 03bc 2084 7b3e
000001b0: 6906 11bd 734e 9b3e 63c5 573e 1c9a dd3d
000001c0: 56d2 1ebd 405e e43c f7e8 0cbd 1d55 d7bd
000001d0: 6737 813d 52a5 853d 62bf d83c c265 9b3d
000001e0: ccd6 5b3d 0fbb 0b3e 8007 363d 486c 81bd
000001f0: 4062 f2bd d51c ba3d d626 053e d2be c6bc
00000200: e5d4 87be ab90 e8bf 4290 80be 926a 8cbd
00000210: ae37 80bd 07d0 2cbe e29e a03d 2ed3 743d
00000220: b696 583b d15b 803e 5c16 b43d d5db 5c3d
00000230: a29d 23be 15aa 093c f368 353e c96e d13d
00000240: 34e3 7abd d954 c43d fe03 9c3c 67df f73d
00000250: db8c 213e de62 9cbd 1861 ad3e 62b7 52bd
00000260: 9060 dd3d 8277 863c efb1 afbb aba3 ec3d
00000270: af63 b43d 5fbb 44be 4e57 dc3d 4b19 823e
00000280: 5a20 8d3c 1f0c 84bd f288 2f3d 679a 403e
00000290: e38a ffbd 0f70 e33c 9087 cf3d 3b57 85be
000002a0: 37c6 a83b bb75 853e adbd 98bd 0f57 cc3d
000002b0: ecda 45bd d6ef 983e e435 0f3d d21d 68bd
000002c0: b65e 193e 7691 2dbe 99a1 043e 9ec8 0e3e
000002d0: e678 d03d 278f 93bd 8b67 16be 37df ee3c
000002e0: 0b17 23be 5b14 913e 8c0f 223d 1b83 08bd
000002f0: d548 1c3c c591 9dbd 0cc5 b53d 08a3 62be
00000300: fd48 90be 54d3 10bc bc8e c23d ec93 053b
00000310: 31a9 973e 49fe 8f3d c2de 5d3e 90ba c23e
00000320: 24cf e33d d043 ed3d c725 ecbc c0b6 8abc
00000330: 1c4a 56be fc95 b53c b6e7 903d b699 2f3d
00000340: 5189 97be 14c2 7dbd b6b5 103e 2d21 fdbc
00000350: e677 19be aa82 8c3e c345 20be a51b 86bd
00000360: 2fed 753e 423b 073e 7f2b 6bbe 4f33 57be
00000370: db50 0d3e cf64 aa3c ee0c 93bc 33d3 763e
00000380: c5e5 523d fd99 afbe b916 39bd b15b ebbd
00000390: 2475 17be 9aa6 ddbd 3697 a2be 1a15 e53d
000003a0: 282e 043e f240 863e f2e8 913e 0b8e 093e
000003b0: b15a a8bc 60db f83d aa36 89be d2ce 1a3e
000003c0: 2cc3 20be d499 02be 311b 9dbd 1b96 22bd
000003d0: e543 363c 67e0 413d 30a7 c83d c881 abbe
000003e0: 849c ea3d 53b0 ce3c 70c6 6c3d 9435 43be
000003f0: 48f9 e13c 81ba 133e 8382 163e 9ac8 42bd
1.5004603 -0.3218679 -0.24386668 -0.12539606 -0.06404976 -0.0021372149 0.16885218 -0.013339039
-0.01768868 0.015655246 0.022141054 -0.044179965 0.16013694 0.022162247 -0.1374933 0.022036945
0.07039146 -0.062154908 -0.05935923 0.18944243 0.24540615 0.06833253 -0.18608736 0.030281587
-0.075688645 -0.06897075 -0.022510065 0.09803416 -0.09222262 -0.04399345 -0.0010851102 0.20999691
-0.13402276 -0.035589598 0.04809911 0.0059198225 -0.05455407 0.033544764 0.09989559 0.19114667
-0.14610316 0.025826905 -0.014160057 0.13281159 0.012900653 -0.19459209 0.15506807 0.2129649
0.034362707 -0.04043788 0.02415122 -0.13891149 -0.18965963 0.09081533 0.0948719 0.13742116
-0.058547884 0.03511764 -0.028058913 0.15532133 0.08151092 0.06217276 0.020168679 0.0042845528
0.14035544 0.042668104 -0.14121175 -0.049950298 0.170548 0.0075812275 0.039185066 -0.26160774
0.14364189 -0.074281275 0.11541012 -0.08372828 -0.11723224 0.1104296 0.051761862 -0.056344837
0.023170417 -0.012655417 -0.098670654 -0.087087974 0.14748505 0.16673261 -0.046586093 0.06526661
0.09392698 -0.0057166102 0.10813231 0.28119713 -0.22375317 0.15238315 0.011643705 -0.16633189
0.20306912 -0.026967712 -0.2641658 0.047868736 0.16919294 0.14941223 0.2061475 -0.086139336
-0.22817694 -0.114359595 -0.008036792 0.2456212 -0.035406504 0.3033329 0.21071391 0.1082041
-0.03877481 0.027876973 -0.03440186 -0.10514281 0.06309395 0.06525673 0.026458446 0.07587768
0.053671643 0.13645576 0.044440746 -0.06319481 -0.11835146 0.090875305 0.13003096 -0.024260912
-0.26529613 -1.8169149 -0.2511006 -0.06856264 -0.0626062 -0.16876231 0.078428045 0.05977171
0.0033048815 0.2507005 0.08793327 0.053920586 -0.15978101 0.008402367 0.17715816 0.10226209
-0.061251834 0.09586496 0.019044872 0.121031575 0.15776388 -0.07636045 0.3386314 -0.05144442
0.108094335 0.016414408 -0.0053617875 0.11554655 0.08808076 -0.19212101 0.107588395 0.25409922
0.01722734 -0.064476244 0.04285521 0.188089 -0.124776624 0.027763395 0.10133278 -0.26043114
0.005150582 0.26066384 -0.07458053 0.099775426 -0.048304483 0.2987048 0.034963503 -0.056669064
0.14977536 -0.1695002 0.1295227 0.13943717 0.101793095 -0.072050385 -0.14687936 0.029159172
-0.15926759 0.28335842 0.039565608 -0.033328157 0.009538849 -0.07693819 0.08875474 -0.22132504
-0.28180686 -0.008839447 0.09499881 0.0020382358 0.2962127 0.07030923 0.21667007 0.3803296
0.11123493 0.115852 -0.028826607 -0.016932845 -0.20926708 0.022166245 0.07075445 0.0428712
-0.29596952 -0.061952665 0.14131817 -0.030899609 -0.14987144 0.2744344 -0.15651612 -0.065482415
0.2401626 0.13206199 -0.22965811 -0.21015666 0.13800375 0.020800022 -0.017950501 0.24104004
0.051488657 -0.3429717 -0.045187686 -0.11492098 -0.1479078 -0.10822792 -0.3175599 0.111856654
0.12908232 0.26221424 0.28498036 0.13433091 -0.020551058 0.121512175 -0.26799518 0.15117958
-0.15699452 -0.12753993 -0.07671202 -0.039693933 0.011124586 0.047333147 0.097975135 -0.33497453
0.11455634 0.025230562 0.057806432 -0.19063407 0.027584687 0.14426614 0.14698224 -0.04755459

bias_ih_l1 f4 [384]
00000000: 7da5 8abd 99f1 943d f2aa 2e3d 8cb6 c0bd
00000010: d2fc 383d fe98 4cbd ce32 3e3d 8b13 61bd
00000020: 0afb 24bd 1476 69bc f1d1 3bbe 49c9 053d
00000030: bba2 093a 84f9 26be 943f 14bb 7dcc adbd
00000040: ded1 b6bd 09ef 833d 37f3 26bd 6295 a23d
00000050: 86e3 fdbd cffe 51bd 5b0f a6bd 7a48 b43d
00000060: 28b6 e93b c14c edbd 0992 233e 9862 b9bd
00000070: b98c 1b3d f006 433d 1ac4 29be e46f 9b3b
00000080: b378 153b 535a 8e3b 5dc7 e03c e6ec b63c
00000090: 7026 ebbd 90d5 2ebd 8081 573d 23b3 fcbc
000000a0: 2573 9d3d 789e a43d 0dfe a43d 40f3 8f3d
000000b0: 14ad 323d 2dde b13c d981 c83d 3cbc 92bd
000000c0: 0bc3 32bd 3e64 b4bc 7b13 73bd 9269 5ebc
000000d0: 279e fb3c cd03 a6bc 3d33 d23b 5d2c adbc
000000e0: adc2 1dbe 4f93 603d dea3 f1bd 17f3 d33d
000000f0: d10b 1b3d 9df7 613a 82b4 57bf f348 033d
00000100: 4386 cd3d ee86 4b3d 8d89 c7bc 17a2 dfbc
00000110: a217 9a3d 823d 9ebd c940 3c3b 4857 efbb
00000120: cdf7 a9bd 730d 08be 6560 723d 92e3 033d
00000130: f094 d43d 1e18 d13d 7831 103d 158a a9bd
00000140: 9836 9abc 6ddc 813c b3c3 04be c89c 8abd
00000150: 0692 0a3d ee30 e13c 7531 ea3e c0fc a0bd
00000160: fb9e 893d 34ca dbbc 5da0 15bd 2c7d 53bc
00000170: c309 483c 8134 c5bc 5b74 81bd 99f3 8b3c
00000180: 2247 45be b2de c33d 6c4f 7cbc 87aa 933c
00000190: 4cf4 6ebd 01fb 03be 49b1 26bd 42c5 3cbd
000001a0: e961 903c 4f7f 83bd 8d5d 203b 7140 493d
000001b0: 3c95 eabd bb82 23bd bd44 283d 9078 923c
000001c0: 8c30 2b3c dde6 22bd 4cd8 17be 28bb 42be
000001d0: ab04 58bd 1191 54bd 76df 293b c1d6 65bd
000001e0: aa2c 3d3d 3a08 a4bd 68dc 47bd ee49 8f3d
000001f0: 1b89 95be ebae f93d 85f4 c2bd daf6 f7bd
00000200: 0aca 883e 0017 003f 0a22 703e dd5f 9bbe
00000210: a136 f1bd 3f18 9d3d edb7 41bc 659d bbbe
00000220: da31 81be c5e4 f93e acdf febe fb20 053e
00000230: e2f0 8c3e 64fd 203d ffec a03e 8c87 813d
00000240: 9052 eb3d 1fa3 743e 5414 c03e bcb5 1d3e
00000250: 2d0e 043e 5af0 613e 45a0 513e e746 f03e
00000260: fdf8 e53e ea17 843e 2ed8 a9bd 0907 13be
00000270: 2363 f63e a927 723e b429 f0be 5804 163e
00000280: f5cd ba3e 57f3 1abf 8dfb 9e3e fafc 823c
00000290: 1518 853d 9865 2d3e 8dcc 083e b489 ab3e
000002a0: 4ada d73e 7c22 883e c6d0 b73e 819c febe
000002b0: 53e4 a33e 694b 5e3e c36d b63c 2909 ed3d
000002c0: e541 853e ee5b 3a3e a205 a7be 5da2 e83e
000002d0: e153 9f3e 9df4 153d 1c07 953e e802 123e
000002e0: aed1 d63e 8d42 123d 94e8 a8be 0d39 1d3e
000002f0: 5a27 04be c31f 613e 1ca9 f2be cb0e fb3e
00000300: d54c 573c 9a37 d0bd 5708 973e a544 d73e
00000310: 0ea2 953e d6bf f4be 9490 c6bd 6a70 123e
00000320: c860 d7be 667a 643e eb74 883e c764 e73e
00000330: 8039 033e 1659 a23e 7c60 963e e1b6 95be
00000340: bfb3 2a3e 2832 b93e d7dc 623e 7bdc 19bd
00000350: d9f3 d23e 2f3d c43e 5776 ea3e 1927 743e
00000360: 9b98 eb3e b044 843e f649 973d 44a4 843e
00000370: 1f48 953e a4be 7d3e 98e0 c9be 594c f73d
00000380: eafe e23d 6316 9b3e ea47 253e 6385 bb3e
00000390: e0d4 953e 684b 103f 5f59 c23d 9561 103f
000003a0: 9cd4 ae3e 238c 953d cff4 873e 36c5 673e
000003b0: e64e f03e c2aa 603e 3b1d 313e ad3d e63e
000003c0: c536 90bd 6046 203e 8d4b 9fbe ea40 4fbf
000003d0: 83a9 b33e 0fd9 92bb 1535 f93d 9821 563e
000003e0: 1f14 bd3e 9c0b d8be 8950 e53e c25f ce3d
000003f0: 1df0 19bf 60e7 9c3e 72c3 19be f130 0dbf
-0.06769846 0.072726436 0.042643495 -0.09409818 0.045162983 -0.049950592 0.04643517 -0.05495028
-0.040278472 -0.014249343 -0.18341805 0.032662664 0.0005250384 -0.1630612 -0.0022620903 -0.08486269
-0.08926748 0.06442077 -0.04075929 0.07938649 -0.12396912 -0.051268395 -0.081083976 0.08802886
0.0071323104 -0.11586905 0.15973677 -0.090520084 0.037976 0.047614038 -0.16578713 0.004743563
0.0022807538 0.0043442636 0.027438814 0.022329759 -0.11481941 -0.042684138 0.052613735 -0.030847138
0.07687978 0.08038038 0.08056269 0.07028818 0.04362209 0.021712387 0.097903915 -0.07164809
-0.04364304 -0.022020455 -0.05934475 -0.013574975 0.030715061 -0.020265484 0.0064147995 -0.021139318
-0.15406294 0.054827984 -0.11798833 0.103491 0.037853066 0.0008619966 -0.8425981 0.03205199
0.10035374 0.049689226 -0.024357582 -0.02729897 0.07524039 -0.077265754 0.0028725138 -0.007304106
-0.082992174 -0.1328638 0.05917396 0.03219945 0.1037997 0.10209678 0.035203427 -0.0827829
-0.01882486 0.015852178 -0.12965278 -0.06768185 0.033830665 0.027489152 0.45740858 -0.07860708
0.06719776 -0.026829816 -0.036529887 -0.012908261 0.012209359 -0.024072887 -0.06321021 0.01708393
-0.19265416 0.0956396 -0.015399795 0.01802565 -0.05833845 -0.12888719 -0.040696416 -0.046086557
0.017624812 -0.064207666 0.0024469823 0.04913372 -0.114542454 -0.039919596 0.04108118 0.017879754
0.010448586 -0.03977095 -0.14828604 -0.19016707 -0.052738827 -0.05189616 0.0025920547 -0.05611301
0.046185173 -0.080093816 -0.04879418 0.06996523 -0.29206166 0.12191566 -0.09519295 -0.1210763
0.26716644 0.50035095 0.23450485 -0.30346575 -0.11777998 0.0767064 -0.0118236365 -0.3664352
-0.25233346 0.4880735 -0.49780023 0.13000862 0.2752753 0.039304152 0.31430814 0.06324682
0.11490357 0.23890351 0.3751551 0.15401357 0.12896033 0.22064343 0.20471294 0.46929094
0.44916525 0.25799495 -0.08293186 -0.14358152 0.4812251 0.23647942 -0.46906817 0.14650095
0.36485258 -0.6052756 0.31051293 0.01598977 0.06498734 0.16933286 0.1335928 0.33503497
0.4215873 0.2658881 0.3590147 -0.49728778 0.32010135 0.21708454 0.022269135 0.11574013
0.26026836 0.18199131 -0.32621485 0.45436373 0.31118682 0.036610235 0.29106987 0.14258921
0.41956848 0.035708 -0.32989943 0.15353794 -0.12905636 0.21984772 -0.47394645 0.49034724
0.013140877 -0.10166855 0.2949855 0.4204456 0.292252 -0.4780261 -0.09695545 0.14300695
-0.42066026 0.22312316 0.266517 0.45194075 0.12814903 0.31708592 0.29370487 -0.29241088
0.1667013 0.3617108 0.22154556 -0.037563782 0.41201666 0.3832793 0.4579341 0.2384304
0.46014866 0.25833654 0.07387154 0.25906575 0.29156587 0.24779755 -0.39429164 0.12075109
0.11083777 0.30290517 0.16140714 0.36625203 0.29263973 0.5636506 0.094897024 0.563989
0.34146583 0.073021196 0.26553962 0.22633824 0.46935195 0.21940139 0.17296307 0.4496893
-0.070416965 0.15651846 -0.31112328 -0.80958426 0.35090265 -0.004481442 0.12168328 0.20911252
0.36929414 -0.42196357 0.44788006 0.10076858 -0.6013201 0.30645275 -0.15015963 -0.55152804

bias_hh_l1 f4 [384]
00000000: 2203 25bd 7114 143d f59c 20bd df5a a5bd
00000010: 701f 953c 89a4 49bd a1eb c23a 3b3e 6e3d
00000020: 42a1 c2bd bb24 0dbd df74 c8bd 0df5 9bbc
00000030: 0975 f3bb 435e 1cbe 5b21 d2bd df35 8dbd
00000040: adfb 543d d28a 4fbd 902f 87bd 0fcb 3d3c
00000050: a684 2c3d 535e 883d 4208 d13c fb07 883d
00000060: e777 99bd c3e5 9239 acec 903d 78cb 603d
00000070: a68a 963c 3d5e f5bc 0371 5dbd 0b8e cd3a
00000080: eb65 cc3d f36f 2abd 4ad0 b4bb 711d e6bd
00000090: 6187 833c 5f7d ad3d 577d 4c3d 4955 073d
000000a0: f47c e53c bfa8 8e3d 3856 e03d be3f 0cb8
000000b0: c068 a1bd be52 c9bc a69b 5f3c 9679 8bbd
000000c0: adbd c73d 4d72 debd a1f9 94bd 465b 023d
000000d0: 7742 603d c460 92bd 9fc1 fc3d 5928 80bd
000000e0: 2929 3cbd 4580 193d 4d63 c8bd 01e1 0d3d
000000f0: 1770 33bd 5943 b83d a4e6 56bf 1cdf 9ebd
00000100: e496 d33d 57fa 5a3d 69b3 40bc dae7 ae3d
00000110: dbfa ab3d c603 013d 030d 92b8 3404 e2bc
00000120: 742f 5cbd f7c2 9b3c b3cf b0bc 594f 883d
00000130: dfe6 d43d 9203 be3d cc80 f03d 5051 1fbb
00000140: 3f3d 57bd 7c04 5dbc 36d5 8abd 9809 243b
00000150: 7df4 ef3b fd14 0dbb c235 c43e 9871 70bc
00000160: 58d2 a33c 6806 f0bd 402b a73d e25b b83c
00000170: 2a75 8d3d 03d2 b8bd 03a5 b0bd cd7e a93d
00000180: bf51 60bd f394 4f3d 7365 6fbd 3e7b cd3d
00000190: 2bfc c13c 580c afbd c4e6 56bd 8fa1 1fbc
000001a0: 20bb a0bb c974 85bd 5417 e6bd b534 093c
000001b0: adcb 12be c56c 253d d56b 653d f99a ff3c
000001c0: 8caf babd e0b8 6c3c c08e 91be 1a36 3bbe
000001d0: 6af3 56bd 2a7c b5bd 1438 6d3d 92db b2bc
000001e0: 1121 6f3c bfe8 18be 2e33 86bd fc35 1a3d
000001f0: 121d 96be 5322 743c 4143 2bbd 33de d5bd
00000200: 2124 863e 8331 ca3e d8e8 a83e d29c 9abe
00000210: 7048 68be 8426 b23d f76f 65bd e6da 8dbe
00000220: 67e8 81be 785c ca3e 0a6f 0abf f3b8 043e
00000230: 6937 bc3e d82e 563d e008 633e 2693 003e
00000240: 173d db3c a436 8a3e 7b65 da3e 3b64 403e
00000250: 1d25 d93d 7cef 823e 51bf 653e ce76 ac3e
00000260: 5ca3 a43e 64a0 113e 4324 a13d c0d2 57be
00000270: 42ef aa3e 709e 2a3e c820 a5be f331 443e
00000280: 148f 963e 8d65 18bf dfa4 a93e efda 073e
00000290: 2d53 e1bc f709 983e cf75 f73d c55c 5a3e
000002a0: 96d6 cd3e 27fa 773e 6556 de3e fdd8 0cbf
000002b0: 9e1b ba3e 5948 4f3e f9dc ebbc 1f09 ff3d
000002c0: 3b37 763e fc7e ba3d ddea 79be 8501 ed3e
000002d0: 19cf b53e db81 19bc 6cb7 c13e cd06 0e3e
000002e0: c53b 943e 7ab3 ee3d 0581 80be 5653 4a3e
000002f0: 04bf 36be a38f 843e 075d 1bbf cdd0 d93e
00000300: eb02 9fbd db88 1abe 1990 a13e 4e72 fa3e
00000310: fe40 db3e ac02 cebe e677 fbbd 2603 503e
00000320: 2920 bdbe a0ee 673e d55d 323e e073 c43e
00000330: 6884 773e 93a7 6e3e ff51 703e 487a cdbe
00000340: abfc a63d 4bb5 cd3e 5408 9b3e 9014 17be
00000350: 0ef7 a43e 1586 8c3e a8d9 eb3e 0ac8 363e
00000360: 9dac f83e 706e 573e a21c fa3d be37 5b3e
00000370: 5155 c43e 33de 1e3e 421b bcbe ec7c cc3d
00000380: a5a8 fc3d 987e 783e 0493 ff3d 199c c13e
00000390: d593 aa3e 2402 e93e 719e ed3d 1805 1d3f
000003a0: af88 c93e 4261 2f3e e478 2f3e 45d8 9a3e
000003b0: 0528 c43e 266a 553e be6f 533e 9d32 c43e
000003c0: 4fa2 a43c 1da6 1f3e f7c3 c0be bdd8 34bf
000003d0: a1fe c93e 1ca3 203e 2a34 0b3e be5a 4e3e
000003e0: c063 ba3e 6094 cabe e5dc 8e3e 5990 f03d
000003f0: 230e 17bf 52ae aa3e 32a9 2dbd 4402 09bf
-0.04028619 0.036152307 -0.039212186 -0.08073973 0.018203467 -0.04922918 0.0014871248 0.058164816
-0.09503414 -0.034458857 -0.097879164 -0.019037748 -0.007429723 -0.15270333 -0.10260268 -0.06895041
0.05199783 -0.0506695 -0.06600869 0.0115840575 0.04211869 0.06658616 0.025516633 0.06642147
-0.07493573 0.00028018476 0.070763916 0.054881543 0.01837666 -0.029952163 -0.054062854 0.0015682591
0.09980377 -0.04161067 -0.005517994 -0.11236084 0.016055765 0.08471178 0.04992422 0.03304032
0.028013684 0.069657795 0.10953945 -3.3437966e-05 -0.078813076 -0.024575587 0.013647949 -0.068103
0.09752975 -0.10861645 -0.072741754 0.031825326 0.054750886 -0.07147363 0.12341618 -0.06257696
-0.04593769 0.037475843 -0.09784565 0.03463841 -0.04380807 0.089972205 -0.8394568 -0.077573985
0.103315145 0.0534614 -0.011761525 0.08540316 0.08397456 0.03149774 -6.964246e-05 -0.027589895
-0.053756192 0.019013865 -0.021583414 0.06655759 0.10395598 0.09278025 0.11743316 -0.002430994
-0.052548643 -0.013489839 -0.06778948 0.0025030132 0.0073228464 -0.0021527403 0.38322264 -0.01467552
0.01999776 -0.11719972 0.08162546 0.02250475 0.06907113 -0.090244316 -0.086252235 0.082761385
-0.05476546 0.05067916 -0.05844636 0.10033272 0.023679813 -0.08547276 -0.05246617 -0.009743108
-0.0049051195 -0.065164156 -0.11234918 0.008374383 -0.14335509 0.040386934 0.05601104 0.031201826
-0.09115514 0.0144483745 -0.28429222 -0.18282357 -0.05247823 -0.08861573 0.05791481 -0.021833215
0.014595286 -0.14932536 -0.065527305 0.03764914 -0.29319054 0.014900762 -0.041812185 -0.10442772
0.2619944 0.394909 0.32990146 -0.3019777 -0.22683883 0.086987525 -0.05601498 -0.2770607
-0.2537262 0.39523673 -0.5407568 0.12961178 0.36761025 0.052290767 0.22171354 0.12556133
0.026762528 0.26994812 0.42655548 0.18788235 0.10602782 0.25573337 0.22436263 0.3368439
0.32155883 0.1422134 0.078682445 -0.21076488 0.33385664 0.16662002 -0.32251573 0.19159679
0.29406035 -0.59529954 0.331336 0.1326711 -0.027505482 0.29695103 0.12083017 0.21324451
0.4020278 0.2421652 0.4342529 -0.550186 0.36349195 0.20242442 -0.028791891 0.124529116
0.24044506 0.091062516 -0.24406 0.46290222 0.35509565 -0.009369339 0.37835252 0.13869782
0.2895185 0.11655326 -0.25098434 0.19758353 -0.17846304 0.25890836 -0.60688823 0.42542115
-0.077642284 -0.15091269 0.3155525 0.48915333 0.42823023 -0.40236413 -0.12278728 0.20313701
-0.369386 0.22649622 0.17418607 0.38369656 0.24171603 0.23306112 0.23468779 -0.40132356
0.08153661 0.40177378 0.3027979 -0.14753938 0.32219738 0.27446046 0.46064496 0.17849746
0.48569193 0.21038222 0.122124925 0.21407983 0.3834634 0.1551445 -0.36739546 0.099847645
0.12336854 0.24267042 0.12479213 0.37814406 0.33315912 0.45509446 0.11602486 0.613359
0.39362094 0.17126945 0.1713596 0.30243126 0.38311782 0.20841274 0.20648095 0.38319865
0.020096926 0.15590711 -0.3764951 -0.70643216 0.3945208 0.15687221 0.13594118 0.20151803
0.36404228 -0.39566326 0.27902904 0.11746282 -0.59005946 0.3333612 -0.042397685 -0.5351908
