GRU/models/model_hs=128_layers=2_epochs=10_batch=32.pth (torch, 608316 bytes, 9 tensors)

weight_ih_l0 f4 [384, 5]
-0.09019115 -0.1117988 -0.07619808 0.059859905 -0.031644177 -0.15195332 -0.22463737 -0.123796925
-0.12300148 -0.06165764 -0.016278833 -0.013960407 -0.03496738 -0.10646337 -0.122576095 -0.17311333
-0.22031407 -0.086738005 -0.20249934 -2.30713e-05 -0.13820855 -0.16708742 -0.076691635 -0.09645862
-0.1792501 0.03709499 -0.053980853 0.02562224 -0.006901038 -0.11410914 -0.062830865 0.022656512
0.043938678 0.07478472 -0.013734823 0.008340588 -0.10891486 -0.05191371 -0.12864475 -0.15454516
0.03714345 -0.07240595 -0.08996194 -0.14036107 -0.12691993 -0.16010499 -0.13917531 -0.03834233
-0.0632434 -0.0783904 -0.08060358 -0.19809857 -0.1041687 -0.20179181 0.09386314 -0.043020584
-0.12831303 0.018352479 -0.056282256 0.08504026 -0.10060717 -0.112367295 -0.08432191 -0.06401781
-0.033952832 -0.033595443 -0.022901542 -0.19814539 -0.15441567 -0.19838835 -0.028133048 -0.1016566
-0.0055103623 -0.080364354 -0.027973495 -0.14728227 -0.119981065 -0.08943718 -0.11919503 -0.034261197
-0.14576328 -0.08025368 -0.07111846 -0.0071738353 -0.02526678 -0.14392224 -0.1017894 -0.060657095
-0.065518364 -0.0065251575 -0.044368487 -0.0034864687 -0.0013972485 -0.057120163 -0.004348082 -0.12546492
-0.088251166 0.0029820737 -0.078639284 -0.08027657 0.09322733 0.05360555 -0.025298793 0.0054026158
-0.010664646 -0.037716195 -0.17562918 -0.0925551 -0.22309636 0.03005163 -0.15071289 -0.21996506
-0.19979082 -0.16661252 -0.008485145 -0.08557476 -0.033126432 -0.04426745 0.0024873733 -0.07958621
-0.06401943 -0.1034164 -0.11959741 -0.12937798 -0.12166844 0.08987267 0.04285981 0.0033606428
0.13374372 -0.1454888 -0.02883768 0.002131394 -0.085710146 -0.008449374 0.0703435 -0.112659425
-0.13469492 -0.1085508 -0.017073039 0.13571797 0.032019842 0.036076926 -0.07288573 -0.03372288
-0.010882001 -0.0125713525 -0.12926562 -0.06401365 -0.18174142 -0.12082839 -0.19418882 -0.07148551
-0.090448566 -0.122970305 -0.17473908 -0.33325943 -0.40226194 -0.28540573 -0.3132529 -0.4023146
-0.06901214 -0.03831499 -0.09516703 -0.13457873 -0.04470326 -0.104454145 -0.14345172 -0.16396073
-0.14086951 -0.11068928 0.08163603 0.13459238 0.11878479 -0.010157247 -0.04095152 -0.055453494
-0.11166827 0.038310226 -0.039695546 -0.01809385 -0.06713852 -0.04231612 -0.03101719 -0.12173361
0.044272725 -0.21048763 -0.2005797 -0.19331247 -0.21098155 -0.0022505273 -0.15054213 -0.16641568
-0.19015376 -0.17152955 -0.13185154 -0.056410134 0.014197458 -0.096302405 -0.034314636 -0.06551831
-0.022820244 -0.11574084 -0.1427614 -0.20214081 -0.14476739 -0.16532668 -0.148561 -0.20284362
-0.09498079 0.009685818 -0.008890714 0.072887965 0.027447853 0.1082012 -0.08033637 -0.0950886
-0.18917456 -0.2001625 -0.08142313 0.06590796 -0.13361529 0.005198104 -0.1120874 -0.13830529
0.0038817355 0.25797006 0.26016128 0.17502391 0.09528103 0.023256646 -0.14514732 -0.14314666
-0.0403349 -0.10688795 0.054552954 -0.07747807 -0.021231283 -0.046155572 -0.0073442142 -0.00010331724
0.016695928 0.037590478 0.04803413 -0.040658813 -0.018645586 -0.21419346 -0.15634207 -0.085059285
-0.09852679 0.034972873 -0.04241905 0.08879418 -0.014548593 -0.063151464 -0.123077735 -0.06861138
00000000: 23b6 b8bd c5f6 e4bd bd0d 9cbd a92f 753d
00000010: 539d 01bd a799 1bbe 5707 66be 3e89 fdbd
00000020: 33e8 fbbd b98c 7cbd 305b 85bc 31ba 64bc
00000030: f539 0fbd 7809 dabd 2d09 fbbd 9f44 31be
00000040: 039a 61be b2a3 b1bd fd5b 4fbe 3d89 c1b7
00000050: 8b86 0dbe f718 2bbe 8110 9dbd 198c c5bd
00000060: 578d 37be ebf0 173d 071b 5dbd bbe5 d13c
00000070: 1a22 e2bb 0eb2 e9bd 78ad 80bd 269a b93c
00000080: 0bf9 333d bb28 993d 0608 61bc f6a6 083c
00000090: c10e dfbd 78a3 54bd 73bb 03be 1641 1ebe
000000a0: bb23 183d 9249 94bd f73d b8bd d0ba 0fbe
000000b0: 4cf7 01be 90f2 23be f983 0ebe d90c 1dbd
000000c0: c185 81bd 258b a0bd 7d13 a5bd 5ada 4abe
000000d0: 6656 d5bd 83a2 4ebe 513b c03d 5a36 30bd
000000e0: 7e64 03be f057 963c 3988 66bd 9629 ae3d
000000f0: 220b cebd d320 e6bd f7b0 acbd c51b 83bd
00000100: 2012 0bbd 609b 09bd 049c bbbc a0e6 4abe
00000110: 241f 1ebe 5126 4bbe 4777 e6bc 5631 d0bd
00000120: 4590 b4bb 1196 a4bd ac28 e5bc 2ad1 16be
00000130: a2b8 f5bd d72a b7bd 861c f4bd 7855 0cbd
00000140: f842 15be 0b5c a4bd 8ea6 91bd 7e12 ebbb
00000150: 47fc cebc 5a60 13be f676 d0bd 9373 78bd
00000160: 7e2e 86bd fdd0 d5bb bbbb 35bd 3d7d 64bb
00000170: e123 b7ba d5f6 69bd 5b7a 8ebb e079 00be
00000180: 07bd b4bd e56e 433b a20d a1bd 0b68 a4bd
00000190: f8ed be3d 7e91 5b3d 6a3f cfbc 6d08 b13b
000001a0: c4ba 2ebc 4c7c 1abd 23d8 33be 878d bdbd
000001b0: 5f73 64be d62e f63c 7b54 1abe 853e 61be
000001c0: f795 4cbe 799c 2abe 4705 0bbc d241 afbd
000001d0: 95af 07bd c951 35bd 3303 233b 18fe a2bd
000001e0: 9e1c 83bd facb d3bd 7def f4bd a97b 04be
000001f0: 4e2d f9bd 2a0f b83d c58d 2f3d 3b3e 5c3b
00000200: 1df4 083e 04fb 14be 003d ecbc dcae 0b3b
00000210: cd88 afbd 3e6f 0abc 4110 903d fcb9 e6bd
00000220: 77ed 09be e24f debd c2dc 8bbc a7f9 0a3e
00000230: 3d27 033d 66c5 133d 1d45 95bd 0121 0abd
00000240: 6c4a 32bc 13f8 4dbc 355e 04be 9719 83bd
00000250: 6c1a 3abe e074 f7bd 6fd9 46be ff66 92bd
00000260: 193d b9bd dbd7 fbbd cdee 32be fba0 aabe
00000270: 47f5 cdbe b320 92be af62 a0be 2efc cdbe
00000280: 3d56 8dbd 2ef0 1cbd efe6 c2bd 02cf 09be
00000290: c41a 37bd 0eec d5bd 02e5 12be 52e5 27be
000002a0: 1940 10be 10b1 e2bd ca30 a73d 96d2 093e
000002b0: 7145 f33d 956a 26bc c8bc 27bd 3423 63bd
000002c0: 55b2 e4bd 2feb 1c3d cc97 22bd 8e39 94bc
000002d0: ec7f 89bd ab53 2dbd c317 febc 794f f9bd
000002e0: 5157 353d 128a 57be c464 4dbe b4f3 45be
000002f0: 8c0b 58be 957d 13bb b727 1abe df68 2abe
00000300: abb7 42be 71a5 2fbe 1704 07be 500e 67bd
00000310: 749c 683c 323a c5bd 818d 0cbd 772e 86bd
00000320: 85f1 babc 8909 edbd 0b30 12be 00fe 4ebe
00000330: e73d 14be 664b 29be 6020 18be 3db6 4fbe
00000340: 4a85 c2bd 44b1 1e3c 5baa 11bc 4946 953d
00000350: 52da e03c 9798 dd3d 6587 a4bd d0bd c2bd
00000360: fab6 41be 66f7 4cbe 2cc1 a6bd c1fa 863d
00000370: 72d2 08be db54 aa3b 148e e5bd e79f 0dbe
00000380: b764 7e3b a714 843e dc33 853e 7839 333e
00000390: b322 c33d b984 be3c 80a1 14be 0a95 12be
000003a0: 3536 25bd 12e8 dabd eb72 5f3d d3ac 9ebd
000003b0: 3aed adbc a00d 3dbd bca7 f0bb 05ac d8b8
000003c0: e6c5 883c 79f8 193d 70bf 443d db89 26bd
000003d0: a1be 98bc 8855 5bbe 2318 20be 9033 aebd
000003e0: 6ac8 c9bd b73f 0f3d 99bf 2dbd b9d9 b53d
000003f0: 395d 6ebc 8e55 81bd 2e10 fcbd 2084 8cbd

weight_hh_l0 f4 [384, 128]
-0.3665329 0.16229014 0.034363877 -0.017701598 0.031891063 0.11123707 0.21094693 -0.0033997248
0.009970116 0.1527588 -0.042717155 -0.035808597 -0.015402331 0.042522248 -0.054156896 -0.016834062
-0.043239158 -0.012297486 0.0651785 -0.072115034 0.08850699 -0.1215922 -0.01006559 -0.100461945
0.0441701 -0.15785716 -0.04964021 -0.036656585 -0.11567069 -0.077213116 -0.066931434 -0.13118713
0.008122078 0.0020101594 0.05296531 0.005143188 -0.066847116 -0.07942799 0.05724934 -0.06985677
0.0061463546 0.12407758 0.007473245 -0.124033205 0.06862775 -0.11841184 -0.016241213 0.037345428
0.12745066 -0.012528539 0.05047186 0.106565796 0.04918019 0.0311429 -0.0601059 -0.05554547
0.010435952 0.17259617 -0.05051539 0.07758326 -0.10790552 -0.1625858 -0.03501793 0.04076601
0.093934596 0.038495235 -0.14291409 -0.09638348 -0.0052445717 -0.03312722 0.025017228 0.040742587
0.132671 0.11494867 0.15207379 0.03949234 0.005741011 0.01096416 -0.13632604 0.003482153
-0.044664863 -0.10312083 0.17267556 0.01001546 -0.07822576 0.060606558 0.041067805 -0.06973312
-0.072579086 -0.100404486 0.047044985 -0.14086463 -0.13745807 0.0838409 -0.09114592 -0.033815634
0.02851839 0.058380462 0.16706872 0.026805436 -0.015763208 0.0908217 -0.0158198 0.012807026
0.015830971 -0.051765792 -0.032638732 0.040896267 -0.12156003 0.0264756 -0.07007078 0.09450266
-0.07295099 -0.038831778 0.027798938 -0.049418766 -0.03669141 -0.080985405 0.007214888 0.036535893
0.116370924 -0.025994724 -0.034182936 -0.027579974 -0.111810856 -0.03866966 -0.029146653 0.123790786
-0.0019577446 0.14985427 -0.02831865 0.261285 -0.11000055 0.19713818 0.036887813 -0.12915547
0.02800414 0.16815218 0.027805844 0.020430638 -0.13643822 0.10544922 -0.14691493 -0.041708127
-0.064306326 -0.07309194 0.0493865 -0.05160355 -0.081120886 -0.104461856 -0.038269717 0.053013057
-0.053355288 -0.104895815 -0.13079853 0.037548758 -0.056148864 -0.05071341 0.058239892 -0.13431826
-0.05490541 -0.03513187 -0.057635237 0.08227974 -0.14729437 0.0031880578 0.05956211 -0.0069206553
0.03618012 -0.00908562 -0.00089191046 -0.10925296 0.014090817 -0.039597247 -0.080879696 0.011082315
0.060823947 0.034787845 -0.04384093 0.049421918 0.05941018 0.040899485 -0.14546277 0.053175904
0.0042315223 0.12822616 -0.19236647 0.1052597 0.033664633 -0.053445857 -0.055437032 0.06701716
0.1212894 -0.06851413 -0.10870649 -0.05868922 0.06356835 -0.25135246 -0.048061103 0.21240634
0.018233877 -0.09737718 0.061329965 -0.017902527 -0.15465836 -0.10031193 0.07336601 -0.016943147
-0.019316513 0.018343832 0.02721824 -0.014281946 -0.24651021 -0.21970862 0.025592146 -0.22832456
-0.091296315 0.120528184 0.18172184 -0.040830057 -0.161384 0.040494233 -0.07493395 -0.013569116
0.09610402 0.20448913 0.094281174 0.0461546 0.19592196 -0.014000746 0.017531749 -0.0027393703
-0.014475267 0.0331519 0.07444126 0.17614903 -0.048722424 -0.02193445 -0.053749632 -0.010645992
-0.14684717 0.103942685 -0.04958865 -0.14110357 0.06547984 -0.16499197 0.0014941649 -0.11049388
-0.07994557 -0.048588622 0.04616827 -0.11341548 -0.002944432 -0.013405743 0.031027533 0.1280225
00000000: 33aa bbbe 632f 263e 23c1 0c3d f102 91bc
00000010: 34a0 023d 43d0 e33d 7902 583e ebcd 5ebb
00000020: b359 233c ce6c 1c3e 2ff8 2ebd 09ac 12bd
00000030: 0f5a 7cbc cf2b 2e3d 9fd3 5dbd 96e7 89bc
00000040: 8b1b 31bd 657b 49bc 4e7c 853d 0cb1 93bd
00000050: 2743 b53d 5505 f9bd 25ea 24bc febe cdbd
00000060: b5eb 343d 4fa5 21be 8853 4bbd 3725 16bd
00000070: c1e4 ecbd e921 9ebd 5913 89bd eb55 06be
00000080: 7712 053c e1bc 033b 27f2 583d 3088 a83b
00000090: 24e7 88bd 24ab a2bd 497e 6a3d 1111 8fbd
000000a0: 5c67 c93b 631c fe3d 1fe2 f43b 1f05 febd
000000b0: b58c 8c3d e881 f2bd 4b0c 85bc 85f7 183d
000000c0: 6d82 023e 8044 4dbc 95bb 4e3d 2b3f da3d
000000d0: 2b71 493d 651f ff3c 9b31 76bd a683 63bd
000000e0: 8efb 2a3c 0dbd 303e 3ae9 4ebd f9e3 9e3d
000000f0: 92fd dcbd e47c 26be f66e 0fbd 42fa 263d
00000100: c860 c03d 2ead 1d3d 1258 12be b464 c5bd
00000110: a8da abbb 68b0 07bd eef0 cc3c b3e1 263d
00000120: e8da 073e 356a eb3d 3bb9 1b3e b8c2 213d
00000130: 171f bc3b 05a3 333c 0e99 0bbe d534 643b
00000140: 81f2 36bd 0431 d3bd ddd1 303e e217 243c
00000150: d434 a0bd 953e 783d b736 283d 3dd0 8ebd
00000160: 58a4 94bd dea0 cdbd 3eb2 403d d13e 10be
00000170: cfc1 0cbe c7b4 ab3d b6aa babd 4382 0abd
00000180: 669f e93c 5a20 6f3d 1014 2b3e 1397 db3c
00000190: d821 81bc ba00 ba3d 8698 81bc 8fd4 513c
000001a0: f4af 813c 5e08 54bd 31b0 05bd d882 273d
000001b0: 77f4 f8bd 5ce3 d83c 4581 8fbd 9c8a c13d
000001c0: 5467 95bd 120e 1fbd 99ba e33c 556b 4abd
000001d0: bb49 16bd addb a5bd de6a ec3b a9a6 153d
000001e0: e153 ee3d e3f2 d4bc 6803 0cbd 66ef e1bc
000001f0: 17fd e4bd 1464 1ebd f6c4 eebc 0686 fd3d
00000200: 814d 00bb 6673 193e 83fc e7bc 26c7 853e
00000210: f847 e1bd 97de 493e ad17 173d 5541 04be
00000220: f068 e53c 1630 2c3e 15c9 e33c 275e a73c
00000230: 76b6 0bbe c3f5 d73d de70 16be 24d6 2abd
00000240: 09b3 83bd 3ab1 95bd 8049 4a3d 3e5e 53bd
00000250: b522 a6bd 19f0 d5bd b5c0 1cbd 3824 593d
00000260: 138b 5abd 9ed3 d6bd 0df0 05be bacc 193d
00000270: 5afc 65bd ddb8 4fbd f48c 6e3d ba8a 09be
00000280: 7fe4 60bd 70e6 0fbd ed12 6cbd 4882 a83d
00000290: 56d4 16be bcee 503b 66f7 733d aac6 e2bb
000002a0: 9b31 143d dadb 14bc 19cf 69ba 04c0 dfbd
000002b0: 2cdd 663c b930 22bd 41a4 a5bd 9992 353c
000002c0: 8822 793d b37d 0e3d 8c92 33bd a36e 4a3d
000002d0: 1758 733d 3886 273d 31f4 14be face 593d
000002e0: 95a8 8a3b b84d 033e b7fb 44be 6692 d73d
000002f0: ede3 093d 0bea 5abd f111 63bd 4b40 893d
00000300: 9466 f83d 2351 8cbd 82a1 debd 1c64 70bd
00000310: 2030 823d 45b1 80be b8db 44bd 0c81 593e
00000320: 365f 953c b06d c7bd 2135 7b3d 52a8 92bc
00000330: c35e 1ebe 5770 cdbd eb40 963d 5bcc 8abc
00000340: aa3d 9ebc ce45 963c c9f8 de3c d3fe 69bc
00000350: 2c6d 7cbe 4cfb 60be 9fa6 d13c eacd 69be
00000360: 90f9 babd 7bd7 f63d 4a15 3a3e 6b3d 27bd
00000370: d941 25be 48dd 253d f976 99bd ff50 5ebc
00000380: 2fd2 c43d 9965 513e 7d16 c13d 9b0c 3d3d
00000390: c49f 483e 6363 65bc be9e 8f3c 0287 33bb
000003a0: ac29 6dbc 49ca 073d a974 983d 6960 343e
000003b0: 2a91 47bd e0af b3bc 9328 5cbd 876c 2ebc
000003c0: 1b5f 16be e7df d43d 781d 4bbd 747d 10be
000003d0: 4b1a 863d a8f3 28be dbd7 c33a 9e4a e2bd
000003e0: 81ba a3bd dd04 47bd f11a 3d3d 6046 e8bd
000003f0: 5ff7 40bb c3a3 5bbc 742d fe3c 5518 033e

bias_ih_l0 f4 [384]
-0.08791433 0.0032140582 0.023026826 0.021171331 -0.26793212 -0.001587045 0.01420431 -0.11030728
0.01952484 0.013301575 -0.12821719 0.073468395 -0.09616987 0.039944675 -0.095177054 -0.046945628
0.053980526 -0.027459517 0.07164479 -0.051044002 -0.17337783 0.07389744 0.045747355 -0.11815003
-0.03899789 -0.04568315 0.07008262 0.036762636 -0.047737706 -0.03248686 -0.027951533 -0.3320244
-0.060318574 -0.019570215 -0.022458952 -0.05320668 0.007026969 0.08607649 -0.026531376 -0.08603612
0.04513437 -0.0026657584 -0.066061944 -0.0055271573 -0.08624108 -0.0456686 -0.016800735 -0.03296754
0.04167614 0.05827549 0.0876173 0.030700108 -0.05892009 -0.066668294 -0.08905242 -0.012311546
-0.12442775 -0.05449533 -0.034087528 -0.047062404 0.055578206 -0.0030048492 0.019647758 -0.0008489703
0.049875848 -0.09035115 -0.0130435 -0.04414233 -0.022576988 0.0072892173 -0.08774129 -0.21667849
-0.08118087 0.016313681 -0.055951383 -0.06815571 -0.14256689 -0.09920308 -0.045537204 0.077948466
-0.11947793 0.038877793 -0.0809763 -0.009471073 -0.1028382 0.030118985 -0.07098632 0.037154257
-0.169662 -0.10902287 -0.2712827 -0.027354727 -0.14275865 -0.11983905 0.09888046 -0.059307363
-0.11676229 -0.16914833 -0.056541484 -0.022424364 0.02802248 0.06774066 -0.085221305 -0.38377756
0.089102514 -0.028653005 -0.07811884 -0.12000119 -0.062427867 -0.0013682145 -0.20544668 0.040857468
-0.025152875 0.047124706 -0.019929789 0.044672854 -0.03258587 -0.052913643 -0.099966675 -0.4131746
-0.10985091 -0.037128992 -0.086517096 -0.38815922 -0.009904588 -0.047541052 -0.08881171 -0.09234946
-0.118034616 0.16473512 -0.056767087 -0.12566414 -0.2034788 -0.63399535 -0.26701337 -0.27953738
-0.105763756 -0.54727864 -0.020130884 -0.18618226 -0.2510346 0.01622504 -0.16840741 -0.4850598
-0.1655588 0.0716396 0.15461777 -0.046250816 0.021345228 -0.09795125 -0.16214323 -0.1991111
-0.090193145 -0.19084851 -0.3257559 -0.0011790802 -0.18406096 -0.06236687 -0.013251002 -0.5025398
-0.035041098 -0.25799835 0.0073618144 -0.17681521 -0.059209205 0.044762023 0.11873046 0.014360307
-0.36880714 -0.060409326 -0.09244152 0.086123034 0.34409025 -0.22168666 0.09721953 0.28646305
-0.10166474 0.011512508 0.041323014 -0.009214766 -0.537942 -0.24908997 -0.5427777 -0.048253
0.58861154 -0.22372338 -0.56952786 -0.04801263 -0.08577972 -0.34550256 -0.23213398 -0.034114487
0.05342676 -0.10175206 -0.46058533 -0.33173475 -0.21962999 -0.5608868 -0.3342504 -0.8614176
-0.4987926 -0.23101749 -0.23931499 -0.12010279 -0.51063794 0.045613654 -0.06426899 -0.04241509
-0.023269353 -0.3712419 -0.22075602 -0.17356949 -0.6476783 -0.7679491 -0.12902635 -0.68908644
-0.14862604 -0.03661139 -0.47265726 -0.23235549 0.026527192 -0.21152218 -0.09795662 -0.16903295
-0.41764134 -0.26530445 -0.067145385 -0.14555816 0.028187716 -0.0052143466 -0.15681428 -0.0021809426
-0.028500572 -0.116897404 -0.05662693 -0.50777155 -0.3427337 0.4447584 -0.14099284 -0.24256706
-0.3520255 -0.109711535 0.15654819 -0.5038872 0.21456552 0.053510714 -0.6922627 -0.40257922
0.36562788 -0.272866 -0.032648522 -0.76369315 -0.048441928 0.05145934 -0.595483 -0.7329367
00000000: 6e0c b4bd f3a2 523b c1a2 bc3c 806f ad3c
00000010: 662e 89be 6504 d0ba 32b9 683c c9e8 e1bd
00000020: 8ff2 9f3c d9ee 593c 5e4b 03be 9976 963d
00000030: b5f4 c4bd 079d 233d 30ec c2bd 0f4a 40bd
00000040: af1a 5d3d c8f2 e0bc 81ba 923d 8413 51bd
00000050: f589 31be 8b57 973d 9461 3b3d a5f8 f1bd
00000060: 40bc 1fbd 411e 3bbd 7a87 8f3d 6b94 163d
00000070: 9d88 43bd f110 05bd 9dfa e4bc 1aff a9be
00000080: 9c10 77bd b751 a0bc d6fb b7bc 3fef 59bd
00000090: 7d42 e63b df48 b03d 5458 d9bc b533 b0bd
000000a0: d1de 383d 01b4 2ebb 7c4b 87bd 281d b5bb
000000b0: 2a9f b0bd ff0e 3bbd b2a1 89bc f908 07bd
000000c0: 9ab4 2a3d 48b2 6e3d b370 b33d cb7e fb3c
000000d0: 3156 71bd 6389 88bd 1d61 b6bd 5eb6 49bc
000000e0: fad3 febd 7f36 5fbd 5d9f 0bbd 82c4 40bd
000000f0: f9a5 633d 01ed 44bb 56f4 a03c 6f8d 5eba
00000100: 9e4a 4c3d 060a b9bd 67b4 55bc 96ce 34bd
00000110: 60f3 b8bc 63da ee3b b5b1 b3bd f7e0 5dbe
00000120: 2842 a6bd 45a4 853c 472d 65bd 3995 8bbd
00000130: 0efd 11be fc2a cbbd 3885 3abd 72a3 9f3d
00000140: d8b0 f4bd 523e 1f3d e7d6 a5bd 8f2c 1bbc
00000150: d69c d2bd 17bc f63c 4761 91bd 102f 183d
00000160: e0bb 2dbe 6247 dfbd 91e5 8abe 0517 e0bc
00000170: 532f 12be 2d6e f5bd d781 ca3d 47ec 72bd
00000180: 1121 efbd 3835 2dbe 0b98 67bd 4db3 b7bc
00000190: 668f e53c 9dbb 8a3d 8288 aebd 7e7e c4be
000001a0: 617b b63d b5b9 eabc c5fc 9fbd 2fc3 f5bd
000001b0: 5db4 7fbd a955 b3ba 9d60 52be 295a 273d
000001c0: 670d cebc d605 413d cc43 a3bc e2fa 363d
000001d0: c378 05bd fabb 58bd 54bb ccbd 9f8b d3be
000001e0: 84f9 e0bd 9214 18bd e02f b1bd cebc c6be
000001f0: da46 22bc 68ba 42bd eae2 b5bd b721 bdbd
00000200: 22bc f1bd 53b0 283e 9b84 68bd 1aae 00be
00000210: bf5c 50be 854d 22bf fab5 88be 861f 8fbe
00000220: ab9a d8bd 741a 0cbf 86e9 a4bc 90a6 3ebe
00000230: 9b87 80be 60ea 843c fe72 2cbe c259 f8be
00000240: 3f88 29be c8b7 923d 1f54 1e3e 7f71 3dbd
00000250: 30dc ae3c aa9a c8bd e008 26be c8e3 4bbe
00000260: 2fb7 b8bd cb6d 43be 7ac9 a6be 5e8b 9aba
00000270: 7a7a 3cbe 6774 7fbd bb1a 59bc 73a6 00bf
00000280: 4187 0fbd 5c18 84be 603b f13b 0c0f 35be
00000290: 5a85 72bd 6258 373d f528 f33d 7e47 6b3c
000002a0: 4ad4 bcbe c56f 77bd fb51 bdbd 4661 b03d
000002b0: 992c b03e d401 63be 081b c73d 49ab 923e
000002c0: 9a35 d0bd f59e 3c3c 5242 293d 88f9 16bc
000002d0: 91b6 09bf 7111 7fbe 7bf3 0abf f0a4 45bd
000002e0: 3faf 163f be17 65be 94cc 11bf e4a8 44bd
000002f0: 47ad afbd b6e5 b0be 88b4 6dbe a2bb 0bbd
00000300: 05d6 5a3d 6263 d0bd d7d1 ebbe 23d9 a9be
00000310: afe6 60be 4796 0fbf de22 abbe dd85 5cbf
00000320: be61 ffbe d98f 6cbe fd0e 75be 74f8 f5bd
00000330: 2bb9 02bf 62d5 3a3d 769f 83bd 72bb 2dbd
00000340: 5f9f bebc 6b13 bebe de0d 62be 33bc 31be
00000350: 3fce 25bf 5098 44bf 7c1f 04be f867 30bf
00000360: 6d31 18be d3f5 15bd 2200 f2be 99ee 6dbe
00000370: 8e4f d93c 4599 58be 7b9d c8bd f916 2dbe
00000380: 16d5 d5be fcd5 87be 8583 89bd 330d 15be
00000390: ede9 e63c 1cdd aabb ec93 20be 25ee 0ebb
000003a0: 087a e9bc e867 efbd a4f1 67bd 51fd 01bf
000003b0: cb7a afbe 5fb7 e33e 6d60 10be 8063 78be
000003c0: b03c b4be 71b0 e0bd 2b4e 203e c0fe 00bf
000003d0: 10b7 5b3e 0d2e 5b3d 2138 31bf dd1e cebe
000003e0: 9433 bb3e 18b5 8bbe 75ba 05bd 6581 43bf
000003f0: 0b6b 46bd 07c7 523d 9371 18bf bda1 3bbf

bias_hh_l0 f4 [384]
-0.061248265 -0.010355636 -0.13623156 -0.07831076 -0.14445214 0.033402406 0.042784907 -0.1605405
-0.086025275 0.034148987 -0.03000035 0.011328059 0.04874207 0.050338928 -0.049820747 -0.113108695
-0.050492615 -0.008042919 -0.026681622 -0.068796545 -0.16839965 0.065437496 -0.049713366 -0.17549153
0.09976434 -0.15281469 0.002188033 0.07670454 0.096011095 0.019964349 -0.08649263 -0.30466977
-0.06882252 -0.07738538 -0.023991283 -0.06756378 -0.07759378 0.0042252825 0.01771374 -0.13628857
-0.04680474 0.06292075 0.043515556 0.04968023 -0.0333854 -0.0533917 -0.058833845 -0.087936305
-0.037730053 -0.036578123 0.068870135 0.013868013 -0.046380065 -0.09881682 -0.073138244 -0.0948824
-0.06482647 0.015142702 -0.01261744 -0.052766446 -0.010208523 -0.010987804 0.028843697 -0.12953906
0.06990745 -0.06078986 -0.08221706 0.019067738 -0.016976617 -0.084684595 -0.13533026 -0.33562577
-0.2285822 -0.026435832 -0.0925955 -0.025270753 -0.011738287 0.005237077 -0.014942315 0.08750748
-0.08247024 -0.05849263 -0.05446955 -0.090583056 -0.032122854 -0.13008852 -0.040395793 0.04257735
-0.05686249 -0.011073812 -0.2173609 -0.052399494 -0.12521426 -0.055436667 0.018821271 -0.16635425
-0.1386585 -0.06457016 -0.07707918 -0.0019055222 -0.0652511 0.057723507 0.04974687 -0.29371616
0.0248499 -0.06842478 -0.046440415 -0.11658554 0.042608403 -0.053458195 -0.12492823 -0.0608812
-0.12106706 -0.00699693 0.07052635 -0.037927408 -0.039082572 -0.026814103 -0.14169976 -0.2818481
-0.009402075 0.07806584 -0.028917218 -0.31279987 -0.09795577 -0.04635642 -0.17742458 -0.11367915
-0.06585278 0.10221877 0.012155849 -0.14368047 -0.16034567 -0.57328 -0.1950773 -0.29020405
-0.06679837 -0.47199064 0.01172105 -0.10618425 -0.24867022 0.14268383 -0.2474939 -0.42898482
-0.08433322 0.106765926 0.24529257 0.079654105 0.1040917 -0.18070477 -0.17557214 -0.10701489
-0.015256615 -0.2043325 -0.23103859 -0.1076216 -0.103719905 -0.15742771 0.03482274 -0.5078067
-0.031106563 -0.2943243 -0.0050899354 -0.33232027 -0.049332235 0.064264424 0.14251828 0.00844828
-0.47854728 -0.09173733 -0.11225809 0.058989417 0.35880718 -0.1043073 0.07076039 0.29148963
-0.063627794 0.02534571 -0.041841984 0.010867241 -0.38707015 -0.30186158 -0.62960356 -0.07438737
0.5968513 -0.34854084 -0.6826262 -0.008439317 -0.15395747 -0.3367718 -0.16120227 -0.07578955
0.12902185 -0.0053142887 -0.389014 -0.2628242 -0.23344278 -0.52316564 -0.30965716 -0.81757665
-0.47550046 -0.2794161 -0.08348369 -0.14403602 -0.48593277 0.019136606 0.057860103 -0.042004682
0.04133295 -0.29614818 -0.15745512 -0.08403085 -0.6339298 -0.71163666 -0.09956903 -0.69137466
-0.12012616 -0.07700859 -0.5762787 -0.28540084 -0.0091542695 -0.34732103 0.018144935 -0.1791383
-0.4292142 -0.34910703 -0.004265327 -0.092845425 0.014864121 0.10923069 -0.12627363 -0.16283132
-0.14863846 -0.16735442 -0.0372889 -0.63042057 -0.4459708 0.47195742 -0.16158788 -0.1362523
-0.2761629 -0.0054113595 0.24601825 -0.44779643 0.1724595 0.051541343 -0.56770897 -0.48175558
0.45842502 -0.32786044 -6.2381434e-05 -0.736232 -0.050546817 0.013788487 -0.6663652 -0.61767626
00000000: 76df 7abd afaa 29bc 4980 0bbe 6461 a0bd
00000010: 43eb 13be f6d0 083d 3a3f 2f3d bb64 24be
00000020: 052e b0bd cfdf 0b3d 4bc3 f5bc 5399 393c
00000030: c4a5 473d 3130 4e3d d710 4cbd 88a5 e7bd
00000040: 58d1 4ebd 73c6 03bc 6b93 dabc 34e5 8cbd
00000050: f570 2cbe 1804 863d 3ea0 4bbd 0db4 33be
00000060: 3f51 cc3d 747b 1cbe 1a65 0f3b 4517 9d3d
00000070: 77a1 c43d 468c a33c 0c23 b1bd adfd 9bbe
00000080: d2f2 8cbd 3a7c 9ebd 5e89 c4bc e15e 8abd
00000090: 7de9 9ebd 3d74 8a3b 681c 913c 3b8f 0bbe
000000a0: 54b6 3fbd 98dc 803d 5e3d 323d 7f7d 4b3d
000000b0: 21bf 08bd 41b1 5abd c2fb 70bd f317 b4bd
000000c0: d48a 1abd f1d2 15bd c90b 8d3d aa36 633c
000000d0: 06f9 3dbd 7960 cabd 81c9 95bd b451 c2bd
000000e0: bec3 84bd 1819 783c 61b9 4ebc a121 58bd
000000f0: a641 27bc 3106 34bc 9e49 ec3c e3a5 04be
00000100: a32b 8f3d cafe 78bd 6b61 a8bd f233 9c3c
00000110: 8c12 8bbc 1e6f adbd 0494 0abe 24d7 abbe
00000120: 7411 6abe f58f d8bc b6a2 bdbd 9c04 cfbc
00000130: f251 40bc c99b ab3b 9dd0 74bc 1f37 b33d
00000140: 28e6 a8bd f895 6fbd 761b 5fbd 9c83 b9bd
00000150: 4193 03bd ed35 05be 0f76 25bd 9665 2e3d
00000160: a4e8 68bd ef6e 35bc db93 5ebe daa0 56bd
00000170: 2b38 00be 8f11 63bd 112f 9a3c c558 2abe
00000180: 7efc 0dbe 5c3d 84bd b0db 9dbd b7c2 f9ba
00000190: 5ea2 85bd 7c6f 6c3d 60c3 4b3d f761 96be
000001a0: 0492 cb3c 4b22 8cbd 4e38 3ebd 66c4 eebd
000001b0: 2686 2e3d fbf6 5abd 5fda ffbd 915e 79bd
000001c0: 02f2 f7bd 8146 e5bb 1e70 903d c559 1bbd
000001d0: 0c15 20bd 40a9 dbbc be19 11be 654e 90be
000001e0: 290b 1abc fce0 9f3d cde3 ecbc 4e27 a0be
000001f0: 099d c8bd 3be0 3dbd caae 35be 9dd0 e8bd
00000200: d3dd 86bd 1358 d13d 5329 473c f920 13be
00000210: a831 24be 7ac2 12bf 58c2 47be a095 94be
00000220: 95cd 88bd c2a8 f1be a609 403c 2177 d9bd
00000230: 68a3 7ebe b61b 123e 0a6f 7dbe e6a3 dbbe
00000240: e5b6 acbd 18a8 da3d fa2d 7b3e b121 a33d
00000250: 072e d53d ac0a 39be 2fc9 33be 9f2a dbbd
00000260: e2f6 79bc 8a3c 51be 6195 6cbe b768 dcbd
00000270: 1a6b d4bd bb34 21be 4aa2 0e3d 9fff 01bf
00000280: 31d3 febc adb1 96be 79c9 a6bb e225 aabe
00000290: 9910 4abd 119d 833d 50f0 113e a86a 0a3c
000002a0: 2604 f5be c8e0 bbbd 92e7 e5bd e39e 713d
000002b0: 93b5 b73e 119f d5bd d3ea 903d 213e 953e
000002c0: 4a4f 82bd cea1 cf3c 8062 2bbd 830c 323c
000002d0: 0f2e c6be 9a8d 9abe b32d 21bf 6858 98bd
000002e0: 3fcb 183f f273 b2be 97c0 2ebf 1045 0abc
000002f0: 07a7 1dbe 5a6d acbe 3512 25be 8d37 9bbd
00000300: 4e1e 043e 7c23 aebb d82c c7be e590 86be
00000310: a00b 6fbe 2fee 05bf 628b 9ebe b44c 51bf
00000320: cc74 f3be a10f 8fbe 7ff9 aabd 2e7e 13be
00000330: 2ecc f8be 5fc4 9c3c b7fe 6c3d 1a0d 2cbd
00000340: bd4c 293d bca0 97be ea3b 21be 5e18 acbd
00000350: 3949 22bf d22d 36bf d9ea cbbd eefd 30bf
00000360: b404 f6bd aeb6 9dbd 0087 13bf 0f20 92be
00000370: cafb 15bc 10d4 b1be b0a4 943c 0870 37be
00000380: f7c1 dbbe 28be b2be 28c4 8bbb be25 bebd
00000390: a488 733c 57b4 df3d e04d 01be 41bd 26be
000003a0: ae34 18be f55e 2bbe 3fbc 18bd 3e63 21bf
000003b0: 4956 e4be 67a4 f13e 4b77 25be b985 0bbe
000003c0: 3965 8dbe c651 b1bb 35ec 7b3e 9345 e5be
000003d0: 3999 303e 041d 533d 6055 11bf aba8 f6be
000003e0: afb6 ea3e 53dd a7be c7d2 82b8 b379 3cbf
000003f0: 2e0a 4fbd 1be9 613c e996 2abf 0820 1ebf

weight_ih_l1 f4 [384, 128]
-0.050191224 -0.0389498 0.0192128 0.08116106 0.055637993 0.11193857 -0.05105519 0.07267571
-0.025874877 0.10310986 0.08613675 0.03484538 -0.07897875 0.07186468 -0.0773381 0.14457317
-0.10770615 -0.01419776 0.017742394 -0.08619027 -0.06133372 -0.05343193 0.063041225 0.06884247
-0.038652923 -0.019802583 -0.029181076 -0.061421894 0.05200621 -0.05891072 0.019614385 -0.07108668
-0.11933184 0.06291686 0.05241289 0.050184675 -0.0874314 -0.002842761 -0.013878019 0.024797343
0.14543375 -0.009616603 -0.034822192 -0.03921318 -0.026605766 0.031189254 -0.102848604 0.031747665
-0.07852492 -0.10891272 -0.034124017 -0.029390182 0.02259577 0.03382787 -0.07997107 -0.056417387
0.036400825 0.12548517 -0.08118076 -0.012816065 -0.032955244 -0.099149175 0.0060664075 0.043525178
0.015235309 0.1060526 -0.07656536 -0.12116972 0.04327486 -0.04529895 -0.07395235 -0.014334724
0.0026402352 0.05252094 0.051376715 0.024387794 0.016798507 -0.10554409 -0.05539517 0.03266325
0.050365936 -0.00234727 -0.046646845 0.11655903 -0.1507314 -0.03742542 0.024752853 -0.11543936
-0.047820292 0.036230344 -0.039535444 0.11475093 -0.07836788 0.14509447 0.005398296 0.04539189
0.14227255 0.08915507 -0.05297804 -0.053256296 -0.01189597 -0.10956388 0.06985885 0.045706008
-0.004267364 0.04991756 0.08288352 0.020141037 -0.13606434 0.06303233 -0.023851044 0.104831554
-0.08521001 0.00848071 0.08552098 -0.13903308 -0.064714216 -0.028235814 0.07628226 0.11934897
0.021131435 -0.047029223 0.008350165 -0.097374275 -0.061056044 0.06532339 -0.07698024 0.015991226
0.022129964 0.022708494 -0.004721015 0.060804795 -0.007971878 0.04589036 0.036474057 -0.053712133
-0.016151208 -0.047636025 0.059760477 -0.032448795 0.00058363867 0.04722674 0.080545105 -0.0858993
0.07212069 -0.028507566 0.014650251 0.016777435 0.020385813 0.0074554556 -0.078058265 -0.035532244
0.088438675 -0.037593745 -0.08830701 -0.0852227 -0.0249979 -0.06384179 -0.055171657 -0.064074665
-0.049738422 -0.019204298 0.12253024 0.0058550052 -0.037381217 0.061540727 0.047120478 -0.018725567
0.068156764 0.083752625 0.00065667485 -0.0046184063 0.018604463 -0.09634087 -0.068792 -0.08644334
-0.05830713 -0.050562255 0.0021201754 0.025549617 0.034372907 0.010859417 -0.013478415 -0.087594524
0.08710894 -0.029859748 0.024245275 0.040700443 -0.08092738 0.0035450575 -0.026674373 -0.022218194
0.059368156 -0.049215302 -0.040832117 0.041716043 -0.0025358747 -0.089440644 0.017760767 0.08332273
-0.029204939 -0.09459689 -0.03480309 -0.09786775 0.05298614 0.046654712 -0.091656126 0.009798712
-0.061719872 -0.004709007 -0.07371433 -0.070478246 0.05365158 0.022169117 -0.029873842 0.026521858
0.010878606 -0.1152163 0.022636779 -0.023157863 0.0023787166 -0.0038562517 0.03639179 -0.10091282
-0.014172104 0.07109887 -0.08324674 0.0160563 -0.057141356 -0.022708967 0.079482906 -0.033902183
0.045203723 -0.02354595 0.077171735 0.05709787 -0.0535508 -0.06942985 -0.049307443 0.021181202
-0.073275924 -0.02331296 -0.0029622265 -0.006482159 0.0036310125 -0.053879615 -0.020251345 -0.031242283
0.032011744 -0.02024923 0.071313284 0.05270998 -0.09238588 0.045585062 0.027355785 0.055258308
00000000: 5095 4dbd d389 1fbd 2964 9d3c c537 a63d
00000010: aae4 633d 0d40 e53d 3f1f 51bd 01d7 943d
00000020: 8df7 d3bc 432b d33d 7768 b03d 07ba 0e3d
00000030: 9cbf a1bd ca2d 933d 7063 9ebd fd0a 143e
00000040: 0b95 dcbd b99d 68bc 7f58 913c 8684 b0bd
00000050: 1139 7bbd 70db 5abd c21b 813d 48fd 8c3d
00000060: 8752 1ebd 0739 a2bc 270d efbc 8695 7bbd
00000070: 7704 553d 5e4c 71bd 59ae a03c e595 91bd
00000080: 4064 f4bd 8eda 803d e6ae 563d 728e 4d3d
00000090: 3c0f b3bd 9e4d 3abb a160 63bc cc23 cb3c
000000a0: 96ec 143e f58e 1dbc b7a1 0ebd 009e 20bd
000000b0: 56f4 d9bc 9b80 ff3c 4aa2 d2bd d709 023d
000000c0: acd1 a0bd a20d dfbd a0c5 0bbd aec3 f0bc
000000d0: c41a b93c 188f 0a3d dfc7 a3bd eb15 67bd
000000e0: 0819 153d 2f7f 003e 1942 a6bd 79fa 51bc
000000f0: 14fc 06bd b90e cbbd b7c8 c63b 7547 323d
00000100: 849d 793c 1b32 d93d 4dce 9cbd d527 f8bd
00000110: fb40 313d 648b 39bd 5474 97bd 31dc 6abc
00000120: cc07 2d3b 3220 573d 6470 523d e9c8 c73c
00000130: 069d 893c 8027 d8bd 0ce6 62bd e6c9 053d
00000140: 834c 4e3d a8d4 19bb c310 3fbd 80b6 ee3d
00000150: 5559 1abe 664b 19bd 7fc6 ca3c 796b ecbd
00000160: 36df 43bd 4566 143d ebef 21bd 8902 eb3d
00000170: 577f a0bd a593 143e 30e4 b03b d9ec 393d
00000180: e5af 113e ef96 b63d 80ff 58bd 4623 5abd
00000190: 51e7 42bc 0763 e0bd 2812 8f3d 3936 3b3d
000001a0: 3ed5 8bbb 5b76 4c3d d6be a93d d1fe a43c
000001b0: 7354 0bbe 1817 813d 4463 c3bc edb1 d63d
000001c0: 9682 aebd adf2 0a3c a025 af3d b05e 0ebe
000001d0: e388 84bd cb4e e7bc e039 9c3d 3c6d f43d
000001e0: d51b ad3c b7a1 40bd 21cf 083c 2a6c c7bd
000001f0: e715 7abd 45c8 853d d1a7 9dbd 0800 833c
00000200: e649 b53c 2a07 ba3c bfb2 9abb 730e 793d
00000210: 7b9c 02bc 88f7 3b3d d265 153d 4101 5cbd
00000220: 8a4f 84bc fe1d 43bd 67c7 743d 07e9 04bd
00000230: 54ff 183a d370 413d d5f4 a43d f9eb afbd
00000240: 03b4 933d b388 e9bc 9b07 703c d570 893c
00000250: 2600 a73c e54c f43b 03dd 9fbd 428a 11bd
00000260: 561f b53d e6fb 19bd 4eda b4bd 3d89 aebd
00000270: 65c8 ccbc 7cbf 82bd adfb 61bd 9439 83bd
00000280: 84ba 4bbd 5552 9dbc 22f1 fa3d 58db bf3b
00000290: 0c1d 19bd 2112 7c3d 6701 413d 5c66 99bc
000002a0: c695 8b3d 7f86 ab3d b424 2c3a 0056 97bb
000002b0: 6368 983c 5d4e c5bd d2e2 8cbd 3509 b1bd
000002c0: 75d3 6ebd 5e1a 4fbd a4f2 0a3b 6e4d d13c
000002d0: 9bca 0c3d b2eb 313c 92d4 5cbc c264 b3bd
000002e0: 2c66 b23d 6e9c f4bc 079e c63c 82b5 263d
000002f0: 41bd a5bd 3254 683b 3784 dabc ee02 b6bc
00000300: 062c 733d fc95 49bd 943f 27bd 71de 2a3d
00000310: eb30 26bb a82c b7bd 077f 913c 1ca5 aa3d
00000320: 323f efbc 04bc c1bd af8d 0ebd e36e c8bd
00000330: ff07 593d 0319 3f3d 35b6 bbbd c78a 203c
00000340: facd 7cbd 044e 9abb 8af7 96bd e656 90bd
00000350: c2c1 5b3d 029c b53c fdb9 f4bc 5e44 d93c
00000360: 2e3c 323c 86f6 ebbd c470 b93c 8fb5 bdbc
00000370: 3ee4 1b3b 2bb9 7cbb 8f0f 153d 61ab cebd
00000380: 1d32 68bc 499c 913d 447d aabd 8088 833c
00000390: 0e0d 6abd 2808 babc efc7 a23d 04dd 0abd
000003a0: 8a27 393d 70e3 c0bc 370c 9e3d 75df 693d
000003b0: 1558 5bbd 3d31 8ebd 9af6 49bd 3384 ad3c
000003c0: b011 96bd d2fa bebc ea21 42bb 4a68 d4bb
000003d0: 48f6 6d3b dfb0 5cbd 26e6 a5bc d1ef ffbc
000003e0: bf1e 033d b7e1 a5bc b30c 923d 6ce6 573d
000003f0: cf34 bdbd 67b7 3a3d 3d19 e03c 8956 623d

weight_hh_l1 f4 [384, 128]
0.19167778 0.03461996 -0.12669449 0.11499611 0.07401156 0.057327297 -0.012272376 -0.06255444
-0.080329195 -0.07027643 -0.0062048277 -0.028962405 -0.0548196 0.13205779 -0.05798662 -0.13936703
0.0015324464 0.0031063873 0.031612594 0.08244171 0.073519036 -0.026853515 0.06195382 0.03441215
0.04299239 -0.054894317 0.03968032 -0.006493037 0.06613105 0.022770718 -0.057730306 -0.047151253
-0.06704549 0.08586192 0.15207385 0.05935741 -0.097909465 0.019716304 0.08166392 -0.018034372
0.028151255 -0.0038746367 -0.07372374 0.045969073 0.056101527 0.098750785 0.095433176 0.046616096
-0.110846035 -0.05749566 0.04496987 0.036980737 0.11593886 0.061825536 0.029380323 0.007493312
-0.002157646 -0.05958187 0.020416178 -0.12590253 -0.09088595 -0.013788512 0.05787101 0.11367748
0.07930966 0.13993448 0.16159822 -0.036155585 -0.11246321 0.0754806 0.08453651 0.11019381
-0.035315856 -0.04808835 0.109400466 -0.029146537 -0.06906362 0.143577 0.11239161 -0.031909537
0.1505723 0.0011905654 0.026042165 -0.10105935 -0.007829057 -0.08534762 0.03346805 0.06616632
0.15357701 -0.034819126 -0.08234596 0.06894022 0.0079958355 0.105001025 -0.100249864 -0.029550387
-0.037442278 0.024198458 -0.08772982 -0.05029509 0.05310913 -0.051309817 -0.027575659 0.10214232
-0.023093738 -0.045552064 0.08626272 -0.06553784 0.09692662 0.08808046 -0.004878328 -0.087142475
0.035964966 0.07576109 -0.047572177 0.008727684 0.05198172 -0.085568205 0.040392797 -0.042208225
0.009158268 0.04881853 -0.07910518 -0.003281567 0.004297972 -0.1282951 -0.10477044 -0.010635427
-0.056742303 0.26231146 0.058643125 0.05815519 0.0004999128 -0.0117477225 -0.06618409 -0.054343216
0.014257673 -0.013469621 -0.08695901 0.07673624 0.0152716935 -0.025660753 -0.056048706 -0.016011205
0.021209406 0.029894771 0.077258274 -0.028388241 -0.068698496 -0.06161484 0.052625325 0.0065414347
0.086848974 0.011432152 -0.03132946 -0.089756794 0.08131556 0.020584228 0.079669744 -0.062109552
-0.06980527 0.019215697 0.017340057 -0.083085276 -0.014924714 0.031605918 -0.022792049 -0.057285227
0.06665705 -0.002551361 0.04726593 0.05038371 -0.07790557 0.0075701787 -0.054629635 0.039453562
0.08310327 -0.058276698 -0.21587493 -0.061675057 -0.09254302 -0.04340762 -0.0036783235 -0.07506508
-0.022548852 0.07057688 0.1533811 0.025997344 -0.06887985 -0.009519943 -0.003033852 -0.043921687
-0.02253659 -0.02621143 -0.045868464 0.060834754 -0.0790024 -0.018121187 0.058576666 0.031647306
0.07874224 0.043537915 0.04739548 0.12580748 -0.02446355 0.057965178 -0.022436457 -0.06493136
-0.059523787 -0.013149709 0.024808474 0.022573786 0.029323827 0.017365407 0.013789084 -0.04053866
0.061068397 0.04420636 -0.06557479 0.013475115 -0.04500501 -0.0582427 0.033414014 -0.04462202
-0.007866947 -0.12167483 -0.0882096 0.05938207 -0.1070999 0.09348583 0.031125205 0.05806105
-0.06562958 0.038581412 -0.04058343 -0.07562116 0.0069965236 0.08396424 -0.029462114 -0.04183447
-0.019872472 0.04373515 -0.083630584 -0.07393702 -0.017625418 0.02074128 0.0033460245 -0.014339299
0.02633102 0.115198776 -0.024984824 0.06022301 -0.005324019 0.100224055 -0.09960578 0.003138788
00000000: 2e47 443e a9cd 0d3d 33bc 01be 1583 eb3d
00000010: 5f93 973d 07d0 6a3d 1312 49bc 8b1c 80bd
00000020: a283 a4bd 17ed 8fbd de51 cbbb 9142 edbc
00000030: 848a 60bd 283a 073e 6183 6dbd 3bb6 0ebe
00000040: 5edc c83a 8894 4b3b 357c 013d 33d7 a83d
00000050: 2691 963d e7fb dbbc 4ac3 7d3d c1f3 0c3d
00000060: ca18 303d ddd8 60bd d587 223d 8bc3 d4bb
00000070: b76f 873d a889 ba3c 9d76 6cbd ac21 41bd
00000080: 254f 89bd 60d8 af3d 3fb9 1b3e c120 733d
00000090: c284 c8bd 1684 a13c 6a3f a73d d2bc 93bc
000000a0: 769d e63c 9eed 7dbb 79fc 96bd 114a 3c3d
000000b0: b7ca 653d da3d ca3d 7872 c33d 85f0 3e3d
000000c0: 3f03 e3bd 9280 6bbd 5432 383d 1d79 173d
000000d0: 5a71 ed3d c63c 7d3d 01af f03c 758a f53b
000000e0: 4b67 0dbb 1e0c 74bd d43f a73c 98ec 00be
000000f0: 6a22 babd 36e9 61bc 270a 6d3d bdcf e83d
00000100: 1a6d a23d fc4a 0f3e 017a 253e e117 14bd
00000110: 1d53 e6bd 9395 9a3d 7a21 ad3d 4bad e13d
00000120: 5ca7 10bd 4af8 44bd 5a0d e03d b8c4 eebc
00000130: 3a71 8dbd d905 133e 932d e63d 93b3 02bd
00000140: a02f 1a3e bf0c 9c3a 6156 d53c 34f8 cebd
00000150: 7245 00bc bcca aebd cb15 093d 3582 873d
00000160: 4b43 1d3e 809e 0ebd 00a5 a8bd 8830 8d3d
00000170: f700 033c c70a d73d cd4f cdbd a713 f2bc
00000180: 135d 19bd d83b c63c b1ab b3bd 3902 4ebd
00000190: f688 593d 3e2a 52bd 59e6 e1bc fe2f d13d
000001a0: 142f bdbc cd94 3abd 82aa b03d b438 86bd
000001b0: 7781 c63d 8763 b43d 62da 9fbb c177 b2bd
000001c0: 0050 133d a128 9b3d 0bdb 42bd 8ffe 0e3c
000001d0: c9ea 543d 623e afbd eb72 253d 88e2 2cbd
000001e0: 8f0c 163c f0f5 473d e601 a2bd 8f0f 57bb
000001f0: 01d6 8c3b ca5f 03be e291 d6bd 3740 2ebc
00000200: 9e6a 68bd b04d 863e c633 703d 2334 6e3d
00000210: 950c 033a 8579 40bc 868b 87bd fe96 5ebd
00000220: 0499 693c afaf 5cbc 9117 b2bd e427 9d3d
00000230: 2036 7a3c 8036 d2bc 5493 65bd ee29 83bc
00000240: 59bf ad3c e1e5 f43c 9639 9e3d 758e e8bc
00000250: ccb1 8cbd d85f 7cbd a78d 573d 8859 d63b
00000260: e0dd b13d ec4d 3b3c 5253 00bd 69d2 b7bd
00000270: c688 a63d 41a0 a83c e429 a33d 9666 7ebd
00000280: 11f6 8ebd 3d6a 9d3c bc0c 8e3c 9d28 aabd
00000290: ca86 74bc 3575 013d 64b6 babc eaa3 6abd
000002a0: 7e83 883d bc34 27bb eb99 413d 265f 4e3d
000002b0: f58c 9fbd 430f f83b 53c3 5fbd 0f9a 213d
000002c0: 0c32 aa3d 8cb3 6ebd 510e 5dbe fc9e 7cbd
000002d0: 3287 bdbd 30cc 31bd 0710 71bb b8bb 99bd
000002e0: 5fb8 b8bc 9c8a 903d ef0f 1d3e 62f8 d43c
000002f0: e110 8dbd 89f9 1bbc 97d3 46bb 3ae7 33bd
00000300: a89e b8bc 5ab9 d6bc 92e0 3bbd dd2d 793d
00000310: 03cc a1bd e272 94bc 16ee 6f3d 9ba0 013d
00000320: 9d43 a13d d054 323d c321 423d add3 003e
00000330: c867 c8bc e56c 6d3d a9cc b7bc bcfa 84bd
00000340: 37cf 73bd e171 57bc 243b cb3c a9ec b83c
00000350: 8638 f03c e641 8e3c 9ceb 613c de0b 26bd
00000360: db22 7a3d ba11 353d 134c 86bd bbc6 5c3c
00000370: 2c57 38bd e68f 6ebd 22dd 083d 94c5 36bd
00000380: 5ee4 00bc a730 f9bd 3ca7 b4bd 9d3a 733d
00000390: 3157 dbbd 8075 bf3d 49fa fe3c 6cd1 6d3d
000003a0: cd68 86bd 8b07 1e3d d03a 26bd 44df 9abd
000003b0: 1843 e53b 72f5 ab3d 885a f1bc 9f5a 2bbd
000003c0: 98cb a2bc a123 333d 8346 abbd 4b6c 97bd
000003d0: 2e63 90bc 9ee9 a93c fa48 5b3b 61ef 6abc
000003e0: 27b4 d73c 56ed eb3d f9ac ccbc 67ac 763d
000003f0: 1c75 aebb 4542 cd3d 1dfe cbbd 20b4 4d3b

bias_ih_l1 f4 [384]
-0.14496171 -0.073051095 0.02356032 -0.11023668 -0.049223423 -0.031775866 -0.022985412 -0.1281408
0.008945556 0.060243342 0.07297521 -0.07199309 0.017382696 0.01575425 0.05376211 -0.020297943
-0.031888705 0.0023257225 -0.015034467 -0.0646488 -0.09508824 0.046347976 -0.05728411 -0.043096274
-0.0672377 -0.046531852 -0.039990664 0.10277507 -0.08742682 -0.06519763 0.08344894 0.080579855
-0.02732927 -0.064153366 -0.51806074 -0.022585705 -0.02208579 -0.07492841 -0.036758374 0.038442317
-0.03254424 -0.005002644 -0.071958646 -0.06346971 0.016263686 -0.021641871 0.028189031 -0.00810962
0.022458453 0.06566162 -0.09018531 -0.016481653 -0.03866419 0.036730595 -0.09311667 -0.08375753
-0.041949965 -0.0080792885 -0.024069384 0.07910554 -0.057225015 0.07593118 0.053819135 -0.067068264
-0.018751843 -0.0073998393 -0.07952547 0.07452412 0.016705314 0.022295484 0.021083854 -0.07360972
0.07787029 -0.037351448 0.022532856 0.10580778 -0.051795185 -0.09996596 -0.07472072 -0.013456178
-0.0956996 0.08299413 -0.03564921 0.086167574 -0.017875727 0.026246542 -0.07224593 -0.03753182
-0.05677857 -0.060610875 0.020872967 -0.0066328123 0.08122648 -0.07503414 0.05182255 -0.06470858
-0.101830214 0.072452754 -0.024060197 -0.0665866 -0.055588964 0.025551047 -0.09679662 -0.007446139
-0.037413977 0.022805113 -0.18553747 -0.21166681 0.040221892 -0.019789744 -0.008874474 -0.1006595
0.016814737 0.045233376 -0.041892186 -0.012498609 -0.037564006 -0.032134604 0.049247973 -0.05630702
-0.10167189 0.065124705 -0.106984064 -0.0018813745 -0.09180568 -0.070332356 -0.12877728 -0.016750628
0.34646317 -0.026300423 -0.32187504 -0.7820752 -0.052631903 0.049842253 -0.49518183 -0.2870723
-0.14297457 -0.098783866 0.11742734 -0.047283005 -0.16863 -0.44005308 -0.12592465 0.12519117
0.12864816 0.010596137 -0.45741403 -0.21015126 -0.042590193 0.2548403 0.008049666 -0.3920809
-0.06844733 -0.15377133 -0.15998861 0.1199716 -0.60970974 0.04427176 -0.075568974 -0.18629995
-0.0022875005 0.21043797 -0.6664325 -0.16355461 -0.21715362 0.03721868 -0.011634537 0.07124981
-0.18092628 0.1619159 -0.34173128 0.26557738 -0.34984422 0.0022450385 0.005232572 0.1061521
-0.33912468 -0.07742318 0.06992054 -0.28221688 -0.05881289 -0.072311126 -0.045691956 -0.009572064
-0.39018658 -0.24965273 0.06427774 -0.26928025 -0.5409118 -0.028994678 -0.1048958 -0.4470853
-0.24090908 0.07196223 -0.35016993 -0.191044 0.053548243 -0.06002377 -0.30676743 -0.27056187
0.27290425 -0.15049571 0.34203702 -0.028721279 -0.44923553 -0.40505242 -0.44329348 0.14735399
-0.104617566 -0.32026273 -0.37978968 -0.40734664 -0.2326585 -0.1528598 0.37416637 -0.17301136
-0.40794837 -0.27302206 -0.23509441 0.03445965 -0.009160462 0.30995613 -0.31128243 0.022059018
0.28671387 0.052970577 -0.4546472 0.22775085 -0.10916801 -0.18008788 -0.40356886 -0.44052482
0.05064775 -0.006634098 -0.47970483 -0.001040974 -0.108742476 -0.16404586 -0.08116394 -0.027125938
0.089532286 0.13526851 -0.053446315 -0.05800361 -0.13051867 0.093995966 -0.19423744 -0.045523554
0.012179362 0.07185409 0.09475454 0.334559 0.1572764 -0.6134519 -0.14798255 -0.5017454
00000000: d870 14be d09b 95bd 9201 c13c c5c3 e1bd
00000010: 809e 49bd 6927 02bd e74b bcbc 5837 03be
00000020: 6290 123c b9c1 763d 0774 953d 1d71 93bd
00000030: 2866 8e3c 0f0f 813c a935 5c3d df47 a6bc
00000040: bb9d 02bd 266b 183b 2053 76bc 9766 84bd
00000050: a0bd c2bd 60d7 3d3d bea2 6abd b885 30bd
00000060: ebb3 89bd 2f98 3ebd 40cd 23bd bc7b d23d
00000070: d50c b3bd 5686 85bd 47e7 aa3d 0d07 a53d
00000080: a2e1 dfbc d762 83bd a19f 04bf a805 b9bc
00000090: 42ed b4bc 1174 99bd f38f 16bd b175 1d3d
000000a0: 1c4d 05bd 38ed a3bb 0e5f 93bd 68fc 81bd
000000b0: 6c3b 853c 4b4a b1bc afec e63c 36de 04bc
000000c0: cafa b73c 9979 863d 13b3 b8bd 8804 87bc
000000d0: 575e 1ebd d272 163d f4b3 bebd 1189 abbd
000000e0: bad3 2bbd fe5e 04bc 282d c5bc 1602 a23d
000000f0: c764 6abd ce81 9b3d 7471 5c3d 165b 89bd
00000100: 779d 99bc 5a7a f2bb 40de a2bd 1aa0 983d
00000110: 95d9 883c 05a5 b63c 0cb8 ac3c b1c0 96bd
00000120: 757a 9f3d d5fd 18bd d396 b83c c0b1 d83d
00000130: 3027 54bd f4ba ccbd 2d07 99bd 4d77 5cbc
00000140: 27fe c3bd d4f8 a93d e804 12bd a078 b03d
00000150: 1e70 92bc fd02 d73c adf5 93bd f7ba 19bd
00000160: a590 68bd 1c43 78bd c9fd aa3c 1058 d9bb
00000170: 125a a63d 80ab 99bd e243 543d ef85 84bd
00000180: 5c8c d0bd 1c62 943d e419 c5bc 8e5e 88bd
00000190: 41b1 63bd 6e50 d13c 4e3d c6bd befe f3bb
000001a0: 663f 19bd cad1 ba3c 89fd 3dbe 2fbf 58be
000001b0: b6bf 243d 1a1e a2bc 3e66 11bc 9126 cebd
000001c0: 0fbf 893c a246 393d 2497 2bbd f7c6 4cbc
000001d0: b7dc 19bd 939f 03bd 3eb8 493d 31a2 66bd
000001e0: 5a39 d0bd 1a60 853d 761a dbbd 7498 f6ba
000001f0: 9e04 bcbd 690a 90bd 31de 03be 9d38 89bc
00000200: 9f63 b13e fc73 d7bc cecc a4be 1536 48bf
00000210: 8d94 57bd 6427 4c3d 7988 fdbe 24fb 92be
00000220: ed67 12be 324f cabd bf7d f03d d3ab 41bd
00000230: 58ad 2cbe a34e e1be 64f2 00be 1d32 003e
00000240: 58bc 033e 6b9b 2d3c 2c32 eabe e431 57be
00000250: 0e73 2ebd 6e7a 823e bfe2 033c d4be c8be
00000260: 1d2e 8cbd 3b76 1dbe 0ed4 23be acb3 f53d
00000270: f015 1cbf 4e56 353d e8c3 9abd 6ac5 3ebe
00000280: e4e9 15bb 0d7d 573e 529b 2abf dc7a 27be
00000290: 855d 5ebe 9d72 183d c99e 3ebc 6ceb 913d
000002a0: bd44 39be 48cd 253e 67f7 aebe c2f9 873e
000002b0: c81e b3be 7f21 133b ff75 ab3b 4666 d93d
000002c0: c0a1 adbe 0b90 9ebd 8032 8f3d bb7e 90be
000002d0: c9e5 70bd db17 94bd 7d27 3bbd 25d4 1cbc
000002e0: 89c6 c7be f7a4 7fbe 0ca4 833d 1adf 89be
000002f0: 3279 0abf 3f86 edbc 9cd3 d6bd 5de8 e4be
00000300: dfb0 76be ef60 933d 7949 b3be 0aa1 43be
00000310: 6755 5b3d 7cdb 75bd 9f10 9dbe 1687 8abe
00000320: 1bba 8b3e 8c1b 1abe 7a1f af3e e348 ebbc
00000330: 3302 e6be 0863 cfbe 5df7 e2be f7e3 163e
00000340: bc41 d6bd 7af9 a3be cb73 c2be bd8f d0be
00000350: 083e 6ebe 4887 1cbe bc92 bf3e e429 31be
00000360: 9cde d0be 8cc9 8bbe 97bc 70be 9025 0d3d
00000370: c315 16bc 92b2 9e3e 6960 9fbe 1db5 b43c
00000380: 29cc 923e adf7 583d 85c7 e8be 8537 693e
00000390: 7a93 dfbd f568 38be 94a0 cebe 788c e1be
000003a0: 0474 4f3d d962 d9bb df9b f5be 4b71 88ba
000003b0: 60b4 debd a3fb 27be 4839 a6bd 3737 debc
000003c0: b45c b73d d483 0a3e 86ea 5abd 3195 6dbd
000003d0: b0a6 05be f580 c03d 2ee6 46be e876 3abd
000003e0: f28b 473c 3d28 933d ab0e c23d 514b ab3e
000003f0: 110d 213e 2f0b 1dbf bd88 17be 6372 00bf
