GRU/models/model_hs=128_layers=1_epochs=10_batch=32.pth (torch, 211516 bytes, 5 tensors)

weight_ih_l0 f4 [384, 5]
-0.14568731 -0.05690907 -0.09221558 0.011961372 0.016423542 -0.09011769 0.06217725 0.0058777756
-0.038117584 0.023949353 -0.047372468 -0.012474723 0.020816201 -0.034677155 -0.04224913 -0.032849412
-0.02801495 -0.11229319 -0.11395753 -0.07815451 -0.096291535 0.022989059 -0.11454834 -0.031771578
-0.102543466 -0.034382448 -0.035587646 -0.08970595 -0.20992213 -0.112197734 0.033844426 0.0495941
-0.012989761 -0.19799261 0.06461925 -0.027379068 0.06044001 0.090328 0.044803295 -0.16582775
-0.17559363 -0.15490544 -0.04129941 -0.059879243 -0.112687275 0.048029717 -0.032412115 -0.051468093
-0.04515094 -0.030747542 -0.15107998 -0.008165509 0.0030687163 -0.18695776 -0.12854387 -0.16321255
-0.07611699 -0.019945577 -0.0398325 0.059647895 0.0039880793 0.061131854 -0.10666865 -0.09236655
-0.03996612 0.001518774 0.08919931 0.08503858 -0.050795022 -0.16122861 -0.033163674 -0.027408686
-0.09419499 -0.15641055 -0.023181953 0.025972221 -0.027986607 0.060927656 0.108082235 -0.09434273
0.038779624 0.1231748 -0.0341324 0.049388025 0.03792219 -0.0657616 -0.09560699 -0.087022796
-0.01180741 0.09624435 -0.11109888 -0.035611976 -0.090792716 -0.034711417 0.09961027 -0.066378415
0.072416365 -0.06442311 0.027315252 -0.07593518 -0.3636254 -0.33149475 -0.47034988 -0.43042523
-0.2861173 -0.035230476 -0.008456309 -0.12166324 -0.10145873 -0.02582884 -0.049970992 -0.052412055
-0.010329961 -0.044110756 -0.17114931 0.018982016 -0.06532102 -0.12429283 -0.0028363292 -0.43585265
0.004425108 -0.13246006 -0.10658859 -0.073139414 0.11707263 -0.20759462 -0.1293491 -0.062076144
-0.22912091 -0.11028805 0.011984275 -0.0664905 0.100780636 0.019675272 0.07960191 -0.16887124
-0.10001727 -0.14236894 -0.102843046 -0.30519214 -0.14997445 -0.08117705 -0.014380865 -0.1794934
-0.012322229 0.028028233 -0.01906489 -0.023840846 -0.07788901 -0.06582032 0.049772047 0.06576971
0.06481107 -0.01891046 0.024209432 0.061339386 0.076412775 -0.098471895 -0.13769925 -0.09052143
-0.02729399 0.011945649 0.050272424 -0.11255011 -0.074878074 -0.040355556 -0.038429953 -0.009747821
-0.109841704 -0.10544877 0.007053701 0.114238076 0.05698777 -0.020000817 -0.13845015 -0.16682939
-0.10596715 -0.055606328 -0.16705348 -0.018044308 -0.03325598 0.010503569 0.04714199 0.08752404
-0.08259189 -0.18758617 -0.22158252 -0.18595818 -0.18772116 -0.028286729 -0.16887516 -0.164149
-0.09406071 -0.19318548 -0.086892925 0.120858446 0.1867854 0.12778488 0.08696501 -0.0057557267
-0.14301012 -0.024745554 -0.12366571 -0.17636374 -0.027722739 -0.06530239 -0.0124459285 -0.07913388
-0.09907921 -0.093983725 0.05272374 0.025932191 -0.0504343 -0.0414162 -0.05336373 -0.04411351
0.006393141 -0.12880222 -0.06659901 -0.05274487 -0.29853708 -0.119459264 -0.23638952 -0.16049917
-0.051889304 -0.10117057 -0.03664908 -0.09354504 -0.010850943 -0.2300646 -0.07753439 0.019667054
-0.038890243 -0.16033503 0.04135299 0.043422163 -0.013364736 -0.119632706 -0.07670777 -0.05157551
0.071506 -0.025360614 0.057496652 -0.03387486 0.037025824 -0.02927055 -0.14613716 -0.15369152
-0.14876273 -0.217953 0.081614204 0.06300007 0.04693311 -0.020670867 0.0057302304 -0.09903932
00000000: 0e2f 15be 7c19 69bd 86db bcbd a1f9 433c
00000010: aa8a 863c a08f b8bd 92ad 7e3d 5b9a c03b
00000020: 2f21 1cbd 6f31 c43c a209 42bd c862 4cbc
00000030: bd86 aa3c a209 0ebd 6c0d 2dbd 1b8d 06bd
00000040: 9c7f e5bc f9f9 e5bd 9162 e9bd 790f a0bd
00000050: 7f34 c5bd 8d53 bc3c 5298 eabd ea22 02bd
00000060: 4f02 d2bd 9cd4 0cbd 5ac4 11bd c1b7 b7bd
00000070: d4f5 56be edc7 e5bd 74a0 0a3d 2f23 4b3d
00000080: 02d3 54bc 93be 4abe 1957 843d 114a e0bc
00000090: f28f 773d e3fd b83d a983 373d c0ce 29be
000000a0: d1ce 33be 889f 1ebe 9229 29bd f043 75bd
000000b0: 96c8 e6bd cfba 443d 91c2 04bd 35d0 52bd
000000c0: 31f0 38bd 45e2 fbbc b6b4 1abe a1c8 05bc
000000d0: 841c 493b db71 3fbe 01a1 03be 3121 27be
000000e0: 39e3 9bbd e864 a3bc 6727 23bd 5a51 743d
000000f0: 6fae 823b 6565 7a3d 1875 dabd ac2a bdbd
00000100: 84b3 23bd 9911 c73a 21ae b63d b528 ae3d
00000110: 710e 50bd 1d19 25be a2d6 07bd 2e88 e0bc
00000120: 4ee9 c0bd 162a 20be 14e8 bdbc b2c3 d43c
00000130: 2b44 e5bc 478f 793d 385a dd3d c336 c1bd
00000140: 62d7 1e3d 1243 fc3d 6ace 0bbd 194b 4a3d
00000150: 4c54 1b3d 05ae 86bd 99cd c3bd 0239 b2bd
00000160: de73 41bc c21b c53d cf87 e3bd dddd 11bd
00000170: 88f1 b9bd 8f2d 0ebd 7800 cc3d 68f1 87bd
00000180: 084f 943d 43f0 83bd 3cc4 df3c e783 9bbd
00000190: 1c2d babe aeb9 a9be b3d1 f0be b260 dcbe
000001a0: f77d 92be d54d 10bd 558c 0abc 942a f9bd
000001b0: 98c9 cfbd 0197 d3bc 62ae 4cbd 06ae 56bd
000001c0: ff3e 29bc 7bad 34bd c441 2fbe 2c80 9b3c
000001d0: 07c7 85bd 3d8d febd b5e1 39bb 1428 dfbe
000001e0: 7f00 913b 9ca3 07be 1e4b dabd 1eca 95bd
000001f0: c6c3 ef3d af93 54be 1774 04be 8e43 7ebd
00000200: ac9e 6abe b3de e1bd b159 443c 2c2c 88bd
00000210: 1466 ce3d 092e a13c 5406 a33d 95ec 2cbe
00000220: dbd5 ccbd 2ac9 11be 609f d2bd 2542 9cbe
00000230: e792 19be 2740 a6bd b89d 6bbc 1ecd 37be
00000240: 2de3 49bc 779b e53c f92d 9cbc e14d c3bc
00000250: 4684 9fbd cecc 86bd c6dd 4b3d 45b2 863d
00000260: abbb 843d 1cea 9abc dc52 c63c 023f 7b3d
00000270: 4d7e 9c3d a2ab c9bd 0801 0dbe 4d63 b9bd
00000280: a597 dfbc afb7 433c 75ea 4d3d ac80 e6bd
00000290: ad59 99bd de4b 25bd ba68 1dbd 53b5 1fbc
000002a0: b0f4 e0bd 86f5 d7bd bc22 e73b a7f5 e93d
000002b0: 026c 693d c1d8 a3bc e0c5 0dbe 53d5 2abe
000002c0: 4e05 d9bd 76c3 63bd 1110 2bbe a8d1 93bc
000002d0: 6c37 08bd 2917 2c3c f617 413d ce3f b33d
000002e0: f025 a9bd 9716 40be 87e6 62be d26b 3ebe
000002f0: fa39 40be 92b9 e7bc 9ced 2cbe ad16 28be
00000300: e7a2 c0bd 6ad2 45be ebf4 b1bd a284 f73d
00000310: ac44 3f3e 0ada 023e b61a b23d 899a bcbb
00000320: 3f71 12be 30b7 cabc 7344 fdbd b298 34be
00000330: cc1a e3bc 42bd 85bd 02ea 4bbc f210 a2bd
00000340: 0aea cabd 8a7a c0bd d9f4 573d bf6f d43c
00000350: 3294 4ebd 09a4 29bd ed93 5abd 5eb0 34bd
00000360: 8e7d d13b bbe4 03be 1065 88bd 010b 58bd
00000370: dad9 98be 0fa7 f4bd 1810 72be e559 24be
00000380: e189 54bd 8432 cfbd 591d 16bd 8b94 bfbd
00000390: 27c8 31bc 0e96 6bbe 5aca 9ebd cd1c a13c
000003a0: 604b 1fbd de2e 24be c161 293d 70db 313d
000003b0: c4f7 5abc fe01 f5bd f718 9dbd d840 53bd
000003c0: bd71 923d 10c1 cfbc 9c81 6b3d 5dc0 0abd
000003d0: 64a8 173d cbc8 efbc fba4 15be 4f61 1dbe
000003e0: 4255 18be 122f 5fbe 5925 a73d 2e06 813d
000003f0: ef3c 403d f355 a9bc a8c4 bb3b 21d5 cabd

weight_hh_l0 f4 [384, 128]
-0.86052096 -0.052796457 -0.08258295 0.023379805 0.1087593 -0.12318731 -0.034663923 0.12601675
0.066257395 -0.047019735 -0.14632799 0.057579868 0.089456886 -0.051173225 -0.13886102 -0.055698186
-0.029194742 0.18095271 -0.119038746 -0.023212511 -0.04108402 0.03845385 -0.06695931 0.17473105
-0.109363064 0.15734637 -0.0053473194 0.044286605 -0.06552688 -0.009297336 0.044959206 -0.08202249
-0.08332565 0.11198222 0.023347156 -0.08158022 0.018499138 -0.11664391 0.14154735 -0.07142471
-0.11529888 -0.10307068 0.06589241 0.12921602 -0.10057186 0.0009239152 0.08073293 0.043029767
-0.051348176 -0.17410567 -0.117923446 -0.07784918 0.10856145 0.019708246 -0.034649808 0.12622812
-0.10236248 0.08684166 0.101170845 -0.035589546 0.1286899 -0.07047143 0.020866273 0.06894234
-0.07260079 -0.07286969 -0.035810944 -0.12570569 -0.017965626 0.060691178 -0.09269962 -0.027658017
-0.08110952 -0.07428215 -0.10219235 -0.011836338 -0.25292006 -0.038885355 0.020655632 0.042485163
-0.15592831 -0.09300016 0.011736778 -0.00019439396 -0.031735152 -0.021421917 -0.059079114 -0.017776312
-0.13473402 0.070300564 -0.056168407 0.0029907126 -0.14845759 0.07025366 -0.046161115 0.0041254885
-0.36621183 0.08903302 -0.1544748 0.1031252 -0.23604631 -0.23422597 0.1099238 0.05014476
-0.072111204 -0.0836885 -0.011877664 -0.049252816 0.31174487 0.013329566 0.15412071 -0.041521903
0.13163091 0.00033099082 -0.10658484 -0.0047224807 0.14027086 -0.005585622 -0.18392764 0.2925118
0.042811584 -0.0772692 0.0059506753 -0.034034066 -0.017190432 -0.045833435 -0.19125469 -0.13686049
-0.07119282 -0.013785897 0.04492653 0.03990797 0.07609879 -0.0619629 -0.042184126 -0.07793626
0.14237416 0.024133455 -0.025846658 0.0067584966 -0.03268471 0.022851063 -0.06676394 -0.09445868
-0.0121067595 -0.043421548 0.069471836 -0.10296243 -0.028146358 0.010543345 0.11036884 0.08938968
-0.083543114 -0.02691651 -0.01772627 -0.041035783 -0.007184053 0.120045476 -0.07168218 0.03793467
0.0101083545 0.028200261 0.0021326458 -0.023712292 -0.046344433 -0.0444298 -0.1373851 -0.025712525
0.017210029 0.053405356 0.08587993 -0.043928195 0.11844483 0.1147393 0.06215619 0.0514242
-0.07102537 0.023176467 0.10164614 -0.02374717 0.107815735 -0.11196902 0.04553586 0.061946522
0.056499727 -0.069630414 0.068404935 0.13280869 0.06318132 0.025905598 -0.0201819 0.14316809
-0.06720682 -0.037950754 -0.09570944 -0.056633543 0.0045880377 -0.14485721 0.07147274 0.05055916
0.063053384 -0.11382187 -0.013100452 -0.027156698 0.056630753 -0.10242725 -0.109802686 -0.0032811307
-0.015884275 -0.124430954 -0.114291735 0.07893031 0.017536901 0.029984254 -0.03238457 -0.059693612
-0.07069813 -0.14986786 0.010480441 0.14147101 -0.0058019278 0.061237715 -0.059267525 -0.026891954
0.0022804157 0.111335315 -0.08090302 0.018369112 -0.062525555 0.07140009 0.0048970454 -0.0309531
-0.05964984 -0.00357436 0.14134946 -0.030908689 -0.0076844417 -0.11965005 0.029041566 -0.09677927
0.17047967 0.07595719 -0.09745839 -0.059954867 -0.046199955 0.1138622 -0.10495988 -0.07589702
-0.015081795 -0.069828115 -0.039657656 -0.10534725 -0.028929373 -0.08002802 -0.068015054 0.03880485
00000000: 1a4b 5cbf 1941 58bd 4021 a9bd 0187 bf3c
00000010: 32bd de3d a149 fcbd c2fb 0dbd 890a 013e
00000020: f5b1 873d c497 40bd 01d7 15be ded8 6b3d
00000030: 2c35 b73d 049b 51bd 9531 0ebe c823 64bd
00000040: d029 efbc ab4b 393e 96ca f3bd 2a28 bebc
00000050: b847 28bd c981 1d3d f621 89bd b2ec 323e
00000060: bef9 dfbd 681f 213e 9138 afbb df65 353d
00000070: f532 86bd db53 18bc 2527 383d 68fb a7bd
00000080: a3a6 aabd ef56 e53d 8942 bf3c 8813 a7bd
00000090: 818b 973c 01e3 eebd caf1 103e 1e47 92bd
000000a0: d221 ecbd b816 d3bd 9af2 863d 3451 043e
000000b0: 9ff8 cdbd e632 723a 4e57 a53d fb3f 303d
000000c0: 7752 52bd c248 32be d981 f1bd 646f 9fbd
000000d0: 7755 de3d 3073 a13c f5ec 0dbd f241 013e
000000e0: 6ba3 d1bd 0ada b13d a932 cf3d 58c6 11bd
000000f0: 49c7 033e 5353 90bd bfef aa3c a431 8d3d
00000100: b9af 94bd b43c 95bd 7fae 12bd feb8 00be
00000110: a62c 93bc 5097 783d 4cd9 bdbd 1193 e2bc
00000120: bf1c a6bd 3d21 98bd 394a d1bd 33ed 41bc
00000130: bd7e 81be 4046 1fbd 0036 a93c ec04 2e3d
00000140: acab 1fbe de76 bebd 9d4b 403c 3bd6 4bb9
00000150: b8fc 01bd 047d afbc f1fc 71bd a19f 91bc
00000160: b7f7 09be bef9 8f3d d810 66bd d5ff 433b
00000170: 4405 18be 27e1 8f3d 7013 3dbd 1b2f 873b
00000180: 1e80 bbbe f256 b63d a42e 1ebe 4e33 d33d
00000190: 20b6 71be efd8 6fbe bb1f e13d 9864 4d3d
000001a0: 0aaf 93bd e064 abbd 899a 42bc 52bd 49bd
000001b0: 069d 9f3e 4164 5a3c d2d1 1d3e df12 2abd
000001c0: 41ca 063e d688 ad39 2749 dabd 0abf 9abb
000001d0: 2aa3 0f3e 9807 b7bb 8757 3cbe 1bc4 953e
000001e0: 335b 2f3d 503f 9ebd e2fd c23b 4e67 0bbd
000001f0: f3d2 8cbc d7bb 3bbd 45d8 43be 2825 0cbe
00000200: 8bcd 91bd 3ede 61bc e204 383d 8a76 233d
00000210: afd9 9b3d cfcc 7dbd 43c9 2cbd 0c9d 9fbd
00000220: 88ca 113e 86b3 c53c 5fbc d3bc 6176 dd3b
00000230: 67e0 05bd 2732 bb3c 88bb 88bd 8d73 c1bd
00000240: 6e5b 46bc cbda 31bd 4047 8e3d f7dd d2bd
00000250: 3193 e6bc febd 2c3c 0f09 e23d f011 b73d
00000260: a718 abbd 0380 dcbc af36 91bc 2315 28bd
00000270: 3468 ebbb 67da f53d 1bce 92bd 6261 1b3d
00000280: 839d 253c 3c04 e73c dcc3 0b3b 4840 c2bc
00000290: a9d3 3dbd 06fc 35bd aeae 0cbe 13a3 d2bc
000002a0: 0cfc 8c3c 93bf 5a3d d1e1 af3d 0dee 33bd
000002b0: 3493 f23d 70fc ea3d 7d97 7e3d 2fa2 523d
000002c0: c075 91bd 93dc bd3c da2b d03d 6d89 c2bc
000002d0: 7fce dc3d 0350 e5bd cf83 3a3d a3bb 7d3d
000002e0: 426c 673d 649a 8ebd e317 8c3d 00ff 073e
000002f0: 3565 813d fa37 d43c 8354 a5bc a89a 123e
00000300: bba3 89bd 4072 1bbd 5003 c4bd 93f8 67bd
00000310: 4057 963b 7355 14be 4d60 923d 1f17 4f3d
00000320: 2222 813d 711b e9bd 47a3 56bc b977 debc
00000330: a6f5 673d 61c5 d1bd 3be0 e0bd 3d08 57bb
00000340: bd1f 82bc a8d5 febd c911 eabd 37a6 a13d
00000350: 8ca9 8f3c 8aa1 f53c afa5 04bd 4a81 74bd
00000360: 2eca 90bd f676 19be 28b6 2b3c c7dd 103e
00000370: 191e bebb 66d4 7a3d 81c2 72bd 844c dcbc
00000380: 0773 153b c503 e43d 7cb0 a5bd d27a 963c
00000390: 660d 80bd 363a 923d 6577 a03b 5b91 fdbc
000003a0: 6453 74bd cf3f 6abb eabd 103e 3834 fdbc
000003b0: c5cd fbbb 160b f5bd 94e8 ed3c 3634 c6bd
000003c0: 3992 2e3e 718f 9b3d 4498 c7bd 3c93 75bd
000003d0: 2a3c 3dbd 9630 e93d 35f5 d6bd e66f 9bbd
000003e0: a219 77bc 0b02 8fbd 1170 22bd 4dc0 d7bd
000003f0: 4bfd ecbc bbe5 a3bd 7a4b 8bbd d6f1 1e3d

bias_ih_l0 f4 [384]
0.05869085 0.0021122617 -0.15696675 0.037496585 -0.011993922 0.034261122 -0.043174706 -0.106684186
-0.07837051 -0.07894311 -0.063743554 -0.052272 0.011846993 -0.046620913 -0.06396898 -0.037229486
-0.04057361 -0.09257288 0.06456282 0.078198045 -0.2519291 0.014584432 -0.07065179 -0.5658301
-0.026226342 -0.08996035 0.046959266 -0.325581 -0.07698719 -0.06725264 -0.071302444 -0.23340312
-0.0031233276 -0.12917939 -0.09147357 0.07519849 -0.03552748 -0.10425858 -0.046566486 -0.057313163
-0.03588396 -0.10950652 -0.116730794 0.0056179054 -0.3115505 -0.15511614 -0.14993186 -0.06608895
-0.04747141 -0.14512661 -0.076539524 0.0044695176 0.04810477 -0.25441474 0.061438374 -0.08202321
-0.06250708 -0.07211094 -0.2232968 -0.087013654 0.02453416 -0.11156078 -0.09331117 -0.16927543
-0.030526096 -0.018273288 -0.017429583 -0.061928775 0.03508895 -0.075302646 0.023222137 -0.12357154
-0.04773359 -0.0073402454 -0.06475713 0.034252107 -0.07250621 -0.03274777 0.07281232 -0.016829811
-0.023346476 -0.13716789 -0.035041336 0.03096291 0.07458648 -0.15534791 -0.13955657 -0.14456925
0.05757151 0.008416403 0.022562208 0.059728812 -0.1680028 -0.28286922 0.013074228 -0.015593786
-0.26038617 -0.09006744 -0.018643692 -0.11112153 -0.017331328 -0.06616515 -0.09337182 -0.009210336
-0.009925957 0.04716394 -0.28091472 0.0020311736 -0.040402595 0.07963688 0.041843526 -0.026098939
-0.013445796 -0.29237822 0.05443911 -0.14296576 -0.06368042 -0.05587638 -0.07233279 -0.1017419
-0.08463049 -0.048830554 -0.05836585 0.056908093 -0.09187894 0.029529504 -0.042764373 -0.006596303
0.1053153 -0.018062862 0.34995708 -0.030870656 0.05135085 -0.31822824 -0.20660071 -0.054659437
-0.4023859 -0.018526888 -0.21033548 -0.27888513 -0.31179178 0.0745021 0.10632614 -0.3004239
-0.22906977 0.042322177 0.25916642 0.361687 -0.66114056 -0.44352335 0.026006559 -0.4033971
-0.013025669 -0.46305573 -0.24122022 -0.3795444 -0.36461896 0.041963223 -0.14333376 -0.13280433
-0.11712729 -0.37189984 -0.058751147 0.012829376 -0.19245389 0.15123372 0.084404215 -0.19214332
-0.30817235 -0.048113286 -0.040262673 -0.04215986 -0.16266578 -0.66783726 0.0705027 -0.052796688
-0.2090764 -0.42997757 -0.3899329 -0.03652125 -0.03698013 -0.6454484 0.021248901 -0.44043186
-0.2998018 -0.25035852 0.35859454 -0.13569605 -0.24041957 -0.51160794 -0.56816804 -0.42298603
-0.28444862 -0.34343654 -0.06830943 -0.028508466 0.20545338 -0.26488677 -0.114018865 -0.079390645
-0.050960284 -0.5076206 -0.054198585 -0.38015926 0.17722519 -0.09547237 -0.20740035 -0.39712623
0.050697558 -0.33518502 -0.12739955 -0.1035239 -0.2119808 0.51034725 -0.5423645 -0.18645604
-0.26315582 -0.07943223 -0.122324705 -0.14887843 -0.30238193 -0.42639956 -0.06162909 -0.4187446
-0.16988263 -0.411843 -0.16092707 0.07361403 -0.10578266 -0.23095955 -0.5063485 0.020834746
-0.25957087 -0.5612936 -0.43693483 -0.26299447 0.06739811 0.01952526 -0.112193495 -0.44430432
-0.5596941 -0.099609844 -0.13285567 0.053405665 -0.15727913 -0.39820516 -0.18832362 -0.07067663
-0.16342087 0.005721163 -0.5201357 -0.18435536 -0.11583859 -0.17130277 0.017894363 -0.45081714
00000000: d165 703d df6d 0a3b e4bb 20be 0596 193d
00000010: 2882 44bc 6455 0c3d f6d7 30bd 3d7d dabd
00000020: b880 a0bd edac a1bd fb8b 82bd 2a1b 56bd
00000030: e419 423c 92f5 3ebd 2b02 83bd f27d 18bd
00000040: 8430 26bd da96 bdbd 8339 843d 4c26 a03d
00000050: dafc 80be 8bf3 6e3c e3b1 90bd 3eda 10bf
00000060: a0d8 d6bc 223d b8bd 5c58 403d 8eb2 a6be
00000070: 76ab 9dbd c1bb 89bd 0407 92bd 3a01 6fbe
00000080: beb0 4cbb 9a47 04be 7f56 bbbd aa01 9a3d
00000090: 4385 11bd 8685 d5bd 80bc 3ebd 35c1 6abd
000000a0: 0ffb 12bd f444 e0bd 8e10 efbd 6816 b83b
000000b0: 8c83 9fbe c4d6 1ebe bd87 19be a559 87bd
000000c0: 6271 42bd 129c 14be c1c0 9cbd 0875 923b
000000d0: 8209 453d a642 82be cea6 7b3d c9fb a7bd
000000e0: b603 80bd e7ae 93bd eba7 64be 3734 b2bd
000000f0: ddfb c83c fa79 e4bd ed19 bfbd 8a56 2dbe
00000100: dd11 fabc ddb1 95bc 7cc8 8ebc 07a9 7dbd
00000110: 6eb9 0f3d 4638 9abd 5a3c be3c 1313 fdbd
00000120: 4c84 43bd 7186 f0bb 639f 84bd f04b 0c3d
00000130: 237e 94bd 8722 06bd a01e 953d acde 89bc
00000140: 1c41 bfbc bd75 0cbe 8187 0fbd eea5 fd3c
00000150: ccc0 983d 8613 1fbe ebe7 0ebe f609 14be
00000160: 1bd0 6b3d f4e4 093c 61d4 b83c 33a6 743d
00000170: ed08 2cbe 3cd4 90be 4935 563c 147d 7fbc
00000180: 5651 85be 4775 b8bd a8ba 98bc af93 e3bd
00000190: 6efa 8dbc 9881 87bd ba39 bfbd f3e6 16bc
000001a0: 7ba0 22bc fa2e 413d 0ed4 8fbe 701d 053b
000001b0: 317d 25bd a918 a33d 1e64 2b3d 71cd d5bc
000001c0: c24b 5cbc 99b2 95be 8bfb 5e3d 9e65 12be
000001d0: e16a 82bd a2de 64bd 3723 94bd 0f5e d0bd
000001e0: c052 adbd 8c02 48bd 0811 6fbd 7618 693d
000001f0: 072b bcbd dce7 f13c b229 2fbd cd25 d8bb
00000200: 8caf d73d 91f8 93bc 932d b33e 75e4 fcbc
00000210: 4555 523d d0ee a2be 238f 53be 93e2 5fbd
00000220: 8605 cebe b3c5 97bc 2f62 57be 08ca 8ebe
00000230: 2ca3 9fbe 8f94 983d 85c1 d93d 29d1 99be
00000240: 4491 6abe 055a 2d3d 76b1 843e 0a2f b93e
00000250: 8240 29bf 7e15 e3be b50b d53c 118a cebe
00000260: 9e69 55bc a415 edbe 6f02 77be a553 c2be
00000270: 56af babe a1e1 2b3d 16c6 12be dcfd 07be
00000280: 6fe0 efbd a869 bebe 0ba5 70bd 4e32 523c
00000290: a212 45be 03dd 1a3e 1edc ac3d 38c1 44be
000002a0: c4c8 9dbe 7012 45bd 79ea 24bd d1af 2cbd
000002b0: dc91 26be 62f7 2abf b863 903d 5741 58bd
000002c0: 2018 56be 0526 dcbe 49a5 c7be 4e97 15bd
000002d0: 7a78 17bd 1b3c 25bf 2d12 ae3c 4980 e1be
000002e0: 9f7f 99be fe2e 80be b499 b73e e8f3 0abe
000002f0: 8c30 76be bdf8 02bf 7673 11bf a091 d8be
00000300: 40a3 91be ead6 afbe d0e5 8bbd 968a e9bc
00000310: 5f62 523e 3d9f 87be b982 e9bd 9097 a2bd
00000320: bbbb 50bd 6cf3 01bf 56ff 5dbd 3ca4 c2be
00000330: 857a 353e 0587 c3bd c260 54be 2154 cbbe
00000340: 3ea8 4f3d 5f9d abbe 0775 02be 5704 d4bd
00000350: 7f11 59be 1ea6 023f 66d8 0abf 55ee 3ebe
00000360: 5cbc 86be 5dad a2bd 6085 fabd 9673 18be
00000370: ced1 9abe 0b51 dabe c96e 7cbd b165 d6be
00000380: b6f5 2dbe 16dd d2be 11ca 24be f4c2 963d
00000390: 94a4 d8bd a980 6cbe 0ea0 01bf a1ad aa3c
000003a0: 79e6 84be f0b0 0fbf ecb5 dfbe 36a7 86be
000003b0: 0508 8a3d 70f3 9f3c b4c5 e5bd db7b e3be
000003c0: 1d48 0fbf 3f00 ccbd 510b 08be e6bf 5a3d
000003d0: c80d 21be 8ce1 cbbe e8d7 40be e9be 90bd
000003e0: cd57 27be 9878 bb3b 9d27 05bf a7c7 3cbe
000003f0: c83c edbd fe69 2fbe 3397 923c 81d1 e6be

bias_hh_l0 f4 [384]
0.06314715 -0.023704527 -0.07354798 -0.029514335 -0.1022867 -0.12607202 0.030240959 -0.032127194
-0.049881857 -0.093421854 -0.12682413 -0.094968416 -0.10632199 -0.006241348 0.03160795 -0.061848186
-0.030404743 -0.05800836 -0.035068095 -0.07323236 -0.22484705 -0.15001898 -0.10103932 -0.43751678
0.030503783 -0.21070154 -0.06675434 -0.25366437 -0.012821907 -0.087684624 0.005447344 -0.20887956
0.06596409 -0.15979932 -0.013805272 -0.033070132 0.0615595 -0.081509165 0.03011626 0.07100131
-0.08813521 -0.104539484 -0.06722985 -0.09113593 -0.2060304 -0.28138155 -0.12582727 -0.079953834
0.025305362 -0.08747939 -0.072051555 -0.03783602 -0.033074304 -0.23672901 -0.076837264 -0.11828479
-0.13660355 -0.025294783 -0.22279812 0.01561446 0.04934985 -0.11305714 -0.12800916 -0.19051772
-0.054989714 0.007919584 0.07611853 -0.07908506 -0.013554324 -0.03632815 -0.06620109 -0.03383408
-0.06857449 -0.10725113 -0.02807167 -0.069771394 0.007853886 -0.059853196 0.0065194573 0.007160522
-0.02106868 -0.11928553 -0.15982176 0.02339591 0.04875854 -0.26830328 -0.11449356 -0.22141567
0.07666959 -0.034561366 0.03949661 -0.09174866 -0.12563848 -0.3362305 -0.026681181 -0.06414264
-0.33226016 -0.1502629 0.02845957 0.017586969 0.00015076387 -0.019990696 -0.06394386 0.037696943
0.0035191842 -0.12119263 -0.19179961 -0.15597688 -0.09264496 0.03223092 -0.047372356 -0.04992707
-0.11935362 -0.13443059 0.069152094 -0.03837429 -0.100222714 -0.018901972 -0.107417345 0.05076401
-0.016662791 -0.014043992 -0.14277792 -0.077506654 0.06748436 0.00167418 0.014709696 -0.051022585
0.03375195 -0.11215611 0.25536713 0.03710587 -0.02628647 -0.29136324 -0.26740995 -0.095661394
-0.50384176 0.099783175 -0.14876248 -0.31384754 -0.38429174 -0.031161059 0.17945841 -0.36223167
-0.34174332 0.04293895 0.22683334 0.31466177 -0.7067753 -0.5144107 -0.067685366 -0.4607503
0.023475239 -0.59464115 -0.21394806 -0.31827798 -0.37003678 -0.009865507 -0.094308294 -0.24642031
-0.16286212 -0.45168957 -0.017672163 -0.05596058 -0.087942265 0.25787732 -0.014858805 -0.21575244
-0.35265473 0.05976922 0.008571117 -0.15840451 -0.15986228 -0.6430075 0.12008067 0.050747458
-0.09685806 -0.54437876 -0.27344728 -0.019390123 -0.17737272 -0.62953013 0.059889466 -0.3096507
-0.2649991 -0.28858232 0.3045112 -0.2204475 -0.34359884 -0.48352075 -0.58295834 -0.29595643
-0.1831659 -0.2965382 -0.027819784 -0.086458944 0.10156822 -0.25448835 -0.17430657 0.0019354066
-0.15812197 -0.5068973 -0.07714182 -0.30596304 0.1682661 0.058343027 -0.20137013 -0.47267964
-0.0014134027 -0.3736885 -0.07131605 -0.1410794 -0.23835476 0.5140294 -0.48895118 -0.048415575
-0.18376584 -0.13660851 -0.09938255 -0.10445585 -0.21769062 -0.31076437 -0.066121586 -0.33340853
-0.17283264 -0.4593923 -0.27940875 0.033480514 -0.21052755 -0.12764823 -0.57527566 0.08372182
-0.22484753 -0.4955409 -0.28678486 -0.2324685 -0.015932787 0.05618399 -0.10641093 -0.4459741
-0.5210431 -0.2640904 -0.20187506 0.018062573 -0.091505975 -0.45039728 -0.05178837 0.033143528
-0.28843287 0.052609824 -0.38659495 -0.16958807 -0.09692766 -0.24140845 0.04167708 -0.39697295
00000000: 4b53 813d ff2f c2bc 53a0 96bd 0cc8 f1bc
00000010: b07b d1bd 0619 01be e3bb f73c ce97 03bd
00000020: eb50 4cbd f553 bfbd 2fde 01be cd7e c2bd
00000030: 58bf d9bd 3984 ccbb 5677 013d 8654 7dbd
00000040: 5e13 f9bc 2d9a 6dbd 90a3 0fbd d9fa 95bd
00000050: 4e3e 66be 939e 19be b4ed cebd 3302 e0be
00000060: 12e3 f93c 25c2 57be 80b6 88bd 4ce0 81be
00000070: fa12 52bc ff93 b3bd a27f b23b 86e4 55be
00000080: 2e18 873d 6fa2 23be 822f 62bc 8c74 07bd
00000090: d025 7c3d 47ee a6bd 60b6 f63c 2369 913d
000000a0: 3c80 b4bd cc18 d6bd ceaf 89bd 79a5 babd
000000b0: a2f9 52be 3e11 90be ddd8 00be d6be a3bd
000000c0: 314d cf3c 6528 b3bd c48f 93bd f1f9 1abd
000000d0: ec78 07bd 1769 72be db5c 9dbd 4c3f f2bd
000000e0: cde1 0bbe 0137 cfbc 3125 64be cbd3 7f3c
000000f0: 1123 4a3d 808a e7bd d514 03be 1417 43be
00000100: e53c 61bd 25c1 013c 08e4 9b3d 59f7 a1bd
00000110: f512 5ebc d4cc 14bd 7094 87bd 9b95 0abd
00000120: c870 8cbd 7ba6 dbbd 8ff6 e5bc 4ee4 8ebd
00000130: 96ad 003c a028 75bd 2ca1 d53b d0a2 ea3b
00000140: 3998 acbc f94b f4bd 51a8 23be c8a8 bf3c
00000150: 09b7 473d 0c5f 89be 997b eabd caba 62be
00000160: f204 9d3d 3890 0dbd 33c7 213d b9e6 bbbd
00000170: 60a7 00be 6726 acbe 7e92 dabc 375d 83bd
00000180: 011e aabe 85de 19be 0b24 e93c 8c12 903c
00000190: 5e16 1e39 87c3 a3bc 00f5 82bd 1c68 1a3d
000001a0: 1da2 663b d733 f8bd 1e67 44be 67b8 1fbe
000001b0: a4bc bdbd 9204 043d 8409 42bd 5480 4cbd
000001c0: ac6f f4bd 2ca8 09be 9d9f 8d3d 5c2e 1dbd
000001d0: 9141 cdbd 4fd8 9abc a0fd dbbd eced 4f3d
000001e0: 6880 88bc c618 66bc 6034 12be cfbb 9ebd
000001f0: 3d35 8a3d 2970 db3a f000 713c 0ffd 50bd
00000200: 7c3f 0a3d 1ab2 e5bd 7bbf 823e 53fc 173d
00000210: b956 d7bc 902d 95be f5e9 88be 1fea c3bd
00000220: c6fb 00bf 1f5b cc3d 3155 18be a0b0 a0be
00000230: e3c1 c4be 7a45 ffbc f2c3 373e 6e76 b9be
00000240: fbf8 aebe c1e0 2f3d 0047 683e 591b a13e
00000250: 3aef 34bf 6bb0 03bf a09e 8abd 77e7 ebbe
00000260: 254f c03c 673a 18bf 3315 5bbe 55f5 a2be
00000270: 7675 bdbe efa2 21bc b524 c1bd 9b55 7cbe
00000280: 54c5 26be db43 e7be 36c5 90bc ec36 65bd
00000290: 131b b4bd 7f08 843e 5872 73bc 35ee 5cbe
000002a0: 298f b4be 92d0 743d df6d 0c3c cb34 22be
000002b0: f0b2 23be 249c 24bf dbec f53d 91dc 4f3d
000002c0: 855d c6bd 685c 0bbf 4801 8cbe 09d8 9ebc
000002d0: 32a1 35be e328 21bf a84e 753d 898a 9ebe
000002e0: f6ad 87be 10c1 93be e4e8 9b3e fdbc 61be
000002f0: 30ec afbe 0890 f7be c23c 15bf 9a87 97be
00000300: d78f 3bbe dbd3 97be 51e6 e3bc 6311 b1bd
00000310: 0003 d03d 4c4c 82be 6c7d 32be 78ad fd3a
00000320: baea 21be 05c4 01bf 88fc 9dbd 30a7 9cbe
00000330: f34d 2c3e 19f9 6e3d f933 4ebe 1103 f2be
00000340: ed41 b9ba 1954 bfbe 260e 92bd 1e77 10be
00000350: 4513 74be 6e97 033f cf57 fabe 694f 46bd
00000360: 1d2d 3cbe 1ae3 0bbe 1489 cbbd f3ec d5bd
00000370: 4aea 5ebe 821c 9fbe c16a 87bd 86b4 aabe
00000380: 0afb 30be 7835 ebbe aa0e 8fbe dd22 093d
00000390: 8994 57be 38b6 02be 4445 13bf 5876 ab3d
000003a0: 6e3e 66be 89b7 fdbe 77d5 92be 390c 6ebe
000003b0: 7a85 82bc 2f21 663d f9ed d9bd b856 e4be
000003c0: 1563 05bf db36 87be 56b8 4ebe f6f7 933c
000003d0: 7c67 bbbd 799a e6be 0b20 54bd 82c1 073d
000003e0: 79ad 93be 667d 573d c6ef c5be 7fa8 2dbe
000003f0: 0282 c6bd c733 77be 96b5 2a3d 0a40 cbbe

weight f4 [1, 128]
0.0027054937 0.034997556 0.016527176 0.010504403 -0.0064198975 0.06963051 -0.022699729 -0.0030101535
-0.070403524 0.004008017 0.052067347 0.05275792 -0.059349295 0.007883451 -0.004557347 0.012559053
0.012888317 -0.004502976 0.01159741 0.012118083 0.058477353 0.033654734 0.02100702 -0.08574484
-0.0155769475 -0.07287249 0.044977114 0.04910052 -0.028697748 -0.0059796465 0.0030542512 -0.03939875
-0.010998411 -0.024174852 -0.007132488 0.05085738 -0.025858402 -0.007518083 -0.012834742 0.014805337
0.04231784 -0.008472073 -0.03896307 -0.0011882326 0.007734873 -0.058737606 -0.02376621 -0.00340611
0.0063387416 0.07831329 -0.025015134 -0.0452151 -0.051240675 0.071306765 0.038533412 -0.041040655
0.02394213 -0.049414326 -0.0076832324 -0.05058288 -0.028741566 -0.07824234 -0.06725496 -0.07376492
0.059390545 0.06964183 -0.039201386 -0.020517163 0.028217914 -0.051898908 0.016652634 -0.008565042
0.03240543 0.02519558 -0.0055845706 -0.030096939 -0.0064132325 0.011967341 0.003610948 -0.07703581
0.022897143 0.0937223 -0.007601407 0.020044927 -0.030031482 0.02641846 0.059861664 -0.0488653
0.0053602937 -0.04462341 0.028207934 -0.04733217 0.049433567 -0.07217322 0.048013322 0.07688754
0.067398675 -0.026363268 0.0059974766 0.003282386 -0.015362922 0.06717061 -0.050041255 0.020785335
0.05673712 0.0785347 -0.06954235 -0.03583399 -0.00027969922 -0.023090644 -0.03418084 0.072467215
-0.06425047 0.058352325 0.05064446 -0.01839453 -0.02800546 -0.029660486 -0.058121227 -0.00462573
0.033587277 0.004739355 -0.066525295 0.026383186 -0.031442307 -0.038113967 -0.0051200287 0.061200622
00000000: a74e 313b 9959 0f3d 0064 873c a91a 2c3c
00000010: 015e d2bb 719a 8e3d c8f4 b9bc ff45 45bb
00000020: b92f 90bd af55 833b 9244 553d b018 583d
00000030: 3f18 73bd 9729 013c cc55 95bb 7cc4 4d3c
00000040: 8529 533c b38d 93bb 1003 3e3c ed8a 463c
00000050: f385 6f3d 8cd9 093d ea16 ac3c fe9a afbd
00000060: 7436 7fbc 2c3e 95bd ec39 383d a01d 493d
00000070: 8a17 ebbc e9f0 c3bb d529 483b 9560 21bd
00000080: ae32 34bc 570a c6bc a5b7 e9bb d44f 503d
00000090: 00d5 d3bc 405a f6bb cf48 52bc 1692 723c
000000a0: 7955 2d3d 73ce 0abc bd97 1fbd 78be 9bba
000000b0: d174 fd3b d896 70bd 5bb1 c2bc 0b39 5fbb
000000c0: 38b5 cf3b b862 a03d 8aec ccbc 7833 39bd
000000d0: bee1 51bd 4809 923d 36d5 1d3d 3f1a 28bd
000000e0: 4922 c43c ad66 4abd a0c3 fbbb fe2f 4fbd
000000f0: 6f73 ebbc 853d a0bd f8bc 89bd 1012 97bd
00000100: 8043 733d 60a0 8e3d a291 20bd 9c13 a8bc
00000110: 4129 e73c f393 54bd 1b6b 883c 6454 0cbc
00000120: 8ebb 043d f666 ce3c c6fe b6bb db8d f6bc
00000130: 1826 d2bb ab12 443c a8a5 6c3b f3c4 9dbd
00000140: ca92 bb3c 7af1 bf3d 3915 f9bb 4235 a43c
00000150: 9504 f6bc 876b d83c 8131 753d fb26 48bd
00000160: 67a5 af3b 09c7 36bd 5314 e73c 61df 41bd
00000170: da7a 4a3d 8ecf 93bd 9ea9 443d 3777 9d3d
00000180: 5108 8a3d c8f7 d7bc 7b86 c43b 4d1d 573b
00000190: c4b4 7bbc bf90 893d 0ff8 4cbd 0246 aa3c
000001a0: 2f65 683d cdd6 a03d 386c 8ebd a9c6 12bd
000001b0: 98a4 92b9 9728 bdbc 3501 0cbd b169 943d
000001c0: c095 83bd d902 6f3d 9170 4f3d 20b0 96bc
000001d0: b56b e5bc 8cfa f2bc 8610 6ebd 7093 97bb
000001e0: d092 093d 974c 9b3b 6a3e 88bd 8d21 d83c
000001f0: a6c9 00bd 641d 1cbd eac5 a7bb 81ad 7a3d
