GRU/models/model_hs=64_layers=1_epochs=10_batch=16.pth (torch, 58484 bytes, 5 tensors)

weight_ih_l0 f4 [192, 5]
000000 14 44 7c be 71 18 f7 3c 05 e2 94 3d 83 5a 5b 3e
       -0.24635345 0.030163022 0.07269672 0.21421246
000010 ff 6e d2 3c d6 83 d4 bd 91 84 79 3c ce ef 6c bd
       0.025687693 -0.10376708 0.01522936 -0.057845883
000020 fa 63 96 3d 02 6e a1 bd 84 96 9a bd 3a 17 93 bb
       0.07343288 -0.078823105 -0.0754824 -0.004488853
000030 86 8b d0 bd e1 6a 51 3d d5 48 82 3b fa 0f bb bd
       -0.10182862 0.05112732 0.0039759674 -0.09133907
000040 74 f7 b6 3d f4 73 e3 3b 64 b6 29 3e 47 4d 23 3d
       0.08933917 0.006941313 0.16573483 0.03986862
000050 56 6a 36 be 2b 14 f0 bd 68 95 31 bd d3 c2 bc 3c
       -0.17814001 -0.11722597 -0.043355376 0.023042118
000060 f4 1a 99 be 73 08 7f be 9a 97 55 be be a9 a8 be
       -0.29903376 -0.24905567 -0.20858613 -0.32942003
000070 86 26 62 be b8 e6 1d bd 83 b8 2a be cd 7d 35 be
       -0.22085008 -0.03855011 -0.16671948 -0.1772377
000080 ff f3 17 be 0a 2d ca bd 41 c4 58 be b7 75 c7 3d
       -0.14839171 -0.09871872 -0.21168615 0.09739249
000090 10 87 d8 bc 59 16 f7 3d 6c 95 b3 bd 96 7a 41 bc
       -0.02643159 0.12064809 -0.08768734 -0.011809012
0000a0 eb a5 72 be c7 18 a8 be 8f c7 fd bd db 6b 96 be
       -0.23696105 -0.32831404 -0.123915784 -0.29379162
0000b0 7b 1d 69 be c1 bc 49 bd eb 48 7e be e8 c2 e4 bb
       -0.22765152 -0.049252275 -0.24832503 -0.0069812424
0000c0 31 a2 0c be cc b9 42 bd 30 9a 94 bd 6a dc 82 bd
       -0.13733746 -0.04754047 -0.072559714 -0.06389697
0000d0 87 05 04 be 90 44 73 be 3f 27 26 3b 85 81 a1 be
       -0.12892734 -0.23756623 0.0025352982 -0.31544128
0000e0 db f0 c6 be 75 60 e5 be b4 2a 27 be 06 27 66 bd
       -0.38855633 -0.44800153 -0.16324884 -0.05618956
0000f0 44 ef 98 bc 5e fe e0 bd 7c 59 cb bd 11 a3 f9 3a
       -0.018668778 -0.10986017 -0.09929177 0.001904579
000100 55 33 aa bd 3a be aa bd 44 13 1e 3d d5 3c fa bc
       -0.08310572 -0.08337064 0.038592592 -0.030546585
000110 95 72 61 be b0 48 06 bd 96 c6 c4 3c 5d 24 99 bc
       -0.22016366 -0.032784164 0.024020474 -0.018694097
000120 50 7b 26 b9 5c 63 24 3e 12 50 99 3d 11 01 22 bd
       -0.00015876931 0.16053528 0.07485975 -0.0395518
000130 4e a9 79 be 05 75 82 be 7c 82 94 be d3 86 9a 3c
       -0.24380991 -0.25479904 -0.29005802 0.018863117
000140 8c 0b 05 bd 48 f4 ba 3d 05 4e b3 3c 5e e7 7a bd
       -0.032481715 0.09128624 0.021887789 -0.061255805
000150 3f 2b 88 bd 1c c1 6e 3e 1e 95 89 bc c9 e9 f8 bc
       -0.066488735 0.23315853 -0.016794737 -0.030384915
000160 37 80 f8 3c 11 15 77 be dd 75 81 be 56 1c 82 bc
       0.030334575 -0.2412913 -0.25285235 -0.015882652
000170 66 31 9e bd a3 22 56 3c 39 a6 84 bd 34 ad 92 3d
       -0.07724266 0.0130697815 -0.06477017 0.07161942
000180 e4 e2 8a 3d b8 61 05 3d 83 f8 8d bd 8b 8e d3 bb
       0.06781557 0.032563895 -0.069321655 -0.0064562014
000190 8b 53 85 bc 3c dc a4 3d 52 7e 1a 3d 10 35 a1 3d
       -0.016275188 0.08049819 0.037718125 0.07871449
0001a0 ec 37 2f be 68 ec d3 bd a0 0d 84 3c 81 bf d1 3d
       -0.17111176 -0.10347825 0.016119778 0.102416046
0001b0 8f d9 25 3e b1 b3 56 be 39 59 8c 3d e2 9f 3e ba
       0.16196273 -0.20966984 0.06852955 -0.0007271749
0001c0 a0 00 0c bd 45 89 2a be 55 01 cf bd 8d 9f eb 3c
       -0.034180284 -0.16653927 -0.10107676 0.028762603
0001d0 ed 48 4c be 21 f3 07 bc 7f c9 19 be 5c 22 35 be
       -0.19949694 -0.008297713 -0.15018271 -0.17688888
0001e0 a6 43 97 bd 98 54 94 bd cd 54 f1 bd c1 50 e9 bd
       -0.0738595 -0.072426975 -0.117837526 -0.11392356
0001f0 c8 7a ae bc ac 0b 23 be 50 32 3b be 48 3f 6a be
       -0.021298781 -0.15922421 -0.18280911 -0.22875702
000200 0c 2a 45 be a7 47 39 be 25 50 c8 39 4b b9 83 3d
       -0.19254321 -0.1809374 0.00038206685 0.06431826
000210 85 69 87 bd a8 5b 1a 3c 42 2e d9 3c 56 ec 35 3d
       -0.06611923 0.009421267 0.026511315 0.04441484
000220 d9 7a 49 3d f7 5a 4e 3d 0b 74 35 be d4 86 13 be
       0.049189422 0.05037972 -0.17720048 -0.14406902
000230 be ab 39 be 5c 23 80 be 33 c3 92 be 89 e5 91 be
       -0.1813192 -0.25026977 -0.2866455 -0.28495434
000240 4d 33 02 bd 51 32 b1 bd e9 f0 3c be b5 86 84 be
       -0.031787205 -0.08652175 -0.18451275 -0.25884023
000250 0f 7b 09 be a0 39 9b bd 05 da 8f bd 32 13 32 be
       -0.1342585 -0.075793505 -0.07024006 -0.17390135
000260 19 46 3c be fe 76 22 3d bc 01 73 be de a3 b3 3d
       -0.18386115 0.03966426 -0.2373113 0.087714896
000270 01 00 7e 3d b3 91 3d 3e f1 b6 d0 3d e8 92 c0 3d
       0.062011722 0.18512611 0.10191143 0.0940302
000280 d1 21 8f 3d 93 0f af 3d 7e c4 99 3d 6e 80 b0 bd
       0.06988872 0.085478924 0.07508181 -0.08618246
000290 50 79 1d bc 6e 8f 64 3c 91 a5 1f be 53 3f f2 bd
       -0.009611443 0.013950212 -0.15590502 -0.118284844
0002a0 38 08 32 be c7 a6 02 be 17 d9 a5 bd 4f fa 2f 3e
       -0.17385948 -0.12758933 -0.08098047 0.17185329
0002b0 d5 21 06 3e b6 bc fd 3c 09 8b 2c be e2 82 c9 bb
       0.13098843 0.030973773 -0.16849913 -0.0061496357
0002c0 2b 4c 45 bd 50 e3 fc bd 81 78 05 be c7 05 07 bf
       -0.048168343 -0.12348044 -0.1303425 -0.5274319
0002d0 82 f9 53 bd 03 e1 a0 bd 20 25 b0 bd e6 7e 63 bd
       -0.05175162 -0.078554176 -0.08600831 -0.05554094
0002e0 fa 79 54 be e6 53 0e be 75 19 4b be 51 9b df bd
       -0.20749655 -0.13899192 -0.1983393 -0.10918296
0002f0 07 39 62 bd 81 81 30 be 69 da b7 be 31 63 9a be
       -0.055230167 -0.17236902 -0.3590882 -0.30153802
000300 56 6e 69 be 12 e9 30 be 78 1d c6 bd d0 f9 1f be
       -0.22795996 -0.1727641 -0.096735895 -0.1562264
000310 df 7e 32 be 00 31 a3 bd bd 87 73 bd c8 3f 74 be
       -0.1743121 -0.079683304 -0.059455622 -0.23852456
000320 02 38 00 bd c1 59 35 be e5 5a 70 bd 7a 64 5b 3e
       -0.031303413 -0.1771002 -0.058680434 0.21425048
000330 26 8f b7 3d 65 fd 18 3d 23 79 fe bd ab 08 8b 3c
       0.0896285 0.03735103 -0.12425449 0.016971907
000340 58 9b 22 bc 0a b8 95 3d 4d 52 c2 bd d2 d9 16 be
       -0.009924732 0.07310493 -0.09488354 -0.1473153
000350 75 ab c3 bc 25 66 61 bd 9c 63 93 bd 17 b5 d8 3c
       -0.023885468 -0.055029053 -0.07196733 0.026453538
000360 1f 15 59 bc 04 86 0a 3d 9d 63 6c 3d 82 5e 98 bd
       -0.013249665 0.033819214 0.057712186 -0.07439901
000370 97 74 d2 bd 6b b4 04 be e6 1d 9a 3d 98 82 78 3d
       -0.10276144 -0.12959449 0.07525234 0.06067142
000380 6a 9a 14 3d 31 a3 3d be 4e a6 7f bd f2 98 bc bd
       0.036280073 -0.18519284 -0.06241446 -0.092088595
000390 ac e4 66 be f6 86 e9 bd 5c 84 7b bd be 19 1a be
       -0.22548169 -0.11402695 -0.061405525 -0.15048882
0003a0 62 39 a5 bd d6 39 7a be f7 ff 8a be dd 50 2e be
       -0.080675855 -0.24436125 -0.2714841 -0.17023034
0003b0 1a 38 99 bd 3c a8 87 be c7 73 4c be b8 3e 75 be
       -0.07481404 -0.2649554 -0.1996604 -0.23949707
0003c0 7c da 0f 3e ca d5 04 3d f6 13 83 3a f2 e5 4c be
       0.14048189 0.032430448 0.0010000456 -0.20009592
0003d0 b0 fd af 3c e2 32 65 bd 75 87 20 be 82 1a 7f bd
       0.021483272 -0.05595673 -0.15676673 -0.06228114
0003e0 88 bd b6 3c 7b ec 16 3e e9 57 3a be 81 67 35 bd
       0.022307172 0.14738648 -0.18197598 -0.044288162
0003f0 73 55 1f bd 6f 5c c8 3c c3 c2 f2 3c bc 5b fe bd
       -0.03889985 0.024458138 0.029633885 -0.12419841

weight_hh_l0 f4 [192, 64]
000000 af c6 58 3f 4e c9 3d be 18 27 16 b9 d6 b8 6a be
       0.8467817 -0.18533823 -0.00014319678 -0.22922072
000010 0c 95 43 3d ca 4b eb 3d df 1d cb bd 16 21 ee 3c
       0.047749564 0.11489065 -0.09917807 0.029068511
000020 0d 86 3a 3d ee f7 25 bd a3 ed 8f 3c 7c fe c1 3d
       0.045537997 -0.040519647 0.017569369 0.09472367
000030 6d f0 46 3e 29 ad 07 3e db e7 28 3e 49 90 d6 bd
       0.19427653 0.13249649 0.16494696 -0.10476739
000040 14 02 f3 3d bf d2 f8 bd 0f 1c 17 3e 9a e8 7a 3d
       0.11865631 -0.121495716 0.14756797 0.061256982
000050 18 be 20 3e e6 b2 e5 3d 09 57 55 bd cc 08 e8 3b
       0.15697515 0.11215763 -0.052084956 0.007081127
000060 71 f5 8b bc 70 99 51 3d 55 3a 46 3d 7a 09 c6 3d
       -0.017084809 0.05117172 0.048395474 0.09669776
000070 d6 b1 36 bd e2 ba a0 3c fc d4 03 3d 53 22 e0 bd
       -0.04460319 0.019620363 0.03218554 -0.10944047
000080 02 8a 52 3e e6 39 9d 3c ec e2 96 3e 81 1a 7f 3d
       0.20560458 0.019192647 0.29470003 0.062281135
000090 6d a8 93 3d 7f 05 26 3d 45 a7 b2 3d 14 07 8a be
       0.07209859 0.040532585 0.087233104 -0.26958525
0000a0 4f 36 01 3d 3a fb 7c 3c 97 d1 01 be 96 d1 75 3e
       0.031545933 0.015440756 -0.12677608 0.24005732
0000b0 ad 46 36 bd a0 b2 20 3e 6d 65 bc 3d e9 73 07 bd
       -0.044500995 0.1569314 0.09199033 -0.033069525
0000c0 e9 15 99 3c 7a 35 ae 3d ad 7c 0f be a6 24 51 3e
       0.018687205 0.085062936 -0.14012404 0.20424137
0000d0 f5 91 40 3e 69 62 ef 3c 1e 0e 26 be 76 70 1e be
       0.18805678 0.02922173 -0.16216323 -0.15472588
0000e0 be a5 a8 be 7d f6 fb bd 33 b1 11 3e c6 f2 e3 bd
       -0.3293895 -0.12302873 0.14227752 -0.1113029
0000f0 74 90 a2 3d 98 42 4e 3c a9 9d 0c bd fd 8c 9f bb
       0.079377085 0.012589119 -0.034330044 -0.004869102
000100 80 c6 70 be 2f 1c cd bd 3e 4c 90 bd ae 12 c3 bd
       -0.23513222 -0.10015141 -0.07045792 -0.09525047
000110 bf 77 b8 bc 88 1d 36 be e8 29 7c 3d 41 4d 1e 3d
       -0.022518037 -0.17784703 0.061563402 0.038647894
000120 99 40 b6 bb c8 8c 86 bb 92 e5 17 3d 33 17 86 bc
       -0.0055619 -0.004106138 0.03708417 -0.016368484
000130 24 45 cb bc 03 1e 36 3e ab b3 5a bd ba 5e dc bc
       -0.024813242 0.17784886 -0.053394 -0.026900638
000140 84 06 6e 3e a6 83 85 bc 59 06 c6 3d c1 86 11 3e
       0.23244673 -0.016298126 0.096691795 0.14211561
000150 5d f0 5e 3d a3 91 fb bd 8f ed 1e 3e 32 5b 6a be
       0.054428447 -0.122836374 0.15520309 -0.22886351
000160 3e 74 1e 3e 05 21 d4 3e c7 f0 72 bc 7d 54 bb bc
       0.1547403 0.41431442 -0.014827914 -0.022867436
000170 82 3c 0c bd 9a 58 e0 3c 7b 18 c1 3c 5a c3 02 be
       -0.034237392 0.027385999 0.023571244 -0.12769833
000180 1b e0 9f 3d 7f 23 a0 3d b8 2d b9 3c 34 a1 50 be
       0.078064166 0.0781927 0.022604808 -0.20373994
000190 dd c7 d9 bd 1b 42 da b9 3c c1 28 be fd f9 46 3e
       -0.10633824 -0.00041629453 -0.16479963 0.194313
0001a0 9e 81 e4 bd 06 54 98 bd 4d 35 00 3c 6e bb f4 3c
       -0.11157535 -0.07437901 0.007825208 0.02987453
0001b0 41 22 b2 3d 4d 6b b6 bd 20 e0 1d be 07 ac a5 3e
       0.0869794 -0.08907185 -0.15417528 0.3235781
0001c0 01 c5 21 3e 85 da 48 bb 37 09 b5 bd a3 c6 5d be
       0.15797807 -0.0030647826 -0.08839648 -0.21657805
0001d0 f8 27 a2 3d 2f 01 8e bd 61 46 7a 3d 3b 6d b0 3c
       0.0791778 -0.069338195 0.061102275 0.02153646
0001e0 54 7b e9 3d 50 0d 37 bc da 13 ea bd 52 50 30 bc
       0.11400476 -0.011172608 -0.11429568 -0.010761337
0001f0 98 08 5a 3d c1 50 16 be 59 87 13 be e7 3d eb 3b
       0.053230852 -0.14679243 -0.144071 0.00717901
000200 b5 30 b2 bd 58 54 26 3d d7 23 07 3e f6 00 3a bd
       -0.087006964 0.04060778 0.13197266 -0.045411073
000210 e6 24 a1 be de ad d5 bd c7 49 d9 bd 06 51 55 3e
       -0.31473464 -0.10433553 -0.10609775 0.20831689
000220 c8 98 da bc 3c c5 48 be c9 a9 83 be 9d 8c 7a 3d
       -0.02668418 -0.19606489 -0.25715473 0.061169256
000230 28 01 09 3e 0d f2 e1 bd 81 0f ff bd db 81 44 3c
       0.13379347 -0.11032496 -0.12454129 0.011993851
000240 e8 a3 51 3d 27 d7 27 3d f6 c5 dd bd 4d e1 b0 bd
       0.051181704 0.04097667 -0.10828774 -0.08636723
000250 2b 41 85 3d 9e a0 04 3e f5 b6 4c bb d4 44 b1 bd
       0.065065704 0.12951896 -0.003123698 -0.08655706
000260 d0 f8 9d 3b 26 89 d0 3e e5 71 71 3c 79 9f b6 bd
       0.0048209205 0.40729636 0.014736627 -0.08917136
000270 71 c9 28 3e b9 36 1a be 57 cf 83 be 8e 85 4b 3c
       0.16483094 -0.15059938 -0.25744125 0.012421979
000280 8c ec 97 3c ff 9e a6 be d6 5a b9 3d 80 30 13 bc
       0.018545412 -0.3254318 0.09050529 -0.008983731
000290 e4 c8 cd 3d 5c 07 91 bc 9f db 06 3e 2e b0 35 bd
       0.100480825 -0.017703705 0.13169716 -0.04435747
0002a0 ee 3e 0f be 8e b5 ab be b7 c4 83 3e 77 03 41 bd
       -0.1398885 -0.33536953 0.2573602 -0.047122445
0002b0 73 c1 c4 3d dd 23 30 3e 65 f6 87 3e 9a f5 ff 3d
       0.0960721 0.17201181 0.26555172 0.12498017
0002c0 cb 49 8e 3d 7a 1b ca bd 3a 08 d1 bb fa 75 a4 ba
       0.06947669 -0.09868522 -0.0063791545 -0.0012547367
0002d0 81 0a 83 bd 37 97 74 bd 20 f7 26 bd 67 c9 33 3e
       -0.06398488 -0.059714522 -0.04076302 0.17557298
0002e0 33 db 2c 3e 4c a9 11 3d 7c 3a 85 3d 6b 32 71 bd
       0.16880493 0.035561845 0.06505296 -0.058885973
0002f0 09 26 56 3e 13 0c 5b 3d ef b6 fb 3d ba 80 30 3c
       0.20912947 0.05347831 0.12290751 0.010772878
000300 10 ff 8e bb 3c 31 74 be 14 b4 62 bd 1e cf 89 3f
       -0.004363902 -0.23846906 -0.055347517 1.0766332
000310 71 d8 91 bd 91 40 10 3d 82 af 5f be a9 1d 54 bd
       -0.07121361 0.035217825 -0.21844295 -0.0517861
000320 fc 20 cb bc 93 d0 1f 3e 47 56 5c 3c 68 8d 02 3d
       -0.024796002 0.15606909 0.0134483045 0.031873137
000330 ca ee a6 3d 2c c9 12 3c 91 96 fc 3c f4 7c a4 bd
       0.08151014 0.008959096 0.030833514 -0.080316454
000340 23 e6 a0 3c da c8 ab bc 58 18 2c bd 11 cc ee 3d
       0.019640988 -0.020969797 -0.042015404 0.11660016
000350 4a e2 4b be c8 7d d1 bd 07 66 b5 3c 2a 0a a4 3d
       -0.19910541 -0.10229069 0.022143377 0.08009751
000360 17 a2 3f bc 35 4d 17 bc c0 40 d8 3d 85 72 ff 3d
       -0.01169636 -0.009234716 0.10559225 0.12473015
000370 ba 94 d7 bd e5 99 14 bc 18 4e 78 bb 24 86 f1 3c
       -0.10526414 -0.009069894 -0.0037888344 0.029482909
000380 bd e8 1f 3e d7 d9 84 3d c6 d0 57 3e 6c 45 9e 3d
       0.15616126 0.06486862 0.21075734 0.07728085
000390 da a6 a8 3b 15 fc e7 3d 24 73 0c be b0 5a 1b be
       0.0051468434 0.11327378 -0.13715798 -0.15171313
0003a0 04 c9 7c bd b7 06 4c bd 48 39 0a 3e 19 79 db bd
       -0.06171514 -0.04981109 0.13498414 -0.10716457
0003b0 b3 f3 53 3e 3e 36 91 bc f9 a0 f5 ba d8 a5 ba 3c
       0.20698433 -0.01772606 -0.001873999 0.022784159
0003c0 df ac cd 3c dc 47 83 3e e0 c6 93 bd 22 30 9a bb
       0.025106845 0.25640762 -0.07215667 -0.004705445
0003d0 21 ea 04 be 32 f9 68 3d 3c b6 c8 bd fd 4c 1a 3e
       -0.12979938 0.056878276 -0.098003834 0.15068431
0003e0 70 df 17 3e 2e ee 34 bd 0e 4d 94 bc c2 36 33 be
       0.14831328 -0.04417246 -0.018103149 -0.17501357
0003f0 0c bb 85 3c f2 34 9c bd 0e ce f1 bc 93 6a c3 3d
       0.016324542 -0.07627286 -0.0295172 0.09541812

bias_ih_l0 f4 [192]
000000 86 1b fb bd e0 bd 04 bd 76 9d a0 bd f5 a8 f1 bd
       -0.12261109 -0.03240764 -0.07842533 -0.11799804
000010 74 79 52 be d3 31 97 3d 8b ad 59 3d 79 28 88 bd
       -0.20554143 0.0738255 0.05314402 -0.066483445
000020 fd 5e 09 be bd 6f 9f bd 5e 3b b0 bd 6a 8c 22 3b
       -0.13415141 -0.07784984 -0.086050734 0.0024802932
000030 00 bd 51 be d3 70 78 be a2 16 5e 3c 57 ad 29 be
       -0.20482254 -0.24261789 0.013555201 -0.1657003
000040 46 20 29 be b2 1d af be f8 27 fc bd 59 91 3a be
       -0.16516218 -0.34202343 -0.12312311 -0.18219508
000050 dc de 2a be 20 bb a0 bd a5 b6 ff bd 23 6a 7f bd
       -0.16686577 -0.07848191 -0.124860086 -0.06235708
000060 60 2d 26 3e 32 69 32 3c 29 d5 3e bd 41 2e 30 bb
       0.16228247 0.010889338 -0.046590004 -0.0026883038
000070 e6 80 42 be 6c 12 9d 3c 7f 3f ac bd 3d d1 5b 3d
       -0.18994483 0.019173823 -0.084105484 0.053666342
000080 c5 59 40 bd 3d b7 aa 3d 23 32 6f bd 39 93 64 be
       -0.04696061 0.08335731 -0.058397423 -0.22321786
000090 f6 e9 d9 be a0 8b b3 bd ab a2 6a bd 9d 3a 0e be
       -0.4256131 -0.08766866 -0.05728404 -0.13889547
0000a0 84 08 e4 ba 1c d9 09 3e 28 c0 08 bd 9c 74 20 be
       -0.0017397557 0.13461727 -0.03338638 -0.15669483
0000b0 b7 71 3e bd 8c d3 e1 bd cc ee b1 be f2 af 2e 3e
       -0.046495166 -0.110266775 -0.347525 0.17059305
0000c0 74 0b a7 3d 04 9c 50 bd aa d0 d1 3d f3 38 c8 bd
       0.081564814 -0.050930038 0.10244878 -0.09776487
0000d0 6b 70 0b bd e2 5a 1f be a0 d8 43 be 38 b0 8b bd
       -0.034042757 -0.15562013 -0.19125605 -0.068207204
0000e0 72 b5 c8 bd 48 e2 ca bd 72 9f 01 be a3 46 27 be
       -0.09800233 -0.09906441 -0.1265848 -0.1633554
0000f0 0f 2f b6 3d 60 57 af be 89 26 11 be 63 17 1d be
       0.088956945 -0.3424635 -0.14174856 -0.15340953
000100 47 2b c5 bd 2c c7 21 be f2 16 50 be ed 11 af bb
       -0.09627395 -0.15798634 -0.20321253 -0.005342713
000110 1a 67 a1 be 5c fb a8 3e b1 cd 34 3e 29 98 5f bd
       -0.31523973 0.33004272 0.1765659 -0.05458847
000120 56 fa 09 bf c3 5f 25 be c4 11 a2 be 0d cd 59 be
       -0.5389761 -0.16149811 -0.3165418 -0.21269627
000130 73 03 a0 be 0e aa 9f be 9c cd d3 bc 30 25 c0 be
       -0.31252632 -0.3118443 -0.025854878 -0.37528372
000140 64 d2 79 3e ec 53 ab be 79 e3 80 be 83 1c 37 bd
       0.24396664 -0.33462465 -0.25173548 -0.044704925
000150 bd 17 67 3e 59 e5 5e bd 34 8c 64 3f a0 93 9e bd
       0.22567649 -0.05441794 0.89276433 -0.07743001
000160 0a f9 a7 be d1 68 df 3d fa 2f 65 3d 86 8a cb bd
       -0.3280719 0.10908664 0.055953957 -0.099385306
000170 06 36 b3 bd 4f f4 07 be 1d 10 b4 be 80 6e f3 bd
       -0.087505385 -0.1327679 -0.35168543 -0.118863106
000180 57 e2 b6 be 3d c9 9c be ab 62 1f 3e d3 75 94 be
       -0.3571956 -0.30622283 0.15564983 -0.28996143
000190 01 da 09 bf 71 37 f1 be 37 3f 54 bc b1 52 8f 3c
       -0.5384827 -0.4711261 -0.012954525 0.017495485
0001a0 77 98 ca bd af 21 83 be a6 e9 b1 be dc 56 84 bd
       -0.098923616 -0.25611636 -0.34748572 -0.064618796
0001b0 ef db 92 be f1 a0 01 bf 13 26 08 bf a0 1b 7f 3e
       -0.2868342 -0.506362 -0.53183097 0.24912882
0001c0 a4 d4 fd 3c ab 16 9e 3e 6b 70 6c 3c 57 bf 19 3e
       0.030985184 0.3087667 0.014431099 0.15014397
0001d0 0f f4 42 3d 80 e9 1b bf 83 8a 23 bf 4a e4 e4 bc
       0.047596034 -0.6090317 -0.6388323 -0.027940888
0001e0 0b 50 ae bd f9 6d d5 be 8a ce 24 be 1e 02 3d 3e
       -0.08511361 -0.41685465 -0.16094413 0.18457839
0001f0 46 ac ee be c3 dc ce be 94 b3 6d 3d 6d 3f 11 be
       -0.4661581 -0.40402803 0.058032587 -0.14184351
000200 40 6d 22 3d 28 a0 2d bc cb 20 b3 3d 70 0b 74 3d
       0.03965497 -0.010597266 0.08746489 0.05958122
000210 88 0a 37 bc e1 31 1e bd 55 eb 75 bd de 0f b4 3d
       -0.011171944 -0.038621787 -0.060038883 0.08792089
000220 c4 04 b8 3b ae ac 22 3c 34 e4 09 3d a8 6a 94 bd
       0.0056158025 0.009928865 0.033664897 -0.072469056
000230 07 be b3 bd c8 be 1b 3b 9b af 82 bd 4a 56 1c 3d
       -0.08776479 0.0023764838 -0.0638115 0.03816823
000240 59 aa a6 3c 28 28 22 b9 e8 a4 6b bd c2 20 ca bc
       0.0203449 -0.00015464483 -0.057530314 -0.024673823
000250 be ee f5 3a 12 a0 9e bc 3a 7c 88 3c 79 0b cf bc
       0.0018763167 -0.019363437 0.016660798 -0.025274025
000260 e7 d2 a3 3d 77 84 99 3d 3d c4 4a 3d b8 aa 1b bd
       0.07999211 0.07495969 0.049503554 -0.038004607
000270 f5 06 9a 3d f4 b2 b7 3b 7b 5c e5 bc de c1 a4 3d
       0.07520858 0.0056060497 -0.0279982 0.0804479
000280 40 c2 9d bd 54 da ed 3c 8c 05 10 b9 29 93 12 3d
       -0.07703066 0.029034771 -0.00013734977 0.035784874
000290 60 f9 1b bd 2f 3f 8e bd 19 d3 58 3d fd cf 1a 3c
       -0.03807962 -0.06945645 0.052935693 0.009449002
0002a0 80 68 a8 3c ef 10 af bd e0 5c 43 bd 14 e7 bf bc
       0.020557642 -0.08548152 -0.047695994 -0.023425616
0002b0 74 8e 6c bc 74 01 07 bd 70 00 1d 3d d5 bb 6b 3c
       -0.01443826 -0.03296037 0.038330495 0.014388044
0002c0 3a 80 11 bd c8 1d bc bc 69 d4 ac 3d 3a c9 10 bc
       -0.035522677 -0.02296342 0.084389515 -0.008837039
0002d0 e5 f1 7b 3d 31 e9 86 3d 65 b1 5d 3c fb 03 33 bd
       0.061509985 0.065874465 0.013531064 -0.043704968
0002e0 01 8a 8a bc 23 65 88 bd 0c 39 3c bb d3 cb 99 3c
       -0.016911509 -0.06659915 -0.0028720526 0.018773949
0002f0 a1 19 a0 3d 4e 91 91 3d b3 4e 84 bc 06 ec b3 bc
       0.07817388 0.07107793 -0.016150808 -0.02196313

bias_hh_l0 f4 [192]
000000 fe 51 07 be d4 eb 61 bc c5 38 85 3d f6 63 2e 3d
       -0.13214871 -0.013789136 0.065049686 0.0425758
000010 67 49 25 be 7c f3 35 bd 6b e3 03 3d 5f f0 ae bd
       -0.16141282 -0.044421658 0.032199305 -0.08541941
000020 18 84 8b be 89 a4 82 bd 81 65 73 3d cb b7 14 bd
       -0.27249217 -0.06379039 0.059422974 -0.03630809
000030 64 13 0e 3d 8c de 8d be cc 5f 16 3c 93 d3 24 be
       0.03468646 -0.27708852 0.009178113 -0.16096334
000040 43 43 15 bc c1 3a db be a2 6a 6d 3d be 98 61 be
       -0.009110275 -0.42818263 0.05796302 -0.22030923
000050 51 ff dd ba 1a 3a 31 be 94 18 98 bd 7a 35 a8 bd
       -0.0016937052 -0.1730732 -0.07426563 -0.08213325
000060 4b dd b2 3d 56 1a 3b 3e 1d 69 ea bc 8c d7 ad 3d
       0.087336145 0.18271765 -0.028614575 0.08488378
000070 e5 68 74 bc a4 7d 03 bd dc 15 56 bd 99 4f 4e 3d
       -0.014917587 -0.032102242 -0.05226694 0.05036888
000080 ec ef 5c bd cb b4 9b bd 49 69 a8 bd 20 ad 53 be
       -0.053939745 -0.07602843 -0.082232065 -0.2067151
000090 c0 d1 5d be b9 a6 08 bd f0 8a 87 3d 17 dc 76 bd
       -0.21662045 -0.033362124 0.06618297 -0.060268488
0000a0 04 25 00 3d 1b 9f b0 3b 7a b8 85 bd 17 70 de bd
       0.0312853 0.0053900606 -0.06529327 -0.10861223
0000b0 9b 75 99 bd 69 d3 22 be e3 38 c5 be 56 e8 c3 3d
       -0.074931346 -0.15900959 -0.38519964 0.09565799
0000c0 93 68 b5 bd a2 b8 07 be 7f a7 ff 3c fd 8a 4b be
       -0.088578366 -0.13254026 0.031207798 -0.19877239
0000d0 0b 81 f1 3c d7 88 0d bd b6 06 6c be 62 cb d8 3d
       0.029480478 -0.03455433 -0.23049435 0.10585667
0000e0 7f 89 c3 bc b3 41 ca bd a2 ff 7f be 30 b2 39 be
       -0.023869274 -0.098758124 -0.2499986 -0.1813438
0000f0 2b 9d cd bd 23 50 a3 be 80 65 97 bd 2c 01 02 3c
       -0.10039743 -0.31897077 -0.073924065 0.00793485
000100 1d d7 df bd f6 29 f7 3c 69 e9 a4 be d8 13 60 bd
       -0.109297015 0.030171376 -0.32209328 -0.054706424
000110 32 ce c0 be cd 4b 69 3e 98 b7 8b 39 62 80 8a be
       -0.37657315 0.22782822 0.00026648934 -0.27051073
000120 a1 85 1f bf cd dd 72 be 13 1b d4 be 5e 2d 45 be
       -0.62313277 -0.23717423 -0.41426906 -0.19255587
000130 0e 9c 09 bf 1b f0 32 be aa 2c bb 3d 16 b6 fb be
       -0.53753746 -0.17474405 0.09139378 -0.49162358
000140 49 8d a5 3c 4d 3c 4a be 3c 8a 87 be d7 23 44 bd
       0.020208972 -0.19749565 -0.26472652 -0.047885742
000150 2f 64 06 3e 44 be b8 bd 2d 97 5a 3f 94 40 a6 bd
       0.13124155 -0.09020665 0.85386926 -0.08117786
000160 f4 2d d5 be 61 ae 0b 3e ea af 34 3e 5b 5f 89 be
       -0.41636622 0.13640739 0.17645231 -0.26830563
000170 4a 07 42 be 1e da c9 bd 22 08 01 bf 48 6c 25 be
       -0.18948093 -0.09856056 -0.50403035 -0.16154587
000180 88 af ae be 63 40 fa be 47 64 4f 3e 39 94 10 be
       -0.34118295 -0.48877248 0.20253097 -0.14119042
000190 73 48 13 bf 5d 9a 1b bf 32 a4 03 3d 07 b6 dc 3d
       -0.57532424 -0.60782415 0.03213901 0.107769065
0001a0 00 fa 55 be 27 96 06 be c1 92 98 be 43 ec 35 bd
       -0.20896149 -0.13143216 -0.29799464 -0.04441477
0001b0 a6 77 75 be 90 56 b2 be e3 58 1d bf 25 ce 55 3e
       -0.23971424 -0.34831667 -0.61463755 0.20879419
0001c0 96 06 b2 3d 0d c3 f2 3d 92 cc 8a bd f3 5d b4 3c
       0.086926624 0.11853609 -0.067773 0.022017455
0001d0 27 30 44 3d 36 0d da be 0c a0 23 bf d7 00 14 3e
       0.047897484 -0.42588204 -0.6391609 0.14453445
0001e0 bd b5 83 bd b6 13 f5 be 30 1b 8e bd c6 3c 41 3e
       -0.06431148 -0.478666 -0.06938779 0.1887084
0001f0 3d 08 a6 be f7 21 91 be ec 20 99 3d 3d 57 93 bc
       -0.3242816 -0.28346226 0.074769825 -0.017985934
000200 63 ad db bd 6c df 48 3d 29 92 f5 bd 9c 81 98 bd
       -0.1072643 0.049041197 -0.119907685 -0.07446596
000210 e5 5b 39 bd 6b b1 73 3d 94 94 ea 3d bd 91 dd bd
       -0.045253653 0.05949537 0.1145412 -0.10818813
000220 89 16 96 bc 07 34 66 bb 3c 33 6b bd 5f 67 c2 3d
       -0.018321292 -0.0035126226 -0.057421908 0.09492373
000230 63 61 97 bd c5 33 3f bb f5 75 a4 3d 12 5e 84 3d
       -0.07391622 -0.0029175144 0.08030311 0.06463255
000240 f1 11 54 bd ee 06 33 bb eb f7 f3 3d be c1 a8 3d
       -0.051774923 -0.0027317363 0.11912521 0.082400784
000250 03 63 08 bd 66 d1 50 3c 69 7a 41 bd 04 26 79 bc
       -0.03329755 0.012745237 -0.04723588 -0.015206818
000260 a1 62 f1 bd 5e 10 91 bd 1c ee 38 bd d8 0e 6a 3c
       -0.1178639 -0.070832 -0.045148954 0.014285766
000270 16 cc ba 3d d6 67 95 bd a2 36 60 3d c5 fa dc bd
       0.091209576 -0.07295196 0.054739602 -0.10790018
000280 12 69 c8 3d c5 bb ee bd 09 9b 02 bd 59 ff 8a 3b
       0.097856656 -0.11656908 -0.031886134 0.0042418656
000290 37 cb 0b bd a4 b8 b5 bd 3c 56 c3 bd 0e 52 07 3d
       -0.034129348 -0.08873108 -0.09537932 0.033037238
0002a0 92 69 33 3c db 96 e3 3d 64 cd f8 3d b9 5a 48 bd
       0.010950463 0.11112758 0.1214855 -0.048914645
0002b0 64 d5 61 bb 7c f3 b4 3c 0b 4e c5 3b 18 76 0d 3d
       -0.0034459466 0.022088759 0.0060212663 0.03453645
0002c0 f3 a5 8c 3d 84 2b 6d 3c b4 cd 0d be b0 cf 28 3c
       0.0686759 0.014475707 -0.13848001 0.010303423
0002d0 e6 82 fa bd 7d f6 83 3d 63 5a 70 3d 71 07 c1 3d
       -0.12231998 0.06443498 0.05867995 0.094252475
0002e0 f5 91 cc 3c f2 12 80 bd a6 b3 e5 3b 53 0e aa 3a
       0.024971941 -0.062536135 0.007009941 0.001297424
0002f0 c3 8e d3 bd 29 1d 39 bd d4 3f 80 bc 88 15 46 3d
       -0.10329964 -0.045193825 -0.015655436 0.048360378

weight f4 [1, 64]
000000 2a 47 79 bd cc 61 90 bc e3 d4 69 bd 83 46 09 bc
       -0.060858883 -0.017624758 -0.05708779 -0.008378628
000010 81 12 f0 3d a1 4d 7e bb 1a ed 90 3c 87 56 3c bd
       0.11722279 -0.0038803595 0.017691184 -0.045980956
000020 ba 1f 0a 3d 45 5d c4 bc 34 7e 5c 3d 00 a8 67 3d
       0.033721663 -0.023970256 0.053831294 0.0565567
000030 a4 4d c9 bd a8 38 8e 3d 84 45 8c bc d4 9c 11 be
       -0.09829262 0.069444 -0.017122991 -0.14219981
000040 53 01 9e 3c 9a e1 be bd 96 4c 03 3d a7 8c 87 bb
       0.01928774 -0.09320374 0.03205546 -0.00413664
000050 33 d1 be bb 29 d9 55 bd a9 84 b3 3c d4 1d 91 bc
       -0.0058232783 -0.052209053 0.021913843 -0.017714418
000060 b6 2a 20 bd 23 0c 23 bd 4e e8 a6 3c b3 80 e2 bc
       -0.039103232 -0.039806496 0.020374443 -0.02764926
000070 e9 d6 e1 bd 7a c1 76 3d 36 93 ac 3d 3d 35 63 bc
       -0.11027319 0.060243107 0.08426516 -0.013867673
000080 26 b0 ce 3c d6 20 05 3e 62 98 2e bd 10 25 46 bd
       0.025230478 0.13000807 -0.042625792 -0.04837519
000090 77 c7 bf bd 24 9d ff 3d 81 b4 7a bd a0 89 81 3c
       -0.09364217 0.12481144 -0.0612073 0.015812695
0000a0 47 72 3b bd c8 86 8d 3d a3 09 58 bd d8 98 02 3c
       -0.04576328 0.06910473 -0.052743565 0.007971011
0000b0 f5 f8 57 bc 96 67 05 bd b1 ab 22 be ba 85 68 bb
       -0.013181915 -0.03256949 -0.15885808 -0.0035480098
0000c0 70 bc c4 bc a9 9c 74 3c 38 3c 69 bd 02 92 da bc
       -0.024015635 0.014929929 -0.056942195 -0.02668095
0000d0 6e de 3b 3b d4 c0 15 be 8c d8 e6 3d 59 7c 01 bd
       0.0028666514 -0.1462434 0.11271772 -0.031612728
0000e0 45 89 92 3c 80 e1 ab 3d 36 fe 7d bd 70 58 fb 3c
       0.01788772 0.0839262 -0.062010013 0.030681819
0000f0 3d 3c d4 bd 44 68 f0 bd ee 3f da bb e1 8c fe bb
       -0.10363052 -0.11738637 -0.006660453 -0.007768259
