GRU/models/model_hs=64_layers=2_epochs=10_batch=32.pth (torch, 158709 bytes, 9 tensors)

weight_ih_l0 f4 [192, 5]
000000 3a 76 46 be c3 8c 07 be 25 82 c4 bd e1 f8 07 be
       -0.19381037 -0.1323729 -0.095951356 -0.13278534
000010 f6 86 69 be 4c 18 3b be b5 30 5f bd 53 61 52 be
       -0.2280539 -0.18270987 -0.05448981 -0.20544939
000020 08 9e 2f be 26 32 a7 bd d6 a7 35 be 03 79 11 be
       -0.17150128 -0.08163862 -0.17739806 -0.14206319
000030 11 59 3e be be ff 49 be e0 49 a3 3c 92 0e 1f be
       -0.18588664 -0.19726464 0.019932687 -0.15532902
000040 60 ed 81 bd 2e 22 5f be f7 2b d9 bd ad e4 8f bd
       -0.06344104 -0.21790382 -0.10604089 -0.07026038
000050 fa 4d 8d bc 74 99 3a be 66 64 f4 bd fe cf 2f be
       -0.017249096 -0.182226 -0.11933212 -0.17169186
000060 12 d0 8e 3c e5 af c8 bd bf fa 05 bc d7 7a 01 be
       0.0174332 -0.09799174 -0.008177458 -0.12644516
000070 5b 3f 31 be 21 95 ee bd 29 bb 39 be 31 01 97 be
       -0.17309324 -0.11649538 -0.18137802 -0.29493096
000080 a7 ee e7 bd f1 72 17 be f7 09 dd bd 45 ad c5 bd
       -0.11324816 -0.1478994 -0.10792916 -0.09652189
000090 4c 75 82 bd 90 c3 cb bd 48 1f 2e be 03 5a cf b8
       -0.06370029 -0.0994941 -0.1700412 -9.887295e-05
0000a0 7e eb a9 3d 4e 3d 7c 3d f3 54 91 bd cb 48 d8 3c
       0.0829687 0.061581902 -0.07096281 0.026401898
0000b0 d4 f2 0b 3c 7b d8 8a bc 83 1c c7 3c 1b 33 e8 bd
       0.008541781 -0.016948929 0.024305588 -0.113378726
0000c0 8f 7e be 3d 50 03 f5 bd a9 53 82 bd 64 6e e1 3c
       0.09301483 -0.119635224 -0.06363613 0.027518459
0000d0 2f 7b 3b 3d db 2c 85 bd a4 da bd 3c df 07 68 be
       0.045771774 -0.06502696 0.023175545 -0.22659253
0000e0 a9 4a 9f be 02 ba b7 bd b6 67 8a be 01 71 b6 bd
       -0.3111165 -0.08971025 -0.2703225 -0.089082725
0000f0 2e b8 17 3c 8d 9c 19 be 4a 60 48 bd fa d8 4f bc
       0.00926022 -0.15001126 -0.048919953 -0.012686009
000100 f8 ab c0 3d de ec 14 bd 9f 13 22 be 8e ed 31 bd
       0.094078004 -0.036358707 -0.15827797 -0.04343944
000110 8d 27 8d bd 6f b2 76 bd 3a 3d 37 be 52 4e 2c bc
       -0.06892309 -0.06022876 -0.1789445 -0.01051672
000120 b6 75 9e bd 06 46 40 be 71 6f d1 bd b0 ed 14 be
       -0.07737295 -0.18776712 -0.10226334 -0.14543796
000130 59 52 29 3d 03 2b e1 bd d4 c4 0a be b5 3e 81 bd
       0.0413383 -0.10994532 -0.13551646 -0.063107885
000140 bd 6e d2 bd da 3e 53 be 3c 70 9e 3b 3c 7e 8c be
       -0.10275028 -0.20629445 0.0048351567 -0.2744006
000150 97 c1 2d be 09 7b 4b be 49 82 3b be 79 30 0f bd
       -0.1696838 -0.19871153 -0.18311419 -0.034958337
000160 e1 a1 fb bd f1 0a 9c be a3 38 bc bd aa 21 48 bd
       -0.12286735 -0.30477098 -0.0919049 -0.04886023
000170 14 da 16 be 67 46 a8 bd 36 17 04 bf 2b 31 d4 bd
       -0.14731628 -0.08216553 -0.5159792 -0.103609405
000180 bd 5f 32 be 5a 60 77 be 21 cc 6e be 8c 48 8f 3b
       -0.17419334 -0.24157849 -0.23320056 0.004372662
000190 91 e3 f0 bd b3 9f 30 be 0e 89 4e be fc 42 9d 3c
       -0.11762155 -0.1724842 -0.2016947 0.01919698
0001a0 0f 43 42 bd 69 44 dd bd 48 f0 0c be 00 72 02 be
       -0.047427233 -0.10804064 -0.13763535 -0.127388
0001b0 d9 6d 4b bd 26 47 7b 3d 7d 48 11 be 8b 73 0e be
       -0.049665306 0.06134715 -0.14187808 -0.13911264
0001c0 eb f4 5b be e8 1a 55 be b3 b1 b7 bd 05 cb b3 3c
       -0.21480148 -0.20811045 -0.0896944 0.021947393
0001d0 63 3a 93 bc d7 04 85 bd 38 41 e8 bd 70 42 9c bd
       -0.017972177 -0.06495064 -0.113405645 -0.076298594
0001e0 e0 b4 5f be 9f 42 d8 bd 87 ba 41 be b2 2e e0 bd
       -0.21846342 -0.10559582 -0.18918811 -0.109464064
0001f0 76 33 42 bd 7c 97 18 be 52 4a 19 3d 6e 1b 4b 3d
       -0.04741236 -0.14901537 0.037424393 0.049586706
000200 35 06 b9 bc ca a2 a2 bd c5 b2 25 3d 72 61 12 3e
       -0.022585968 -0.07941206 0.04045369 0.14294985
000210 c7 9a 0e 3e 48 37 1a bd fa 1a 0a 3e 5a 98 12 be
       0.1392623 -0.037650377 0.13486853 -0.1431593
000220 6e 6a ff bd 2e 55 41 be e8 77 63 be 68 d8 3f bd
       -0.12471472 -0.1888015 -0.2221371 -0.04683724
000230 22 94 1d bd 7f d9 ec bc 07 b6 61 be 9e b8 2f be
       -0.03847135 -0.028912304 -0.22042094 -0.1716027
000240 6f ec e1 3d fd 99 3c bd e1 59 49 be 44 cb 31 3c
       0.11031424 -0.046045292 -0.19663192 0.010851685
000250 7e 00 0e be 60 de d7 3d bb d2 96 bd 57 60 01 3e
       -0.13867375 0.105404615 -0.073644124 0.12634407
000260 6f 4c 0a bd db 19 37 3d e2 67 1b be bb ce bd bc
       -0.0337643 0.044702392 -0.15176347 -0.023169866
000270 6e 49 33 3e fa 3b c5 bb 55 c9 53 3e 87 be 54 be
       0.1750848 -0.0060191127 0.20682271 -0.20775805
000280 a2 d9 c8 bd 44 6e bc 3c 3b ed 5d 3c 49 57 b3 3d
       -0.09807135 0.023001797 0.01354533 0.08756883
000290 2b 45 5c bb 15 c5 45 be 52 77 fd bd 5c 6d e7 bc
       -0.0033610563 -0.19313462 -0.12376274 -0.028250389
0002a0 97 fa 16 be a3 1a 7d bd 9b 46 af bd bb a5 4c bc
       -0.1474403 -0.06179298 -0.08558389 -0.012490685
0002b0 fa 0f a7 3d d1 59 7e 3d 90 8d 99 be 1c 9e 90 bd
       0.08157344 0.062097374 -0.29990816 -0.07061407
0002c0 ef 64 a4 bc 70 dd 0a be 34 53 6c be be 27 3d be
       -0.02006766 -0.13561034 -0.23078614 -0.18472192
0002d0 e6 f7 cc 3d a0 22 a0 3c 20 2f 85 3c aa 40 d1 3c
       0.100082204 0.01954776 0.016257823 0.02554353
0002e0 b2 59 b9 3c c5 13 07 bd 6d 4f 5e be e1 14 59 be
       0.022625778 -0.032977838 -0.21709986 -0.21199371
0002f0 47 3a b4 bd 56 8e ed bd 0f 1c 06 be 70 89 a5 bd
       -0.08800178 -0.11599414 -0.13096641 -0.08082855
000300 05 c5 08 bd 88 6e 2b bd e0 56 bd bd 4a 3f ba 3c
       -0.033391017 -0.041853458 -0.09245086 0.022735257
000310 31 71 5c b9 84 67 9f ba 16 33 e5 bc 54 f0 03 be
       -0.00021023002 -0.0012161587 -0.027978461 -0.12884647
000320 af 9b 77 bd 10 95 85 bc ca d8 bb bb 19 2a e4 3c
       -0.060451206 -0.01630643 -0.0057326304 0.027852105
000330 d8 7f 5b bd d2 32 73 bd 5b 10 59 bc 53 6a 67 be
       -0.05358872 -0.059374638 -0.013248528 -0.22599153
000340 b7 f8 dc bd 11 4d fc 3c 70 d3 91 3d d7 e6 ae bc
       -0.10789626 0.030798467 0.07120407 -0.021350307
000350 71 02 1a 3d 78 01 48 bd 16 0d 85 3c 6b 6e 4f be
       0.037599985 -0.048829526 0.016241591 -0.20256965
000360 b9 67 95 be 39 05 4d be 54 10 b3 bd d3 ab b6 3d
       -0.29180697 -0.20021524 -0.08743349 0.089194916
000370 fe 75 5e bd 6d b4 18 bd bc 86 5f 3d 48 ee 0f be
       -0.054311745 -0.037281442 0.054571852 -0.14055741
000380 6e 63 85 bd 08 54 65 be 41 3e dc bd bb 79 e1 bd
       -0.06513105 -0.22395337 -0.107540615 -0.11009546
000390 a3 ba 20 bc 6b a3 56 bd 2b 81 c4 bd 3a bf 2d be
       -0.009810123 -0.05240194 -0.09594949 -0.16967478
0003a0 e0 50 20 be fc 36 f5 bd cd 5d 0c be 90 70 dd bd
       -0.15655851 -0.11973378 -0.13707657 -0.10812485
0003b0 8d 44 97 3c c8 95 78 3d 85 ae af bd f5 a4 d7 bd
       0.018465305 0.060689718 -0.08578209 -0.1052951
0003c0 63 c3 79 bd 95 c1 bd 3d ac e1 a4 3d 53 b1 38 bc
       -0.06097735 0.092654385 0.08050856 -0.011272746
0003d0 9c c1 f2 bd 46 68 b6 bd ed 91 08 bc dd b9 04 be
       -0.11853334 -0.08906607 -0.008335573 -0.12961526
0003e0 48 08 50 bd 03 ad 17 be 3d 01 9e bd 25 d0 88 bd
       -0.050789148 -0.14812092 -0.0771508 -0.066803254
0003f0 81 b0 0b bd b8 3c b9 bd f9 f6 f9 3d 4d f2 9e bd
       -0.034103874 -0.09044784 0.122053094 -0.07761059

weight_hh_l0 f4 [192, 64]
000000 bf 84 6c 3e 11 30 eb 3c e8 59 96 3d f5 89 fe bc
       0.23097514 0.028709443 0.07341367 -0.031071642
000010 84 01 67 3e 53 68 4f 3d 7d 14 d6 bd d5 02 57 3c
       0.22559172 0.0506366 -0.104531266 0.013123234
000020 1f e9 11 bd 70 6f a4 bd e5 af a6 ba 46 0e 66 3e
       -0.035622712 -0.080290675 -0.0012717216 0.22466382
000030 73 23 66 3d 21 b7 73 be 1b 3a a8 3d 09 34 0d be
       0.05618615 -0.23800327 0.08214208 -0.13789381
000040 b1 34 01 bc 7b 57 f0 3d 83 8f e4 3d c2 e0 36 3d
       -0.007886098 0.117354356 0.11160185 0.04464794
000050 b0 2a 0b be 9d 4a 01 3c 03 39 b4 3c 0f 98 90 3c
       -0.13590503 0.007891324 0.021999842 0.017650632
000060 c1 a6 81 bd be bb 8b bd ed 95 28 bc 58 10 9b 3c
       -0.06330634 -0.06822918 -0.010289651 0.018928692
000070 dd 72 ed bd ba fd 59 3d 21 e7 9b bd 5a 50 57 bd
       -0.11594174 0.053220488 -0.07612444 -0.052566864
000080 bb e1 64 bd b8 f8 97 bd 7f 84 04 be 03 81 27 bc
       -0.055879336 -0.07420486 -0.12941168 -0.01022363
000090 6f d1 76 bd 24 a5 8e 3e 80 c6 9b bc 42 01 ef 3d
       -0.060258325 0.27860367 -0.01901555 0.11670162
0000a0 16 3a df bd 44 2b 80 be 2a 7f 13 be 66 45 28 3e
       -0.10899751 -0.2503301 -0.14403978 0.16432723
0000b0 1f 05 f9 bd 3d cd 2e 3d 3e b6 15 3e f8 b2 13 3c
       -0.1215918 0.0426762 0.14620301 0.009014837
0000c0 ba 29 a4 bd ce 56 77 bd 8a 11 51 3c 01 89 4e 3d
       -0.08015771 -0.060385518 0.012760529 0.050423626
0000d0 0f 08 53 3e 96 e5 49 3e 27 2e b0 bc 14 15 f6 bd
       0.20608543 0.19716486 -0.021506382 -0.12015739
0000e0 1e a8 2d bd d7 80 21 3d 58 d2 26 3d 6d 93 89 3d
       -0.042396657 0.039429512 0.040727943 0.06717572
0000f0 21 ad 61 3d 5f 51 74 3e 18 e6 30 be 3d bc 85 3d
       0.05509675 0.23859166 -0.17275274 0.06530044
000100 a7 2b fb 3d 11 22 23 bf 18 3a 2e 3e 65 87 58 3d
       0.122641854 -0.63723856 0.17014349 0.052863497
000110 5e 41 5b 3e 47 50 22 bd 3b 60 14 be b5 6d 06 be
       0.21411654 -0.03962734 -0.14489834 -0.13127787
000120 27 c6 bf 3e ca 02 bf 3d 6d d9 12 3d 26 32 5f bc
       0.37455866 0.09326704 0.035851885 -0.013622796
000130 b4 87 eb 3d 5d f8 b5 bd 03 55 70 3e c5 84 e8 bd
       0.11500493 -0.08885262 0.2346993 -0.11353449
000140 94 08 6b 3e cd fb 2d 3d 62 9c 7c 3d 58 48 84 bd
       0.22952491 0.042476464 0.061672576 -0.06459111
000150 5e c6 09 be 79 0f 03 3e d7 54 bc 3d 05 21 bd bd
       -0.13454577 0.12798871 0.091958694 -0.092348136
000160 f3 1f f8 bd f8 31 8d bd e4 6b c0 3d 92 f0 1c bd
       -0.12115469 -0.068942964 0.093955785 -0.038315363
000170 c7 7b 41 3d b5 29 1a 3d 70 af dd bd f9 49 5e be
       0.047237184 0.03763743 -0.10824478 -0.21707906
000180 0e 2f 28 be 4e f3 87 bd 46 cb 27 bc 1d c1 71 3d
       -0.164242 -0.066382036 -0.010241335 0.059022058
000190 c7 2a 28 be 49 99 34 3d 3a cc b4 bd 0e 47 d2 3c
       -0.16422568 0.044091497 -0.088280156 0.025668647
0001a0 cb 04 cb bd 19 50 36 be 38 a4 00 3d b1 54 08 3e
       -0.099130236 -0.17803992 0.03140661 0.13313557
0001b0 69 74 0e be 7e 26 54 bb d2 71 89 3d 53 f6 24 3e
       -0.13911594 -0.0032371576 0.067111626 0.1610959
0001c0 7d 90 2c be 84 5a 4a be 29 90 32 3d e3 66 08 3e
       -0.16851993 -0.19761091 0.043594513 0.13320498
0001d0 0f 69 00 3e 8d 75 37 bd eb 28 de bc 8c 40 07 3d
       0.12540077 -0.04478984 -0.02711912 0.03302054
0001e0 cb 6b ed bd fc d1 d0 3d 88 25 1c 3d 1c a2 a9 3d
       -0.115928255 0.10196301 0.03812173 0.08282873
0001f0 ff 58 52 3e b8 13 24 3e a2 64 64 be ba 02 a3 3d
       0.20541762 0.16023147 -0.22304013 0.079595044
000200 fe d6 62 3e f5 e0 0e 3c 8e c2 00 bc 5a a9 0f 3e
       0.22152326 0.008720626 -0.007858885 0.14029446
000210 e0 27 cc 3d dd 84 5d bd 22 fb 52 be 21 29 7e bd
       0.09968543 -0.054081786 -0.20603612 -0.062050942
000220 28 7a 96 bd 30 b4 6f 3d f3 68 1e be 96 56 de 3d
       -0.07347518 0.05852145 -0.15469722 0.10856359
000230 3c a7 1b 3e 59 29 5f be cc 5a 83 3e 24 94 50 be
       0.15200514 -0.21793117 0.2565521 -0.20369011
000240 8b 50 73 3d 7f 56 dc bc 33 0f 68 3d 08 04 bb bd
       0.059402984 -0.026896713 0.05665512 -0.09131628
000250 90 1d d7 3b 37 ee da 3d 52 9a e8 bd 12 43 e4 bd
       0.0065648034 0.10689967 -0.11357559 -0.11145605
000260 40 e8 fd bd db cb e6 3d 9b 38 46 be f9 f1 1c be
       -0.12397814 0.11269351 -0.19357531 -0.1532668
000270 07 21 2f 3e f1 d6 db bd e2 cb b1 bd a5 c8 31 be
       0.17102443 -0.10734356 -0.08681466 -0.17361696
000280 d4 8b 20 be 6d f3 88 3d a2 9f 00 be 40 ff 8f 3d
       -0.1567834 0.06687055 -0.12560895 0.07031107
000290 31 f8 d2 3d a7 da 42 3e 84 a6 5b bd 56 07 12 3e
       0.10301245 0.19028722 -0.0536256 0.14260611
0002a0 6f 42 2b bd 91 f3 7f be 4d 4b 02 3e 85 2f 6f 3e
       -0.041811403 -0.24995257 0.12724037 0.23357971
0002b0 01 c8 99 bd ef 0a 99 3c 7e 20 3d 3e 50 c6 6c 3e
       -0.07508851 0.018681971 0.18469426 0.23122525
0002c0 a7 70 fb bc 04 96 d7 bd 11 73 a3 bd a3 89 77 3d
       -0.030693365 -0.1052666 -0.079809316 0.060433995
0002d0 8f b2 77 3d 89 0a 20 bc 2a c9 36 3c 17 37 8e bd
       0.06047302 -0.009768137 0.01115636 -0.06944101
0002e0 86 53 8d 3c 71 bf 97 3d d8 cb 2c 3d 15 49 3c 3d
       0.017251741 0.074095614 0.042186588 0.045968134
0002f0 f9 f1 c2 bd 75 83 9f 3c 56 66 5b bd 64 11 15 3e
       -0.09518809 0.019471863 -0.053564392 0.14557415
000300 0d 57 e5 3d cc cd 22 3d 92 08 37 3e c8 3d 88 bd
       0.11198244 0.039747044 0.17874363 -0.06652409
000310 de 4f 05 3d 70 6c a6 bc 10 8c 7b 3c f5 fb 6f 3e
       0.03254687 -0.020315379 0.015353218 0.23435958
000320 93 5e dd bc b2 f2 c8 bd 34 bf ed 3c 6f 4c 6c bd
       -0.027022636 -0.098119155 0.029021837 -0.05769008
000330 47 d4 67 bd 34 2e 55 3d a6 81 4a 3c 2e 59 ef bb
       -0.056598928 0.052046016 0.012360012 -0.007304332
000340 e7 ba 91 bc 71 c0 30 bb 0b aa cc bc e8 d0 0b 3e
       -0.017789317 -0.0026970173 -0.024983427 0.1365391
000350 92 ad ce bd 98 b4 60 bd c6 07 92 3b 33 60 0a 3e
       -0.100917 -0.054859728 0.004456493 0.1351326
000360 ed f5 f3 bd f3 60 d9 bd f2 57 8e bd cb d1 50 3d
       -0.11912141 -0.10614195 -0.06950368 0.050981324
000370 1f c9 35 be b2 06 82 bc 92 3a 4b 3d 01 16 87 bd
       -0.17752503 -0.015872333 0.049616404 -0.06595994
000380 e5 d6 ce bd 98 cf 2f 3d e9 bb 8f 3d 27 4c a6 bd
       -0.10099582 0.042922586 0.07018263 -0.08119994
000390 61 f6 71 bd 21 6d 86 3e 62 67 2d 3d be ff 90 bd
       -0.059072856 0.26255134 0.04233492 -0.07080029
0003a0 45 55 9c 3c 5d 5d 28 be 5b 31 8e bc c9 66 8d 3d
       0.019083628 -0.16441865 -0.017357519 0.0690437
0003b0 8e 85 7c 3d b4 27 51 3d 5d 97 c8 bc e9 eb a5 3d
       0.061650805 0.051063254 -0.024486238 0.08101637
0003c0 5c 5f 7f 3d 09 ad bc 3c 33 fa 18 3d 25 56 2b 3c
       0.0623468 0.023031728 0.037347984 0.01045755
0003d0 d7 f4 cc 3d 7d f6 61 3d 53 3b 73 ba 1d fb a5 bd
       0.10007637 0.05516671 -0.00092785544 -0.08104537
0003e0 30 e2 9d 3d 4a af 0c be 79 55 97 3d bf 52 92 bd
       0.077091575 -0.13738742 0.073893495 -0.07144689
0003f0 82 6e 0c be ff 59 28 3e b5 39 9c bd eb 9f 24 3e
       -0.1371403 0.16440581 -0.07628194 0.16076629

bias_ih_l0 f4 [192]
000000 45 03 af bc f5 88 23 be cc 00 db bd 93 6e 61 3d
       -0.021363864 -0.15970214 -0.10693511 0.055037092
000010 0f 60 b2 3d a9 90 1f be f4 24 4e bd fa 32 a4 3d
       0.08709728 -0.15582527 -0.05032821 0.080175355
000020 2e ba bf bd 68 b2 d7 bd 6a 2f 98 3d a9 f8 ed bd
       -0.09361683 -0.10532075 0.074309185 -0.11619694
000030 29 88 f1 3d 4f cd e1 bd a5 97 20 be 49 ca 12 be
       0.117935486 -0.11025488 -0.15682848 -0.14334978
000040 56 05 32 be 4e 67 ac 3c e6 79 f2 be 49 cf 0b bc
       -0.17384848 0.021045353 -0.47358626 -0.008533307
000050 c1 a4 f3 3d 62 da 45 bc e8 64 98 bd 72 e6 98 3d
       0.11896659 -0.012075992 -0.07441121 0.07465829
000060 d4 3c 73 bd 55 af bf 3c c5 85 27 bd e7 32 0f be
       -0.059384182 0.023399035 -0.040899057 -0.13984261
000070 11 00 9a bc 10 f4 39 3e 6a 02 ae bd 8d 11 b9 bd
       -0.01879886 0.18159509 -0.08496554 -0.09036551
000080 25 ca d3 bb 55 7f a2 bc 19 58 28 be 8c 41 72 be
       -0.0064633065 -0.019836107 -0.16439857 -0.23657817
000090 3d 4c 6e 3d 2b 15 ef bc d8 80 ae 3d 61 da 5e be
       0.058178175 -0.029184898 0.08520669 -0.21762992
0000a0 46 af 8f bc bd c4 d1 bd 29 12 ae bb 23 45 bd 3d
       -0.017539632 -0.10242603 -0.0053122235 0.092417024
0000b0 77 11 bc 3c d8 ab 0f 3d 3a cc 80 be a3 04 6e 3d
       0.022957547 0.035075992 -0.25155813 0.05810989
0000c0 a8 45 2a 3e 37 e2 89 bd 2c 7a 78 bd 87 2b bb 3d
       0.16628134 -0.067326 -0.060663387 0.091391616
0000d0 e6 4d a6 3c 71 a2 84 bd e4 dc f2 3c 94 6a 9a bc
       0.020300817 -0.06476296 0.029646344 -0.018849649
0000e0 fb 61 44 be 64 25 18 be 48 80 f7 bd f5 54 de bd
       -0.19178002 -0.14858013 -0.120850146 -0.10856048
0000f0 c4 c9 0d be 5f 4e a3 bd c7 14 a5 bd 2f a7 85 3c
       -0.13846499 -0.079739325 -0.080606036 0.01631507
000100 6c bb 0b bf 8b 0c 45 be ab 8c dc bd 72 19 98 be
       -0.5458286 -0.19243066 -0.10769018 -0.29706913
000110 af 3d fb be 75 4d e4 be 56 43 07 bf 1d 38 c4 bd
       -0.49070498 -0.44590345 -0.5283712 -0.09581015
000120 fd 64 75 3e 80 7a 9f 3a 39 66 0d be d7 81 d0 be
       0.23964305 0.0012167245 -0.13808526 -0.4072406
000130 8c e2 da bd a3 be f6 be 4a d2 3f bf a3 3c d6 be
       -0.10687742 -0.4819232 -0.7493025 -0.41843137
000140 85 27 9b be 9c b8 a8 bd 16 2b 38 bf 42 c9 4a 3c
       -0.30303589 -0.082383364 -0.71940744 0.012377085
000150 11 57 9f 3d 54 bb 75 be 5d f4 00 be 5c 09 79 be
       0.077802785 -0.23997241 -0.12593217 -0.24319977
000160 aa 90 fb be 4a b8 5e be 23 36 64 3d a9 90 d3 be
       -0.49133807 -0.21749988 0.05571569 -0.41321304
000170 f4 1b 21 be b9 b4 47 be bd 2c f1 bd ff 3f 37 be
       -0.1573332 -0.19502534 -0.11776111 -0.17895506
000180 4b 23 47 be 40 48 0d bc 65 79 25 bf 65 56 f0 be
       -0.19447057 -0.008623183 -0.6463836 -0.46940914
000190 a2 20 5b be ce 22 bc 3d d4 6b ef bd 54 40 7d be
       -0.21399167 0.09186326 -0.116904885 -0.2473157
0001a0 b9 ed 90 be 5f 61 92 be a6 ef 9c be f5 b5 0c bf
       -0.28306368 -0.28589913 -0.30651587 -0.54965144
0001b0 91 41 e4 be 25 ab 54 be 43 87 08 bf 80 74 18 bf
       -0.44581273 -0.20768411 -0.53331393 -0.59552765
0001c0 7c 9a 3e 3e 89 7b 20 bf 95 ee 92 3d 4d 6f 2f be
       0.18613619 -0.626885 0.07174412 -0.17132302
0001d0 0b 68 e6 bd 11 7c f9 be c4 25 6e bd ae 91 3e bd
       -0.11250313 -0.48727468 -0.058141485 -0.04652565
0001e0 39 c8 fa be a6 43 9c be 15 dd ec be 85 34 30 bd
       -0.48980883 -0.30520362 -0.46262422 -0.043018837
0001f0 8c c5 1f be 64 1e 22 bf 50 a0 9c be 59 4b f7 be
       -0.15602702 -0.6332762 -0.3059106 -0.48299673
000200 6a ef a0 3c c5 f0 75 bc 80 09 af bc 19 93 72 3d
       0.019645412 -0.015011017 -0.021366835 0.059222315
000210 ca f6 88 bd fd b1 86 bd 51 33 0f bc ff b2 32 3d
       -0.06687696 -0.06576917 -0.008740262 0.043627735
000220 d3 30 88 bd 62 a3 3d 3d 38 f4 7a 3d 72 04 b9 bb
       -0.066499375 0.046298392 0.06126806 -0.005646282
000230 7d 89 fb 3c 59 a2 67 3d 88 c8 74 3b 57 c5 15 bd
       0.030705208 0.05655131 0.0037350971 -0.03656515
000240 0b 82 7d 3a a2 9d 55 bc 45 a1 02 ba 48 ec 5a 3c
       0.0009670562 -0.013038071 -0.00049831375 0.013361998
000250 0e fd 99 3d d4 4a 0d bd df a5 64 3b bd c1 5d 3d
       0.075189695 -0.03449519 0.0034888906 0.05413984
000260 98 b8 e7 3b b7 c0 39 3d 8f 90 58 3d e1 5b 93 bc
       0.007071566 0.045349803 0.052872237 -0.017988147
000270 5a 3c 34 3d c2 db 74 3d d6 4b b8 bd 51 41 4d 3c
       0.04400287 0.05977989 -0.089988396 0.01252778
000280 09 1f 55 3d 80 df 08 3d 8a 6b 63 3d 16 b5 a5 3d
       0.05203155 0.03341627 0.05552248 0.0809118
000290 4d 4b 94 3d f1 5c db 3c a2 99 92 3d 2c af 72 bb
       0.07240925 0.026777716 0.071582094 -0.003703068
0002a0 cd 83 32 3d 92 89 52 3d ba 10 40 3d c4 1a bf bc
       0.043582726 0.05140073 0.04689095 -0.023328193
0002b0 bc ac af bc 67 9e 00 3d ff ac fb 3c d2 05 74 3d
       -0.02144467 0.031401064 0.03072214 0.059575863
0002c0 7f f4 73 3d 70 61 25 bb ee 43 7e bd ec 3d 83 3c
       0.05955934 -0.002523508 -0.0620765 0.016020738
0002d0 5b 45 1b bd 1a 71 34 bd c1 cd c2 3b 36 d6 65 3d
       -0.03790794 -0.044053175 0.005944938 0.05611249
0002e0 a7 3f d3 3d 9a bb b3 3c f6 14 cf 3d a0 30 d3 bc
       0.10314875 0.021940041 0.1011142 -0.025780022
0002f0 95 a8 21 3c ec 02 16 bd 32 c5 d4 3c e4 92 1f bb
       0.009866853 -0.03662388 0.025972936 -0.0024349028

bias_hh_l0 f4 [192]
000000 67 05 64 be b1 0f 88 bd 2d c9 3a ba 28 90 ab bd
       -0.22267686 -0.06643618 -0.00071253144 -0.08377105
000010 34 e4 b5 3c 2b 61 12 3d 48 6a 43 be 4a ed a5 3d
       0.022203542 0.035737198 -0.19083512 0.081019
000020 4a 15 dc 3d aa 21 d9 bd 87 7f 2b bd 79 e7 bf bc
       0.10746248 -0.10602124 -0.041869666 -0.023425804
000030 3d 4f 25 3d 6b d2 88 bd c9 f5 1a be 71 88 9b 3d
       0.04035877 -0.06680759 -0.15132822 0.075943835
000040 05 99 f7 bd 7e 26 f9 bd 66 93 e5 be 92 52 5e 3d
       -0.12089733 -0.12165545 -0.4483902 0.054277964
000050 47 bb cf 3d 71 2e f6 3c f1 2b d0 bd 26 c3 70 bd
       0.10143142 0.030051442 -0.10164631 -0.058779858
000060 bd 69 3d 3d e8 fc 24 bb 55 d3 27 bd 36 ba 6f 3d
       0.046243418 -0.0025175158 -0.040973026 0.058527194
000070 a3 59 17 be f5 ca bf 3d 02 07 30 bd 3b a9 11 bd
       -0.14780287 0.09364883 -0.042975433 -0.03556178
000080 23 cc 8b 3d 31 0b a0 bd 5b d0 a6 be 3f 63 93 bd
       0.06826045 -0.078146346 -0.32580838 -0.07196664
000090 56 63 e5 ba 0d d7 45 3e 86 23 d0 bb 68 b1 78 bd
       -0.0017500918 0.19320317 -0.006351891 -0.060716063
0000a0 e3 bc f6 b9 47 a1 db bd ff 9a 8d bd db bb be bd
       -0.00047061508 -0.107241206 -0.06914329 -0.09313174
0000b0 12 c6 4a bd 7f 06 80 3d a7 0f 4c bd e8 b4 80 3d
       -0.0495053 0.06251239 -0.049819615 0.06284505
0000c0 31 be bd 3d 1a e8 91 bd 01 76 c5 bd 99 9b 0f be
       0.09264792 -0.07124348 -0.09641648 -0.140242
0000d0 84 85 94 3d 4a c3 d3 bd 72 6b 7f bd f1 23 25 3d
       0.072520286 -0.10339983 -0.062358327 0.04031748
0000e0 38 5e 2b bc 98 f9 68 bb b2 3d 90 3d 16 ad 38 3d
       -0.010459475 -0.003554916 0.070430174 0.045086943
0000f0 59 4d 12 be 67 97 be 3c bf 89 86 bd dd 49 d4 bd
       -0.14287318 0.023265554 -0.06569242 -0.10365651
000100 62 8c be be 5a 63 8b 3c 11 3a 90 be 4e 9b f6 be
       -0.3721648 0.017015148 -0.281693 -0.48165363
000110 c4 50 b9 be f1 8f 0e bf 99 7d 10 bf ab 5f 09 be
       -0.36194432 -0.5568839 -0.56441647 -0.134154
000120 62 57 2a 3e df b5 36 3c 9c 25 1d bd fc ea c5 be
       0.16634896 0.01115176 -0.038365945 -0.3865584
000130 5f a8 4e be 5f dd e9 be 0c 9d 45 bf 6e 50 f9 be
       -0.20181416 -0.45676705 -0.7719276 -0.48694175
000140 3c 39 4f be 5f b4 2f 3c bb 1c 1f bf 49 9f 6a 3e
       -0.20236677 0.010724156 -0.62153214 0.22912325
000150 a2 bb 2e 3e 81 9c f8 bd f5 cf 9f be e5 c7 23 be
       0.17063764 -0.12139226 -0.31213346 -0.15994222
000160 53 6e d9 be 23 0e a4 bd d7 08 2a bd 20 96 a6 be
       -0.42466983 -0.08010509 -0.041512337 -0.3253641
000170 c1 0d 8d 3c fc b9 3b be 9d bc 32 be 06 68 7d be
       0.017218472 -0.18332666 -0.17454763 -0.24746713
000180 35 76 1c be 35 4a b1 3d b2 02 11 bf fb 8c 1a bf
       -0.15279467 0.08656732 -0.5664474 -0.6037137
000190 80 55 da be 2e 93 e0 3d 37 15 60 be 95 37 12 be
       -0.42643356 0.10965572 -0.21883093 -0.14279015
0001a0 07 36 ea bd e2 19 14 be 20 b4 f3 be 71 0c c8 be
       -0.11436086 -0.14462999 -0.47598362 -0.39071992
0001b0 88 d4 a5 be d6 0c 46 be b7 c4 14 bf 34 ac 15 bf
       -0.3238871 -0.19340834 -0.58112663 -0.58465886
0001c0 8c 89 2e 3e 6f 0a f5 be d2 49 33 3d 0a 9d 3c 3d
       0.17044657 -0.47859523 0.043771572 0.0460482
0001d0 af a0 2e be 70 b5 c1 be 42 95 da bd 55 ee ca bd
       -0.17053483 -0.37833738 -0.10673 -0.099087395
0001e0 43 93 00 bf cc 4c ca be 3c 6a b8 be 54 33 11 be
       -0.50224704 -0.39511716 -0.3601855 -0.14179736
0001f0 2d ed 7e bd 1e 0d 04 bf 63 97 7c be 0f a5 11 bf
       -0.062237907 -0.51582515 -0.24667124 -0.56892484
000200 99 9f c5 3b 91 75 21 3d ad f8 52 bb 6c 51 79 3d
       0.0060309884 0.03941876 -0.003219168 0.060868666
000210 86 63 c6 3d 0a 74 58 3d a6 57 87 bd cc b6 49 bd
       0.09686951 0.05284504 -0.066085145 -0.049246594
000220 fb a2 fb 3d 36 99 ea bd 0b 51 b9 bd 46 4a da 3b
       0.122869454 -0.11455004 -0.09048661 0.006661686
000230 06 44 e3 bc 16 d2 ae bd c7 d2 1b bd c7 0c 26 3d
       -0.027742397 -0.085361645 -0.03804281 0.04053953
000240 c9 ec 3a bc 10 cf bb 3c fe 34 11 bc 7f b6 4e bd
       -0.011408993 0.022925884 -0.008862732 -0.05046701
000250 11 0d 81 bd 4a 7c 95 3d e3 9b 81 bd 6b ff 61 bd
       -0.0630132 0.07299097 -0.06328561 -0.055175226
000260 1d 7f 56 bd d1 51 70 bd 7f 6b b5 bd 75 9f 9c bd
       -0.05236732 -0.058671776 -0.08858394 -0.076476015
000270 ec dc ae bd 44 49 85 bd 72 e2 16 3e 39 b0 8e 3c
       -0.08538231 -0.06508115 0.1473482 0.017418014
000280 34 08 85 bd d5 34 a0 bc 41 2a 33 3d f9 e9 3f bc
       -0.06495705 -0.019556442 0.04374147 -0.011713498
000290 13 44 f6 bd 15 11 0c 3c 4b 78 d3 bd a7 de af bb
       -0.12024703 0.008548995 -0.103256784 -0.0053671184
0002a0 db 2c 99 bd 0d 7f 02 be 0a 62 0d bd dc 69 5f 3d
       -0.074792586 -0.12743779 -0.034517325 0.054544315
0002b0 33 3d 47 3d 94 8f d7 bc 89 4f 14 bd 09 5e 32 bd
       0.04864235 -0.02631358 -0.036208663 -0.04354671
0002c0 0d 4d 82 bd cf fe 64 3d 22 b5 d9 3d d1 9d 9e bd
       -0.063623525 0.055907067 0.106302515 -0.07744945
0002d0 9d da bf 3d 8a f4 c1 bd 81 f1 33 bd 29 37 da bd
       0.09367869 -0.0947047 -0.043931488 -0.10655052
0002e0 21 06 38 3d b8 97 6f bd 10 1e f9 bd 3e 78 ed 3c
       0.04492772 -0.0584943 -0.12163937 0.028988
0002f0 15 d0 52 bd f9 ac 0c 3d bc 06 2a 3d 9e aa 9d 3d
       -0.051467974 0.034344647 0.04151033 0.07698558

weight_ih_l1 f4 [192, 64]
000000 5f c8 5f 3d ba bc e4 bc bf cb 29 3e 08 5d 9a 3c
       0.05463445 -0.027922023 0.16581629 0.018843189
000010 2a b1 d4 3d ff b7 3d bd 0a c0 6f bd be 6b 30 3e
       0.10385354 -0.04631805 -0.058532752 0.172286
000020 9e 1f 05 bc 65 a1 ec bd eb 47 b6 3d 86 8b 79 3c
       -0.008125214 -0.11554221 0.08900436 0.015231019
000030 65 7d 38 3e a3 d0 10 be 38 22 02 bd 59 6b b5 bd
       0.18016584 -0.14142089 -0.031770915 -0.088583656
000040 ce 02 20 bb ca 9d 95 3c 57 06 83 3d 1d 8a 88 3d
       -0.0024415734 0.018263716 0.063976936 0.06666968
000050 99 b7 05 3d f8 25 92 bd 1b 4b 9c 3d 59 9a a9 3b
       0.032645795 -0.07136148 0.07631513 0.0051758704
000060 da 61 ab 3c c6 da ab 3d 2a df 0c bd 2e 45 94 bd
       0.020920683 0.08391337 -0.034392513 -0.072397575
000070 74 7e a0 3d 4e 42 9a 3d 74 05 28 bd ef 42 53 bd
       0.07836619 0.07532178 -0.041020826 -0.051577505
000080 1d 2e 92 bd 8b 7b 37 3d 68 61 87 3d 8c 96 70 3c
       -0.07137702 0.044795554 0.06610376 0.014684331
000090 37 22 de 3d a2 55 94 3e 62 e6 df bd 42 eb d2 3c
       0.1084637 0.28971583 -0.10932614 0.025746945
0000a0 77 e1 78 bd c7 19 5e be 92 89 d0 3c da 13 68 3d
       -0.060761895 -0.21689521 0.025456224 0.056659557
0000b0 ff 14 df bd 29 1e e1 bc 1a 17 18 bc a2 ab 54 3e
       -0.108926766 -0.027480202 -0.009282852 0.20768598
0000c0 a5 f0 fb bd 20 98 21 bc b0 fd 10 3e 0d e8 8a 3d
       -0.12301759 -0.00986293 0.14159274 0.067825414
0000d0 7a 20 16 3d a0 29 fc 3b 35 f8 3b bd 42 8a 25 3c
       0.036652066 0.007695392 -0.045891006 0.010103764
0000e0 0d 87 7a bd f2 60 9b 3d 91 d0 b7 bd 66 b3 ae bc
       -0.06116395 0.0758685 -0.08975328 -0.021325778
0000f0 70 7e e6 3c e2 43 35 3e ab b4 d9 3d 0c bd 38 3d
       0.028136462 0.17701676 0.10630163 0.045102164
000100 5e 6a b7 bc d9 95 c4 3d 9b 07 cc bd 84 86 bf bd
       -0.022389587 0.09598894 -0.09962388 -0.09351829
000110 11 a2 6b 3d 0d d0 09 3e b0 91 c5 bd 1b b0 fb bc
       0.057527605 0.13458271 -0.09646928 -0.030723622
000120 98 c2 51 bd ed da 0d be c6 2d bf 3d 8a 19 82 bd
       -0.05121097 -0.13853045 0.093349025 -0.063525274
000130 2d 10 3b bd a0 6b 22 3d db d9 0e 3c 44 75 77 bd
       -0.045669723 0.03965342 0.008718933 -0.060414568
000140 65 ed ae 3d d0 34 8a bc 5a df c0 bd 7d 9f 8b 3d
       0.08541373 -0.016870886 -0.09417601 0.06817529
000150 d0 6b ac 3d cb 9f 40 bd e0 ea 86 3d 52 a8 c6 3d
       0.08419001 -0.04702739 0.065877676 0.09700073
000160 aa 22 ef bd 7d 33 47 3d b1 ae 14 be 0c 20 a6 bd
       -0.116765335 0.048633087 -0.14519764 -0.08111581
000170 93 88 a7 bd 57 ea e3 bd 6a 79 66 bd 8e 4a dd bd
       -0.08180346 -0.11128681 -0.056268133 -0.10805236
000180 6c 8d 88 3c c6 1e 7c 3d bb 02 8e bc 1e 41 a3 3d
       0.016668998 0.061552785 -0.017335286 0.079714045
000190 33 c2 6c bd 54 26 e7 3d 09 59 fb 3b 4b 1a 16 bd
       -0.05780239 0.112866074 0.007670526 -0.03664617
0001a0 ac ef 92 3d 3d 7b e6 3d 6a 9d a3 bb 8b da b5 3d
       0.0717462 0.112539746 -0.0049931305 0.088795744
0001b0 d2 94 63 3b c5 02 46 bd 8e 8c f9 3d 91 64 a4 bd
       0.0034726155 -0.048342485 0.12185012 -0.08026994
0001c0 18 8d 99 3d 99 77 9b 3d da ce bc 3c 1a 3e 15 3e
       0.074976146 0.07591171 0.023047853 0.14574471
0001d0 7a 5e d3 3d be 8e df 3d ed 95 85 bc c9 a0 d6 3d
       0.10320754 0.10915898 -0.016306842 0.10479886
0001e0 92 84 9a bd 1e a8 ec bd 01 43 4f 3d 84 64 70 3d
       -0.07544817 -0.11555503 0.05060101 0.05868961
0001f0 c9 2b e4 bc 8f cc ad bd bb 01 88 bd 2b b2 2c 3e
       -0.02785291 -0.08486282 -0.06640955 0.1686484
000200 82 99 17 bd 5c 7e 42 3e 93 71 cb 3d c0 63 86 bc
       -0.03701163 0.18993515 0.09933772 -0.016404986
000210 ad 33 da 3d f8 c8 e0 bd 48 74 b0 3c aa f6 13 3e
       0.106543876 -0.10975832 0.021539822 0.14449564
000220 e8 f0 3a 3d ca 15 04 3e c9 5a b2 bd 92 f1 01 3d
       0.045639902 0.12898937 -0.08708722 0.03172452
000230 11 16 29 3e 46 ee 3a bb af 4b 2d 3c e4 12 ae bc
       0.16512324 -0.002852337 0.010577126 -0.021249242
000240 d2 24 df bd 12 7f d7 3d c0 05 bd 3d ba 6a 02 3e
       -0.10895695 0.105222836 0.09229612 0.12736025
000250 9a 22 84 bd 6b a8 82 3d 97 e0 a6 bd 5f 07 da bb
       -0.06451912 0.063797794 -0.08148306 -0.0066537107
000260 5d 4c ba bd f3 c7 c9 3b 67 0a bd 3d 7e c0 6e 3b
       -0.090965964 0.006157869 0.092305 0.0036430652
000270 c5 e3 9c bd 43 bc 0b 3d 73 32 0e be f3 aa 48 bd
       -0.07660631 0.034115087 -0.13886432 -0.048991155
000280 81 64 cf 3d e7 45 d4 bc 26 07 f1 bd 7c c4 80 3d
       0.101265915 -0.025912238 -0.117689416 0.062874764
000290 a8 9d c3 bd 87 8f 71 3e 18 d2 86 bd 81 fa 58 bb
       -0.09551555 0.23589908 -0.06583041 -0.0033108296
0002a0 9f 30 97 3d 1e f7 2f bd 65 18 6c 3d c3 04 cc 3d
       0.073823206 -0.04296028 0.057640452 0.09961846
0002b0 f9 f7 02 bd 12 fb 95 3d 78 88 51 3d 16 8f 5c bd
       -0.031974766 0.073232785 0.051155537 -0.053847395
0002c0 00 4a 5b bd b8 cd 31 3d 9d a7 a8 bd 6c bc 17 3d
       -0.05353737 0.04340908 -0.08235095 0.037044927
0002d0 e5 23 e0 bd b7 5b d1 bd d9 fe 77 bd 0f 01 bb bd
       -0.10944346 -0.10222571 -0.060545776 -0.09131061
0002e0 c6 a9 b7 3d 40 a3 c0 3d 10 85 91 bd ec 23 1d bd
       0.089679286 0.094061375 -0.07105458 -0.038364336
0002f0 38 19 d6 bc 7e b2 f0 3d 1c 8a ac 3d aa 6b 8e bd
       -0.026135072 0.11752795 0.0842478 -0.06954129
000300 b9 d5 f6 bb fa b7 3e bd 56 5f b5 bc 2d 7a 0a bd
       -0.007532802 -0.046562172 -0.022140186 -0.033807922
000310 31 88 e8 bd a6 88 c2 3d f2 d2 ca 3d 86 93 33 be
       -0.113541014 0.0949872 0.09903516 -0.17536744
000320 e6 6e 08 bc c4 94 0d be 83 be ba 3c 2c f9 2d 3d
       -0.0083272215 -0.13826281 0.022795921 0.042473957
000330 5f 8b 0c be 2d 33 08 3e a4 16 b2 bd 2a f5 68 3d
       -0.13725041 0.13300772 -0.086957246 0.05687443
000340 38 e2 84 3b bd 27 19 3e bc 34 3c bd 52 fd ae 3d
       0.0040552877 0.14956565 -0.04594873 0.08544411
000350 02 15 5f bd 34 1d ca bd d1 f0 4c 3d a3 06 49 bd
       -0.054463394 -0.09868851 0.050034348 -0.049078595
000360 68 3b 36 3d 72 61 49 be 27 88 f6 3b 2a b3 14 bd
       0.044490248 -0.19666079 0.007523555 -0.036303677
000370 de 0e 52 be 4d 00 a2 bd 26 90 96 3c 7a 11 12 3e
       -0.20513484 -0.079102136 0.018379282 0.1426448
000380 f8 c7 18 bd 40 53 4c bd e7 3c fe 3d 54 56 95 bd
       -0.03730008 -0.04988408 0.1241396 -0.072918564
000390 3c a2 22 be 30 18 2b be 09 08 fb 3d 89 02 d5 3d
       -0.158822 -0.16708446 0.12257392 0.10400874
0003a0 59 9c 17 3e 33 09 3f 3e 7f b4 56 be 2e d4 6e bd
       0.14805736 0.18655853 -0.20967291 -0.05830782
0003b0 62 7a 08 3b 8a e6 c9 bd 3d 0f 54 be e2 80 d1 bc
       0.00208249 -0.09858425 -0.20708938 -0.025574151
0003c0 a1 10 b6 3c 34 e8 70 3d e7 c2 90 3d d2 ac be 3d
       0.022224726 0.058815196 0.07068425 0.093103066
0003d0 8a e2 cd 3d 4f c6 c1 3d 89 29 f4 3d 54 46 4a bb
       0.100529745 0.094616525 0.11921985 -0.0030864673
0003e0 c3 bc 49 be cc 1f 04 3b 53 03 db bd cb 06 6a 3b
       -0.19700913 0.0020160554 -0.106939934 0.0035709615
0003f0 94 5a ab bd 8c 74 ab bd fb 78 98 bc af 24 0b bd
       -0.08366886 -0.08371839 -0.018612375 -0.03397053

weight_hh_l1 f4 [192, 64]
000000 51 81 cc 3b 4f c6 11 3e 3c 44 68 bc 54 1a 80 bd
       0.0062410017 0.14235805 -0.014176425 -0.06255022
000010 31 f3 57 bd 15 a5 ba bd 4f 4c 37 bd b0 5f 38 3d
       -0.05272216 -0.09113518 -0.044750508 0.04501313
000020 82 bf f6 3d 48 88 de 3d e6 ca ca bd f5 28 c2 bd
       0.12048246 0.10865837 -0.09901981 -0.09480468
000030 b4 ce 24 3d 33 44 bf 3d 00 e2 a6 3d 26 6f ef bc
       0.04023619 0.0933918 0.08148575 -0.029227804
000040 4f 1c 9c bd ea 0c 3c 3e aa d1 20 bd 01 7d dc 3c
       -0.07622587 0.18364301 -0.03926245 0.026915075
000050 a6 a3 46 bd fc 20 45 bd bf 69 0c 3d 84 8a 82 bd
       -0.04849591 -0.04812716 0.034280535 -0.06374076
000060 4c 6d 1e bd e7 6c 43 3d f0 91 1c 3e 6a a6 d5 3d
       -0.038678452 0.04771128 0.15290046 0.104321316
000070 74 7f 71 bc 7c 2b 80 3c c6 87 15 3e fc 0e d1 3c
       -0.01473986 0.015645735 0.14602575 0.02551984
000080 0d f2 c2 bd 42 7c e8 bc 5a 9e 8a 3c 77 1a 0c 3c
       -0.09518824 -0.028379563 0.016921211 0.008551232
000090 9d 16 24 bd 0a 66 bd bd bc cb 84 bd ac 51 bc 3c
       -0.04006063 -0.09247978 -0.06484172 0.022988163
0000a0 63 a9 dc 3c 0a ef d8 3c 92 f2 0a 3d 5e 0e 75 bd
       0.026936239 0.02648117 0.03392274 -0.059828155
0000b0 33 48 08 be e2 22 08 3d 7e 15 c5 3d 59 82 b5 bc
       -0.13308792 0.03323639 0.0962324 -0.022156881
0000c0 5f 4a b6 3d c7 f3 4e 3d c2 bd 85 bc b1 79 da 3c
       0.08900904 0.050525453 -0.016325835 0.026669355
0000d0 4a 21 64 bc 95 33 96 3d ff b6 d2 bd dd af 60 bd
       -0.013923952 0.07334057 -0.1028881 -0.054855216
0000e0 4f f6 98 bd b4 4e 93 3d 51 f9 7d bd 4b 9c a4 3d
       -0.07468855 0.07192746 -0.062005345 0.08037623
0000f0 13 47 9a 3d 87 0b 22 bd 86 87 09 3e 90 46 53 bc
       0.075330876 -0.039561775 0.13430604 -0.012895241
000100 1a e1 c9 bd 9e 84 e3 bb 3e 26 31 be 86 41 bd 3c
       -0.09857388 -0.0069432994 -0.17299744 0.023102533
000110 a4 f8 b6 3d c8 74 8a 3c e1 b9 e9 3c 89 1d ec bd
       0.08934143 0.016901389 0.028531017 -0.11529071
000120 6a e2 ef 3d c3 de 2b bc 59 2a 0e be 46 60 95 3b
       0.11713107 -0.010490122 -0.13883342 0.004558596
000130 f3 c9 c1 bd 48 58 1e 3e a0 2f b9 bd e2 36 7e bd
       -0.09462347 0.15463364 -0.09042287 -0.06206406
000140 28 13 91 3b 80 7f bf 3b f5 dd 83 3d 5b d6 28 3d
       0.0044273324 0.0058440566 0.06438819 0.04122005
000150 db 2c b7 3d 4d 62 a7 bd 56 93 4b bd 53 b2 70 bd
       0.089441024 -0.08173046 -0.049701057 -0.058763813
000160 57 7c 1f bd f0 0d 00 bd 06 6e 8e 3d 0c a8 84 bd
       -0.03893694 -0.03126329 0.06954579 -0.06477365
000170 96 0a 0a be 27 c7 e6 bc 3b 4c f2 bc e9 dc 37 3b
       -0.134806 -0.028171135 -0.029577365 0.0028055257
000180 12 87 c9 38 0c f6 37 be c8 02 b8 3d 34 27 3f 3d
       9.609586e-05 -0.17964953 0.089849055 0.046668246
000190 e9 91 38 bc f1 d6 5b 3d fa 06 9a 3c 0b b8 62 bc
       -0.011265256 0.05367178 0.018802155 -0.013837825
0001a0 4e 8f 86 3d 4b 8b ca 3d bf c3 6f bd 14 2e a6 bd
       0.06570302 0.09889849 -0.058536287 -0.081142575
0001b0 e2 1f 1c be 2c c8 fc bc 3f 95 9d 3b 48 f1 81 bc
       -0.15246537 -0.030857168 0.0048090513 -0.015862122
0001c0 8d 7b 86 bd 97 f3 04 be a7 c9 1a 3b 30 8e ed 3c
       -0.06566534 -0.12983547 0.002361873 0.028998464
0001d0 ce bb da 3d b1 70 40 bd 8e 74 f3 bd 47 0b 29 3d
       0.10680352 -0.04698247 -0.118874654 0.04127052
0001e0 b4 b9 d2 3d d2 9e ad 3d 18 87 9d 3d 35 de 62 bc
       0.10289326 0.08477558 0.07691783 -0.013846924
0001f0 b3 96 7c bc f2 ed 3c bb fc 1f a3 3b fe 94 be bd
       -0.015416789 -0.002882835 0.004978178 -0.09305762
000200 b9 e4 d4 3d 08 95 01 be 42 91 2c 3e 07 8b 3d be
       0.10395188 -0.12654507 0.16852286 -0.18510066
000210 23 97 f8 3d e2 1f d5 3d d8 41 28 3e d0 1c 04 3e
       0.12138202 0.10406472 0.16431367 0.12901616
000220 c5 1e 8c bd 21 43 f7 bb 13 c8 3c 3d 81 0a 0b be
       -0.06841806 -0.007545844 0.046089243 -0.13578226
000230 42 5d 9c 3d 61 93 76 3d 14 69 00 3d 99 43 63 3e
       0.07634975 0.060199145 0.03135021 0.22193755
000240 bc 75 3b 3c 25 ee a3 3c 63 1b 75 3d 8e ca 18 3e
       0.011441644 0.020011017 0.05984057 0.14921018
000250 e1 dc 21 bd da 3d 7c 3d 9f 6b 73 bd e1 8a c0 3d
       -0.039517287 0.061582424 -0.059428807 0.09401489
000260 80 a8 e0 bd 87 23 10 be 7f 3d 43 3d 48 11 8f 3d
       -0.10969639 -0.14076053 0.04766607 0.06985718
000270 f0 e3 e8 3d 9c db a7 bd ea 86 25 bd 2d 9c 2c 3e
       0.11371601 -0.08196184 -0.040411867 0.16856451
000280 48 ba 7b 3d 76 82 0d 3e c6 c3 1f 3d 9a 73 0a 3e
       0.06145695 0.13819298 0.039005063 0.13520661
000290 aa e3 89 bd cf d1 0c 3e 6b 93 60 bc f5 92 01 3e
       -0.067328766 0.1375191 -0.013707022 0.12653716
0002a0 fe 63 4d bb b5 e7 33 3d 40 98 a3 bd 36 52 30 bd
       -0.0031340118 0.043922145 -0.07988024 -0.043047152
0002b0 4a 9b 8f bd 21 19 16 3d ff 57 8a 3b 42 45 e8 bd
       -0.07012041 0.03664506 0.0042219157 -0.11341335
0002c0 3b fa 6c bd de 5a 2a bd e8 97 ff 3c cd f7 a2 3d
       -0.057855826 -0.041590564 0.031200364 0.079574205
0002d0 69 5b b0 3d 67 6d 39 3d cc 66 99 3c f4 3b 3f be
       0.08611185 0.04527035 0.018725775 -0.18675214
0002e0 d1 cd f8 bd ff af 80 bd ba 04 48 bc a9 39 15 bd
       -0.12148631 -0.062835686 -0.012208158 -0.036431942
0002f0 50 63 1f 3d 77 96 49 3d f2 cb 93 bd 90 7a d6 3d
       0.03891307 0.04921576 -0.07216634 0.10472596
000300 83 a6 fd bd ef 63 8e 3d 56 5f 63 be 8b 98 be bc
       -0.12385275 0.069526546 -0.22204337 -0.023266098
000310 83 b0 61 be e1 2e 9f 3c 1e b6 b6 3d 2c 68 55 be
       -0.2203999 0.019431533 0.08921455 -0.2084052
000320 36 c7 6c 3d 99 73 f7 3d 37 7d 05 be e6 78 96 bc
       0.05780717 0.120825954 -0.13036047 -0.018368196
000330 04 9e b0 be c8 e8 38 3e b7 e3 3d be 49 d5 47 be
       -0.34495556 0.18057549 -0.18543898 -0.19514956
000340 f2 a9 01 be b2 80 2c 3e f2 62 48 3d 5d 60 f5 bd
       -0.12662485 0.16845968 0.048922487 -0.119812705
000350 31 0f 1f 3e c4 e9 6a 3e 83 ed e4 3d 5f cc 5a bd
       0.15533139 0.22940737 0.11178114 -0.05341756
000360 32 49 02 bd 53 7a bb 3d 62 b3 17 3e 21 e7 a3 3b
       -0.031808086 0.09154191 0.14814523 0.005001918
000370 e3 b9 b9 be 42 2d 71 3e b8 78 01 3e 56 74 ce bd
       -0.36274633 0.2355242 0.12643707 -0.10080783
000380 06 3c ee bd 9c 0f 33 be 57 d7 2c 3e b3 d3 9d be
       -0.11632542 -0.17486423 0.1687902 -0.30825576
000390 09 32 93 be 41 31 46 be 33 27 87 be c6 ea 4a be
       -0.2874911 -0.19354726 -0.26397094 -0.19816121
0003a0 a5 fe 22 3d 9e bd 3f 3a 5d 07 29 be df c2 00 be
       0.03979363 0.0007314327 -0.16506715 -0.12574337
0003b0 a2 a2 c8 bb 46 a8 ed bb 33 08 0a bc 79 f7 8b 3d
       -0.006122903 -0.007252726 -0.008424806 0.06834311
0003c0 39 e5 a8 3a 69 5d 6a be f2 8b c9 3d df f8 86 3d
       0.0012885696 -0.22887196 0.098411456 0.06590437
0003d0 46 00 1d be 3c e8 62 be 29 f4 9e bd 39 e0 63 3e
       -0.15332136 -0.22158903 -0.077614136 0.22253503
0003e0 53 86 89 3e 85 a1 50 3e f4 3d 69 be 61 0f 2f be
       0.26860294 0.20374115 -0.2277754 -0.1709571
0003f0 58 6b 65 3e 4d b0 be bc bf 88 19 3e bd f6 91 3d
       0.2240423 -0.023277426 0.1499357 0.0712714

bias_ih_l1 f4 [192]
000000 b1 79 98 bd 42 44 3e 3d 70 95 01 be 72 68 03 be
       -0.07445086 0.046451814 -0.12654662 -0.12832811
000010 68 c7 01 bd f2 dd 06 be f1 d2 ac bd 06 d8 f8 3d
       -0.03168431 -0.13170603 -0.084386714 0.12150578
000020 7c 9e 04 be 65 43 a0 3d 1e 8b 28 be 3a 1e a7 3b
       -0.12951082 0.078253545 -0.16459319 0.005100039
000030 67 2b 04 3e 0d 44 d7 3d 60 9a f3 3c f5 6a fb 3c
       0.12907182 0.105110265 0.029736698 0.03069065
000040 d1 14 73 3d 9f 3a 08 be 29 c2 02 be 69 48 96 b9
       0.059346024 -0.13303612 -0.12769379 -0.0002866418
000050 6b 5a fb bd 93 f4 f5 bd 68 a5 69 3d 2a 5e ea 3c
       -0.12273105 -0.120095395 0.05704251 0.028609354
000060 94 46 3c 3d 1e 31 7d bc 3d fa 0e bd a1 15 e1 bd
       0.045965746 -0.015453605 -0.034906615 -0.109904535
000070 cf 65 f1 bc ab 25 64 bd a0 8e 81 37 6b 99 1e be
       -0.029467491 -0.055699985 1.5444413e-05 -0.15488212
000080 a6 45 d5 3d 65 f5 42 bd 5e d3 23 3d 76 15 a3 bd
       0.10413675 -0.047597308 0.039996497 -0.07963078
000090 f5 e9 aa 3d 04 5e cf 3d a0 57 06 bd f6 63 b3 bd
       0.08345405 0.10125354 -0.03279841 -0.087593004
0000a0 7c e3 04 3a ad 5b 41 bc f1 d3 e3 3c 65 58 92 bd
       0.0005069298 -0.011801642 0.027811022 -0.07145766
0000b0 01 d1 16 bb fb 91 e6 bb 41 db 73 bd b5 42 eb 3c
       -0.002301276 -0.007036445 -0.05953527 0.028718332
0000c0 ff f1 0c be d8 40 e9 bd 1d 24 78 bb 78 0b 78 bd
       -0.13764189 -0.11389321 -0.0037863322 -0.060557812
0000d0 6e a7 0a be c7 ba 9c bc c1 04 0f 3d 0f 11 3f 3d
       -0.13540432 -0.019132031 0.034916643 0.046647128
0000e0 de a9 77 bd 79 55 74 bd f0 02 82 bd 15 c5 5a 3d
       -0.060464732 -0.059651826 -0.063482165 0.05341061
0000f0 fc eb bc bd db 3b 07 3d c5 f7 17 3e f3 85 e0 3d
       -0.09224698 0.033016067 0.1484061 0.10963049
000100 36 f9 fd be fe 54 a1 be 8c 20 c8 be c8 9d 16 bd
       -0.49604195 -0.31510156 -0.3908733 -0.036771566
000110 78 04 f5 be 10 e6 0d 3d f5 72 8a bd db e4 36 be
       -0.47854972 0.034643233 -0.067602076 -0.17860739
000120 cb 2c a1 3c d5 b6 1e be af f3 ab bd 38 a5 35 be
       0.01967468 -0.15499432 -0.08396088 -0.17738807
000130 d4 13 b0 be 3f b9 c6 bd c5 75 c2 be cb f9 b6 bd
       -0.34390128 -0.09703302 -0.37980476 -0.08934363
000140 1d 2f 8d be e1 21 9f 3b 3e 75 82 3d 53 65 a9 be
       -0.27575007 0.0048563336 0.063700184 -0.33085117
000150 3c 76 81 bd 02 04 12 bf 40 7d bb be 72 0e 1f 3d
       -0.063213795 -0.57037365 -0.36618996 0.038832135
000160 4c e8 1c bf a4 ac 74 be bd 5e a9 bd c9 4c 00 bf
       -0.61291957 -0.23893982 -0.08270023 -0.50117165
000170 e3 dc bc be 1d 54 0f be b1 5e 76 be 92 99 e4 be
       -0.36887273 -0.1399693 -0.2405956 -0.44648415
000180 87 20 9b 3c d5 bd 25 3c 59 ec c5 bd 0f 75 bb be
       0.018936409 0.01011606 -0.0966422 -0.36612746
000190 ac 5b ac be ff ec 0c bf b1 df bd be e7 6a d1 be
       -0.3366369 -0.5504913 -0.37084725 -0.40901873
0001a0 73 11 d2 3c b6 97 66 be c0 fd 52 be 62 1b b1 bd
       0.025643086 -0.2251881 -0.2060461 -0.08647801
0001b0 ff 9f 16 bf 5f 91 82 be 06 33 f9 be a0 73 e8 be
       -0.58837885 -0.25501534 -0.4867174 -0.45400715
0001c0 30 d9 5d bd eb 3e ac 3c 5d d3 8c be d4 56 8f be
       -0.054162204 0.021026095 -0.27505007 -0.27995932
0001d0 b6 05 fa be 35 7e 97 bc c3 f9 ff bd 68 f7 e4 be
       -0.48832482 -0.018492797 -0.1249881 -0.44720006
0001e0 50 69 a3 bc b1 88 4c be 6a 0c fb be 9e 93 65 bd
       -0.019947678 -0.19974019 -0.4903291 -0.05604898
0001f0 53 df 22 be 24 17 99 3e ea 7f f3 be 07 2e eb be
       -0.15905504 0.29900467 -0.47558528 -0.45933554
000200 3d 3c 48 3d a9 5c dd 3b 3a 2b 51 3d cc d4 de bb
       0.048885573 0.0067554307 0.051066615 -0.0068002697
000210 69 c5 b0 bd ea c2 0a 3d f5 fd 87 bc 12 5f 44 bd
       -0.08631403 0.03387729 -0.016600588 -0.04794223
000220 df 43 e2 3c 9a d8 d6 bd ed 50 36 3b 22 9e 22 3a
       0.027620254 -0.10490532 0.0027819232 0.0006203373
000230 7f 1d 1c bc 6d bd 6b bd 9b ea b5 bc 7e 9a fb bc
       -0.009528517 -0.057553697 -0.022206595 -0.030713316
000240 f7 8f 45 bb 3c 6c 77 bc 85 91 12 bd d8 37 15 bd
       -0.0030145624 -0.015101489 -0.03578331 -0.03643021
000250 fb c9 73 bd 58 56 eb bd 0f cd 40 bd 5b 05 d7 bb
       -0.059518795 -0.11491078 -0.04707056 -0.0065619177
000260 3a 62 ce 3d f8 3d eb 3a 4c 7e 00 bc 90 16 c1 3d
       0.10077329 0.0017947545 -0.0078426115 0.094281316
000270 2f 26 1c bc d8 c8 54 3d 99 f9 a0 bd 46 0d f1 bc
       -0.009530588 0.051949352 -0.07860107 -0.029425275
000280 a7 ed 7e 3d ef 34 90 bc e2 01 33 3d e7 ba 1a 3d
       0.06223836 -0.017603366 0.043702967 0.0377759
000290 05 96 d5 bc 2a dd c2 bd 8d 14 b1 bd 31 a4 49 bd
       -0.026072511 -0.0951484 -0.08646498 -0.04922885
0002a0 21 ac 8c bc b5 67 1c bd 1b 87 ed bc c9 86 15 bd
       -0.017171921 -0.03818484 -0.028995087 -0.036505494
0002b0 d8 a3 5e 3d bf 4e 9b 3d 85 6a a9 3d d1 50 5e 3d
       0.054355472 0.07583379 0.0827227 0.05427629
0002c0 f9 16 c8 bc 4b ea e1 3c 77 7a 9e 3d 96 74 69 bc
       -0.024425017 0.02757754 0.07738202 -0.014248988
0002d0 2f 2a 82 bd 1d bf c3 bc 24 50 45 bd 3c 3a 4c 3d
       -0.06355702 -0.02389484 -0.04817213 0.049860224
0002e0 ed 34 20 bd 55 08 7a 3c 35 b9 4d 3b 9b 80 01 3c
       -0.039112974 0.015260776 0.003139091 0.007904197
0002f0 fe ac 0a bd ed 19 ab 3d 6f 38 a5 bd 24 9d 3f bd
       -0.033856384 0.08354554 -0.080674045 -0.04678072

bias_hh_l1 f4 [192]
000000 38 76 76 bd a6 cc 54 bd a9 24 03 be 91 34 10 bd
       -0.060171336 -0.05195298 -0.12806953 -0.03520638
000010 7c b2 d0 bd 39 62 5b 3c d1 fa 24 bd 52 3d 79 bc
       -0.10190293 0.013390117 -0.04027826 -0.015212374
000020 18 7f 50 bd f1 ff 94 3d b6 39 0d be 51 dc b6 bd
       -0.050902456 0.072753794 -0.13791546 -0.08928741
000030 67 ef 40 bc 89 e6 49 3d 5b 02 2a bd e8 b2 e2 3d
       -0.011775828 0.04929212 -0.041506153 0.1106928
000040 bc ed 9d 3d a2 8d b4 bd 37 61 71 3d 41 c0 89 bd
       0.0771136 -0.08816077 0.058930602 -0.06726123
000050 35 43 a2 3d 33 40 58 3c ca 59 67 bd 7b 63 25 be
       0.07922975 0.0131989 -0.056482114 -0.1615123
000060 b3 f4 c4 bc f6 9f 16 3d 84 42 4b bc 7a 63 89 3c
       -0.024042463 0.036773644 -0.012405995 0.016771067
000070 c3 ff 46 3d 8e 3c d2 3c ef 28 91 3b bb 0d f7 bd
       0.048583757 0.02566364 0.0044299285 -0.12063166
000080 a0 b0 c2 3d db fe 50 3d 6a 5b 80 bd 51 e2 3f bd
       0.09506345 0.0510243 -0.06267436 -0.04684669
000090 45 d0 03 be cd 68 80 3c a2 2a e0 bd 52 75 51 bc
       -0.12872417 0.015674973 -0.109456316 -0.012784319
0000a0 57 51 17 be 20 53 41 3d 06 a1 63 3d 2e 13 0a bb
       -0.14777122 0.047198415 0.055573486 -0.002106856
0000b0 6b dd 98 3d 74 bf 66 bd 76 88 f1 bc 52 e6 cd bd
       0.07464107 -0.056334928 -0.029484015 -0.10053696
0000c0 7c ea 80 3d c8 f6 a4 3d 32 dc 62 3b e4 36 a0 bc
       0.06294724 0.08054882 0.003461611 -0.019557424
0000d0 2a 12 74 3c 44 ca c4 3d 7d e6 57 3c bd 13 01 3d
       0.014896909 0.096088916 0.013177511 0.031512965
0000e0 68 36 34 3c 68 b6 ac bc e7 a6 4c bd 0e d8 ce 3c
       0.0109993 -0.021083072 -0.049963858 0.025249507
0000f0 59 98 9d 3d 90 6f a2 bd 6c d0 04 3e f7 3e cd bd
       0.07695074 -0.07931435 0.12970132 -0.10021775
000100 69 9b 00 bf ef 88 71 be 0f c1 c1 be 06 e0 b3 3d
       -0.5023714 -0.23587392 -0.37842605 0.087829635
000110 40 08 01 bf 25 57 17 3c bd c6 34 be 7f 58 79 be
       -0.50403214 0.0092370855 -0.17653938 -0.24350165
000120 7f a3 8a 3d 52 f0 89 be cc e4 97 bd 4e 30 af be
       0.06769466 -0.26941162 -0.074166864 -0.3421654
000130 80 3f f1 be a5 03 07 be 38 1e bd be 78 81 83 bc
       -0.4711876 -0.13184984 -0.36937118 -0.016052946
000140 ea aa 92 be 46 1a ff bc 89 41 2d be a3 29 b3 be
       -0.28646022 -0.031140458 -0.16919531 -0.34992704
000150 47 19 72 be 43 2c 38 bf e0 34 a9 be e0 33 a8 bd
       -0.23642455 -0.7194254 -0.33048153 -0.08213019
000160 92 a8 02 bf 47 99 a5 be cb 80 09 be 8c b1 a5 be
       -0.5103847 -0.32343504 -0.13428037 -0.3236202
000170 d7 5d 8a be 1f 60 75 be be f5 91 be 2d 14 8c be
       -0.2702472 -0.23962449 -0.285078 -0.27359143
000180 3a 23 93 3c 04 6b 0a be b4 7c 8b be 95 88 9b be
       0.017961133 -0.13517386 -0.27243578 -0.3037764
000190 bf ab d4 be 40 84 0a bf 37 f3 42 be 07 66 c5 be
       -0.41537282 -0.5410805 -0.19038092 -0.38554403
0001a0 f2 42 a9 bc ea 3c 94 be 12 23 a1 be f4 0e d9 bd
       -0.020661805 -0.28952724 -0.3147207 -0.10598555
0001b0 94 46 1b bf 9d 80 48 be 2c 16 de be 03 67 89 be
       -0.6065457 -0.19580312 -0.4337629 -0.26836404
0001c0 82 c2 ae bd 48 70 8c bd 74 a4 f5 bd da 4e 96 be
       -0.08533193 -0.068573534 -0.119942576 -0.29357034
0001d0 73 5a a0 be 79 19 26 bd 88 43 0e 3d 99 b2 ba be
       -0.31319007 -0.040551636 0.03473237 -0.36464384
0001e0 29 59 24 be 74 c0 a3 be 92 5e 09 bf 82 34 9b 3d
       -0.16049637 -0.31982768 -0.5365993 0.075783744
0001f0 c0 2f 19 be b6 7a 25 3e 05 c8 a8 be 37 e5 14 bf
       -0.14959621 0.16160092 -0.32965103 -0.58162254
000200 21 fc 15 bc 92 56 4f bd 59 7f c3 bd 56 f6 88 bd
       -0.0091543505 -0.05061967 -0.09545774 -0.0668761
000210 37 c1 f5 3c 09 35 18 3d ef 03 1b 3d a6 e9 ab 3d
       0.029999359 0.037159953 0.03784555 0.08394174
000220 22 19 9b bb 15 09 fa 3d bd 08 93 3d a4 0e a1 bc
       -0.0047332207 0.122087635 0.07179401 -0.019660302
000230 93 3b 71 bc 96 06 da 3d 6b 82 ab 3b e5 41 79 3d
       -0.014723676 0.106457874 0.005234053 0.060853858
000240 21 a0 eb bc fa 87 a1 3d 13 13 b9 3d 36 81 ce bc
       -0.028762879 0.078872636 0.09036841 -0.025208097
000250 e9 a1 9b bd 57 27 00 3e e0 ed 58 bb 41 b7 69 bd
       -0.07599241 0.12515007 -0.003310077 -0.05705953
000260 8d ca a2 3d ce 49 70 3d 4e ad 58 bd 73 67 1c bd
       0.0794879 0.058664136 -0.05289965 -0.038184594
000270 f4 18 0e 3d 42 47 f0 bd 56 9b 2d 3b a7 58 60 bd
       0.034691766 -0.11732341 0.0026490293 -0.054772045
000280 ee e7 3e bd 6a a5 60 3d 46 f8 44 3a cd ff bf bd
       -0.046607904 0.05484525 0.0007513802 -0.09374962
000290 3f 36 4b 3d e9 d6 ca 3d 40 b6 c5 3d 53 a6 c2 3d
       0.04961228 0.09904272 0.09653902 0.0950438
0002a0 37 ef 52 bc 06 45 1c 3c d8 1a bd bc f0 38 ed 3d
       -0.012874416 0.009537941 -0.02308409 0.115831256
0002b0 df 50 cf 3d f0 50 4e bd 34 d5 82 bd 6b 9a b2 bc
       0.10122847 -0.050370157 -0.063883215 -0.021802148
0002c0 2f 06 79 3d b5 28 9c bd 01 fb f8 bd d8 21 ef 3c
       0.060796913 -0.07624952 -0.1215725 0.029190943
0002d0 d6 32 a8 bc 2e 63 00 bb 13 4b f6 3c 9d 34 bb bd
       -0.020532053 -0.0019590366 0.030065095 -0.091408946
0002e0 a5 72 b6 3d 78 60 5c bd 17 1c b4 3d 13 99 85 3d
       0.089085855 -0.053802937 0.0879442 0.06523337
0002f0 fa 0e 80 3d dc 81 dd bd 7c 57 ed 3c 5c 38 90 3c
       0.062528566 -0.10815784 0.02897238 0.017605
