GRU/models/model_hs=256_layers=1_epochs=10_batch=32.pth (torch, 812668 bytes, 5 tensors)

weight_ih_l0 f4 [768, 5]
000000 af d9 08 bd 45 8f ae 3b b6 ac 3a bd 40 2c 05 3b
       -0.033410724 0.0053271377 -0.045574866 0.0020320565
000010 1b 34 70 3d f2 fb 70 be cd 09 1e be 00 48 77 be
       0.05864344 -0.2353361 -0.15433426 -0.2414856
000020 bd 90 62 be 3c f9 60 be d6 15 bc bd 9a 45 1e be
       -0.22125526 -0.21970075 -0.091838524 -0.15456238
000030 84 4e 9d bd 0f f8 d3 bd e5 ec ce bd 86 53 b0 3c
       -0.07680991 -0.10350048 -0.10103778 0.021524202
000040 84 74 c3 bc 4b 18 bd bc 93 94 25 bc 0f 31 70 bd
       -0.02385927 -0.023082873 -0.010106224 -0.058640536
000050 2d 4b a9 3d c9 02 f2 bc 58 12 13 3d 69 29 3a 3d
       0.08266292 -0.029542344 0.035906166 0.045449648
000060 a1 fc 0a 3b 49 3f 6a 3a 93 dc ba bc c8 86 50 3c
       0.0021207707 0.0008935822 -0.022810256 0.012727447
000070 16 b2 e8 bd 1f 45 6c be 71 c3 3c 3b 9e ee df 3c
       -0.11362092 -0.23073243 0.0028803016 0.027335461
000080 63 91 9a bc be 25 b5 bc 85 4a 20 bd f5 c6 a0 bc
       -0.018868154 -0.022112723 -0.039133567 -0.01962612
000090 ba f4 c6 bd 23 d0 16 bd 83 fc 98 bd 39 11 9b bd
       -0.09714647 -0.03681959 -0.07470038 -0.07571644
0000a0 02 52 d9 ba 11 ed a1 bd 00 d8 0e 3c 29 36 a3 bd
       -0.0016580226 -0.07906545 0.008718491 -0.079693146
0000b0 3d c5 6b bd 04 87 d4 3d 9f ae 8c 3d 0b c2 8f bc
       -0.057561148 0.10377315 0.06869244 -0.017548582
0000c0 d8 72 15 3d 7a fe 98 bc 61 ab 26 3b 0f 24 b0 bd
       0.036486477 -0.018676031 0.002543174 -0.08600628
0000d0 02 8d fa bd 0b e1 b2 bd c9 cc c5 bc 45 62 4b bd
       -0.12233926 -0.0873433 -0.0241455 -0.049654264
0000e0 8e 4f 97 bd 1f ce b5 bd c4 4c 0d be 41 ad 55 bd
       -0.07388221 -0.08877205 -0.13798815 -0.05216718
0000f0 b5 9a 92 3b e4 c4 ff bc 04 87 51 bd 9d 7a c8 bc
       0.004474009 -0.031221814 -0.05115415 -0.024472529
000100 9f dc 27 be ef eb 0c be 83 f4 16 be f2 1f 0d be
       -0.16392754 -0.13761877 -0.14741711 -0.13781717
000110 69 4d d2 bd d1 08 0c be f5 59 79 bd 98 63 16 bc
       -0.10268671 -0.13675238 -0.060876805 -0.009179018
000120 4b 5d b5 bd 7e 82 a4 bd ea 2a b7 bd 28 8e e0 bd
       -0.08855685 -0.08032702 -0.08943732 -0.10964614
000130 9c 7e 18 bc 9c af 3c bd ca 87 a5 bd 5e 19 7f bd
       -0.00930753 -0.04606591 -0.0808254 -0.06228005
000140 04 71 f0 bd af 01 81 bd 9c 23 9c bd cc 99 cc bd
       -0.11740306 -0.06299149 -0.076239794 -0.09990272
000150 c1 37 c4 3c c9 95 c3 bd 0a 97 96 bd 01 de b8 bd
       0.023952367 -0.095500536 -0.07353027 -0.09026719
000160 c8 88 d6 bd 73 e1 01 be 94 eb 07 be 17 25 ac bd
       -0.10475308 -0.12683658 -0.1327346 -0.08405512
000170 b7 50 e9 bd 98 9a 18 3b 65 45 1b be 0e d8 9b 3d
       -0.11392348 0.0023285504 -0.1516319 0.076095685
000180 67 6f 83 3d 24 42 92 3d ca fe c9 bb 18 51 93 3c
       0.06417733 0.071415216 -0.0061644064 0.017983004
000190 f2 7e 35 be 57 ae 2d be e9 96 0f be 9f 77 8f be
       -0.17724207 -0.16961037 -0.14022411 -0.2802095
0001a0 5d 78 aa bc 48 ca cd bc b0 bb b3 bb 3f 0d a0 bd
       -0.020809347 -0.02512087 -0.0054850206 -0.078150265
0001b0 9b 8b 9e bd 7a 20 96 bd 32 c2 75 be a4 ac 80 be
       -0.077414714 -0.07330413 -0.23999861 -0.25131714
0001c0 d3 97 26 be 6c 73 4f be eb d6 11 3d 80 37 2d bd
       -0.16268854 -0.20258874 0.035605352 -0.042289257
0001d0 ac d2 22 3c fb b6 1a 3d 82 b0 91 3b 67 a4 b9 bc
       0.009937923 0.03777216 0.00444609 -0.022661401
0001e0 26 0e a4 bd 1d 9e 46 bd e6 6d b6 bd 91 13 0c be
       -0.08010511 -0.048490632 -0.0890768 -0.13679339
0001f0 d8 08 56 3b 73 96 e4 bc 05 df ea 3c e9 9c 40 bc
       0.003265908 -0.027903771 0.028670797 -0.01175616
000200 13 fc cf 3c 2d c5 15 3d e3 4a 17 3d 6c dd 9b 3c
       0.025388753 0.036564995 0.036936652 0.01902648
000210 10 dd d2 bd 4e 7e d9 bd 43 d6 2e 3d 8d 12 eb bc
       -0.102960706 -0.10619794 0.042684805 -0.02869537
000220 d7 93 98 3d 47 ca 99 bc 04 5e a9 3c 18 d6 b9 3b
       0.07450073 -0.018773211 0.020674713 0.005671274
000230 df 90 0d bd 61 05 01 be 84 b8 0e bd d8 fa 1b be
       -0.034561988 -0.12599708 -0.034843937 -0.15232408
000240 ab bd 82 bd de 9e 48 be a0 52 22 be 9d b0 03 be
       -0.063838325 -0.19591853 -0.15851831 -0.12860341
000250 c7 d5 13 be 3a dd 4f bd 43 8f 72 be 75 cb 05 be
       -0.14437018 -0.050748087 -0.23687463 -0.13065894
000260 a5 46 53 be 33 4a 1b be b8 3c 85 bd 41 7b 0d bd
       -0.20632418 -0.15165024 -0.06505722 -0.034541372
000270 89 05 91 3c 01 54 5a bd 7b 82 f8 bd e0 ad 4f bd
       0.017702835 -0.05330277 -0.12134262 -0.05070293
000280 9b 5b 52 3c 11 90 8b bd 9e 92 e9 3c f3 33 9d bd
       0.012839223 -0.06814588 0.028512295 -0.07675924
000290 09 e8 2b 3d 52 6e a7 bc 49 c0 ff bc a8 f4 12 be
       0.041969333 -0.020438347 -0.031219618 -0.14351141
0002a0 c2 2a 07 be ff 1a 39 bd ac cf dc bc c2 d9 ef 3c
       -0.13199905 -0.04519176 -0.026954494 0.02927864
0002b0 45 4d c9 3c 03 fd 83 3b 9d 8b 8a bd 54 e8 92 bd
       0.024572978 0.004027964 -0.0676491 -0.07173219
0002c0 ce 01 3e bd 96 a3 96 bd 54 52 0f be 16 6e da bd
       -0.04638844 -0.0735542 -0.1399625 -0.106655285
0002d0 13 eb 38 bd c3 a5 3c bd 22 2d 79 bd 81 56 f7 bd
       -0.04514606 -0.04605652 -0.060834058 -0.12077046
0002e0 e5 03 2e bc 37 bf de 3b 5e cb a5 bd 0a dd 88 bd
       -0.010621046 0.006797697 -0.0809543 -0.06682785
0002f0 4e f9 42 bd bf e5 a9 bd 23 83 35 be b6 f4 36 be
       -0.047601037 -0.08295774 -0.17725806 -0.17866787
000300 0a ef ed bd 4b 10 2d be d1 6f 02 3c 10 fa e2 bd
       -0.11617859 -0.16900747 0.007961229 -0.11082852
000310 46 74 c2 bd 55 85 00 be 31 25 f5 bd 84 30 9d bd
       -0.09494834 -0.12550862 -0.11969984 -0.07675269
000320 36 5f 17 bd 16 a6 d2 3c df fe 78 3b 73 f4 b7 bd
       -0.036956035 0.025713962 0.0037993712 -0.08982172
000330 12 4c b3 bd 7b be b9 bd 0a e4 8f bd 42 bd ad bd
       -0.08754744 -0.090695344 -0.07025917 -0.08483364
000340 75 42 00 be 83 d5 34 bd a0 b0 c0 bd 86 03 82 bd
       -0.12525351 -0.044148933 -0.094086885 -0.06348328
000350 aa b2 ff bd ff 5a db 3c bd ef 67 bc 33 53 f1 3c
       -0.12485249 0.026776789 -0.014156279 0.029458618
000360 f9 68 a3 bc 15 04 98 bc 5e 2e 52 bd ee 4b 66 bd
       -0.019947516 -0.018556634 -0.05131375 -0.056224756
000370 6f 1e 85 bd 29 f9 f7 bd 3d bf f2 bd 4b b4 12 be
       -0.06499945 -0.121080704 -0.11852882 -0.14326589
000380 7e 9b 1b be a3 29 7a bd 4a 61 52 be 69 2e c5 bd
       -0.15196034 -0.061074864 -0.20544925 -0.09627993
000390 7e 07 88 be 82 fa 15 bd 03 a6 e2 bd e2 99 43 bd
       -0.26568216 -0.036615856 -0.110668205 -0.047754176
0003a0 c2 a7 9c bd 56 7b 4e 3d 5f 3d c7 3d a8 ab 67 bd
       -0.07649185 0.05041059 0.097285025 -0.05656019
0003b0 60 2e 91 bd da bd 26 be 7c 1a 2f be f1 ca 21 be
       -0.070889235 -0.1628336 -0.17099947 -0.15800072
0003c0 03 ce 50 bd 66 e0 cd bd d1 2a 1c b9 8c c3 fb 3b
       -0.050977718 -0.10052566 -0.0001489327 0.007683223
0003d0 89 fa c6 bb d0 15 0d 3d 18 b5 3b bc de 1d ab 3c
       -0.0060723466 0.03444463 -0.01145675 0.020888265
0003e0 9a 0f a9 bd d5 57 58 bd 94 8e 71 be f4 48 46 be
       -0.08254929 -0.05281814 -0.23589545 -0.19363767
0003f0 d8 df 1c be 67 78 11 be fe 6f 7b be 13 0f b8 bd
       -0.15319765 -0.14206086 -0.2455444 -0.0898725

weight_hh_l0 f4 [768, 256]
000000 6c 02 e0 3d 34 61 10 bd e9 a0 f2 3d 62 cf 13 3d
       0.10937962 -0.03524895 0.118470974 0.036086448
000010 e5 81 0e 3d 2e 88 8f 3c 64 2b a4 bd 13 c6 a5 3d
       0.034791846 0.01752099 -0.080160886 0.0809442
000020 6e dd 99 3b a0 00 9d 3d 2e 5f 32 3c 83 39 06 3c
       0.004695586 0.07666135 0.01088695 0.008192423
000030 b5 01 2f bc 3e a1 93 3c 45 16 99 3d 20 02 c7 bc
       -0.010681559 0.018021222 0.07474951 -0.024293005
000040 53 10 14 3c ea 82 17 3c 0e ac 1b 3d 51 5c b0 3b
       0.009037095 0.009247521 0.03800588 0.0053820987
000050 f3 82 5b 3d 43 f0 b9 3d 3e 9b 45 3c 26 16 08 3c
       0.05359168 0.090790294 0.012060938 0.008306062
000060 8e e9 a0 bd cf 9c b6 3c b0 cf 8b bd 2a 35 ee bc
       -0.07857047 0.022291569 -0.068267226 -0.029078085
000070 a2 10 d4 bd 93 ec 88 3d ae 7b 41 3d 11 cc f1 bc
       -0.10354735 0.06685748 0.04723709 -0.029516252
000080 42 2b 1e 3c 6f a2 f2 3d 71 33 55 bd cc 8b 41 bc
       0.009653868 0.11847388 -0.05205101 -0.011813115
000090 bc f8 ed 3c 53 93 07 3d bb 7c 9f bc a2 84 1d bd
       0.02904927 0.033099484 -0.019468656 -0.038456567
0000a0 4b 9c 62 bc 93 92 1c 3e f9 b9 d9 3d a3 7a dc 3c
       -0.013831208 0.15290289 0.106311746 0.026913946
0000b0 d0 35 68 bc 1c d7 8a 3d 89 00 d2 3d 94 3c ac bd
       -0.014172986 0.0677931 0.10254008 -0.08409992
0000c0 22 d1 b3 3d ad cd 7d bd 39 0f 48 bd 9f d0 47 bc
       0.08780123 -0.061963726 -0.048842642 -0.012195735
0000d0 fb e5 a3 bd 21 9e 29 3d 47 8a ec bc 1b e2 d1 3b
       -0.0800285 0.04141057 -0.02887453 0.0064051277
0000e0 b2 1b fa bc 2e 43 5e bd 0c a5 c0 3d f7 71 1e bd
       -0.030530784 -0.054263286 0.0940648 -0.038682904
0000f0 c6 2f 63 bb 68 9a 3e 3d d1 68 8f 3d 60 57 1f 3d
       -0.0034665926 0.046533972 0.07002414 0.038901687
000100 ce 50 bc bc f0 f8 c0 bc 7f fc 0f 3d 91 d3 6e 3d
       -0.02298775 -0.023556203 0.03515291 0.058307234
000110 53 0a 4f bd 8c 82 a0 3c d0 ed 24 bd 59 57 a9 bc
       -0.050546955 0.0195935 -0.04026586 -0.020671533
000120 37 cb 37 bc cb b2 0d 3d d6 f6 89 3d 83 0a 59 bd
       -0.011217884 0.03459434 0.06736533 -0.05298854
000130 61 3b ba bc 67 58 7a bd 78 85 e1 3c 33 6a 8f bc
       -0.022733392 -0.061119463 0.027529463 -0.017506694
000140 f5 7e fd 3c 00 1e 82 3c ad 0e 29 3d 13 69 22 3d
       0.030944327 0.015883446 0.04127376 0.039650988
000150 b9 52 74 bd f2 fe 6b 3d aa 86 30 3c 3b a1 8c 3d
       -0.059649203 0.05761618 0.010774294 0.0686669
000160 d2 ba 8a bd 55 82 61 bd bf 30 4a 3d 35 97 34 3e
       -0.067739144 -0.055055935 0.049362894 0.17635806
000170 53 28 9d bb c8 70 61 3d 37 6c e3 bc 25 ce d1 3c
       -0.004796067 0.055039197 -0.027761562 0.025610993
000180 b6 5b b8 3d 89 19 90 3d f9 94 ad 3c d3 3a 3f bd
       0.090018675 0.070361204 0.0211892 -0.04668696
000190 9f 69 aa bc 41 e4 31 3c 70 11 01 3d ca 08 df b9
       -0.020802317 0.010857643 0.03151077 -0.00042540423
0001a0 87 ab 3a bd 5b 9b 0d bd 1b 49 29 3c a7 e2 35 bd
       -0.045573737 -0.034571987 0.010332371 -0.044405606
0001b0 ab 7f c6 3d 5f ab 2e 3d 65 13 1b 3d b2 1d a2 3d
       0.096923195 0.0426439 0.037860293 0.0791582
0001c0 1b 93 18 3c fe 4b 3c 3d 00 be 64 3a 0b 7b 61 3d
       0.009312416 0.04597091 0.0008725822 0.055048984
0001d0 cb 28 87 bd 65 01 c2 3b cb ac 95 3d fd 34 2d bd
       -0.065995775 0.0059205764 0.07308348 -0.04228686
0001e0 aa a1 7c bb 5c 05 d8 3d 81 3a 08 bd 09 e6 16 bd
       -0.0038548508 0.10547897 -0.03325892 -0.036840472
0001f0 e3 f1 55 bd e7 24 70 3d c1 6b de bd a1 be 99 bd
       -0.052232634 0.058628943 -0.10860396 -0.07507063
000200 4c 63 3c bb aa 60 83 3d 96 0b 4f 3d 1c 6c ff bd
       -0.002874571 0.064149216 0.05054816 -0.12471792
000210 5c 01 b5 bd 43 55 89 bd 61 c4 05 bd 36 89 b4 bd
       -0.0883815 -0.067057155 -0.032657985 -0.088152334
000220 53 5e 65 bd 17 67 9e 3d af 76 75 3b 04 a4 9b 3d
       -0.055998158 0.077345066 0.0037454774 0.07599643
000230 9c 20 bd 3c 5b 63 9e 3c 9f b8 0a bd 06 c4 8e 3c
       0.023086838 0.019334486 -0.033867475 0.017427456
000240 49 15 39 bd 1e 90 1f bd c8 82 a7 3d da a5 f9 3c
       -0.045186315 -0.0389558 0.081792414 0.030474592
000250 c0 56 8b bd 92 8f 05 bd 93 17 b8 3d 19 4d eb bc
       -0.068036556 -0.032607622 0.089888714 -0.028723286
000260 06 83 f5 3d 58 69 3c bb 4f 7b 27 bc 8c 10 9e bc
       0.11987881 -0.0028749313 -0.01022227 -0.019295
000270 e6 a3 18 bd 0b de 3c 3d 1d 85 2d bc 45 28 99 bc
       -0.03726568 0.046110194 -0.010590819 -0.01869596
000280 20 ce 0b 3d c2 17 05 3d 1e 77 1b 3d 28 40 a7 3b
       0.034132123 0.03249336 0.037955396 0.0051040836
000290 97 16 a4 3c 9b ea 93 bc 65 c8 af bc d6 1c 06 bc
       0.020030303 -0.018056205 -0.02145786 -0.008185586
0002a0 e0 9c 90 3c 5d 87 ae bd d4 cf 96 bb 39 4e 94 3d
       0.017652929 -0.08521912 -0.0046024118 0.07241482
0002b0 f5 4e 5d bc be 0d 97 3d 63 9e 9f 3d e5 6b 89 bd
       -0.013507594 0.07375668 0.07793882 -0.067100324
0002c0 a6 18 51 bb 34 4d da bb fb 16 88 bc 7c 87 60 3b
       -0.003190556 -0.0066620354 -0.01661252 0.0034260442
0002d0 ee a9 cc 3c 98 6d 5f 3c e5 ec 40 bd 85 e2 05 3c
       0.024983373 0.013636969 -0.04710092 0.008171682
0002e0 bb 75 59 3c 9d 6e 4e bd 16 e0 0c 3e 84 52 34 3d
       0.013272698 -0.050398458 0.13757357 0.044024006
0002f0 6f 70 9a bd 87 11 f4 3a 13 e0 d8 3c 52 ac ea bd
       -0.07540976 0.0018620946 0.026474034 -0.11458649
000300 e6 3f 6c 3d 9a 28 25 bc 6f cc c5 3d 42 24 4b 3c
       0.057678126 -0.010080481 0.09658133 0.012398781
000310 1a 74 ea bd be 8e 8b bd a7 c2 0d 3d cb 8f e9 bd
       -0.11447926 -0.06814335 0.034609463 -0.114043795
000320 ef 98 c6 3d af 2d a1 bd 22 27 b7 3d 5f 27 31 bc
       0.096971385 -0.078700416 0.08943011 -0.010812609
000330 65 26 33 bc 33 75 15 bc 2f e4 25 3d 91 10 03 3e
       -0.010934447 -0.009122181 0.040500816 0.12799288
000340 5f cc ae 3c 65 61 d8 3c 03 65 f5 bc db f8 f9 3d
       0.021337686 0.026413629 -0.029955393 0.122056685
000350 66 7e 23 bc 88 4c 66 3d 1c 5d e1 3d ed 70 eb bc
       -0.009978866 0.05622533 0.11004087 -0.02874037
000360 ae 3d 06 bd 21 9c a4 ba df 9b 8f 39 8e 7e a1 bd
       -0.032773666 -0.0012558737 0.00027391218 -0.078854665
000370 25 0f a7 3d 82 eb 8c 3b 56 57 f3 3a a5 ed b4 3d
       0.081571855 0.0043005357 0.0018565457 0.088343896
000380 bd 1a b2 bc 5f 3e 81 3d a1 1c 4c 3b 6f fe a8 3c
       -0.021741265 0.063107245 0.0031144994 0.020629136
000390 2d 30 ca 3d 8b c7 21 3c 37 c3 b5 3d 4a 4c 69 bd
       0.0987247 0.009874235 0.08875125 -0.05695752
0003a0 98 67 99 bd cf e6 bb 3d c7 c8 49 bc 91 47 a7 bc
       -0.07490462 0.091748826 -0.012315935 -0.020419868
0003b0 a9 92 29 bd f2 fd 98 3d e0 66 85 3d 98 98 04 bd
       -0.04139963 0.07470311 0.065137625 -0.032372087
0003c0 9d f3 f2 bc ca a3 6d 3b 0b 3d 06 3c 24 ae a4 bb
       -0.02965718 0.0036260956 0.008193265 -0.005025642
0003d0 e6 74 cd ba 6d 17 e6 bc 04 e0 3e 3d 18 0d 98 bc
       -0.0015675097 -0.028087342 0.046600357 -0.018560931
0003e0 6d f6 30 bd 4d 24 86 bd 8f f1 e5 3c 53 82 d4 bc
       -0.04320376 -0.065498926 0.028069286 -0.02594105
0003f0 f8 f6 9e bd 1c d1 a0 bd aa 79 5b bc 63 d0 d8 bd
       -0.07761949 -0.078523844 -0.013395706 -0.105866216

bias_ih_l0 f4 [768]
000000 f9 d3 9d bd 6c f9 ad be 1a 2d 28 be ec 13 03 bd
       -0.07706446 -0.33979356 -0.16423455 -0.03200142
000010 63 67 2b bd bc d0 b2 bd 5a 38 53 bd 93 03 11 bd
       -0.041846644 -0.08731219 -0.051567413 -0.0354038
000020 ce b0 b5 bd f4 0c 84 bd 09 ef 59 bd cc 78 b4 bd
       -0.088716134 -0.06447783 -0.053206477 -0.08812103
000030 89 16 cb bd 17 cf 13 be 4d 34 40 bd 5f 8d a6 bd
       -0.099164076 -0.14434467 -0.046924878 -0.08132433
000040 ae b1 bc ba be b2 f3 bd b7 81 93 be e6 dc bd bc
       -0.0014396214 -0.11899327 -0.28809902 -0.023176622
000050 51 be 19 bd 43 07 ca 3b b0 2e 09 bd f6 d4 02 bd
       -0.037535015 0.0061654164 -0.03349179 -0.031941377
000060 e8 a6 1c bd 52 d2 83 bd 3c 4b 4b bd f7 36 40 bc
       -0.03824511 -0.064366 -0.049632296 -0.011731855
000070 2b cc 2d bd b9 e4 59 be 1e 81 95 bd e7 70 6d bd
       -0.042431038 -0.21278657 -0.07300018 -0.057969
000080 24 c4 45 bd 05 fd f1 bd 64 1e fa 3c ea 66 d3 bd
       -0.048282757 -0.11815838 0.03053207 -0.10322364
000090 c5 f9 de bd 10 26 02 be 1e 33 99 bd 22 54 79 bd
       -0.108874835 -0.12709832 -0.07480453 -0.06087125
0000a0 9c 40 0a be 0b b3 06 b9 86 00 39 3c 8b 0e b1 bd
       -0.13501209 -0.00012845935 0.011291629 -0.08645352
0000b0 d4 d8 85 be 08 47 34 bc 49 a8 06 bd 08 88 9b bd
       -0.2614199 -0.011003263 -0.032875333 -0.07594305
0000c0 db 81 78 bd 05 28 d4 bd f8 42 64 be 2a 76 08 be
       -0.060670715 -0.103591956 -0.22291172 -0.13326326
0000d0 bb 10 2e be fe 9e 35 3d f6 35 61 bd c3 e8 17 3c
       -0.1699857 0.04434108 -0.0549831 0.009271803
0000e0 b5 ca 08 be e4 82 22 3c 8a 66 68 bd d1 75 c7 bc
       -0.13358577 0.009918902 -0.056738414 -0.024348171
0000f0 62 3b 98 bd 12 21 cc bd 3e cf 2b bf 88 46 8f bb
       -0.074332014 -0.09967245 -0.671131 -0.0043724217
000100 e6 0d 41 bc b3 07 80 3c 17 e3 4f bd 34 a2 bb bd
       -0.011783099 0.015628671 -0.05075368 -0.09161797
000110 06 44 4c be 6e 5a c0 bd 29 86 87 bd 8a bf 13 bd
       -0.19947824 -0.09392248 -0.06617386 -0.036071338
000120 2a 50 71 be f4 cd ea bd 7c c0 3a bb aa 46 22 be
       -0.23565736 -0.11465064 -0.0028496077 -0.15847269
000130 3c cc 98 bd 2e 88 77 bc c9 c5 01 be e3 73 05 bd
       -0.074608296 -0.015108151 -0.12673105 -0.03258122
000140 72 db 06 bf 35 70 5b bd d3 3b 82 be 1a 85 62 3d
       -0.52678597 -0.053573806 -0.25436267 0.055302717
000150 90 2a 02 be 59 31 00 be b0 95 91 3d 6f 94 dc bc
       -0.12711549 -0.12518825 0.07108629 -0.026926247
000160 2e 8d f6 bc 90 6c c6 bd df 58 bc 3a 0b 92 52 bd
       -0.030096617 -0.096886754 0.0014369747 -0.05140881
000170 8b 5f a3 bd 6f 2e 11 3d 01 13 c2 bd 81 a8 92 bd
       -0.07977208 0.035444673 -0.09476281 -0.07161046
000180 69 2e 18 be 71 b7 0b be e8 4b 2d 3d 48 57 6f bd
       -0.14861454 -0.13644196 0.042308718 -0.058432847
000190 19 a5 81 be ae 46 fb bd cf c3 27 3d 97 be 56 be
       -0.25321272 -0.122693405 0.040958222 -0.20971142
0001a0 e3 6f 96 bc 8a 65 7c be cd a5 d7 3b 6b 62 09 be
       -0.018363899 -0.24648109 0.0065810443 -0.1341645
0001b0 02 bc 83 3c bf 57 b1 be c0 2a eb bd 02 3c a8 bd
       0.01608086 -0.34637257 -0.11482763 -0.082145706
0001c0 4e 16 a7 be 8c 9d 4c bd 41 c1 f3 bd e9 3f a3 3c
       -0.32634205 -0.049954936 -0.11902095 0.019927936
0001d0 b3 e3 51 3d fa e3 e9 bd 0d d1 a7 bc 48 93 c7 bd
       0.05124254 -0.11420436 -0.020485425 -0.097448885
0001e0 19 cd c2 3c 00 32 af bd 8a 46 76 bd 41 34 18 bd
       0.023779439 -0.085544586 -0.060125865 -0.03715921
0001f0 b6 f0 64 bd 0d 74 0f 3c 1d f3 22 bd 72 af dc bd
       -0.055893622 0.008755696 -0.039782632 -0.10775651
000200 f9 95 f6 bd f3 c6 7f bd 46 6f aa bd 57 46 a9 3b
       -0.12040324 -0.062445592 -0.08322005 0.005165856
000210 76 ef 9f bd 8a 57 df bd 2d 8d 4b bd 68 1e 07 bc
       -0.078093454 -0.109053686 -0.049695183 -0.0082469955
000220 c1 de 12 bd 35 49 c5 bd 2b 50 ad bd 3d eb 5e bd
       -0.035856966 -0.09633104 -0.084625565 -0.05442356
000230 f8 fc a5 bd 29 65 61 bd 62 42 bc b9 b9 8e ac bc
       -0.081048906 -0.055028114 -0.00035907613 -0.02106415
000240 78 66 04 bc 9c 47 31 bc cd e3 1f be 77 36 99 bc
       -0.008081071 -0.010820296 -0.15614243 -0.018702729
000250 85 86 8e 3b 8f ba 19 bd d3 d8 1b bd bf fb 15 be
       0.004349532 -0.03753143 -0.038048577 -0.14646815
000260 4b 68 87 bd 59 fa 5e bd d8 b8 14 be 89 16 53 bd
       -0.06611689 -0.05443797 -0.14523637 -0.051535163
000270 28 4e e9 bd 8d 07 5f be d4 04 5f bc cd 65 e7 37
       -0.1139186 -0.21780224 -0.013611991 2.758475e-05
000280 7e 45 95 bc 5b 40 5c 3d 0d 40 15 be c2 c2 16 3c
       -0.018221613 0.05377231 -0.14575215 0.009201707
000290 13 91 0b 3d 1e 2d da bd 52 58 d0 bc 02 d8 cd bd
       0.0340739 -0.10653137 -0.02543274 -0.10050966
0002a0 99 84 70 bd d9 cf 6e bd 0c d9 b5 be 52 17 75 be
       -0.058720205 -0.058303688 -0.35517156 -0.23934677
0002b0 76 46 f2 bc ea f5 2e bd 97 72 2d bd 6e f1 89 bd
       -0.029574614 -0.04271499 -0.04234561 -0.06735502
0002c0 7a 5e 30 bd 19 dc 8c bd 6f 33 aa bd e3 d0 04 3b
       -0.04305885 -0.06877918 -0.083105914 0.0020266108
0002d0 ce 20 c6 be 01 6e 8f be cc f5 0d be 77 98 e3 bd
       -0.38696903 -0.28013614 -0.13863295 -0.11113065
0002e0 81 8f 4b 3d 25 10 f7 bd d3 51 30 be 12 4a 8b be
       0.049697403 -0.12063626 -0.17218713 -0.2720495
0002f0 3c 9f 1a bd 43 6c 00 be de 36 a6 bd 38 66 ae bd
       -0.037749514 -0.12541299 -0.08115934 -0.085155904
000300 76 c8 c7 bd 1a 95 f2 bd 31 01 89 bd ee b8 53 3d
       -0.09755032 -0.11844845 -0.0668968 0.051690035
000310 07 ab 89 bd 16 fe 59 be 54 53 e8 bd 59 f3 af 3b
       -0.06722074 -0.21288332 -0.113440186 0.0053695855
000320 d6 12 25 be f0 76 fd bd 3d 90 8f 3a 0f 3f 48 be
       -0.16120467 -0.12376201 0.001095302 -0.19555305
000330 ac 32 87 bd f1 2a aa bd 27 02 93 bd a6 a2 18 3d
       -0.06601462 -0.08308972 -0.07178145 0.03726449
000340 e6 a2 83 bd 43 1f af 3c de aa 1f bd 2a 11 c4 bd
       -0.06427555 0.021377211 -0.03898131 -0.09573586
000350 17 6b 88 bd 15 18 31 be 7a cd 0b 3b 72 27 80 3d
       -0.06661051 -0.17294343 0.002133219 0.062575236
000360 6c 14 93 bd 2d ac c6 bd 39 79 b1 bb 49 70 44 be
       -0.071816295 -0.09700809 -0.005416062 -0.19183458
000370 3f 0e f4 bd e6 67 c0 bd d3 e3 03 be 82 bc 92 bd
       -0.1191678 -0.09394817 -0.12879877 -0.07164861
000380 30 19 e8 bc c7 b2 38 be d2 58 ed bd 76 44 76 b9
       -0.028332323 -0.18036948 -0.11589207 -0.00023485892
000390 b7 13 11 bd db 24 57 bd 5a 27 51 bd 7f 77 03 be
       -0.035419192 -0.052525382 -0.05106292 -0.12838553
0003a0 cc 7a 8a bd f8 de 1d bd 85 80 18 bc a1 35 69 bd
       -0.06761703 -0.038542718 -0.009307985 -0.05693591
0003b0 53 57 c4 bd 88 1e e3 bc 46 7a 12 be ed 72 34 bd
       -0.09586968 -0.02772452 -0.14304456 -0.044054914
0003c0 8a e7 9a be 22 47 6d bd 19 eb 6a 3c c0 b8 3b bd
       -0.30254775 -0.057929166 0.014338278 -0.04583049
0003d0 e0 5f 37 bb 20 4b ac bd 87 e9 80 bb 46 33 0f be
       -0.002798073 -0.084127665 -0.0039340886 -0.13984403
0003e0 6c 66 65 be ae cf 9c bd e3 af 0c be 3a c0 36 bd
       -0.22402352 -0.07656799 -0.1373897 -0.044616915
0003f0 70 0d e1 3c a5 fb df bd a8 51 be bd 27 26 41 bd
       0.027472228 -0.10936669 -0.092929184 -0.047155526

bias_hh_l0 f4 [768]
000000 0d 3f e9 bd fc d5 8d be 68 7d 30 be 28 12 6c bb
       -0.11388979 -0.2770232 -0.17235339 -0.0036021564
000010 a6 4c 70 bc 3e 39 e7 bd d0 4e ad 3b 19 f9 85 bd
       -0.014666712 -0.11290215 0.005288936 -0.06541652
000020 cc a9 1e be 5b 48 cd bc 5f 8f 91 bd ca 65 86 bd
       -0.1549446 -0.025058916 -0.07107424 -0.065623835
000030 f3 98 7e bd da 3a 18 be bc fa 7a bd 8f 2a 00 be
       -0.062157582 -0.148662 -0.061274275 -0.12516235
000040 24 e3 45 bd 5b d1 f1 bd da da 65 be 26 cc 4f bd
       -0.04831232 -0.118075095 -0.22446766 -0.0507318
000050 0d b9 0f be da a1 60 bc a1 29 8e bc a3 0e 11 bc
       -0.14035435 -0.013710463 -0.017353835 -0.008853587
000060 15 54 27 bd 9a b2 84 bd 9e 45 4e 3d d7 39 1c bd
       -0.04085167 -0.06479378 0.05035936 -0.038141098
000070 c7 b2 65 bc ca 2c fc bd a7 83 e1 bd b3 a8 15 bd
       -0.014019675 -0.1231323 -0.11011439 -0.036537837
000080 f4 67 33 bd 07 1e 46 be 8a 63 c4 3c 51 e6 ca bd
       -0.04380031 -0.19347392 0.023973245 -0.099072106
000090 46 fd 3d bd e1 30 11 be e5 93 6b bd a0 a0 38 bd
       -0.04638412 -0.14178802 -0.05751409 -0.04507506
0000a0 9e 8e 1a be 79 64 09 bb 66 b9 86 bd b2 9c d5 bd
       -0.15093467 -0.0020964427 -0.06578331 -0.10430278
0000b0 fc 90 a1 be 3e 9d c2 3c 88 ea 67 bd 92 fb 14 be
       -0.31555927 0.02375662 -0.05662015 -0.14549091
0000c0 8c 9e 76 bc 0b f2 62 be a3 da 8f be d9 5f 17 be
       -0.015052449 -0.22162645 -0.28096494 -0.14782657
0000d0 15 c9 11 be 7f a9 f1 bb 72 20 61 bd 8a ee f3 3c
       -0.14236863 -0.007374942 -0.054962583 0.02977683
0000e0 6b 94 02 be da 1b 86 3c fc f1 14 be 6b c2 9a bb
       -0.1275193 0.016370703 -0.14545435 -0.0047228835
0000f0 21 f9 ad bd c5 5f f9 bd 5f e7 28 bf f9 fe 8e bd
       -0.08494783 -0.1217647 -0.65978044 -0.06982226
000100 15 32 93 bc d9 17 b7 3a c8 2c 35 bd 2a b2 8d bd
       -0.017968217 0.0013968899 -0.04423216 -0.06918748
000110 ae 30 ce bd 58 68 31 be 17 65 0d be a3 4e f9 bc
       -0.10067879 -0.1732496 -0.13808094 -0.030433005
000120 a3 32 71 be b1 a3 01 be 82 66 11 3d 6d a4 76 bd
       -0.23554473 -0.126601 0.03549815 -0.060215402
000130 53 70 95 bd e8 2f 83 bd 42 32 f8 bc e4 3c 84 bd
       -0.07296815 -0.06405622 -0.030297402 -0.064569265
000140 71 11 02 bf 92 9a 19 39 2a 65 9d be db 4b a6 b9
       -0.50807863 0.00014648799 -0.30741245 -0.00031718504
000150 00 4c f2 bc 30 ad 89 bd 03 ad 9a 3c 33 a3 59 bd
       -0.029577255 -0.06722486 0.018881327 -0.053134155
000160 46 25 d8 3c f2 70 aa bd e6 c5 de bc 88 a3 49 bd
       0.02638496 -0.08322324 -0.027193975 -0.04922822
000170 79 c7 c8 bd 27 e2 b2 bc 98 45 c5 bd c9 9a 88 3c
       -0.098036714 -0.021836353 -0.096324146 0.01667537
000180 e4 0a 11 be e6 b2 0a be a6 3b 11 bd 7d b6 a4 3c
       -0.1416431 -0.13544807 -0.035457276 0.020106548
000190 05 1c 2b be a6 c8 aa bd f9 21 34 3d 43 86 81 be
       -0.16709907 -0.08339052 0.04397771 -0.25297746
0001a0 14 e9 59 3c e5 53 66 be 65 c6 8d bd 7a d7 8e bd
       0.013300199 -0.2249294 -0.069226064 -0.06974693
0001b0 d3 84 b3 bc 35 d3 d4 be d9 c3 24 bd 30 af 62 bc
       -0.021913921 -0.41567388 -0.040225837 -0.013835713
0001c0 e2 47 a3 be be 5b b8 bd dd bb bb bd bd 26 43 bc
       -0.3189078 -0.090018734 -0.091666915 -0.011911091
0001d0 e0 92 ab bc 6d 28 67 be 29 df a8 bd ff 64 aa bd
       -0.020944059 -0.22574015 -0.082456894 -0.08320045
0001e0 20 6e 55 3d e9 46 0a bd 68 d0 08 be 53 43 46 bd
       0.052106977 -0.03375903 -0.1336075 -0.04840405
0001f0 08 83 4a bc 08 93 37 bd 54 f2 84 bd 9d 4f a5 bd
       -0.012360342 -0.044817954 -0.06491533 -0.08071826
000200 9a a9 e4 bd e5 73 7b bc b6 aa 50 3c bc ec ae bd
       -0.111651614 -0.015347456 0.012736013 -0.08541247
000210 0e 5c 31 bc c7 5e c4 bd 98 88 0b 3d 35 ad dd bd
       -0.01082517 -0.0958839 0.034065813 -0.10824052
000220 91 8d 50 bd 92 46 08 bd d5 a8 7a bd bf 5f 48 bd
       -0.05091626 -0.033270426 -0.061196167 -0.048919436
000230 dd 37 94 bd 41 1c b2 bd db a0 12 3d 92 1e 15 bd
       -0.072372176 -0.08696795 0.035797935 -0.036406107
000240 ac 4b 8d 3c b4 3f d0 bc 87 f3 3d bd d8 4c bf bc
       0.017247997 -0.025421001 -0.046374824 -0.023352072
000250 4d 50 34 3c 1b f8 af 3c e5 3f 16 bc 6b 56 ba bd
       0.011005473 0.02148061 -0.009170507 -0.09098514
000260 c6 b6 ce 3a ed b2 9e bd 72 f4 25 be 67 a8 88 bd
       0.0015771023 -0.07748971 -0.1620653 -0.06672745
000270 15 4b de bd 76 0d 79 be 4d cf 3c bd e4 0b b5 bd
       -0.108541645 -0.24321541 -0.046096135 -0.088401586
000280 0c c1 71 bd 41 52 10 bd 81 61 c9 bd 5e 20 42 bd
       -0.059021994 -0.035234693 -0.098330505 -0.04739415
000290 a0 ac 4d 3a 22 28 5f bd aa 4e 45 bd f3 ea b1 bd
       0.00078458525 -0.054481633 -0.048170723 -0.08687391
0002a0 dd ae 21 bd f3 3c 85 bd b3 25 73 be e3 5e 6c be
       -0.039473403 -0.06505766 -0.2374485 -0.23083071
0002b0 27 f9 f9 bb 9e 58 df bd bb 11 e0 3a c0 fa 9f ba
       -0.007628578 -0.10905574 0.0017095128 -0.0012205467
0002c0 11 71 85 bd f1 aa e2 bc bb 44 8c bd 2d 9c 68 bd
       -0.06515706 -0.027669402 -0.06849047 -0.056789566
0002d0 80 d2 ce be 7d 81 6a be b7 4e 26 be 42 6b ec bc
       -0.40394974 -0.22900958 -0.16240965 -0.028859738
0002e0 73 eb 41 bd 56 14 2a be 1b c2 03 be 23 18 86 be
       -0.047343682 -0.1660932 -0.12867014 -0.2619029
0002f0 8c 11 30 bd 1d d5 1d bd c9 34 19 bd 11 e4 48 bd
       -0.042985484 -0.03853332 -0.037403855 -0.049045626
000300 53 90 15 be 83 c9 e1 bd c4 7f 7f bd b4 bd ab 39
       -0.14605837 -0.110247634 -0.062377706 0.00032757001
000310 97 f1 86 3c 1e 26 7f be dd ff 38 bd c0 1d 91 ba
       0.01647262 -0.24916884 -0.045165885 -0.0011071488
000320 51 11 45 be 25 6f a1 bd 99 43 bf bc 43 0f 52 be
       -0.19244887 -0.07882527 -0.023347663 -0.20513634
000330 06 26 0b be 5f f3 86 bd 2e dc 1b be 56 41 9b bd
       -0.13588724 -0.06589388 -0.1522071 -0.07580821
000340 05 d0 27 3c d6 aa 81 3c 07 79 a1 bd 09 42 40 bd
       0.010242467 0.015828531 -0.07884412 -0.046937976
000350 fe 7e 17 bd a1 45 ca bd de 70 54 bd 85 a0 e8 3c
       -0.036986344 -0.09876562 -0.05186545 0.028396854
000360 0c 2d e7 bd 85 f0 ec bd d2 f3 a1 bd c6 12 6e be
       -0.11287889 -0.11569313 -0.07907833 -0.23249349
000370 18 50 1f bd bf 45 c7 bd 32 38 8d bd 4e ee 23 bd
       -0.038894743 -0.097301 -0.06895484 -0.040022187
000380 58 32 ac 3c ae 26 16 be df c6 30 be 36 ae 8e bc
       0.0210201 -0.14663193 -0.17263363 -0.017417055
000390 56 fa bd bd 14 07 33 bd 2e f7 26 bd 4e b6 4c be
       -0.092762634 -0.043707922 -0.040763073 -0.19991419
0003a0 72 6a a3 bc 03 6b 86 bd 3a 44 98 bd 6f f5 3b 3d
       -0.019948218 -0.065633796 -0.07434888 0.04588836
0003b0 ea 7e de bd 8d f8 c0 bd 62 14 fd bd 4a 9a 0c be
       -0.10864051 -0.09422407 -0.12357403 -0.13730732
0003c0 f0 e5 81 be 33 85 da 3c 26 ea 99 3b a2 25 b0 bd
       -0.2537074 0.026674842 0.004697102 -0.08600928
0003d0 3d 53 fd bc 6c cf 2e be cb 45 cf bc 7a 36 01 be
       -0.03092348 -0.17071313 -0.025301835 -0.12618437
0003e0 c7 73 92 be bc b4 9b bd 63 bc b8 bd ce d2 2e bd
       -0.28603956 -0.07602832 -0.09020307 -0.042681508
0003f0 3e 13 d1 3b d4 77 7a bd 71 19 11 be 33 22 f7 bd
       0.0063804677 -0.061149433 -0.14169861 -0.1206707

weight f4 [1, 256]
000000 fb f2 2d 3c 2b e7 aa bd 09 51 26 3c 63 08 cf 3a
       0.010617013 -0.08344873 0.010151156 0.0015795346
000010 ea 7c ea 3b f4 b8 fb bc 50 f2 8b 3c 4f 57 44 3c
       0.007156004 -0.030727841 0.017083317 0.011983707
000020 5d de 0d bc 7b e9 ca 3c 27 f7 86 bd 94 43 19 bc
       -0.008658973 0.024769535 -0.06590109 -0.009354491
000030 2d af 2c bc d4 c3 1a bb 7b 81 ec 3c 57 9e 9f 3d
       -0.010539812 -0.0023615258 0.028870335 0.07793873
000040 68 f5 e7 3b ed 67 67 3d 3b e2 f2 3c fe 20 80 3c
       0.0070788153 0.056495596 0.02964889 0.015640732
000050 15 94 39 3c e6 90 c1 3c ee d9 14 3a c3 76 b7 3c
       0.011326809 0.023628663 0.0005678226 0.022395497
000060 65 fd a8 bc 47 1b 6b b9 86 2f 97 bc 05 b3 55 3b
       -0.02062864 -0.00022421508 -0.018455278 0.0032607925
000070 fb 50 c2 bc a1 9d c2 3c 77 bc 5a bb df ac 36 3c
       -0.023720255 0.023756804 -0.0033376494 0.011149614
000080 88 c7 f4 bc 6a 9e f5 3c e9 ad 9f bb 3f 53 5c bb
       -0.0298803 0.029982764 -0.0048730266 -0.0033618954
000090 5a 28 e5 3c 16 e3 7e 3d ed cf 1d 3d 46 e4 ce bc
       0.027973343 0.062228285 0.03852837 -0.025255334
0000a0 d7 2f 1f bd fa a8 bf 3c a5 54 bf 3c a3 e8 83 bb
       -0.038863983 0.023396004 0.023355791 -0.004025535
0000b0 e2 60 80 bd a2 a3 4a 3c 6e ac 44 3d 2a cf a8 3c
       -0.06268479 0.012368115 0.048016004 0.020606596
0000c0 38 c3 4e 3d 53 a3 9f bc 55 0a 4d 3d ed 13 a6 bd
       0.050479144 -0.019487059 0.05005868 -0.08109269
0000d0 7c 58 61 bd 68 51 92 bb d1 4a 39 b9 d9 50 f0 bb
       -0.055016026 -0.004465271 -0.00017670846 -0.0073338565
0000e0 80 28 8b bd 87 6b f2 bb 6f 10 84 3c 8c 74 66 3c
       -0.06794834 -0.007398072 0.016121117 0.014065873
0000f0 4f ad 63 3d fa 4d 9f 3b 17 7b ab 3d 6c 84 77 3b
       0.0555852 0.0048615905 0.08373087 0.0037768139
000100 16 14 00 bc 4f fb d2 bc 63 b0 ba 3b 6c 66 42 3c
       -0.007817289 -0.025754599 0.0056972965 0.01186524
000110 55 40 84 bc 0f f6 10 3d 05 4e 9a bc ab bf c9 bc
       -0.016143957 0.03539091 -0.01883603 -0.024627527
000120 6b c7 11 3c 5c 4c 00 3d 82 a3 92 bd 69 9a a6 3b
       0.008897643 0.031322822 -0.07160093 0.005084325
000130 0c 2b c2 3c d1 b3 89 bb 7e 21 8d 3c d7 3d 0f 3c
       0.023702167 -0.004202344 0.017227884 0.008742771
000140 50 a0 8b 3d 75 5a b1 bc a8 7e 3a bd 9e ac 75 bc
       0.068176866 -0.021649579 -0.045530945 -0.014994768
000150 32 97 a1 bc dc 4d 59 bd 34 30 bd ba ff 75 dd bc
       -0.019725416 -0.053052768 -0.0014433921 -0.027033804
000160 68 e6 b6 bc ae 7b 8f bb f2 79 59 3b 21 ee 32 3d
       -0.022326663 -0.0043787574 0.0033184257 0.04368413
000170 62 61 25 3d ab 52 a6 3c d1 17 f4 bc 63 7d 3b 3d
       0.040376075 0.020303091 -0.029796513 0.045773875
000180 b9 0d 17 3d f4 ed 22 3c ff cf b1 3a 94 6e b0 3c
       0.03687832 0.009944428 0.0013566016 0.021537103
000190 de fc 6e 3d fe 66 02 3d cc 90 d1 bc f6 e8 3c 3d
       0.05834662 0.031836502 -0.02558174 0.046120606
0001a0 38 a9 a7 bb 13 64 32 3d c0 ce b0 b9 58 4b c8 bc
       -0.005116608 0.04355247 -0.00033723377 -0.02444999
0001b0 c7 c4 31 3c 53 fa 46 3d 0f 21 75 3c 19 02 ca 3b
       0.010850138 0.04857857 0.014961495 0.006164801
0001c0 70 02 41 bd 4c f8 34 bc 99 93 55 bc b4 76 27 bc
       -0.047121465 -0.011045527 -0.013035678 -0.010221172
0001d0 5f 19 04 bd 39 ba 51 bd 8d fb 94 3c 42 7f 07 3d
       -0.03225076 -0.051202986 0.018186355 0.033080347
0001e0 cd b2 76 bc 27 11 e5 3c 2a 51 88 bd ee 12 94 bc
       -0.015057278 0.02796228 -0.06656106 -0.018075433
0001f0 ee d8 d4 39 06 23 f1 3c 5a 27 f6 bc 80 f6 53 bc
       0.00040597416 0.029435646 -0.030048061 -0.012937188
000200 e0 a6 da 3a c2 2c 33 3c 30 2f 86 bc 5b 7a dd bc
       0.0016681813 0.010935964 -0.016379923 -0.027035883
000210 cb 28 ba bc 3f 97 e0 bc 71 f2 65 bb 37 0c 04 3c
       -0.02272453 -0.02741587 -0.0035087133 0.008059553
000220 80 a1 be 3c c2 19 98 3c 95 27 bf bc 15 9b 2a bc
       0.023270369 0.01856697 -0.023334304 -0.010412951
000230 54 8e 24 bb 15 ce 60 bd d5 5a 84 bc 01 10 68 3c
       -0.0025109248 -0.054884035 -0.016156593 0.014163972
000240 04 61 bd 3d 12 6e 9b bc 40 6f b3 3b b0 11 13 3d
       0.0924702 -0.018973384 0.0054759085 0.03590554
000250 02 14 57 bc a4 d1 39 bc cb ac a0 ba 13 98 55 3c
       -0.013127329 -0.011341486 -0.0012258528 0.013036746
000260 bf 7b b7 3c 4a 2f e9 3b 8e b0 56 3d ce 70 66 3d
       0.022397874 0.007116233 0.05241447 0.056259923
000270 26 b6 59 bc 8a b2 3a bd 85 72 4c bb 1b c5 27 bc
       -0.0132880565 -0.045580424 -0.0031196189 -0.010239865
000280 1e 5e 24 3c 90 09 9d 3a 41 9e f9 3c b4 ce 43 bb
       0.010032205 0.0011980999 0.03047097 -0.0029877843
000290 f2 a8 ff ba 2c af e4 bc 42 11 d7 3b a2 9b 4a 3d
       -0.0019505306 -0.02791556 0.0065633366 0.04946483
0002a0 b3 ce 18 3d 56 86 b2 bc 0f 59 5a 3d be 90 32 bd
       0.0373065 -0.021792572 0.05330759 -0.04359507
0002b0 da 32 83 bd dc 2f bc 3c a8 55 02 3d d4 01 51 3b
       -0.064061835 0.02297204 0.03181997 0.0031891959
0002c0 bf 1d 5a 3a 12 ac 5c 3b 4c 2a 0b 3d c9 71 9c bb
       0.00083204726 0.0033671898 0.033975884 -0.0047743064
0002d0 2f 2d 7f bd 70 34 83 3d 34 79 3a 3c d0 22 fa bc
       -0.06229895 0.06406486 0.011381436 -0.030534178
0002e0 92 7a 5d 3b 85 44 17 3d 06 f9 41 3d cf 85 21 3d
       0.0033794981 0.03693058 0.047356628 0.03943425
0002f0 d2 64 75 bc 15 24 ad bd f1 96 16 bd 74 8d f3 bc
       -0.014977651 -0.08454148 -0.036765043 -0.029730536
000300 23 72 7b bc 50 04 82 3c 20 93 66 bb 88 8a ae bc
       -0.0153470365 0.015871197 -0.0035182908 -0.021306291
000310 ca 6f 82 bc d2 4e a1 bc 02 20 34 3c 97 13 9c bc
       -0.015922446 -0.019690905 0.010993959 -0.01905231
000320 d4 e4 73 3d f4 dd 57 bc ba f5 02 3c 0e c8 d5 3b
       0.0595444 -0.013175476 0.007993156 0.0065240925
000330 12 a7 0a 3c 91 fe 43 3c 86 3b 43 3d c8 a8 b9 3c
       0.008462684 0.011962549 0.047664188 0.022663489
000340 f1 27 27 bb 29 3b 82 bb b6 cd 9d bc 39 1c 1e bb
       -0.0025505985 -0.0039743376 -0.01926313 -0.0024125709
000350 ec b9 2a bd 05 6f 47 3d 1e cd e3 3c 7d b9 d5 b9
       -0.041681215 0.04868986 0.027807768 -0.00040764725
000360 07 86 e6 bc 13 05 ce 3c 19 72 56 3c 2c 9c 69 bd
       -0.028140081 0.025148904 0.013088726 -0.057033703
000370 65 5c 32 3d af ec 24 3d a8 bb 00 bd 71 4e 98 3a
       0.043545146 0.04026478 -0.031428963 0.0011620057
000380 3e 00 68 bc 4d d7 04 bc 20 39 2a 3d 37 a4 e7 3c
       -0.014160214 -0.008107972 0.041558385 0.028276546
000390 5b f6 11 3d 55 b4 93 3c 52 f1 d3 3c af 6c 9d bc
       0.035635334 0.018030325 0.025871906 -0.019216863
0003a0 31 3b 05 bd 2e 89 80 3c 13 69 4c 3c 8e b8 5a bc
       -0.032527152 0.015690412 0.0124762235 -0.013349665
0003b0 6d 00 87 bc b7 e3 02 3d c2 e8 91 3c 4d 24 16 3d
       -0.016479695 0.031955447 0.017811183 0.036655713
0003c0 52 51 93 3b 30 be b9 3a b1 5b df 3b 9a b4 4a bd
       0.004495778 0.001417106 0.0068163504 -0.04948864
0003d0 3e b0 3d 3c 5c e4 99 bc 15 65 93 3a ab 38 2b bc
       0.011577664 -0.018785648 0.0011245335 -0.010450522
0003e0 c2 9e a1 3b 54 c3 d8 3c 40 47 17 bd 44 de d0 bc
       0.0049322555 0.026460327 -0.036933184 -0.02549661
0003f0 26 82 ad bb 7f e2 95 bc 39 47 6b 3c 81 7a 14 bd
       -0.005295056 -0.018296478 0.0143602425 -0.03624964
