GRU/models/model_hs=64_layers=1_epochs=10_batch=32.pth (torch, 58357 bytes, 5 tensors)

weight_ih_l0 f4 [192, 5]
000000 14 36 83 b8 a5 d8 32 3d 25 50 38 bd 34 ce b4 bd
       -6.2566396e-05 0.04366364 -0.044998307 -0.088283926
000010 9e ae 02 bc 65 9b 14 be dc 7a 31 be 71 d9 16 be
       -0.007976202 -0.14512403 -0.17332023 -0.14731385
000020 7a af 38 be 3f f0 50 be d8 69 3c be 41 5d fa bd
       -0.18035689 -0.20404147 -0.18399751 -0.12224818
000030 c0 84 54 be 1b 1b 25 be 7b 88 d9 bd 74 bb 36 be
       -0.20753765 -0.16123621 -0.10621735 -0.17844945
000040 95 62 6d be d3 4e e4 bd cd 78 25 be cb b8 02 bc
       -0.23182137 -0.11147847 -0.16159363 -0.007978628
000050 a7 4c 6e ba 33 22 bb 3b e1 e6 2e be 04 a4 23 3d
       -0.00090904016 0.005710864 -0.17080261 0.03995134
000060 12 8f 3c 3d 66 3d 4c be 54 96 43 be 20 2b a2 bd
       0.04603488 -0.19945297 -0.19100314 -0.07918382
000070 ed 6b 31 be 26 ce b2 bd 16 41 fa 3d 65 89 b8 bd
       -0.17326327 -0.08730726 0.122194454 -0.09010581
000080 7d 52 03 3e 88 61 fb 3d c8 7e 0c 3e f7 a1 54 3d
       0.12824436 0.12274462 0.13720238 0.051912274
000090 0a b0 09 be 94 e5 40 3b 72 bf c2 3c 32 b4 84 bd
       -0.1344606 0.0029433714 0.023772929 -0.06479682
0000a0 57 f8 63 be cc ef d2 bd 7d f6 df bd 9a bb 04 bd
       -0.22262703 -0.10299644 -0.10935686 -0.032405473
0000b0 d4 af 4d be 95 9d 71 3d a1 9a 1d 3b b1 81 41 be
       -0.20086604 0.058988173 0.0024048465 -0.1889713
0000c0 65 65 3f be 4c ec b4 bd 68 6e 77 be 77 8b c3 bd
       -0.18691023 -0.088341326 -0.2416321 -0.09548085
0000d0 02 75 31 bd 57 53 85 be d9 55 88 be f9 dc 74 bd
       -0.043324478 -0.26040146 -0.26627997 -0.05978105
0000e0 ee 34 0a bd fa b9 55 be 11 ce 14 be 64 aa 7f 3b
       -0.033741884 -0.20871726 -0.14531733 0.0039011473
0000f0 4e 81 99 3d cc de 20 bd ba 5b 3f 3d 26 4a e2 3d
       0.07495366 -0.039274976 0.046718337 0.11049299
000100 fa 04 82 3d f8 b8 30 3d 6d 68 0d 3d ff 67 6f bd
       0.063486055 0.04314515 0.034523416 -0.058448788
000110 15 46 82 3d 91 db 8a bd 43 98 3e 3d 37 76 17 bc
       0.06361023 -0.0678016 0.046531927 -0.009244493
000120 71 c3 82 bd 18 fb af bd 3c 99 67 bd af 5d c8 3c
       -0.06384934 -0.08592814 -0.05654262 0.024458734
000130 5b 2f 5a 3c 65 a5 24 3d 21 b4 ad 39 9a 2f 17 be
       0.0133169545 0.040196795 0.00033131338 -0.14764252
000140 1f 63 de bd a7 61 85 3b b9 96 4c 3d ac e4 b7 3d
       -0.108587496 0.004070479 0.049948428 0.089791626
000150 4c 61 40 3c 0a 3c 0f be f6 45 b3 3d e0 57 9a 3d
       0.011741947 -0.13987747 0.08753578 0.07536292
000160 8c f9 9f bd 35 e6 cc 3c b2 b2 a2 bd 6e 91 a3 3d
       -0.07811269 0.025012115 -0.0794424 0.07986723
000170 a3 ab 02 bd 3c e3 9d 3d 45 a9 7e 3d 8e fc 62 bd
       -0.031901967 0.07709357 0.062173147 -0.055416636
000180 a5 9f 14 be dc 22 20 be 93 1d 1c be ad 6d 66 3d
       -0.14514025 -0.15638298 -0.15245657 0.05625694
000190 f6 9d a1 bc 73 93 58 3d ee d8 96 bc 6b 6f 28 3d
       -0.019728642 0.052874994 -0.018413987 0.04112188
0001a0 25 4b f0 bc 7b 4c a1 3d 91 fe ee 3d fe bc 76 3e
       -0.029332707 0.078759156 0.116696484 0.24095532
0001b0 50 dd 5b 3e f9 9e 19 3d f8 28 0c be 08 26 ad bd
       0.21471143 0.037505124 -0.13687503 -0.084545195
0001c0 c4 55 dc 3c ee 7d b5 3d ef eb ef 3d 06 9d 7b bd
       0.026896365 0.0886191 0.11714923 -0.061429046
0001d0 f0 a5 bd 3d 09 a2 e7 bd 78 e3 2d bd bb 5f 8d bd
       0.09260166 -0.11310203 -0.04245326 -0.06903025
0001e0 10 68 36 3d e6 7d 09 3e a3 74 33 3d 3c c9 93 3d
       0.044532835 0.13426933 0.043812405 0.07216117
0001f0 df 7d 09 be 62 1c 7f 3d e7 ee c1 bd f6 66 94 3c
       -0.13426922 0.062282927 -0.09469395 0.018115502
000200 ef 65 04 3e a4 3a 15 be 63 37 2b bc d3 c5 25 3e
       0.1292951 -0.14573151 -0.010450217 0.16188745
000210 3e b9 ff 3d 9a a6 ff 3d 73 ab ef bd 8a c9 23 3b
       0.12486504 0.124829486 -0.11702623 0.0024991953
000220 a9 1a c9 bd 88 78 2a be e2 2a 9f bd 43 d6 0a bd
       -0.09819538 -0.16647542 -0.07771851 -0.033895742
000230 0c 8c f5 bd 62 3a 27 be 0f 27 32 be 1c e1 23 be
       -0.119896024 -0.16330865 -0.17397712 -0.16003841
000240 21 6d a4 bd d3 4a 49 3d 4f 44 84 3c be 7b a3 bd
       -0.08028627 0.049143624 0.016145853 -0.07982586
000250 c0 9b f2 3c 3a f4 dc bd 49 c8 57 be d2 bf 86 be
       0.029615283 -0.1078877 -0.21072496 -0.26318222
000260 e5 a9 30 be 01 f7 3d be 56 6a 16 be 79 b6 70 3b
       -0.1725231 -0.18551256 -0.14689001 0.0036729856
000270 ec 6c f3 bd 1b 02 f6 bd 47 e7 46 bd 17 80 07 be
       -0.118860096 -0.1201212 -0.048560407 -0.13232456
000280 f0 17 8d 3d f2 1a 2a be 6e 3f d1 3b 27 3b 8a be
       0.06889331 -0.16611841 0.0063857352 -0.26998255
000290 72 29 d1 bd 4c b7 a2 bd 35 37 12 bd 2a 38 a3 bd
       -0.10212983 -0.07945117 -0.03569718 -0.07969697
0002a0 f3 0a 12 be 72 7e 75 3a 0a f3 0c 3e c0 da 93 bd
       -0.1426199 0.000936485 0.13764587 -0.072194576
0002b0 0f 64 13 3d 5d 2a b3 bd 1d 6d 7d bd 23 21 16 3e
       0.035984095 -0.087483145 -0.061871637 0.14661078
0002c0 9a 3a 08 be c2 16 77 3c f9 6e 9c bd f3 7e 49 3e
       -0.13303605 0.0150811095 -0.07638354 0.19677334
0002d0 67 c7 52 be d4 f2 ac bc 0e 69 28 be 46 31 ed bc
       -0.20583878 -0.021111883 -0.16446325 -0.02895416
0002e0 a4 d6 82 bd dd d0 2b be a1 6a 86 bd 9e f1 45 be
       -0.06388596 -0.16778894 -0.065633066 -0.19330451
0002f0 97 9f cd bd 14 2b 85 bd cb 12 11 be 70 0f bb bd
       -0.10040205 -0.06502357 -0.14167325 -0.09133804
000300 99 76 27 be 01 7a 6a bd df dd 8c be b0 53 a4 bb
       -0.16353835 -0.05724526 -0.27513024 -0.005014859
000310 57 42 1d 3e f6 09 6e 3d 3d 51 2e 3e c0 76 6d bd
       0.15357338 0.05811497 0.17023177 -0.057974577
000320 8a 6e f8 3c 6f 18 ff bc c1 c2 e2 bc 15 5f 70 bd
       0.030326147 -0.03113958 -0.027680757 -0.058684427
000330 fc 10 ca 3d 5f 7d 3f 3c 5b 29 32 bd 6c 7b 1e be
       0.09866521 0.011687606 -0.04349647 -0.15476769
000340 32 48 29 be 5b f9 17 be af e3 3f bd 69 3e bb bd
       -0.16531447 -0.14841215 -0.046847995 -0.09142763
000350 e6 e4 41 bd 14 47 87 bd c4 50 94 be d5 b2 2a 3b
       -0.047337435 -0.06605354 -0.2896787 0.0026046534
000360 11 ca e4 bd 77 b7 85 3d e7 b7 a7 bd fc 8a c2 bd
       -0.111713536 0.06529134 -0.081893735 -0.094991654
000370 0e c1 71 bd 2b 13 bb bd b4 bc bc bc f3 4b 61 bd
       -0.059022002 -0.091345154 -0.0230392 -0.05500407
000380 b5 91 69 bd d2 7c a1 3d e0 4e 26 bd 6d 6e 65 bd
       -0.057023723 0.07885136 -0.040602565 -0.056013513
000390 bf fb 51 3e e3 76 88 bd e4 10 84 3b 00 7f ac bd
       0.2050619 -0.06663301 0.004030334 -0.08422661
0003a0 23 96 1c 3e 5b 17 9b 3d 6f f7 66 3d 93 b4 3d be
       0.15291648 0.07572814 0.056388315 -0.18525915
0003b0 04 89 e4 3b c2 6d c4 bd 10 ee 1f be 4a f9 c6 bd
       0.0069743413 -0.09591247 -0.15618157 -0.09715517
0003c0 53 7b e1 bd 1b 7c 06 be 58 fd 4d be c5 9e b9 bd
       -0.1100985 -0.1313328 -0.20116174 -0.09063486
0003d0 b0 d7 a7 3c 28 d7 21 3e 17 22 07 3e 22 be 16 3c
       0.02048859 0.15804732 0.13196598 0.009200605
0003e0 de 20 95 3c 67 78 1e 3d f4 89 9d ba c2 7b c8 bd
       0.018204149 0.038689043 -0.0012019263 -0.0978923
0003f0 94 bf f9 bd 06 4f 0d bd 2c a0 7f bd aa 51 87 3d
       -0.12194744 -0.03449919 -0.06240861 0.06607373

weight_hh_l0 f4 [192, 64]
000000 d1 bd a3 3e 95 6b e3 bb a8 cb f4 bd b7 c4 42 3b
       0.31980756 -0.006940315 -0.11952907 0.0029719302
000010 26 9f e0 3d 45 4d cc bd f7 20 95 3d 6d eb 08 3e
       0.10967855 -0.099756755 0.07281678 0.13371058
000020 a1 fb 88 bd 15 b9 df 3d dc 6b 11 3d 78 d3 ca 3d
       -0.066886194 0.109239735 0.035503253 0.09903616
000030 6e c0 12 bd e7 a2 91 bd 00 53 9e bd a3 ea 9b 3b
       -0.035828047 -0.07111149 -0.07730675 0.0047581955
000040 c8 d9 f1 bd e9 39 76 3d ea 37 0a bd 85 7e 3e bd
       -0.118091166 0.06011382 -0.03374473 -0.046507377
000050 23 7f d4 bd 74 93 75 3c 43 57 33 3d 54 e5 a8 3d
       -0.10375812 0.014988769 0.04378439 0.08246866
000060 4f 04 c1 3d 80 12 09 3d 31 07 9f 3d 58 b1 03 3e
       0.0942465 0.03346491 0.077650435 0.1286062
000070 ad e6 39 bc a8 72 f2 3b 1f 61 28 bd b9 1f 95 3d
       -0.011346501 0.007398922 -0.041108247 0.07281441
000080 63 0a 89 bd 9c 8e da b9 23 48 cf 3c a0 b2 db bd
       -0.06691434 -0.00041686452 0.025302952 -0.107274294
000090 7f 0d f3 bd 65 5d e5 bc f9 9d 0a 3d fa 59 fe bd
       -0.118678086 -0.027998636 0.03384206 -0.124195054
0000a0 2e f0 a1 3c 41 f8 14 bd 12 25 e1 3d 67 f9 a0 bd
       0.019767847 -0.036369566 0.10993399 -0.0786007
0000b0 ba b8 a3 3d c0 4c 94 3d 8b 89 02 3e be c4 03 3d
       0.07994218 0.072412014 0.12747781 0.03217005
0000c0 76 92 85 3d d1 be cf bd 84 61 b0 bd 33 a9 71 bd
       0.06522076 -0.10143817 -0.0861235 -0.05899925
0000d0 da 0b ce bd f1 0d 84 bd 92 58 8c bd a1 92 b8 bc
       -0.10060854 -0.064479716 -0.06852831 -0.022530856
0000e0 e3 78 3e 3c c9 b9 88 3c 47 53 b9 bc 4c 73 ba bd
       0.011625501 0.016690152 -0.022622718 -0.091040224
0000f0 03 e3 0b bd 27 f2 6f bd dc 63 bb 3a 5d 26 0f 3e
       -0.034152042 -0.058580544 0.0014296728 0.13979478
000100 73 d8 36 3d ad 09 03 ba 60 f9 04 be 6d 7c 2b bd
       0.044640016 -0.0004998695 -0.12985754 -0.04186671
000110 bf 26 27 3e 38 4b 10 3e 4b 14 ae bd ec 3c f8 bd
       0.16323374 0.14091194 -0.08499964 -0.12120995
000120 7e 07 d3 bb c3 c9 46 3d 11 cb cc bc af 59 61 be
       -0.006440102 0.04853226 -0.024999173 -0.22006868
000130 c4 66 4c bc 07 f2 2d 3e a0 94 b0 bc ec 50 1d 3e
       -0.012475673 0.16986857 -0.021555245 0.153629
000140 2f 52 8f 3b 01 d9 d2 3d 85 52 51 3d e4 8a 1a 3e
       0.0043738107 0.102952965 0.051104087 0.15092045
000150 8f c0 e0 3d b0 04 a9 bd 9c d8 90 bd 12 40 b1 3d
       0.10974228 -0.08252847 -0.07072565 0.086547986
000160 bb 91 9b bc 36 88 48 be df 61 7d bc cd 7d 9b 3d
       -0.018990388 -0.1958321 -0.015465229 0.07592354
000170 1c b2 71 3e 70 ca a0 3d 6f 1d 94 bd 9c 49 86 bd
       0.236031 0.07851112 -0.072321765 -0.065570086
000180 91 01 b4 3d 8c 17 a9 bd 8c 21 85 3d 23 21 09 be
       0.08789361 -0.08256444 0.06500539 -0.13391547
000190 22 3e 18 be 29 88 1b 3d e9 24 b0 3d 86 90 53 be
       -0.14867452 0.03797165 0.0860079 -0.206606
0001a0 91 1b de bd 24 ea 51 bc 2d 41 25 3d 0d fa 84 bd
       -0.108451016 -0.012812171 0.04034536 -0.06493006
0001b0 73 15 44 bd bc ac 13 bd 45 6b 19 3e 41 8e 93 bc
       -0.047872018 -0.036053404 0.14982326 -0.018012168
0001c0 b7 18 3d bd ef 54 bd bd a8 33 93 bd f1 8f 0e 3b
       -0.046166148 -0.092447154 -0.07187587 0.0021753276
0001d0 b6 94 37 3e 90 39 77 bd e7 d8 f6 bd 14 ae 34 bd
       0.17927822 -0.06035763 -0.120530896 -0.044111326
0001e0 95 b9 71 3d 90 7e 9e bb 2a 64 3d 3d dd cb bf 3d
       0.059014875 -0.004836865 0.046238102 0.09365056
0001f0 7c 53 e3 3d 9f fc d1 3d de 2b 10 bd 44 e3 21 3d
       0.11099908 0.10253262 -0.035198085 0.039523378
000200 f2 77 be bd 4f c3 d3 3d 7e 2c c2 bd ea 9a 88 3d
       -0.093002215 0.103399865 -0.094811425 0.066701725
000210 46 4a 55 3c d2 59 e6 3d 5b 81 f5 3c 98 14 8e bd
       0.013018196 0.112476006 0.029968908 -0.06937522
000220 fd 4a 14 3e c7 4f 24 3c f2 bb 67 3d 33 cc dd bc
       0.14481731 0.010028786 0.056575723 -0.027074909
000230 dd de df 3d 1f 21 dc bd df 57 8f bd 3a c7 67 bc
       0.1093118 -0.10748505 -0.06999182 -0.01414662
000240 cf 61 d3 3b f9 d3 83 3d 95 8f 95 3d 85 ca 39 3d
       0.0064508687 0.06436915 0.07302777 0.045359153
000250 af 9e 91 3d c5 e9 bc 3c f3 9f b3 bd d2 09 15 3e
       0.071103446 0.023060689 -0.08770742 0.14554527
000260 e1 4b 68 3c d6 f6 91 3b 84 ae 8f bc ae 52 1a 3e
       0.014178247 0.004454474 -0.01753927 0.15070602
000270 1c 2b 96 bc ff e2 4d 3d 26 e8 fe 3d ee fc 95 3c
       -0.018331103 0.05026531 0.124466226 0.018309083
000280 f0 a5 e2 3d da 9f e6 bd d4 f8 20 3e 06 9d f0 bd
       0.11066806 -0.11260958 0.1571992 -0.117487
000290 f0 b6 9b 3d 16 ca f7 3c 32 ba d5 bd 0d 4c 5c bd
       0.07603252 0.03024773 -0.104359046 -0.053783465
0002a0 e1 de b7 3d 3f 59 e6 3d 9a 78 03 be 22 58 87 3c
       0.08978058 0.11247491 -0.12838975 0.016521517
0002b0 d4 9d 92 3d bf 14 90 bc 6a 7f 06 bd f4 f0 8d bd
       0.071590096 -0.017588018 -0.032836355 -0.06930724
0002c0 cf 30 92 bc 42 af d6 3d 5d f5 1f bd 0c dc 20 bd
       -0.01784554 0.104826465 -0.039052356 -0.039272353
0002d0 20 55 8b 3d 1a 7d f3 bc 2a 3c 28 3d a6 e5 0d 3e
       0.06803346 -0.029722739 0.041073002 0.13857135
0002e0 eb e0 12 3e a8 c8 76 3c 17 75 15 bd 4a c0 30 bd
       0.14343612 0.015062489 -0.03648862 -0.04315213
0002f0 8d 82 da 3d 63 55 10 bd d9 bb 92 3d 14 08 c6 3d
       0.10669432 -0.03523768 0.07164735 0.096695095
000300 64 58 a0 bc 5b 75 a2 bd 8a 52 ee 3c 8b 32 8b bd
       -0.019573398 -0.0793254 0.029092092 -0.0679675
000310 0e ca a7 3c 9f 65 ac 3d 63 c0 41 bd 42 e1 57 3d
       0.02048209 0.0841782 -0.047302615 0.052705057
000320 5f 36 12 3d 23 94 66 3d 7d 06 b9 bd 25 18 23 3e
       0.035696384 0.056293618 -0.09034441 0.15927179
000330 b4 a2 90 bd 6e fe 03 3a 5e fa fb 3d cd c1 40 bd
       -0.07062283 0.00050351664 0.12303613 -0.047059823
000340 68 3d 74 3c 61 9c 8e bd 98 6b c4 bd 14 46 8e 3d
       0.0149072185 -0.06963421 -0.095908344 0.0694696
000350 34 18 a7 bd e2 96 e6 3c e5 07 f3 3c 96 f7 13 bc
       -0.08158913 0.028148118 0.02966685 -0.009031197
000360 e3 af f4 3c 5d 2c c9 3d 0d ed 88 bd 2f c5 a2 bc
       0.029869026 0.09822915 -0.06685839 -0.019869415
000370 aa 10 d6 bd 3a 01 d6 bd aa 9b 92 3d 6f 49 45 bd
       -0.10452397 -0.10449453 0.07158597 -0.048165735
000380 0d 19 70 bd 5c 3d 39 3d 7a 1f 39 bd c5 ba 20 be
       -0.05861764 0.045224532 -0.045196034 -0.15696247
000390 12 3e 16 3c b3 f9 7f 3d 4b 4f 55 bd 11 3b 3d 3d
       0.009170072 0.06249399 -0.052077573 0.04619891
0003a0 88 de 75 bc c5 83 d2 bd b5 a2 a0 bd 29 34 a8 3d
       -0.015006669 -0.10279039 -0.07843534 0.08213074
0003b0 0a c9 ec 3d 90 a4 1a bd 92 40 e4 3d 7b 8b f7 bc
       0.11561783 -0.037754595 0.11145128 -0.030217877
0003c0 92 f5 a6 bd 0b ec 2d bd d2 a4 af bd ac d5 e6 3d
       -0.081523076 -0.042461436 -0.08576359 0.112712234
0003d0 ec b8 99 3d 08 0e d8 bd 6e de c9 bd 71 5f ba bd
       0.07505974 -0.10549551 -0.09856878 -0.09100235
0003e0 fa 67 fa 3d 98 a5 b1 bd 94 55 92 bc ef 97 82 3d
       0.12226863 -0.086741626 -0.017863072 0.06376635
0003f0 d2 61 37 3d fd 79 0f bc 6b de 86 3c d4 02 ca 3d
       0.044771023 -0.008757112 0.016463479 0.09863821

bias_ih_l0 f4 [192]
000000 4f d1 b1 bd 46 33 45 be 93 4d ac bd 15 cf b1 bd
       -0.086825006 -0.1925784 -0.084132336 -0.08682076
000010 81 88 24 3d f3 de b0 bd 70 77 d1 3d b0 d5 e3 bd
       0.040169243 -0.08636274 0.10227859 -0.11124742
000020 2e c4 4c be 8c 6d 7d 3d 42 bf 86 be 0d 89 23 bd
       -0.19996712 0.06187205 -0.26317793 -0.039925624
000030 65 c4 bd bc 75 50 63 bd e2 74 3d bd b5 c7 31 3c
       -0.023164937 -0.05549665 -0.046254046 0.0108508365
000040 89 fc 57 3d 82 63 81 3d 5f 87 dd bd d4 a8 ad 3d
       0.05273107 0.06317808 -0.108168356 0.08479467
000050 e2 f0 de bd db a0 c5 3d 38 8c 51 3d e8 fb 4d 3c
       -0.108857885 0.09649821 0.051159114 0.012572266
000060 a9 ee 1a 3d bb 25 f9 bd 9d 6b db 3d 2d 5f 19 be
       0.03782526 -0.121654 0.10713885 -0.14977713
000070 d2 1d 28 3d 9a d8 31 bb 6f 43 2a 3c 7f 43 f5 bd
       0.041044064 -0.0027137161 0.010392054 -0.119757645
000080 7d 3a ac 3d 78 71 2b bd f1 e4 e3 bd de 50 8e 3d
       0.08409593 -0.04185626 -0.111276515 0.06949018
000090 ac 27 8e 3d c3 2c 07 be 9b 01 14 be 00 f2 77 bc
       0.069411606 -0.13200669 -0.14453737 -0.015133381
0000a0 1b 9c a0 3d 85 ee 99 3d 46 c8 34 be c9 e9 88 3d
       0.07842275 0.07516197 -0.17654523 0.06685216
0000b0 d1 ef d3 3d 8f ef 47 3c ab b2 b1 bb d0 f0 ff bd
       0.10348476 0.012203111 -0.00542291 -0.12497103
0000c0 70 d5 1f bd 95 d7 f1 3b 28 72 c0 bd 75 03 a4 3d
       -0.03902191 0.0073804357 -0.093967736 0.08008472
0000d0 28 8d 53 3c e1 a1 31 bd aa 52 63 be cb e3 b1 bd
       0.012912072 -0.04336727 -0.22199503 -0.08686026
0000e0 e5 85 f0 bd fd bd 3f be d0 bb ca bd 12 6b 5b 3d
       -0.11744288 -0.18724819 -0.09899104 0.053568907
0000f0 68 59 a1 3d 38 1b 7c be cb 8f 0e bc d9 01 6e be
       0.07878381 -0.24619758 -0.008701275 -0.23242892
000100 c0 ab 33 bb 8d 5e 13 bf 5f cb 5c be 99 df de be
       -0.0027415603 -0.5756615 -0.21561955 -0.43529966
000110 be 30 7c be 45 30 c9 be 62 5d 8c be eb 05 9b be
       -0.24627969 -0.3929464 -0.27414995 -0.30277953
000120 2d 66 1e bf ec 05 c6 be 9d 23 d0 be 82 85 9a be
       -0.6187466 -0.38676393 -0.4065217 -0.30179983
000130 ef 09 c9 be 21 cb 76 be ed 87 61 be 3e 60 b6 be
       -0.3926539 -0.24100925 -0.22024508 -0.35620302
000140 cb 94 64 3e 8f c4 2c 3e 0d 8a b1 be f2 4a 33 bf
       0.22322385 0.16871856 -0.34675637 -0.7003623
000150 75 97 f7 be 0e 19 5b 3e 69 72 80 be a7 d9 63 be
       -0.4835774 0.21396276 -0.25087288 -0.22250997
000160 70 c0 f1 be 16 d1 08 bf 1f d9 a5 be f3 c9 d3 be
       -0.4721713 -0.5344404 -0.32392213 -0.41365013
000170 3f 2b 28 be 59 27 f1 be 76 98 9a be e7 6c f2 be
       -0.16422747 -0.47100332 -0.30194443 -0.4734871
000180 1a 4d 97 ba 19 c4 0f bf c7 de eb bd 32 ea a3 be
       -0.0011543364 -0.56158596 -0.11517101 -0.32014614
000190 44 41 c7 be 81 1d c2 be d0 19 af be 91 ff e8 bd
       -0.3891698 -0.37913135 -0.3419938 -0.113768704
0001a0 80 49 f3 be d9 61 7b be 16 0c ca be 76 24 ee be
       -0.47517014 -0.24549045 -0.39462346 -0.46512192
0001b0 f9 12 cd be 92 89 da bb af b9 e1 be e5 02 52 be
       -0.40053537 -0.0066692317 -0.44086978 -0.20508917
0001c0 98 62 e6 3c 18 d1 3d be cc 7e 69 be 1d fa 55 3e
       0.028123185 -0.18536794 -0.22802275 0.20896192
0001d0 c1 0d 6b be 03 a6 bd be c7 36 c7 be 8f da dd be
       -0.22954465 -0.3704072 -0.3890898 -0.4333081
0001e0 bd 38 c5 bd 91 2d b2 be 29 c9 0b bf 3b af 82 be
       -0.096299626 -0.3480039 -0.5460382 -0.25524315
0001f0 ec 29 dc be cd 07 d8 be e1 98 4c be 9e 8c aa be
       -0.43000734 -0.42193452 -0.19980194 -0.33310407
000200 13 24 1a 3d 00 96 98 bd 40 6a 68 3d 56 d1 2a bc
       0.03763206 -0.07450485 0.056741953 -0.010425886
000210 dd d0 e2 bc 7f 0b b4 bc fc 7a 56 bd f5 06 a4 3d
       -0.027687484 -0.021978138 -0.05236338 0.080091394
000220 e4 0c 75 bd a9 af a5 bc 91 68 d2 bd 54 86 bf bc
       -0.059826747 -0.020225363 -0.10273851 -0.023379482
000230 c8 d3 8d 3d 7f 3d 60 bc ff d0 c8 bb e2 44 5d 3b
       0.0692516 -0.013686537 -0.00612843 0.0033762981
000240 20 7c 25 bd 4e 45 c9 bd 31 0a 47 bd 2b 02 39 bd
       -0.040401578 -0.09827672 -0.048593704 -0.045168083
000250 6f f4 0b bd ad ef d3 3d 67 19 26 3d 04 0f 67 bd
       -0.034168657 0.10348449 0.04055157 -0.056410804
000260 d3 f8 9e 3d 42 5f ef 3d e6 b2 9d bd cd 33 70 3c
       0.07762303 0.11688091 -0.07700138 0.014660788
000270 22 cc 71 3d 89 d2 b5 bb 0f f9 f8 39 6c 51 12 bc
       0.059032567 -0.0055487794 0.0004748781 -0.008930545
000280 88 1d 62 bd 29 6a bf 3d 62 17 4d 3c f5 e6 a1 bd
       -0.055203944 0.0934642 0.012517782 -0.0790538
000290 aa 69 c4 3d cb 5e df bc aa 0e 17 3d 66 ce 43 3d
       0.09590466 -0.02726688 0.03687922 0.04780426
0002a0 a7 89 2c bd 94 60 19 bd 4a b0 88 3d 64 51 33 bd
       -0.042123463 -0.03744562 0.066742495 -0.043778792
0002b0 ee 9c 80 3b 42 38 74 3d 7a f1 8c 3c f2 47 16 bb
       0.0039249575 0.059623964 0.017204989 -0.0022931066
0002c0 16 11 d5 3c d4 6c a7 3d e6 3a 83 3b 33 ec 39 bd
       0.026009124 0.08175054 0.004004824 -0.045391273
0002d0 a4 9d 39 bd 55 af a9 3d 20 d2 01 3d 90 a1 05 bc
       -0.045316353 0.08285395 0.03169453 -0.008156195
0002e0 d0 f0 90 bd a2 ae 32 3d 1d 6b e6 bd cc 16 a7 bd
       -0.07077181 0.043623574 -0.11250899 -0.08158645
0002f0 94 ca 14 bd 3e 62 98 bd a7 81 af bc 67 fc 4a bc
       -0.036326006 -0.07440613 -0.021424128 -0.012389279

bias_hh_l0 f4 [192]
000000 83 6a ab bd 06 8e 5d bd 93 24 24 bc a5 8d ec bb
       -0.08369925 -0.054090522 -0.010018486 -0.007219034
000010 32 1e f5 bd 41 f2 6c 3c 30 e5 31 bd 23 59 5f bd
       -0.1196865 0.014462055 -0.04343146 -0.054528367
000020 9b 3e 59 be 82 0a 9c 3d e5 17 27 be df cd 06 bd
       -0.21215288 0.07619192 -0.16317709 -0.032911178
000030 0a 3d 0d bc 57 36 3f 3d 72 47 21 be d3 a4 87 bb
       -0.00862051 0.046682682 -0.1574991 -0.0041395216
000040 48 3b 15 3e 2f 1d 1a bd e7 47 5b 3d ad 97 36 bd
       0.14573395 -0.037625488 0.05353537 -0.044578243
000050 87 ba 4a be 16 37 38 bd 77 bd af 3c e9 43 49 3c
       -0.19797717 -0.04497441 0.021452649 0.012284257
000060 11 af f0 bd 27 40 b1 bd 41 69 2d bd 66 43 dc bd
       -0.11752141 -0.08654814 -0.042336706 -0.10755043
000070 d4 11 dd 3c af f8 8e bd 26 a4 ee bd 69 64 a3 bd
       0.02698604 -0.069810264 -0.116524026 -0.07978136
000080 35 2a 86 bd f2 9e ff 3c e3 92 c1 3d a3 ae 45 bd
       -0.06551019 0.03120372 0.094518445 -0.04826225
000090 52 1b 4e 3d 88 72 b5 3c 1d a9 37 be 86 26 19 3d
       0.050319023 0.02214934 -0.17935605 0.037390254
0000a0 a2 38 11 be f9 a5 ec 3b a7 3e 33 be 17 c7 ac bd
       -0.1418176 0.007221934 -0.17504369 -0.08436411
0000b0 b4 14 43 3d e2 76 e8 bd c4 f1 a5 bd b4 81 0f be
       0.047627166 -0.113508 -0.08102754 -0.14014322
0000c0 5b f3 ab bd e4 6f b2 3d 05 13 93 3b 79 ee cd bd
       -0.08396026 0.08712748 0.0044883513 -0.10055251
0000d0 c8 1c 5a bd d6 1d b0 bb 27 09 1b be c6 75 27 3c
       -0.053250104 -0.0053746505 -0.1514021 0.0102209505
0000e0 af 53 96 bd 58 f7 3c bd 21 70 2f be 95 52 7d 3c
       -0.0734018 -0.046134323 -0.17132618 0.015461584
0000f0 b0 0b ad 3d 32 6c 6a be 1a 70 b2 3d 04 0d 84 be
       0.08449495 -0.22892836 0.08712788 -0.2579118
000100 f9 9b 7d bd 13 85 22 bf fe ef d4 be 88 16 c1 be
       -0.061916325 -0.63484305 -0.4158935 -0.37712502
000110 e7 f6 d7 be 59 92 fe be 0b a6 5f be 49 80 a9 be
       -0.4218056 -0.4972103 -0.21840684 -0.33105686
000120 ee 39 3b bf da 16 87 be f9 aa 10 bf c2 1c 92 be
       -0.7313527 -0.26384622 -0.56510884 -0.28537565
000130 91 f2 d4 be 77 fc a6 be 25 25 c4 be 6c 37 b3 be
       -0.41591313 -0.3261449 -0.3830959 -0.3500322
000140 c1 3d b2 3e 19 ab 2a 3e 49 92 9e be d1 65 05 bf
       0.3481274 0.16666831 -0.30970982 -0.52108485
000150 de 40 23 bf fb b5 2f 3e 0e 55 d1 be e0 08 86 be
       -0.63770854 0.17159264 -0.40885204 -0.26178646
000160 99 de 03 bf ed 2c 25 bf a7 45 02 bf 83 5f bc be
       -0.5151153 -0.64521676 -0.5088753 -0.3679162
000170 ba 68 d5 bd 60 04 27 bf f0 f5 ea bd 55 4a 9b be
       -0.10420366 -0.6524105 -0.1147269 -0.30330148
000180 e2 27 1a bd 9b 6f c6 be ba b0 05 be 51 f2 12 be
       -0.03763569 -0.38757023 -0.13055697 -0.14350249
000190 38 a6 e2 be cf 7e af be 47 b6 d1 be 7b a0 2c be
       -0.4426744 -0.34276435 -0.4095938 -0.16858093
0001a0 75 44 d7 be b9 50 e8 be 0e a1 0e bf 39 7a ab be
       -0.42044416 -0.45374086 -0.557145 -0.33491686
0001b0 b0 33 23 bf 74 9a 6d bc b3 80 0c bf 4d 00 50 be
       -0.63750744 -0.0145021565 -0.5488388 -0.20312615
0001c0 0e bd 30 3d e6 50 6e be a4 b2 d3 bd af d4 03 3e
       0.043149047 -0.23273048 -0.10336807 0.12874101
0001d0 58 f8 b5 be 39 2e 99 be aa a2 04 bf 10 ac c5 be
       -0.35541034 -0.29918078 -0.51810706 -0.38607836
0001e0 ed 64 e4 bd 29 a6 8e be e8 23 0b bf 48 d8 75 be
       -0.111520626 -0.27861145 -0.54351664 -0.24008286
0001f0 5b 92 de be 01 98 c2 be 1b 63 b6 be 6a 22 ad be
       -0.43471035 -0.38006595 -0.35622486 -0.33815318
000200 8e c0 37 bd d9 bd 4f 3c 88 6b d4 3d fe 7d f4 bd
       -0.04486137 0.012679541 0.103720725 -0.119380936
000210 a9 11 45 bb 7e 8d 27 bd 99 5d dc bc 1e a2 85 bd
       -0.003007034 -0.04090642 -0.0269001 -0.06525062
000220 85 a8 8b bc b9 6b ae 3d f2 f1 1b bd 76 34 95 3d
       -0.01704813 0.0851664 -0.038072534 0.07285397
000230 af a6 b5 bd 29 41 93 bd d4 f3 ae 3c cd 14 bb 3d
       -0.08869683 -0.07190163 0.0213565 0.09134827
000240 1e bb 0d bd 4b 4a b4 bd 51 3e 2f 3b 98 45 fe 3c
       -0.034602277 -0.08803233 0.0026740024 0.031039044
000250 37 01 8f bc e2 8d 73 bd e5 e1 51 bd 85 3b b5 3d
       -0.017456634 -0.059461482 -0.05124082 0.08849243
000260 09 4f bf 3d e1 f7 cd bd 90 0b f9 3d e6 35 0d bd
       0.09341247 -0.10057045 0.121604085 -0.03447523
000270 2d 7f eb bd 92 a2 0a 3c 1b e5 9c bd da 80 18 bc
       -0.11498866 0.008461611 -0.07660886 -0.009308064
000280 a6 90 5b 3d 9e 44 eb 3d 6c 98 01 bc 22 4d f7 3d
       0.053604744 0.11487697 -0.007909875 0.12075259
000290 3a 96 59 bd ab 3d dc bd 11 04 67 3b c7 5a c0 bd
       -0.053121783 -0.1075395 0.0035250227 -0.093923144
0002a0 74 aa 25 3d 1d 80 c5 3d 60 8d 19 3a 2e 28 95 3d
       0.04044576 0.09643576 0.00058575533 0.07283054
0002b0 be 0f 00 be 82 bb 01 be b9 3e c4 bd fb 52 01 3d
       -0.12506005 -0.12669185 -0.09582276 0.031573277
0002c0 65 c0 21 bd 5d 48 d7 bd 7e 97 16 bb 7c b7 cf 3d
       -0.039490122 -0.10511849 -0.002297848 0.10142419
0002d0 16 02 c2 bb 07 2b b6 3d bc a5 91 bc 15 89 de bd
       -0.005920659 0.088949256 -0.017779224 -0.1086599
0002e0 0b 2d 8b 3d fb 76 13 ba 53 99 33 3c 9e 84 f7 3d
       0.06795701 -0.00056253345 0.010961848 0.120858416
0002f0 2a f8 b0 3d 57 96 af bd b8 2a c3 3d f1 f8 95 bd
       0.086410835 -0.08573597 0.09529632 -0.073228724

weight f4 [1, 64]
000000 31 cc 80 39 a0 ba 99 bd 49 bc b1 bd b3 a1 d8 3d
       0.00024566197 -0.07506299 -0.08678491 0.10577717
000010 bb 4d ba 3c f2 44 04 bc f1 62 00 3c c4 b3 da bc
       0.022742143 -0.0080730785 0.0078360895 -0.026697047
000020 0d f6 34 3d 2a ae 5b bd 70 b8 65 3d 63 75 bd 3d
       0.044179965 -0.053632893 0.056084096 0.09250905
000030 9e 72 6d bd 27 8e 8e bd 8a 58 b8 3d a6 9c ee bc
       -0.057970636 -0.06960707 0.090012625 -0.02912743
000040 8b 04 e5 bc f4 b2 8f bd 3d ee 61 bc 2a 98 29 bd
       -0.027956268 -0.070165545 -0.013789711 -0.04140488
000050 16 e6 68 3d 32 bc 8d bd fa c0 5a bd 8f 0f 64 3d
       0.056860052 -0.06920661 -0.053406693 0.0556789
000060 3c 70 b9 3d 95 00 c7 bd ea 3f 9b 3d 4d 48 8e 3d
       0.0905461 -0.09716908 0.0758055 0.06947384
000070 51 25 b1 bb ab 99 3b bd b4 52 4b 3d 95 78 63 3d
       -0.00540606 -0.045800846 0.04963942 0.055534918
000080 7b e9 89 bc 80 e0 b8 bd fd 28 35 3d 4b 41 8e bd
       -0.016834965 -0.09027195 0.044228543 -0.069460474
000090 e5 a2 41 bd 04 1b 81 3d 65 82 eb bd 00 54 43 bd
       -0.04727449 0.06303981 -0.1149948 -0.04768753
0000a0 fe 25 9a 3d 47 b1 d0 bc 7e 26 96 3d 9e 4a 63 3d
       0.07526778 -0.025475157 0.073315606 0.055491082
0000b0 2c 25 e1 3d ac 92 73 bd 60 53 bd bd 5c 34 d7 bd
       0.10993418 -0.05946605 -0.09244418 -0.10508034
0000c0 6c d3 14 bc 1c 21 65 3d 3c 70 75 bd 85 05 2e 3d
       -0.00908361 0.05593978 -0.05992149 0.042485733
0000d0 77 f9 74 3d 6a c0 bf 3d cf 98 54 bd 22 5f e7 3d
       0.05980822 0.09362872 -0.051903542 0.11297442
0000e0 2e c4 94 3c d6 eb 2d 3d e1 1d a5 3d f5 ee b1 b9
       0.018159952 0.04246124 0.080623396 -0.00033938108
0000f0 4f 8d 33 bd 5a 6c 8e bd 63 1b 6d bd c4 f7 07 bd
       -0.043835934 -0.0695426 -0.057887446 -0.033195272
