GRU/models/model_hs=64_layers=2_epochs=10_batch=16.pth (torch, 158772 bytes, 9 tensors)

weight_ih_l0 f4 [192, 5]
000000 0a c5 12 3d b7 84 62 3d 86 3e 2d 3d de 14 9e 3d
       0.035832442 0.055302348 0.042295955 0.07718824
000010 3a 7f 45 3e f5 49 f6 bd 9a e8 ac bd e8 54 34 be
       0.19286814 -0.12025825 -0.08442803 -0.17610514
000020 93 93 0a be 91 62 1e be fb b1 27 be 1c 44 a6 bd
       -0.13532858 -0.15467288 -0.16376488 -0.081184596
000030 4c b0 e0 bd 6c 01 57 be 50 d6 99 bd d0 42 67 bd
       -0.10971126 -0.20996636 -0.0751158 -0.0564602
000040 c9 53 03 be 53 b0 04 be a7 dc 21 be fa fa 9c bd
       -0.1282493 -0.12957887 -0.15806828 -0.076650575
000050 73 85 25 be 5f 86 e2 bd 1a 87 4c be f6 75 20 bd
       -0.16164188 -0.110607855 -0.19973412 -0.039174996
000060 f2 47 2f bd 11 44 01 bd fc 64 9f bd ad 7f 78 be
       -0.04279322 -0.031559054 -0.07782933 -0.24267454
000070 bb eb 8d be f7 56 43 3d 7e 10 98 be 36 62 2a be
       -0.2771891 0.047690358 -0.29700083 -0.16639027
000080 e0 f5 45 be 3a 30 32 be a8 d7 d7 bb 42 6d 84 be
       -0.19332075 -0.1740121 -0.0065869875 -0.25864607
000090 38 54 61 be 0b 30 e4 bd 70 42 8c be a2 b9 ba be
       -0.22004783 -0.11141976 -0.27394438 -0.36469752
0000a0 93 3e 9a bc b4 39 43 be 50 a1 7f bd f1 62 90 bd
       -0.018828666 -0.19064981 -0.0624097 -0.070501216
0000b0 13 01 1f be 1c 85 d0 bd 2b f9 ff bd 2e ef b8 bd
       -0.15527754 -0.101816386 -0.12498697 -0.09029995
0000c0 7e 26 40 bd 68 22 55 be 90 3f 99 be 9a 61 a0 bd
       -0.04691171 -0.20813906 -0.29931307 -0.07831116
0000d0 94 a6 22 be c0 ab 71 be 60 f5 9c be 71 71 0f bd
       -0.15883857 -0.23600674 -0.30655956 -0.035020296
0000e0 13 30 97 ba 2c 66 3a be 88 cf 14 be a1 4b 0f 3d
       -0.0011534713 -0.18203038 -0.14532292 0.034984235
0000f0 6c 15 47 be 12 22 81 be ac 8d 55 bd ea a6 24 be
       -0.19441766 -0.25221306 -0.052137062 -0.16079298
000100 ea 0a ca 3b ca a6 aa bd e9 28 d3 bd ca 06 25 be
       0.006165852 -0.08332594 -0.10310537 -0.16115871
000110 a6 47 fa bd fb ea 71 be 74 63 51 be d8 16 9b bd
       -0.12220697 -0.23624794 -0.20448095 -0.075727165
000120 27 4b 5a be 26 1b fb 3b cf ea 2a 3d 84 d0 15 be
       -0.21317731 0.0076631485 0.041727837 -0.14630324
000130 b4 a2 aa bc 6d f8 e3 3a 10 8f 26 bd ab 4c 9f bc
       -0.020829536 0.0017392762 -0.04066378 -0.019445738
000140 4d 27 c2 bd e1 82 88 be a7 a8 65 be 24 78 13 be
       -0.09480152 -0.26662353 -0.22427617 -0.14401299
000150 2c bf 86 be 9d 63 c4 bd 3a dc 34 be 4d d6 90 be
       -0.26317728 -0.09589312 -0.17662135 -0.282885
000160 f0 59 25 be a7 01 55 be e6 bf e7 bd ec 3d 43 be
       -0.1614759 -0.20801412 -0.113158986 -0.1906659
000170 0d 3a a2 bd b2 f0 1d be 33 f0 81 bd 67 dc 11 be
       -0.079212286 -0.15423849 -0.063446425 -0.14244233
000180 b5 bf 8d bb dd 77 1d bc 7c 9c 38 bd 45 ff 04 bd
       -0.004325832 -0.009611097 -0.04507111 -0.032470006
000190 bd 14 bb bd 2d da 13 bd 7f e2 17 bd a7 a7 8f 3c
       -0.09134815 -0.03609674 -0.037081238 0.017535998
0001a0 44 05 08 be e6 56 83 3e 31 6b 09 3e a4 fe 2d 3e
       -0.13283259 0.25652236 0.13419797 0.16991669
0001b0 6c a9 2d 3e bc c7 b5 be 88 5b 86 bc 1e b4 53 3d
       0.1695916 -0.35503948 -0.016401067 0.051685445
0001c0 1e 1e b4 3d e9 71 d3 bd b5 55 49 be 30 9f 3d be
       0.08794807 -0.10324461 -0.19661601 -0.18517756
0001d0 6f fa 56 bd 74 3b c3 bd 72 74 f0 bd 76 5b 65 3c
       -0.052484926 -0.09532824 -0.1174096 0.013998857
0001e0 72 5c 97 be c4 3f 3e be 8e c0 62 be b1 5a 0d be
       -0.29562718 -0.18579012 -0.22143766 -0.13804127
0001f0 c9 2c c8 bc 43 3e ec bd 51 64 60 be 21 29 28 be
       -0.024435418 -0.11535313 -0.21913268 -0.1642194
000200 e0 d5 93 bc 65 fd 85 be b4 86 1e be a4 9a da bd
       -0.01804632 -0.26169887 -0.15481073 -0.106740266
000210 33 ae 9c be 34 79 64 be 28 1e e9 bd 89 a8 aa bd
       -0.30601653 -0.2231186 -0.11382705 -0.08332927
000220 96 ce 6d bd fa b4 13 be 0b 1b f4 bd 0f c7 12 be
       -0.058058344 -0.14424506 -0.119192205 -0.14333747
000230 59 2d d3 be 4a c6 12 bf fd a7 06 bf 30 6e e7 be
       -0.41245535 -0.57333815 -0.5260008 -0.45201254
000240 20 02 38 be cd 83 f6 bd 44 f2 45 bd 5b bf 93 bd
       -0.1796956 -0.12036858 -0.048326746 -0.072142325
000250 52 be 0a be 5f 28 a9 3d 60 89 ee bd 94 71 46 be
       -0.13549164 0.08259653 -0.11647296 -0.19379264
000260 4d f4 63 be 88 5e 66 be e6 a6 3e be ae 48 86 bd
       -0.22261162 -0.22496998 -0.18618354 -0.06556831
000270 31 d6 83 be 46 bc 89 be 02 48 5e be f5 af af 3d
       -0.25749353 -0.26901454 -0.21707156 0.08578483
000280 a9 7d 60 bd f6 c0 7f 3d 68 13 bd bc 87 28 1c be
       -0.05480734 0.06243988 -0.023080543 -0.15249835
000290 15 14 e0 3d 42 f1 59 bd dd 2e c3 bc 60 09 0e 3d
       0.1094133 -0.053208597 -0.023826057 0.03467691
0002a0 7f f9 42 3e 34 4d b3 bb 05 92 a4 bd 28 2f a2 be
       0.19040488 -0.00547185 -0.080356635 -0.31676602
0002b0 94 82 97 bd e5 54 fd bd 0d 9c e6 bb 8b 87 f4 bd
       -0.07397953 -0.12369708 -0.0070376457 -0.11939915
0002c0 4a 6a b6 bd 6c 1a aa bd b0 19 d5 3d 62 d9 2c be
       -0.08906992 -0.08305821 0.1040529 -0.168798
0002d0 ea 4e 2e be 4b 16 0d be ce 44 25 be af 21 0e be
       -0.17022291 -0.13778035 -0.16139528 -0.13880037
0002e0 0c 31 01 bf ba 54 87 be 40 c4 08 be 90 0c 5a bd
       -0.50465465 -0.2643183 -0.13356113 -0.053234637
0002f0 1d e5 8f be 5b 52 da be ba a1 0f be b0 34 62 be
       -0.28104487 -0.42640957 -0.14026538 -0.22090411
000300 6c 45 6f be d6 62 61 be 5d 18 24 be 9d 10 25 3b
       -0.23366326 -0.22010359 -0.16024919 0.0025186904
000310 cd f4 fd bd 01 64 a9 3a 93 39 f7 bd db 8f 9a 3d
       -0.12400208 0.001292348 -0.12071528 0.075469695
000320 d0 ad 6e be 27 94 58 be c9 59 52 be 1a f0 51 be
       -0.23308492 -0.21150266 -0.20542063 -0.20501748
000330 ae 17 a3 be 11 35 84 be f6 da a8 bd f7 81 85 be
       -0.31854004 -0.25821736 -0.082448885 -0.26075718
000340 aa 44 4b be fd 9d 1b bd b9 9e f5 be d6 d4 ea be
       -0.19850412 -0.037992466 -0.47972658 -0.45865506
000350 db eb 9c be fe 1a 95 be 14 c2 b9 be 8a b3 d7 bd
       -0.30648693 -0.29122156 -0.36280882 -0.10532291
000360 fa a5 d9 bc 3f f1 3a be c5 fd 0e bd c6 4f f8 bd
       -0.026568402 -0.1825609 -0.034909982 -0.121245906
000370 7a 82 df bd d8 64 b4 bc 6a 95 f4 bc 9a 43 d7 bd
       -0.10913558 -0.022020742 -0.029856402 -0.10510941
000380 fe 4e 50 be 35 7e 84 bc 2d ee 68 be aa 05 25 be
       -0.20342633 -0.016173461 -0.22747107 -0.16115442
000390 cb 61 43 be 6e 8f 16 be c5 b4 e3 3d 6f 8a 00 3e
       -0.19080274 -0.14703152 0.111184634 0.12552808
0003a0 4e 40 24 3d 46 37 5c bd 2f d2 4e be 90 06 48 be
       0.04010039 -0.05376365 -0.20197366 -0.19533753
0003b0 af 9f 6a be 6c 18 b3 be 60 6d e0 be c1 05 2c bc
       -0.22912477 -0.3497957 -0.43833447 -0.010499419
0003c0 c0 2f 34 3d 38 17 9a 3d 85 37 ee 3d 1a c0 16 3e
       0.04399085 0.0752396 0.11631683 0.14721718
0003d0 43 b3 58 be 43 22 75 be 23 ba e0 bc da 16 5d be
       -0.21162133 -0.23938851 -0.027432507 -0.21590748
0003e0 64 27 84 bd cf 64 6c 3b ec 31 5f bd 93 61 4d be
       -0.06452826 0.0036070829 -0.05449097 -0.20056753
0003f0 67 cd 83 bd c5 7b 38 be 01 4e fd bd 41 60 03 bd
       -0.06435662 -0.18015964 -0.12368394 -0.032074217

weight_hh_l0 f4 [192, 64]
000000 f0 b7 4f 3e da 4a 53 3e 10 fa a1 bd 1c 88 1d bd
       0.2028501 0.20634022 -0.07909024 -0.038459882
000010 15 37 c4 3d 65 ae d1 3d a0 8b 51 be 57 28 89 bd
       0.095808186 0.10238341 -0.20463419 -0.06697147
000020 a2 b1 18 bd 50 d6 98 3c 74 64 49 bc ff 09 4c be
       -0.03727878 0.01865688 -0.012292016 -0.19925688
000030 6a e3 23 be b7 6b 70 be a3 a4 19 3e 57 b3 45 be
       -0.1600472 -0.2347859 0.1500421 -0.19306694
000040 08 dd 6c 3e 23 ee d2 3d 34 c0 04 3d 87 38 a5 3d
       0.23131192 0.10299327 0.03240986 0.08067422
000050 5b e6 17 3e cd 63 e3 3d 99 5e 80 3d 6f d7 fd 3d
       0.14833967 0.1110302 0.06268043 0.12394606
000060 72 d6 99 bd 8c 57 ae bd 9b 13 e1 bd 2a d2 2a 3e
       -0.07511605 -0.08512792 -0.109900676 0.16681734
000070 0d 8c 67 be e8 d5 01 bc 0b c8 5c bd a1 1e 9d 3c
       -0.22612019 -0.007924534 -0.053901713 0.019179644
000080 06 fc d8 bb c3 5a 13 be fc ac d9 3b 30 cf 04 bd
       -0.0066218404 -0.14390092 0.006642936 -0.032424152
000090 d1 29 f4 bd 3d d9 8c 3e 96 37 5d bb a3 50 27 3e
       -0.11922038 0.2750949 -0.0033755056 0.16339354
0000a0 b5 ec 86 3d e1 5b 80 3d 04 ad d5 bd 1f b0 28 bd
       0.06588117 0.062675245 -0.10433391 -0.041183587
0000b0 03 01 c4 bd b4 ea 55 be e9 14 99 bd dc 5d 3d 3e
       -0.095705055 -0.20890313 -0.074746914 0.18492836
0000c0 cd 99 1e 3d 12 5e 1a 3e b5 50 2d 3d 97 f4 d8 3d
       0.038720895 0.15074947 0.042313296 0.10593527
0000d0 39 d6 40 3d 1e b9 17 3e e8 c1 36 3e 35 e3 14 3e
       0.0470793 0.1481671 0.17847407 0.14539798
0000e0 ab f3 6b be 79 a6 f2 bd 3f e2 9a bc c3 a7 74 3e
       -0.2304217 -0.118481584 -0.01890671 0.23892121
0000f0 9a 2d 42 3e 11 f3 0a 3d 9d 02 72 3d 59 25 40 3b
       0.18962708 0.033923212 0.059084523 0.0029319136
000100 5f 83 37 3e d1 8c 52 bd 77 06 63 be ee 88 e5 3d
       0.17921208 -0.051403824 -0.22170435 0.11207758
000110 d4 5c ad bc ce 27 d7 bd 11 64 bc bd bf b9 4a bd
       -0.021162428 -0.10505639 -0.09198774 -0.049493548
000120 ac 2a 90 3c ac 54 ba 3d c7 76 01 3e 93 46 66 be
       0.017598473 0.09098181 0.12642966 -0.2248786
000130 a3 b1 c2 3d 12 a5 a0 bd b6 33 32 3d 6c 21 03 be
       0.09506538 -0.07843985 0.043506347 -0.12805718
000140 a7 a4 aa 3e 7e d1 3d 3d 76 6f ed 3d d5 45 1f bd
       0.33328745 0.046342365 0.11593525 -0.038884956
000150 64 a2 69 3d 95 fa 75 3e 71 19 12 3e 9f e1 52 bd
       0.057039633 0.2402137 0.14267518 -0.0514847
000160 8e 2c 82 3d 23 63 cd 3d 1b 99 cb bd b1 15 55 3e
       0.063561544 0.100286745 -0.09941312 0.20809056
000170 16 fc de bd fe 8e d5 bd 29 5f 34 3e 81 3e c4 3d
       -0.10887925 -0.10427664 0.17614426 0.09582234
000180 e8 a3 5a 3d ba b3 37 3e 09 07 3f 3e 47 07 24 be
       0.05337897 0.17939654 0.18655027 -0.16018401
000190 d4 27 b6 bd da db 8b 3e 26 25 b8 bc 56 21 f0 3d
       -0.08894315 0.2731617 -0.022478651 0.11725108
0001a0 14 9d 4f 3c 35 ce 2b 3e 25 8c 43 be 08 dd bc 3c
       0.012671728 0.1677788 -0.1909643 0.023054615
0001b0 35 c4 0b bd fa 71 61 bd a5 ae 07 3b 7e 11 f0 bd
       -0.034122664 -0.055040337 0.0020703461 -0.11722086
0001c0 4e 96 2a bd fb bf a6 bd c2 c7 1e be 54 43 d1 bb
       -0.041647248 -0.08142086 -0.15505889 -0.0063862
0001d0 75 62 e9 bc 1f 25 fb bc cf 98 b1 3d 9a ff 97 3e
       -0.02848933 -0.03065735 0.08671724 0.29687196
0001e0 15 ad eb bd 83 89 23 be dd 0c be bd 0d ce fa 3d
       -0.11507622 -0.15970425 -0.09279797 0.12246332
0001f0 5d 01 4c 3e 0d 0d 92 bc 93 65 d2 3c 92 9e dd 3d
       0.19922395 -0.017828489 0.0256832 0.108212605
000200 69 b0 3f be 6a fb ce 3d 98 d9 2a 3f 24 11 9c be
       -0.18719639 0.10106547 0.6673827 -0.30481827
000210 27 50 20 3d 8b 4a 23 bd 41 e8 03 be a3 87 0d 3e
       0.03913894 -0.03986601 -0.12881567 0.13821273
000220 92 0f f0 bd 4e b0 e5 3d fb 59 19 3d 3d 99 a0 bd
       -0.1172172 0.11215268 0.037439328 -0.07841728
000230 3c 69 3e bb 59 ee 72 bd 5e b1 3b 3e f8 a9 0b be
       -0.0029054424 -0.059309337 0.18329379 -0.13639057
000240 28 2f b3 3d 90 bf c5 3d aa 81 e4 bd e6 87 90 3c
       0.08749229 0.09655678 -0.11157544 0.017642926
000250 1e 2b e0 3d 1d 06 92 3e be cd 2f bd 23 8d 30 bd
       0.10945724 0.2852029 -0.04292082 -0.04310335
000260 db 02 10 3a e5 8d 03 bd f3 56 4d be c8 16 e3 bd
       0.00054935896 -0.032117743 -0.200527 -0.110883296
000270 5f c3 03 be 51 49 85 bc 29 68 3e be fd 78 9d 3d
       -0.12867497 -0.016270312 -0.18594421 0.07689092
000280 ec 61 1c be 8d 16 8f be 94 e5 94 3d e4 c8 60 3e
       -0.15271729 -0.27946892 0.07270351 0.21951634
000290 b9 2c 62 bd cf 95 e5 3d d3 b4 f3 3d 75 b0 d7 3d
       -0.055218432 0.11210214 0.11899724 0.105317034
0002a0 c8 b1 94 bd 41 26 82 bd bc fc d2 bd ff 5e bf bb
       -0.072604716 -0.063549526 -0.103021115 -0.005840182
0002b0 0c d4 41 be ff 3a 10 3d d9 af 02 be 47 cc fe 3d
       -0.18928546 0.035212513 -0.12762393 0.124413066
0002c0 d4 83 21 bd e5 f3 ef 3c c5 45 6a bc e1 55 3f 3e
       -0.03943236 0.029291103 -0.014298861 0.18685104
0002d0 1f 80 2c bd 90 9b cf 3d ba f1 33 3e af 67 73 bd
       -0.042114373 0.10137093 0.1757268 -0.059425052
0002e0 fa 41 1c 3d 58 90 0e 3c 00 4f 70 bd 5a a6 2d 3e
       0.038148858 0.008701406 -0.05866909 0.1695799
0002f0 4d cc 93 3e 13 1c 0b 3e d4 9a 06 3d 2d be d9 3c
       0.28866807 0.13584928 0.0328625 0.02657994
000300 60 6a b7 bd a1 f5 b7 3d 98 86 27 bb ae 9b 9a bd
       -0.08955836 0.08982397 -0.0025562402 -0.07549225
000310 4b 30 1d bd 38 c8 e9 3d 99 ca 33 be 31 6b 8d bc
       -0.038376134 0.11415142 -0.17557754 -0.017263027
000320 a6 e3 38 3d 7b 30 4d 3e a9 3d 09 bd f4 62 9f bd
       0.045138977 0.20038025 -0.03350607 -0.07782546
000330 90 6a 19 3c d5 36 51 be 28 b9 63 bd 65 2c 63 3d
       0.009363785 -0.20431073 -0.0555965 0.05546226
000340 1e fe 8a 3c 0e dd d2 bd c4 5f 09 3d 16 c0 bc 3c
       0.016966876 -0.10296069 0.033538595 0.023040812
000350 94 64 43 bd 63 56 d0 3d 40 da 7f bb 40 ba b0 3c
       -0.04770334 0.10172727 -0.003904 0.021573186
000360 d9 f8 13 3d f4 06 15 bd 0d 99 ac bc 81 66 e0 3d
       0.03612599 -0.036383584 -0.021069074 0.10957051
000370 5e cc 1f be f4 92 b0 bc 62 2b 7c 3d a7 bf f1 3d
       -0.15605304 -0.021554448 0.06156481 0.11804133
000380 43 46 bd bd be 1f 3f be 72 4e 99 3d 81 5d f8 3d
       -0.09241917 -0.18664452 0.074856654 0.121272095
000390 ed ce 87 3a e9 35 5d 3e ef f3 76 3d cf 09 35 3e
       0.0010361351 0.21602596 0.060291227 0.17679523
0003a0 a0 78 39 3d 86 79 b3 3d de 61 d0 bd 61 f2 96 bd
       0.045281053 0.08763413 -0.10174917 -0.07370449
0003b0 20 c6 bf 3b b4 1b ad bd 64 6f 31 be e7 86 99 3d
       0.0058524758 -0.084525496 -0.17327648 0.07496434
0003c0 dd 35 ad 3d 00 8a c1 3c 84 54 24 3c 97 24 14 3c
       0.08457539 0.023625374 0.010029916 0.009041927
0003d0 ec 1c 08 be c0 64 0e 3e ed 2d 19 3e 1b 9e 42 3e
       -0.13292283 0.1390562 0.14958926 0.19005625
0003e0 25 2a c8 bd 29 f5 fa bd af 2d 52 3d 5c ae 01 bd
       -0.097736634 -0.12253792 0.0513131 -0.031660423
0003f0 18 f6 fc 3d 0b 63 0b 3d 61 12 e9 3b e3 1e 65 3e
       0.12351626 0.03403 0.0071127866 0.22375064

bias_ih_l0 f4 [192]
000000 96 ac 9d bd 58 cc 84 be ed d6 ec bd 57 5a 98 bd
       -0.07698934 -0.25937152 -0.11564431 -0.07439106
000010 f5 88 23 bd 07 46 9e bd 6f 6a 3c bd 31 88 43 3d
       -0.039925534 -0.077282004 -0.04599994 0.047737304
000020 66 60 92 be 52 6f 55 be 8e d3 ba bc ad b4 bd 3c
       -0.2858917 -0.20843247 -0.022805955 0.023157442
000030 21 a8 03 bd 47 ec 32 be ad 47 65 bd a7 d3 d8 bc
       -0.032142762 -0.17472945 -0.05597656 -0.026468111
000040 67 ba 2b be 9b f8 07 be e8 7e c8 bd f5 fb 99 3d
       -0.16770326 -0.13278429 -0.097898304 0.0751876
000050 51 4a 01 be 61 3d 53 be a7 e6 c5 3c e0 7e 95 bd
       -0.12626006 -0.20628883 0.024157835 -0.0729959
000060 c4 30 23 3d 79 20 28 bd 46 fb 23 3e e3 25 24 3e
       0.03984143 -0.041046593 0.16013822 0.16030078
000070 ac 9a 9b bd 1b 82 f7 bc d4 fc 3c be 2c d4 c7 bc
       -0.07597861 -0.030213406 -0.18455821 -0.024393164
000080 7e 4f c1 bc 42 7f 95 bd f0 19 9d bc 92 ae 1f bc
       -0.023597475 -0.07299663 -0.019177407 -0.009746211
000090 0c 96 1b be 52 f9 a6 be 04 49 33 3e 7f 8c 12 be
       -0.15193957 -0.3261209 0.17508322 -0.14311408
0000a0 39 1e a4 be 11 46 bc 3d d5 d7 c3 be da df 10 be
       -0.32054308 0.091930516 -0.38250604 -0.14147893
0000b0 e9 2c 78 3d 85 a9 05 be fc e0 9e 3d 6e 76 6e be
       0.060589705 -0.13052948 0.07757756 -0.23287365
0000c0 92 ae 76 be 96 67 b0 3d 3c 60 80 bd 35 dd 42 be
       -0.24090031 0.086135074 -0.06268355 -0.19029696
0000d0 ed b1 82 bc 08 34 8d be 1b 83 a2 be bd 3a 20 3e
       -0.015953982 -0.2757876 -0.3174065 0.15647407
0000e0 17 ea 5e be 58 e4 63 bd 75 9e f9 bd 96 90 0a be
       -0.21768986 -0.055637687 -0.121884264 -0.13531718
0000f0 c9 7d 75 be 97 3d 3a be d8 0a bb 3d b6 98 57 3e
       -0.23973764 -0.18187557 0.09132928 0.21054348
000100 9f 54 1c be b4 13 14 bf 55 81 0b 3e 1c 43 78 bd
       -0.15266655 -0.57842565 0.13623555 -0.060610875
000110 85 75 48 bd 0a d2 9e be 17 18 b7 be 3e 6d ff bd
       -0.0489402 -0.31019622 -0.35760567 -0.12472008
000120 01 3b ef 3d 1c 57 9e be c9 fd e6 3d 4d be 6f be
       0.11681176 -0.30925834 0.112788744 -0.23412438
000130 cb 68 14 3d 30 fb 31 be c1 d3 f9 3e 78 0f 46 bf
       0.03623275 -0.17380977 0.48794368 -0.77367353
000140 e7 bc 1b bf 99 ce 8e bd 41 67 4c be cf 83 40 be
       -0.6083512 -0.06972999 -0.19961263 -0.18800281
000150 7c 90 14 bf 15 9d d7 be ff e6 41 be 7a 82 86 bd
       -0.58032966 -0.42112032 -0.18935774 -0.06567855
000160 c2 a5 b0 3c 76 59 f4 3d 21 50 5c be 75 80 73 3e
       0.021563414 0.11931126 -0.21514942 0.23779471
000170 2f ee 91 bf df c4 a6 be 48 f0 be bc d7 ee f9 be
       -1.1400813 -0.32572076 -0.023307934 -0.48815033
000180 ec 19 fa 3b cf b0 91 be 83 dd 05 bf f0 79 23 be
       0.0076324847 -0.28455207 -0.52291125 -0.15964484
000190 69 85 0d be e4 07 7f be 7b 76 aa 3e b7 42 be be
       -0.13820423 -0.24905354 0.33293518 -0.37160274
0001a0 41 2a 8e 3d 13 27 00 3e 57 ce 0a bf 26 91 c0 be
       0.06941653 0.12514906 -0.542211 -0.3761074
0001b0 cb 60 0c be f6 1a 05 be 36 88 9b bd 11 39 01 bf
       -0.13708799 -0.12998566 -0.075943395 -0.504777
0001c0 1c 5c 19 3f 9a 82 74 be 6b 78 7f be db df 92 3e
       0.5990617 -0.23877946 -0.2494828 0.28686413
0001d0 48 da d2 3d b4 2f 84 3d 1a 61 4c bf 5c 63 a5 3e
       0.1029554 0.06454411 -0.79835665 0.32302368
0001e0 86 e9 75 3d 04 f7 38 3e 9d 75 c2 3d 00 94 10 3e
       0.06003716 0.18062979 0.09495089 0.14118958
0001f0 b1 1f 10 bf 75 a1 c7 be 28 9e 15 3e bb 3c 1d 3e
       -0.5629836 -0.3899037 0.14611113 0.15355198
000200 6b 30 e3 3c 57 9c 8d 3d a3 a6 47 3c 70 c7 03 3d
       0.027733048 0.06914585 0.012185725 0.03217262
000210 d8 3f 1b 3d e4 6c a2 bb ab ba 36 3c 1e 0c db bc
       0.037902683 -0.0049568284 0.011152904 -0.026739176
000220 f7 1b 61 bc f2 ae 98 3c db 83 44 3a 3b 5a 91 bc
       -0.0137395775 0.018638108 0.00074964546 -0.01774322
000230 87 78 d5 3c 94 51 22 bb 68 d0 3e 3d 3c 19 84 3c
       0.026058448 -0.0024767863 0.04658547 0.016125314
000240 7d 95 d1 3c 10 12 c1 3c 3b dc 35 bd b4 b5 6d 3d
       0.025583977 0.023568183 -0.04439948 0.058034614
000250 82 98 c6 3d 38 0f 87 bc 07 9a 1f 3d 53 94 8c 3d
       0.09697057 -0.016486749 0.03896525 0.06864228
000260 86 74 f0 bc df 4f b7 3c 98 72 5d 3d 73 28 a6 3d
       -0.029352438 0.022376953 0.054064363 0.08113184
000270 6e d3 dd 3c ea 60 08 bd 09 38 57 3b 08 f3 21 bd
       0.027078357 -0.03329555 0.0032839796 -0.039538413
000280 d6 97 bb bd 97 16 50 bc bd d3 a5 bd 13 6e 6a 3c
       -0.0915982 -0.012700698 -0.080970265 0.01430847
000290 f4 59 a1 bc a0 58 54 3c f3 58 4c bc cb 70 a8 3d
       -0.019696213 0.012960583 -0.012472379 0.082246386
0002a0 aa 71 8c bb 67 80 04 3d 45 21 6f bc 78 71 82 bd
       -0.0042860107 0.032349017 -0.014595334 -0.06369299
0002b0 18 c4 eb 3c aa 23 09 bd 68 56 b8 3c 0a f9 8f 3c
       0.028780028 -0.033481278 0.02250214 0.017574806
0002c0 e2 ac 7d 3b 19 d9 35 3d 6d 07 db bb 8c 04 04 bc
       0.0038707783 0.044396494 -0.006684235 -0.008057725
0002d0 3f 30 c2 3b c8 ba ad 3a 4f d9 5e bd 2b ca 11 bd
       0.0059261615 0.0013254518 -0.05440646 -0.035593193
0002e0 30 ee fc bc 5b 13 0b bd 22 d3 18 bd 0a 15 91 bc
       -0.030875295 -0.033954006 -0.037310727 -0.017710228
0002f0 1b 20 71 bd a5 78 39 3c 4e 85 89 3d b8 bb 86 3d
       -0.05886851 0.011320268 0.06714879 0.06578773

bias_hh_l0 f4 [192]
000000 e8 81 f6 bd 7a b2 95 bd d6 6f 44 be 11 42 6a bc
       -0.120364964 -0.07309432 -0.19183287 -0.014297978
000010 49 c7 7e bb c6 ca 16 be fa a7 1a 3d 73 5e 7a bd
       -0.0038876107 -0.1472579 0.03775785 -0.06112523
000020 68 79 17 be 3f 8f 59 bd 8d 33 e0 3d 52 55 17 3d
       -0.14792407 -0.053115126 0.109473325 0.036946602
000030 17 6e cf bd 22 09 4a be eb 69 d2 3c 43 a2 81 bc
       -0.1012842 -0.19730046 0.025685271 -0.015824443
000040 3d ba a0 be 3f 13 0e be ca b7 17 3d a2 79 5b 3d
       -0.3139209 -0.1387453 0.03704051 0.053582795
000050 f8 6b a7 bd 9b 1f ab bd 41 e6 19 bd 41 15 4a bd
       -0.0817489 -0.08355638 -0.037573103 -0.049336676
000060 b9 36 83 bd 21 64 6e be 67 ba 10 3e 04 fa 0e 3e
       -0.06406922 -0.23280384 0.14133607 0.13962561
000070 ae c1 d6 bd 8b b5 8d 3d 27 fe 60 be 85 12 d3 bd
       -0.1048616 0.06919392 -0.21971951 -0.10306267
000080 64 88 ab 3d 00 0e 23 be df 07 f8 bd f2 9f 89 bd
       0.08375624 -0.1592331 -0.12110876 -0.0671996
000090 7b 2a 64 be 14 3b 79 be 9d f9 a8 3d de 7f 95 3d
       -0.2228183 -0.24338943 0.08250735 0.07299779
0000a0 38 ac 80 be 9d f7 ce 3d 43 1f 83 be 4d d2 0c be
       -0.25131392 0.10105822 -0.25609788 -0.13752098
0000b0 c8 42 8c 3c 46 1b 12 be e7 0e ec bb c3 a3 28 be
       0.017121688 -0.14268216 -0.007203925 -0.1646872
0000c0 95 7a 1a be f9 7a d1 bc a2 ac 68 bb 10 38 58 be
       -0.15085824 -0.025571333 -0.0035503288 -0.21115136
0000d0 3b 15 13 bc 2d 4c 7c bd 95 a0 8c be 6b 1d a4 3d
       -0.00897723 -0.061596084 -0.27466264 0.080134235
0000e0 12 52 ab 3b 21 6c 28 bb 62 21 de bd e5 d2 02 be
       0.0052282894 -0.0025699215 -0.10846211 -0.12775762
0000f0 94 ff 99 be 12 5d ec bd 05 44 ba bb c2 50 1e 3e
       -0.30077803 -0.11541189 -0.005684378 0.15460494
000100 0c 2b 27 be 16 28 37 bf 71 90 ce 39 49 96 8b be
       -0.16325015 -0.7154554 0.00039399 -0.27263096
000110 24 37 53 be eb b3 c8 be 36 3e 7f be 68 a3 c5 bd
       -0.20626503 -0.39199767 -0.24926075 -0.09650308
000120 18 46 a9 3d 51 e2 b2 be da c1 02 3e 6b c1 f8 bd
       0.082653224 -0.3493829 0.12769261 -0.121462665
000130 5d 46 3c 3e fc 72 13 be ad f0 11 3f 55 1a 21 bf
       0.18386216 -0.14399332 0.5700787 -0.62930804
000140 c7 a8 18 bf e1 a4 10 bd 83 01 ca bd 25 e8 9f be
       -0.59632534 -0.03531349 -0.098635696 -0.312318
000150 82 7e 1b bf 07 91 bc be 67 6b 05 be ca f7 09 bd
       -0.6073991 -0.36829397 -0.13029252 -0.033683576
000160 62 96 d9 bd f1 54 04 3c d5 30 6a be 56 9e 3a 3e
       -0.10624386 0.008076892 -0.2287019 0.18224463
000170 0d 8c 8f bf 4e b3 ad be 6e 49 a0 3a e0 12 06 bf
       -1.1214615 -0.3392586 0.0012228915 -0.5237255
000180 ae c6 00 be 50 9d b2 be f2 a8 0e bf c4 3b 13 bd
       -0.1257579 -0.34885645 -0.5572654 -0.03594567
000190 39 56 ab be dc 06 82 bd 6b 29 6b 3e c7 d4 d7 be
       -0.3346422 -0.063489646 0.22965018 -0.42154524
0001a0 1d d7 4b 3d e9 02 8b 3c 51 be 2a bf 53 f4 d6 be
       0.049765695 0.016969161 -0.6669665 -0.4198328
0001b0 bb 6c 19 be fe e4 82 be 37 f8 3d bc c4 54 f7 be
       -0.14982884 -0.25565332 -0.011594824 -0.4830686
0001c0 5c 91 24 3f 3d 30 d8 bd 00 23 99 be 08 23 13 3e
       0.642843 -0.10556076 -0.29909515 0.14368832
0001d0 d8 e0 97 bd ba e6 8a 3d 22 46 41 bf 1f eb c6 3e
       -0.074159324 0.06782289 -0.7549764 0.38851258
0001e0 72 ba aa bd d6 c0 de 3c 17 ff fc 3c 49 dc 90 3d
       -0.08336343 0.02719156 0.030883355 0.07073266
0001f0 34 02 2b bf 29 a4 f0 be 08 e7 61 3e 98 14 5a 3e
       -0.66800237 -0.47000244 0.22060788 0.21296918
000200 1c 23 f7 bc 81 8d 3b bd 9d 56 8c bb 9b 9b 18 bd
       -0.030168109 -0.045789246 -0.004282786 -0.037257772
000210 85 d2 c6 bb 60 11 52 3d 11 44 c9 bd d6 69 4a 3d
       -0.0060675764 0.0512861 -0.09827436 0.04941734
000220 e0 34 64 3d c4 40 93 39 69 cb 21 bb d7 70 4c 3d
       0.055714488 0.0002808628 -0.0024687892 0.0499123
000230 de bc 8b bd de 70 bc bc 47 c1 d5 bd be 4a a3 3d
       -0.06823133 -0.023003038 -0.10437255 0.0797324
000240 83 a7 1a bd df 05 ab bc 06 5a 53 3d 7e ff e8 bb
       -0.037757408 -0.020876823 0.051599525 -0.007110535
000250 ec 68 f2 bd e8 64 2f bd d3 f1 8f bd af a9 ed bd
       -0.118364185 -0.04282084 -0.07028546 -0.1160463
000260 74 f1 98 3c 97 da 66 bd 13 71 dd bd b1 41 e3 bd
       0.018669821 -0.056360807 -0.10812583 -0.11096514
000270 82 9e 31 bd 7e 3b 73 3d 9a bb 1e bb 8b 9f c4 3d
       -0.043364055 0.059382908 -0.0024220706 0.09600743
000280 14 d3 0a 3e d9 77 04 3d 5e 43 59 bd a7 01 fc bc
       0.13557082 0.032340858 -0.053042762 -0.030762507
000290 86 5c b3 bc a9 56 a8 3c e6 b7 e2 3c 67 5c fb bd
       -0.021894705 0.020549135 0.02767558 -0.12273484
0002a0 15 b0 5f 3c b9 44 6c bd d1 b5 b8 bc 47 32 6b 3d
       0.013652821 -0.057682727 -0.022547634 0.057420995
0002b0 fd 51 68 bd 2b 87 8e 3c c6 73 c5 3b 4b c1 6f 3d
       -0.056718815 0.017398437 0.006025764 0.058533948
0002c0 39 37 b6 3c 00 ff a7 bc c1 58 a6 3c 08 8d be b9
       0.02224313 -0.020507336 0.020305993 -0.000363447
0002d0 29 05 d4 39 0e 97 20 bd c8 3d 0d bd b3 2f b2 3d
       0.00040439636 -0.039206557 -0.034482747 0.08700504
0002e0 e2 bf e1 3c e5 f5 99 3b b9 af ba 3d 73 82 2f 3d
       0.027557317 0.0046985024 0.09115548 0.042849015
0002f0 66 85 e0 bc e3 30 65 bc af a5 e8 bd 38 e7 51 bd
       -0.02740736 -0.013988706 -0.11359727 -0.051245898

weight_ih_l1 f4 [192, 64]
000000 fb 62 d9 bd 46 9a 5f bd bd db 05 bd 35 fc 6d bd
       -0.10614582 -0.054590486 -0.032680262 -0.05810185
000010 09 c9 3f 3d 0c fa f0 bc c6 c7 67 3c dc 17 c6 bd
       0.04682258 -0.029416107 0.014146751 -0.096725196
000020 c0 f8 e3 3d e2 dc 29 3e 04 d4 61 3e bb a0 02 be
       0.1113143 0.16588166 0.22053534 -0.12756626
000030 90 39 3b bd 94 d9 a9 3c 9b 7f c7 3c a3 d0 6f bd
       -0.045709193 0.020733632 0.02435284 -0.05854858
000040 24 c9 37 3c 68 87 13 bd 68 cb 17 b9 5f c3 05 3e
       0.011217389 -0.036017805 -0.00014476257 0.1306281
000050 15 50 91 bd 4a 70 cc 3d 31 44 ba 3c ef 9d c9 bc
       -0.070953526 0.09982355 0.022737594 -0.024611441
000060 67 aa b7 3d 8f 6d 2e 3e 91 0b 6e be 05 4c ff 3d
       0.089680485 0.17033981 -0.232466 0.124656714
000070 ef cf 39 bd 88 61 dd bd 23 fe ca 3d 95 69 46 3e
       -0.045364317 -0.10809618 0.09911754 0.19376214
000080 cf 2f 91 bd aa 53 4a be 7f 5e 38 3e 70 1f 9c bd
       -0.07089197 -0.19758478 0.18004797 -0.07623184
000090 69 fc b3 bd 9c e1 4f 3d de 5f 49 be 80 f5 42 3e
       -0.08788378 0.050752267 -0.19665477 0.19038963
0000a0 f0 57 3f be 73 89 f4 3d 29 6f 31 be d9 2c 13 be
       -0.18685889 0.11940279 -0.1732756 -0.14372577
0000b0 3f f4 c5 bc e4 cf 59 bd aa 42 0a be 67 f5 4e 3d
       -0.024164317 -0.053176776 -0.13501993 0.050527003
0000c0 ee 61 96 bd 6b cc aa 3d e4 aa 7f be e1 b7 db 3a
       -0.07342897 0.08339771 -0.24967533 0.0016763174
0000d0 92 c9 95 bd 2e e5 6a bd b3 71 59 3e ce c7 35 3e
       -0.07313837 -0.05734747 0.21234779 0.17752
0000e0 3a 17 8b 3d 9d fe 0a 3d 7a 61 06 be e2 9b d8 3d
       0.067915395 0.033934224 -0.13123122 0.10576607
0000f0 bb 54 74 3e a7 40 09 be 34 ba 20 3e 7c a0 81 3e
       0.23860447 -0.13403569 0.15696031 0.25317752
000100 19 c8 a7 bc 65 14 05 be 70 86 14 be c8 66 97 bd
       -0.020481156 -0.12996061 -0.14504409 -0.07392651
000110 ab d3 b1 3d 0c ce cb bd b7 48 a3 3d 83 f4 45 3d
       0.086829506 -0.0995141 0.07972854 0.048328888
000120 a6 63 42 be ac f5 59 3b 13 82 d2 3d de 5b 06 bd
       -0.18983325 0.0033258004 0.10278716 -0.032802455
000130 f8 6d 2f 3d d1 62 ed bc 49 39 0c 3e ab 2c 33 be
       0.042829484 -0.028977783 0.13693728 -0.17497508
000140 e6 c2 9f bc bd d9 c6 bd 8b a9 a1 3d 6a a6 e5 bd
       -0.019502115 -0.09709499 0.07893666 -0.112133816
000150 1b 2b 9c bd ec 31 3a 3e 31 fb 9d 3b 21 6b 3c 3d
       -0.07625409 0.18183106 0.004821204 0.046000604
000160 73 2e 9e 3e 5b 58 35 3d 23 a6 4e 3b 89 49 8b 3d
       0.30894813 0.044273715 0.003153213 0.06801135
000170 76 72 a1 bc 2f 69 0d be 5d dd f2 bc 9a d0 9a bd
       -0.0197079 -0.13809656 -0.02964657 -0.07559319
000180 4e da 15 bd e9 f1 fd 3c 09 bd 3b 3e 76 a4 9e 3d
       -0.036585145 0.03099914 0.1833383 0.07746212
000190 61 14 39 bd fb 3f a4 bd c3 ae 8e 3c 60 64 b8 3d
       -0.04518545 -0.08020016 0.017417317 0.0900352
0001a0 b5 ca a0 3d 69 76 d3 3d 59 31 dc bd 00 ef 8e bc
       0.07851163 0.10325319 -0.107516 -0.017447948
0001b0 ab 9e 9f bd 2d 49 f3 3c b0 0a d7 bd 0d f3 a3 bd
       -0.077939354 0.029697979 -0.10500085 -0.08005343
0001c0 fb 44 06 be b0 07 01 be 8a 3e 58 be f8 5b 4c bd
       -0.13112251 -0.12600589 -0.21117607 -0.049892396
0001d0 2c ca b9 3d 18 94 84 3d f1 b1 5c 3d f1 f6 8e 3e
       0.09071764 0.06473559 0.053880636 0.27922776
0001e0 8f cb 0c 3d b8 8d 24 3d 60 9c ab 3d 29 d8 0b 3e
       0.034373816 0.040174216 0.083794355 0.13656677
0001f0 a8 7d bf 3d 62 a8 2b bd 2e 1a 2a 3d 2d c5 f1 bc
       0.09350139 -0.04190863 0.041528873 -0.029512966
000200 32 cf 30 bd 81 a5 a4 3d 22 2e c3 3c 64 11 db 3d
       -0.043166347 0.0803938 0.023825709 0.106966764
000210 32 7c 6b 3c ae 3e 41 3e c7 96 5d be 84 16 8b be
       0.014372872 0.18871567 -0.21639548 -0.27165616
000220 3b 4a 80 bb 2b c2 04 3e 8b ef be bd ed bf 19 bd
       -0.003915099 0.12964694 -0.09323033 -0.03753655
000230 e3 12 22 be e3 87 5a bc cc 02 e1 3d f0 16 34 be
       -0.15827517 -0.013338062 0.109868616 -0.17586875
000240 06 b0 60 3e 29 17 b8 3d a4 e4 19 be ef cb df 3d
       0.21942148 0.089887924 -0.15028626 0.10927569
000250 d8 c9 05 3e 3d c9 89 3e 0c 48 52 3e fe c1 10 3e
       0.13065279 0.26911345 0.20535296 0.14136502
000260 55 14 ed 3c 5d 30 e0 3c 5a b4 cc bd aa fc d8 3d
       0.02894036 0.027366811 -0.09995337 0.10595067
000270 88 70 7a be 4c 57 84 be db 92 26 be 11 8c 0e 3e
       -0.2445699 -0.25847852 -0.16266958 0.13920619
000280 67 7c 44 be 8c 73 04 bd 3b 9c 04 bd 4d 3d 70 bc
       -0.1918808 -0.032336757 -0.032375555 -0.014663053
000290 29 4e 7d be c8 2a 42 3e f7 4b 17 be bd 3e 63 3e
       -0.24736847 0.18961632 -0.14775072 0.22191902
0002a0 77 71 3d be 7c bc e2 3d 3f 6a 4a bd 4b af bd bd
       -0.18500315 0.11071107 -0.04941773 -0.0926195
0002b0 3f e4 c6 bd ab 0f 0d be d7 fa 3c bd b8 e9 33 3e
       -0.09711503 -0.13775508 -0.046137657 0.17569625
0002c0 e6 29 8f 3d 02 e5 00 3e a5 a4 cc bd ad 29 b2 3c
       0.06990413 0.1258736 -0.09992341 0.021748388
0002d0 49 ef 31 be 1f 27 94 bd ca 1d 1f 3e 29 df 6f 3e
       -0.17376436 -0.07234024 0.15538707 0.23424973
0002e0 6e 35 95 bd fc 14 70 be 88 1e 43 be ec f9 6e 3c
       -0.072855815 -0.23445505 -0.19054615 0.014585953
0002f0 bd 40 1a 3d d6 fb 1f be 7c e2 0c 3d 8b ca 0d 3e
       0.037659395 -0.15623412 0.03439568 0.13846795
000300 45 57 0f be c7 69 31 be 42 0b fe bd 31 e4 3d be
       -0.13998134 -0.17325507 -0.12404491 -0.1854408
000310 77 57 8f be 72 6b 36 be b5 2b 89 3e b0 a6 cf 3e
       -0.27996418 -0.17814425 0.26791158 0.4055686
000320 b8 78 20 39 15 9c 55 be f2 64 8c 3c 18 37 30 3e
       0.0001530376 -0.20860322 0.017137978 0.17208517
000330 83 35 ff 3d 82 02 8c 3e ab 96 23 be f7 bc 14 bd
       0.124613784 0.27345663 -0.15975444 -0.036313023
000340 4f f3 52 bd ee fe 37 be 6b 13 58 3e a7 12 31 be
       -0.05150157 -0.17968342 0.21101157 -0.17292272
000350 0a 20 38 be b5 d0 7d 3e ff b9 80 be d8 08 a7 be
       -0.17980972 0.24786647 -0.25141904 -0.32623935
000360 73 89 30 3e bc ab fe 3b db 93 36 3e af 0f 8e bd
       0.17239933 0.007771937 0.1782984 -0.06936585
000370 d2 2a e9 3d e3 43 1b 3e 48 92 31 3e 88 52 f2 bd
       0.113851205 0.15162615 0.17340958 -0.11832148
000380 37 f2 8a 3e ee 7d 85 3d 9a bf b6 bd 6e cc 4e 3e
       0.2713792 0.0651816 -0.08923264 0.20195171
000390 e2 69 59 3e 63 fe 81 be ea 49 7b 3e c1 15 75 be
       0.21231797 -0.25389394 0.24539915 -0.2393408
0003a0 d8 3e 09 be be c0 e4 bd 66 7d 3b 3e 4e bb 44 3d
       -0.13402879 -0.11169575 0.18309554 0.04803019
0003b0 2e a2 53 bd 1b 6c f6 3d a7 44 0c 3d 72 2d a6 bd
       -0.05166834 0.12032338 0.03424516 -0.08114137
0003c0 75 c4 8c 3d 44 8b a7 bd 73 c1 0d 3d 34 4e 22 be
       0.06873409 -0.0818086 0.034608316 -0.15850145
0003d0 16 08 06 bd 72 78 42 bc f0 c6 a4 bd 6c 03 e8 bd
       -0.032722555 -0.011869537 -0.08045757 -0.11328778
0003e0 f4 75 8f 3d f5 a5 1a 3e d1 dc e8 3d 98 c6 28 be
       0.0700492 0.1510237 0.113702424 -0.16482008
0003f0 18 2e 1f be 73 92 1d 3e 2d 91 8e be 19 08 70 bd
       -0.15544927 0.15387897 -0.27845135 -0.058601473

weight_hh_l1 f4 [192, 64]
000000 de e0 27 be 79 23 6b 3d 9f 7e 9d bb 6a 2c 80 3c
       -0.16394374 0.057406876 -0.004806354 0.015646178
000010 0e 63 be bd ea 9f 98 bd 58 dd 0d bd 4b 40 82 bd
       -0.09296237 -0.07452376 -0.034634918 -0.06359919
000020 b2 3c ea 3d 5c ce e9 3d 11 77 0d 3e 48 59 86 bd
       0.11437358 0.11416313 0.13814951 -0.06559998
000030 b6 24 a4 be bd 3c 5c 3d db 63 42 3e b3 26 24 bd
       -0.32059258 0.053768862 0.18983404 -0.04007597
000040 7e 01 f3 3c ee 39 2c be 2b 7b ef bd 7c f3 08 be
       0.029663797 -0.16818973 -0.11693414 -0.13374132
000050 14 42 de bd 76 c8 b3 bd b7 33 c7 3d 8f a5 45 be
       -0.10852447 -0.08778469 0.09726661 -0.19301437
000060 73 5d 11 be f3 70 a3 bd cb 33 a9 3c 48 90 45 3d
       -0.14195804 -0.07980528 0.02065458 0.0482333
000070 60 4d 9a 3c ad aa 87 bd 60 e4 9c 3c 61 a6 d7 bd
       0.018835723 -0.06624351 0.019151866 -0.10529781
000080 7a 27 1f 3e d1 90 27 bd e0 b1 6c 3c ac 11 0f bc
       0.15542403 -0.040909592 0.014446706 -0.008732241
000090 c0 c2 3b bd 35 43 45 bd 12 9e b4 bd b9 7c 3a 3d
       -0.045840025 -0.048159797 -0.08819212 0.0455291
0000a0 be d0 26 bd c3 8e 19 bd 43 e7 13 3e 77 0d c4 3d
       -0.040726416 -0.037489664 0.14443688 0.09572881
0000b0 fb 0a 15 be 24 37 8a 3d 78 ec 64 bd ec 3f 4a 3e
       -0.1455497 0.067487985 -0.055889577 0.19750947
0000c0 6d 8f 00 3d a6 ca 80 be da 3f 7e bd 90 03 3f be
       0.03138678 -0.25154608 -0.062072612 -0.18653703
0000d0 a4 1b 68 3d e7 95 ca bc 7b 67 98 3c 4d ae 27 3e
       0.056666985 -0.024729682 0.01860403 0.16375084
0000e0 d9 a6 8f 3d b1 88 d4 3c 10 39 8b 3d 95 48 ef 3b
       0.070142455 0.025944086 0.06797993 0.0073023536
0000f0 80 55 28 3e de de 49 be a4 29 4c 3c b4 f7 41 be
       0.16438866 -0.19713923 0.0124611 -0.18942147
000100 08 35 41 3e b0 de c9 3e 52 16 3d bc 5a cb 05 3e
       0.18867886 0.3942771 -0.011540966 0.13065854
000110 e1 29 6d be df ae 48 bd e6 c1 96 bd a6 6a 74 3e
       -0.23160507 -0.048994895 -0.07361202 0.23868808
000120 05 97 78 3d 1e 6e 5a be 0f 68 b1 3d 8d 2c 9d 3d
       0.0606909 -0.21331069 0.08662426 0.07674513
000130 37 d4 d8 3c 3d 62 c7 3d a8 b7 e2 3d af 60 76 be
       0.02646838 0.09735534 0.11070186 -0.2406032
000140 de cd 8b 3d 91 42 05 be ec 1d 6f 3e 1c 41 bb 3d
       0.068263754 -0.13013674 0.23351258 0.09143278
000150 a0 01 b9 3d 38 31 00 3d 43 26 51 bc b4 9c 5c be
       0.09033513 0.03129694 -0.01276547 -0.21544152
000160 7b aa 56 be 43 0a 31 3d fa 63 c5 bb b9 7f cb bd
       -0.2096347 0.043222677 -0.006023881 -0.099364705
000170 7b b7 f3 3d ec e0 e4 bd 3c 0d 44 bd 8a 5f bd bd
       0.119002305 -0.11175713 -0.047864184 -0.09246738
000180 28 e0 3b 3e 8e d9 0b be df 8f 15 3d 8e 63 35 3e
       0.18347228 -0.1365721 0.03651416 0.17713758
000190 50 46 51 be 99 f7 13 be 7d c0 ed 3d c3 55 01 3b
       -0.20436978 -0.1444992 0.1160898 0.0019734956
0001a0 3b bc 72 3d 1b 3f 50 be 4c ac 85 bd 6c 7b d8 3d
       0.05926154 -0.20336573 -0.06527004 0.10570416
0001b0 4e d5 97 be c9 5b 15 3e 0b 53 d2 3c 6c fc 5b bc
       -0.29654926 0.14585795 0.025674364 -0.013426881
0001c0 03 74 93 bc 9f d3 03 3d fc d8 81 3d bb ff 72 bd
       -0.017999655 0.03218424 0.063402146 -0.059325915
0001d0 f0 83 e2 3c 84 78 f0 3d 39 b3 82 bd 67 d8 e2 3c
       0.027650803 0.117417365 -0.0638184 0.02769108
0001e0 ee 2e 0b 3e 1e b6 72 3e 7a 89 3a bd 16 8d 61 bd
       0.13592121 0.23702285 -0.045541264 -0.05506619
0001f0 8b 91 f3 bb 86 4c 90 bd a7 ac c1 be db 38 9b bd
       -0.0074331216 -0.07045846 -0.37827036 -0.07579204
000200 c9 a3 81 bc 59 07 ff bc b1 f9 53 be 99 10 47 be
       -0.01582517 -0.031131433 -0.20700718 -0.19439925
000210 1a 70 0b 3e a2 73 2c bd 9f c7 c0 3d cf 9d d8 bd
       0.13616982 -0.042102464 0.09413075 -0.105769746
000220 27 a5 25 bd 1f 98 18 3d 0d b2 37 3b 50 9a 13 3b
       -0.040440705 0.03725445 0.002802971 0.0022522397
000230 89 77 fd bd 4c 80 20 3b b1 38 6e 3d fb 7f af bd
       -0.12376315 0.0024490533 0.058159534 -0.08569332
000240 83 fc 88 bd b9 6f 04 be e3 0f f7 3c a7 0b c4 3d
       -0.06688788 -0.12933244 0.030158943 0.09572535
000250 dc 66 5c ba a5 ed 26 bc e1 36 a6 bd d0 a5 65 bd
       -0.0008407661 -0.010188495 -0.08115936 -0.056066334
000260 a1 f8 f3 bd d9 ab ec bd fc 56 93 bc 9d 06 54 bd
       -0.119126566 -0.11556215 -0.017985813 -0.05176412
000270 b1 f4 8f bd aa 95 a0 3c 7d ae ec bc 21 26 03 3c
       -0.07029093 0.019602615 -0.028891796 0.008004696
000280 92 1c 12 3e b1 7d 3b be b4 ed 0d 3e 5d b2 8d bd
       0.14268711 -0.18309666 0.13860208 -0.06918786
000290 d6 0e a3 bd ae a3 05 3c cb f3 3c be c8 10 45 3e
       -0.07961814 0.0081567 -0.18452375 0.19244683
0002a0 b5 27 5e 3b a0 cd bc bd 93 b4 48 3d e0 64 98 3d
       0.003389818 -0.09218907 0.049000334 0.074411154
0002b0 11 90 11 be 97 fa 91 bd 2e f6 55 3d e3 4f f5 3c
       -0.14215113 -0.07127874 0.05223673 0.02994532
0002c0 21 b2 f8 bd e6 14 21 3e 49 82 30 3c d4 41 cf bc
       -0.121433504 0.15730628 0.01077325 -0.025299944
0002d0 1b 43 43 3e 04 40 81 3d 4c ea 43 bd 74 08 ec 3d
       0.19068567 0.06311038 -0.047830865 0.1152505
0002e0 4e d5 ae bd 96 c3 26 3e 5e e8 98 bd a2 7f 14 3d
       -0.085367784 0.16285548 -0.074661955 0.036254533
0002f0 a4 c8 e0 3d cc ef f3 bc ac 72 65 3e bc ec 88 bd
       0.10975769 -0.02977743 0.22407025 -0.066857785
000300 93 ac e5 3c 0a a2 50 bd c0 9d 97 3d bf f4 48 bf
       0.028036391 -0.050935782 0.07403135 -0.7849845
000310 60 0f 87 3d 35 fd 18 be a4 10 20 bc b3 ed d0 3c
       0.065947294 -0.14940341 -0.009769592 0.025503969
000320 43 3e 15 3e e6 8c 44 bb 68 e5 4a 3e 7d a1 39 3d
       0.14574532 -0.0029991209 0.19814074 0.045320023
000330 ae 20 82 3d 78 6e 86 3d b4 9c 01 3e 93 a8 09 3d
       0.063538894 0.06564039 0.12657434 0.03360803
000340 fe 06 f3 3d 46 f6 3b be e8 a1 d0 3d d9 24 27 be
       0.11866568 -0.18355665 0.10187131 -0.1632265
000350 4a b1 44 bd 9b fa dd 3b 2b b2 06 3d 21 8e ba bd
       -0.04802064 0.0067742593 0.032884758 -0.0910914
000360 e3 59 9c 3d 1a 78 9d bd 00 25 06 3d 31 09 47 3e
       0.07634332 -0.07688923 0.03275013 0.194371
000370 62 95 68 3d 51 35 04 be 03 ed f6 bd 89 78 58 3c
       0.056783088 -0.12910964 -0.12056925 0.013212332
000380 51 f8 fc bd 67 a0 c1 bc a0 32 6e bd d1 37 f1 3d
       -0.1235205 -0.023636056 -0.05815375 0.11778224
000390 69 06 04 be 41 52 65 3d 2a d1 4b 3d a4 01 e2 3d
       -0.1289307 0.055986647 0.04976002 0.11035469
0003a0 c9 06 c5 bd a2 78 18 3d 9f e2 4d 3d a7 47 de 3c
       -0.09620435 0.03722442 0.05026495 0.027133776
0003b0 ae 5b 12 3c fa 6a bd 3b 87 2e c6 bd 11 0e 1c 3d
       0.008932991 0.005780575 -0.09676843 0.038099352
0003c0 3e 7c f0 3d 4f 60 d1 bd 1e 9a c9 bc 16 dd a9 3d
       0.11742447 -0.102234475 -0.024609622 0.08294122
0003d0 2d 54 0b bd 35 09 5e 3e 4a ae 6c bd f4 9f b7 3c
       -0.034015823 0.216832 -0.057783403 0.022415139
0003e0 6b c3 89 3d 14 fc 16 be 68 7d 82 3d 1e 33 fe bd
       0.06726726 -0.14744598 0.063715756 -0.124120936
0003f0 ee 42 ad 3d 93 35 89 b9 81 31 29 bc 7d d5 d7 3c
       0.084600314 -0.00026170592 -0.010326744 0.026346916

bias_ih_l1 f4 [192]
000000 18 37 ab be a9 71 07 be 56 94 59 be 42 82 a3 3d
       -0.3344047 -0.13226952 -0.21247992 0.07983829
000010 31 62 a9 3b a8 2f 20 bd 59 cf 88 bd 22 60 cd bd
       0.005169176 -0.03910795 -0.066801734 -0.100281015
000020 8c 5d b8 bd f6 f2 9b bd d8 1c 1c 3c 66 f2 61 be
       -0.09002218 -0.076147005 0.009528361 -0.22065124
000030 cb 13 48 bc 12 a9 5d bc 8b 44 99 bd 34 c9 4d 3c
       -0.01221175 -0.013529079 -0.07483777 0.012560178
000040 68 55 7d 3d e7 d3 a4 bd 7c f6 44 bd 03 58 e1 bc
       0.061849028 -0.0804823 -0.04808663 -0.027507788
000050 bf e5 11 3d 1d a8 1a bd 05 a0 e3 3d 08 84 b0 3d
       0.035619494 -0.03775798 0.11114506 0.08618933
000060 f1 af 46 bd cb 2d 9d bb 56 b7 e8 bd a3 cc 2c 3e
       -0.048507635 -0.0047967187 -0.113630936 0.16874938
000070 d7 ad e2 3d 89 6c 31 be 34 c9 55 bd 9f 0f ad bd
       0.110683136 -0.17326559 -0.052193835 -0.08450245
000080 7d 3b 0b bf 42 7c 14 3d 7f 24 31 3d 4d 61 e9 bd
       -0.54387647 0.036251314 0.043247696 -0.11395512
000090 b3 51 52 be 34 55 1d 3e 35 72 0f be fb 3d c6 bd
       -0.20538978 0.15364534 -0.1400841 -0.096797906
0000a0 c3 2a 27 ba ff 3a 6a bd c7 94 17 be 95 5c e8 bd
       -0.00063769164 -0.05718517 -0.14802848 -0.113457836
0000b0 c6 18 84 bd cf d2 37 bd 5a f6 70 3c 95 c8 31 3c
       -0.06450038 -0.044878777 0.014707172 0.010851045
0000c0 b3 de 0d 3d 70 e7 b4 bc e7 9d 94 3d f3 0d 66 3b
       0.03463621 -0.022083014 0.0725668 0.003510353
0000d0 18 f7 14 be a1 0f 94 bd 9f 11 0a bd c1 8c c8 bc
       -0.14547384 -0.072295435 -0.03370821 -0.02448118
0000e0 5f c2 4a 3d a1 62 dc bd 0a a6 61 be 27 20 3f 3d
       0.049501773 -0.107609995 -0.22035995 0.046661522
0000f0 81 ab af bd 15 14 46 be 39 f1 7b be ec 54 ac 3d
       -0.08577634 -0.19343598 -0.24603738 0.08414635
000100 99 87 35 be 64 f7 8a be 83 ee 2a be fc 7a 83 3e
       -0.17727508 -0.2714187 -0.16692548 0.25679767
000110 f2 c9 ab bd a8 93 3d 3e a0 39 60 bd 9d a2 ae 3d
       -0.083881274 0.18513358 -0.054742455 0.0852711
000120 dc de 92 be e2 a4 2f be f3 f3 0e be 71 32 72 3d
       -0.28685653 -0.17152742 -0.13960247 0.059130136
000130 b8 01 19 3f ee a1 9e ba 14 8e 83 be 36 3c 72 be
       0.5976825 -0.0012102702 -0.25694335 -0.23655781
000140 b4 a8 06 be cb e4 d8 be b2 37 14 be ab ee c0 3d
       -0.13150293 -0.42362055 -0.14474371 0.09420522
000150 38 c3 28 3e aa e6 d8 be 85 0c 1e be ed d6 ff 3c
       0.1648072 -0.42363483 -0.15434463 0.031230414
000160 c4 20 13 be 07 1b b4 3d 56 11 4b be 27 9b 7e 3e
       -0.14367968 0.087942176 -0.19830832 0.24863873
000170 2d 67 95 bd 0c 34 21 3e 75 7c a2 be f0 68 78 be
       -0.0729507 0.1574251 -0.31735578 -0.2425878
000180 92 13 8e be bf dd be be a7 21 af be da eb f6 3d
       -0.27749306 -0.37278554 -0.34205362 0.12056704
000190 0d 54 e4 be 54 b2 19 3d 4d d5 c0 bd ae 3a 16 3d
       -0.44595376 0.037523583 -0.09415684 0.036677055
0001a0 b7 b6 46 be 18 03 50 be 52 11 dc be b7 8b e4 be
       -0.19405638 -0.2031368 -0.42981964 -0.44637844
0001b0 ed 3c c2 be 22 78 8b 3c 69 57 e1 3d 60 98 1a bf
       -0.37937108 0.017025057 0.11003 -0.60388756
0001c0 a0 4c 2f 3e c6 85 6a 3d 13 ee 37 be 55 4d 4a be
       0.17119074 0.057256483 -0.17961912 -0.19756062
0001d0 9e 9a 57 3d 8c d9 10 3f 6c 96 05 3e 46 dd a3 be
       0.05263769 0.5658195 0.13045663 -0.32004756
0001e0 eb a8 15 be 94 fb ce be 84 b5 17 be 95 9a ba bd
       -0.14615218 -0.40426314 -0.14815336 -0.091115154
0001f0 d9 be af be 24 8c b2 be b2 b5 12 3d c4 e6 7c 3e
       -0.34325293 -0.34872544 0.03581781 0.24697405
000200 b0 57 c5 3b 5e 70 6b 3c 54 2d e6 3c 04 c1 b5 bd
       0.006022416 0.014370052 0.028097786 -0.088747054
000210 51 f7 e9 bb b8 a7 76 3c d4 c2 10 3d 93 a1 a6 3c
       -0.007140078 0.015054636 0.035342053 0.020340716
000220 db 50 ba 3c 5f fa 5e bc 10 8f 09 3d db ea bd 3c
       0.022743633 -0.013609498 0.0335837 0.023183277
000230 63 3e b6 3c 38 4b 05 bd 15 be 48 bd 75 25 b9 3c
       0.022246545 -0.032542437 -0.0490094 0.022600869
000240 2a bb 1a 3d ae 33 d9 3c 75 0a c0 3b cb 28 19 3d
       0.03777615 0.0265139 0.0058606216 0.03739242
000250 a5 a7 cb bc 70 cc 2a bd ab bc 84 bc 1b cf e2 3c
       -0.024860213 -0.041698873 -0.016203245 0.027686646
000260 3e 34 61 bc ce 8a d8 bc 48 4d a1 bc c3 ce 17 3b
       -0.013745366 -0.026433375 -0.01969017 0.002316401
000270 38 20 a2 bd f3 9f b5 3c e9 1c 96 3a b6 9a d9 3c
       -0.079163015 0.022170996 0.0011452708 0.02656303
000280 ba 4d 98 bd 7b 2d 25 3d e4 b0 bb bd 14 26 aa 39
       -0.074367 0.040326577 -0.091645986 0.00032453297
000290 d3 ac d3 3d ed ee 43 3d e7 ea 24 bc 05 9f a1 bc
       0.10335698 0.04783528 -0.010065771 -0.019729147
0002a0 18 c9 91 bd 3b 4c 2b 3c b3 d3 f8 bc 23 f9 c9 3c
       -0.07118434 0.0104551865 -0.030374384 0.02465493
0002b0 39 70 4c 3d e0 02 3f bd 8f 00 67 3d a9 0c 89 bd
       0.04991171 -0.0466336 0.056397017 -0.06691868
0002c0 68 92 56 bd 31 46 a3 bb 10 dd ed bc 6b 34 69 3d
       -0.052385718 -0.0049827327 -0.029036075 0.056934755
0002d0 81 f6 88 3d 16 37 0b 3d 18 38 03 bc 52 43 f7 bc
       0.06687642 0.03398808 -0.008008979 -0.030183468
0002e0 31 e1 94 3c 6b e9 38 bd 3e 52 fa 3c 20 49 88 3d
       0.018173786 -0.04514448 0.030556794 0.066545725
0002f0 56 7a b0 bd 60 4e 13 bb 5e 46 61 3c 7b ed 7b 3d
       -0.08617084 -0.0022477135 0.013749687 0.061505776

bias_hh_l1 f4 [192]
000000 4e 33 a0 be 23 cb 76 be 86 6a c3 bd 0c 76 e4 bd
       -0.31289142 -0.24100928 -0.09541802 -0.11155328
000010 5b ba 09 be 7e c2 7c 3d fd 27 ad bd 8d 81 15 be
       -0.13449995 0.06170892 -0.08454893 -0.14600201
000020 5a 59 ef bd 3b 74 66 bd 50 74 b6 3d 3e 63 b7 bd
       -0.11686964 -0.05626319 0.089089036 -0.08954476
000030 24 22 11 3d a1 10 6a bd 10 40 1b be 3a ee bb bd
       0.03543295 -0.057144765 -0.15161157 -0.091762975
000040 5e fb b4 bd 8d 9f e6 bc 6d e8 32 3d 8f bc f5 3d
       -0.08837007 -0.028152252 0.04367869 0.11998855
000050 f8 9c 25 be a6 08 b1 bd 7c c8 fb 3d ae 8f ce 3d
       -0.1617316 -0.08644228 0.12294099 0.100859985
000060 85 0c 53 3b 6e 8a cd bd 58 90 ca bd 6b 09 27 3d
       0.0032203507 -0.10036169 -0.09890813 0.040780466
000070 f9 87 e9 3d 3f f5 3d be a5 20 8c bd ad 0b ee bd
       0.11402888 -0.18550585 -0.06842164 -0.11623321
000080 40 07 0c bf 18 21 8e bd a9 66 c4 3d f9 aa 1b be
       -0.5469856 -0.06939906 0.09589893 -0.1520194
000090 de b5 98 bb 1e d5 95 bd 3e bc 06 be 2f cf 4d bd
       -0.004660352 -0.073160395 -0.13157746 -0.050246414
0000a0 75 09 24 bd 5d 5d da 3d 54 12 f7 bd 76 77 8d bd
       -0.04004808 0.10662339 -0.12064043 -0.06907551
0000b0 8f 92 b9 3d 1b aa 90 bc 0f dd 3f 3d be 47 e6 3c
       0.09061157 -0.017659238 0.046841677 0.028110381
0000c0 37 de 9d 3d 51 57 25 3b 94 da 31 bc 52 c9 61 3d
       0.077084 0.0025229047 -0.010855336 0.055123635
0000d0 7f 10 65 bd f8 d5 e4 bd 74 93 c5 bc 2c d6 85 3d
       -0.055923935 -0.11173624 -0.024118163 0.06534991
0000e0 28 6a 74 bd 87 7f a6 bd 3e 51 24 bd 2b fc 29 3d
       -0.05967155 -0.08129793 -0.04011654 0.04150025
0000f0 93 fe 14 3d 18 b1 48 be 8f 11 ea bd 71 41 d8 bd
       0.036375593 -0.19598806 -0.1142913 -0.10559357
000100 29 fa 50 be 05 ec 07 be 06 3e 8d be 54 96 e0 3d
       -0.20407929 -0.13273628 -0.27586383 0.10966173
000110 cd 86 29 bd d8 2c 06 3e 64 ce 8c 3d 9e d8 44 3c
       -0.04138832 0.13103044 0.068753034 0.012014536
000120 62 4c 4a be 69 3b 79 3d 17 0e 9e be 57 b4 ca 3d
       -0.197557 0.060847674 -0.30870125 0.09897678
000130 6d 9e 21 3f 98 9d ff bd ba 44 8a be 69 97 a1 be
       0.63132364 -0.124812305 -0.2700556 -0.3156083
000140 69 d7 0a be 4c 3d bc be 9e be 32 be 63 fa 2d bd
       -0.13558735 -0.36765516 -0.17455527 -0.042475116
000150 34 fb 2b 3e cc 87 99 be 16 09 8b be f7 02 57 3e
       0.16795045 -0.29986417 -0.2715537 0.20997225
000160 4a 92 3a be 27 7e f4 3d 23 79 86 bd 90 98 61 3e
       -0.18219867 0.11938124 -0.06566074 0.22030854
000170 9e 37 39 3c cd fa b4 3d df ea a5 be be 82 81 be
       0.011304764 0.08836899 -0.32405755 -0.2529506
000180 a0 da b0 be 1e 2f c2 be 78 7c cd be 77 e4 d8 bc
       -0.34541798 -0.37926573 -0.40134025 -0.026476128
000190 f3 66 09 bf 60 f5 b9 3d 22 94 be bd 55 96 94 3d
       -0.53672713 0.09080005 -0.09305598 0.07255236
0001a0 8f a1 ce be b1 a7 27 be f5 b4 1f bf aa 83 bb be
       -0.40357634 -0.16372563 -0.62385494 -0.3662389
0001b0 37 c8 c8 be 3a 18 9d 3d c9 72 af 3c af 27 0b bf
       -0.39215252 0.076706365 0.021417039 -0.5435743
0001c0 6f bf 61 3e be 3a 0e be fd d4 27 bc 6c 9a 24 be
       0.22045682 -0.13889596 -0.010243651 -0.16074532
0001d0 aa f9 c0 ba ec 7d d3 3e b0 8d 95 3d d0 b0 8f be
       -0.0014722843 0.41307008 0.07302415 -0.28064585
0001e0 29 33 98 be 3b 13 a8 be 30 48 83 be 74 b7 0f bd
       -0.29726532 -0.32827172 -0.25641012 -0.035087064
0001f0 55 54 e8 be 4f 65 bd be 83 62 14 3e 79 74 ad 3e
       -0.4537684 -0.36991355 0.14490704 0.33877924
000200 8e ed 85 3b 98 ae a1 bd 67 e8 d6 3c 37 95 ec 3d
       0.0040871566 -0.07894629 0.026233865 0.11551898
000210 0a 2c ee 3c b1 b5 6a 3d 9c 47 96 bd ff d2 bd bd
       0.029073734 0.05730218 -0.07337877 -0.0926876
000220 9d 35 b7 bd f2 8d ef bc 82 5a 9a bd 7c 40 05 3d
       -0.08945773 -0.02924249 -0.07536794 0.0325322
000230 e8 80 fb 3a 24 d0 8d bc 1c 74 cb 3c b9 40 35 bd
       0.0019188197 -0.017311163 0.024835639 -0.044251177
000240 33 b6 a9 bd 6a 35 89 bc ff 52 1e bc ff 63 72 bd
       -0.08286705 -0.016749103 -0.0096633425 -0.059177395
000250 b6 98 a1 3c bb 64 93 3d 93 7c 7f bd 9c 96 b6 bc
       0.019726139 0.07196947 -0.062374663 -0.022288613
000260 fd 62 ec 3c 31 3c 82 bc 03 2d bd 3d 6d cb 40 3b
       0.028855795 -0.015897842 0.09237101 0.0029418126
000270 ed aa 98 3d 43 2d 6b 3d d4 28 4d 3d 64 1b 0e 3d
       0.074544765 0.05741621 0.050087765 0.03469409
000280 3a c5 96 bc ed b3 bc 3c 84 68 e7 3b e4 6c fb bb
       -0.018404592 0.023035014 0.00706202 -0.007672893
000290 c3 68 20 bb 5d f4 ee bc 7c 40 dd bb 25 a3 04 3d
       -0.0024476505 -0.029169256 -0.006752072 0.03238215
0002a0 bf d9 16 3e 0d 5d 8d 3b f6 c1 75 bd 4b 1a be 3b
       0.14731501 0.004314071 -0.05999943 0.005801474
0002b0 09 b4 5b bd ae 49 d4 3c 50 18 d6 bd 99 91 90 bd
       -0.05363849 0.02591404 -0.10453856 -0.070590205
0002c0 f7 9e b0 3d f7 7d 4f bc 04 27 db 3b e6 31 09 bd
       0.0862407 -0.01266431 0.0066880006 -0.033494852
0002d0 85 23 91 bc 4c e0 82 bd 27 dc d8 bc c9 f6 9d bc
       -0.017717132 -0.063904375 -0.026472164 -0.019282715
0002e0 fa 79 b7 bd 45 98 7f bd a4 b5 5f 3d 19 2a 2e bd
       -0.08958812 -0.062401075 0.054616585 -0.042520616
0002f0 5d 45 67 bd 5e 38 8c 3d 93 b6 2e bd 3d 06 86 bd
       -0.056462634 0.06846689 -0.042654585 -0.065441586
