GRU/models/model_hs=256_layers=1_epochs=10_batch=16.pth (torch, 812731 bytes, 5 tensors)

weight_ih_l0 f4 [768, 5]
00000000: 87ec 1a3d 5e94 49bd 6553 cebd 35e8 6bbe
00000010: 75b3 90bd ab12 c0bc a1f8 85bd 1499 debd
00000020: c940 23be b409 02bd adae c3bd fae9 c0bc
00000030: 3fe7 89bd 6d70 e6bd c9cc 14be 7879 91bd
00000040: 186f 8abd 0410 69bd 8164 dcbd 8411 70be
00000050: 7846 f0bd 121d ccbc 5808 77bd 601c 1b3b
00000060: 74db 64bd 310a 6ebe 54a7 d3bd edf4 99bd
00000070: fecf 9abd 46ba 84bd add1 4fbe 1c6b 11be
00000080: 0e4d 67be bdbc 83be 417b a2bd 53dc cebd
00000090: 3702 7cbd 8907 db3b 52c3 efbd c3ef 0ebe
000000a0: 9604 23bf 4a3d 1cbf 69a9 17bf ae71 19bf
000000b0: 101a c9be 97b0 70bc f18a 3e3d 946d e2bc
000000c0: 5a17 8abc 8353 51bd 15a4 febd 2428 f2bd
000000d0: 1336 babd 9a5f 20be 3668 94be 14ba 503d
000000e0: 5cbe 28bc de21 51bd 2b0f 9ebc cd11 42be
000000f0: bc0b dcbd 411b fdbd f16e 14be 2101 d9bd
00000100: 4255 82be 4e6a e5bc 22ce c7bd 687e 97bd
00000110: ff0b fc3b 4ad8 90bd 4712 33be 8aa7 20be
00000120: 695c 85be dacd 54be 0990 94bd 0d93 36bd
00000130: ece4 11bd 5a99 f1ba d9ee abbd f538 e9bd
00000140: ca54 80bd 69c0 d2bd 70c9 babb 4575 a23c
00000150: a477 1cbe 76e6 6cbd 8b49 f6bd 7f5e edbd
00000160: 5033 febd 681b 0fbc 3708 e0bd 179c 01be
00000170: 9d71 c9bd 9062 e8bd 5ee5 6dbc 7b55 ccbd
00000180: 999f c6bd ef79 53bd 1acb f0bd 7ce0 f7bc
00000190: 770f 12be 7051 92bd 83ad cabd 3756 13be
000001a0: af41 463d a35b 4fbc 5c28 acbd ea12 ffbd
000001b0: 34d4 03be 45b5 56bd e833 68bc 5738 32bd
000001c0: 592f 1fbd b7c0 74bd 0d26 17be 4926 263d
000001d0: 6b83 07bb 39e9 21bd 78b8 50bd 9ace eebd
000001e0: 9541 8a3c 05e5 61bd bb3a 8fbd c882 a5bd
000001f0: d9a7 08be 447b 13be e9ae e1bd 72df 8ebd
00000200: a640 afbd e7fa 75be 4684 40be dfc1 7abe
00000210: 89e6 79be e276 8abe 6ed9 37bd cbd2 a1bd
00000220: 835f 88bd e7b6 29be 78d1 66be 416d 833c
00000230: 5471 5fbe ba85 f8bd ef1d 4ebe d446 0ebe
00000240: 5bdb 33be 4372 1bbe c9f4 80bd 87e9 17be
00000250: 1968 1cbe f2a9 bf3c b1fe eabd b6ba 1cbe
00000260: 037f 0abd 9559 d9bd daca 353c 9b84 c2bd
00000270: 148d 9fbd 28a1 a4bd 5483 26be 9500 36be
00000280: 9bce 80bd fd7c dabc eb7b a1bc 319c abbd
00000290: 2db7 e2bc 2068 12be 6936 d9bd 92ea babd
000002a0: 8401 1cbe 2fd3 d6bc a8c5 e8bd 18d8 d6bd
000002b0: 2071 f0bd a031 21bc abff 673d 4f05 0cbd
000002c0: e1a5 5cbc 7d48 773c 1969 e63c 3c05 0dbe
000002d0: 4605 debe 71f1 f5be 64eb cabe 2c74 cbbe
000002e0: f1f9 b4bf 676f 0bbe e635 23be 12b9 ddbd
000002f0: 7c39 14be 213d d7be 5334 29be a8fa 1abe
00000300: 97d4 0abe d9ff a8bd 38c9 9a3d beca 01bd
00000310: 607b 04be cd9a 15bd 637d 15be 4921 aabd
00000320: e2c5 91bc 6bdd f6bd e5ee 87bd 0b33 99bd
00000330: 4892 47be e80f e0bd 195f 15be ef7e b5bd
00000340: 576f 1dbe 5fbc 71bd 898c 60bd fcdf 64bd
00000350: 7c5b 1e3d 6f30 afbc 930e c13a bbc2 6fbd
00000360: 507b 8ebd 009e f4bd f93f 0cbe 7266 1e3c
00000370: 2e10 c6bc 1573 0b3d 846d 67bd d3e5 5bbd
00000380: 2915 bdbb 452c 5d3d 842a 91bd b1de 65bd
00000390: 4e7f 083d 297b 08bb 8331 66be 85f5 60be
000003a0: 85a6 38be 860a 8ebe 23ff 11be e782 ec3c
000003b0: 11de 1ebd 2f94 edbd 69d3 3abd d799 3abe
000003c0: aced 20be 1d64 01be 78a9 24be 98f1 18be
000003d0: 4664 2bbe 6e0a f2bd 2436 03be 3ba8 04be
000003e0: 171a cfbd c41e 10be 2852 243d 1333 053d
000003f0: 29f0 c93c 47c4 83bc f951 103b a8a0 e4bd
0.037823226 -0.04921376 -0.100745 -0.23037799 -0.07065479 -0.023446402 -0.06541563 -0.10869041
-0.15942682 -0.031747535 -0.09554801 -0.023549069 -0.0673356 -0.11251912 -0.14531244 -0.071032465
-0.06759471 -0.05690004 -0.10761357 -0.23444182 -0.11732191 -0.024916206 -0.06031069 0.0023668036
-0.05587335 -0.23246075 -0.1033465 -0.07517419 -0.075592026 -0.06480841 -0.20294829 -0.14201015
-0.22587988 -0.25729933 -0.07933665 -0.10100617 -0.06152555 0.006684248 -0.11707176 -0.1395865
-0.6367887 -0.6103102 -0.59242874 -0.59939086 -0.39277697 -0.01469054 0.046519224 -0.027640142
-0.016856838 -0.051105034 -0.1243364 -0.118240625 -0.09092345 -0.15661469 -0.28985757 0.050958708
-0.010299291 -0.05105769 -0.019294342 -0.18952103 -0.10744426 -0.12358714 -0.14495446 -0.105959184
-0.25455672 -0.028004792 -0.097561136 -0.07397157 0.0076918597 -0.07072504 -0.17487441 -0.15688911
-0.26047066 -0.20781651 -0.07254035 -0.044573832 -0.035618708 -0.0018432543 -0.08395166 -0.11387817
-0.06266172 -0.102906056 -0.0057002828 0.01983131 -0.15280014 -0.057836972 -0.12025746 -0.11590289
-0.12412131 -0.0087345615 -0.10939067 -0.126572 -0.09836123 -0.11346924 -0.014520017 -0.099772416
-0.096984096 -0.051629957 -0.117574885 -0.03025841 -0.14263712 -0.07144439 -0.09896376 -0.14388357
0.048402485 -0.012656125 -0.084061354 -0.124547794 -0.12873918 -0.052418966 -0.014172532 -0.04351076
-0.038863514 -0.0597541 -0.14760609 0.040563855 -0.0020677696 -0.03952906 -0.050957173 -0.116605
0.016876975 -0.05515005 -0.06993624 -0.08081585 -0.13345279 -0.14402491 -0.110196896 -0.069762126
-0.085572526 -0.24021493 -0.18800458 -0.24488018 -0.24404348 -0.27043825 -0.04488509 -0.07901534
-0.066588424 -0.16573678 -0.22540843 0.016043307 -0.21820575 -0.12134881 -0.20128606 -0.13894206
-0.17564146 -0.15180306 -0.06296689 -0.14835177 -0.15274085 0.023396466 -0.1147436 -0.153056
-0.033812534 -0.106127895 0.011095727 -0.09497949 -0.077905804 -0.080385506 -0.16261035 -0.1777366
-0.06289407 -0.026670927 -0.019712409 -0.083794005 -0.027675236 -0.14297533 -0.10606081 -0.09126772
-0.15234953 -0.026223747 -0.11365825 -0.10490435 -0.11740327 -0.009838492 0.05664031 -0.03418475
-0.013467283 0.015092966 0.028126286 -0.13771528 -0.43363398 -0.48035768 -0.39632714 -0.3973707
-1.4138776 -0.13616715 -0.1593853 -0.10826315 -0.14475054 -0.42038825 -0.16523866 -0.1513468
-0.13557659 -0.08251924 0.07557911 -0.03168749 -0.12937689 -0.036524583 -0.14598612 -0.0830713
-0.017794553 -0.12053951 -0.066373624 -0.07480439 -0.19489396 -0.10940534 -0.14587058 -0.08862101
-0.15374504 -0.059017535 -0.054821525 -0.05587767 0.038661465 -0.0213854 0.0014729075 -0.05853532
-0.06957114 -0.119441986 -0.13696279 0.00966798 -0.024177637 0.034045298 -0.056500927 -0.053685974
-0.0057703448 0.053997297 -0.07088187 -0.05612058 0.033324532 -0.0020825362 -0.22479825 -0.21968658
-0.18032272 -0.27742404 -0.14257483 0.028871013 -0.038785998 -0.116005294 -0.045611773 -0.18222748
-0.15715665 -0.12635846 -0.16080272 -0.1493591 -0.1673747 -0.118183956 -0.12813622 -0.129548
-0.10112398 -0.14074236 0.040117413 0.03251941 0.02465065 -0.016084803 0.0022021516 -0.11163455

weight_hh_l0 f4 [768, 256]
00000000: 9675 e93e d136 dc3d 5ee8 bebc 1a9e 653e
00000010: 8d21 f9bd 8451 5d3d 0061 133e 8d06 aabc
00000020: 97f5 503e f470 5a3d 2a52 473e f371 86bd
00000030: f217 00be b340 e93d 0e98 243e 364a c4bd
00000040: abe6 b3bc 0893 be3c d2c2 a0bc 96bd 9a3d
00000050: 4625 123d 51a2 a7bd dead 083d d93e 223e
00000060: 66e0 fabc c6b4 66bd c287 863c ab30 443e
00000070: 7a37 84bd 2dcc cdbd b8dd 303b f910 84bd
00000080: 83e2 483c 003c abbd ba69 a73c 573b 353d
00000090: fdb1 8b3d 6f3b 32be 701b 293d c778 1ebd
000000a0: 8b99 2d3d dd31 91bc b854 ce3b b449 9a3d
000000b0: 834d b63d 363c 67bc a2e9 44be 46f9 0dbe
000000c0: bc16 f63d 25dc 3abd 01d4 863d f25f b93d
000000d0: 2541 d63d ffce 5c3d 965e d6bd bfaa db3d
000000e0: 5199 e23b cd44 5a3e e8ad 3abd a003 e53d
000000f0: 94ea 03bd e4fd 29bd d9e1 103d c656 f33d
00000100: 3c99 2bbc ea9c 823c 92c5 aabc 5477 62bd
00000110: 2937 563d 8475 bb3d fb41 4bbc c518 203e
00000120: ea04 8cbd 8037 fa3d 9dd9 2e3a 0a05 eabd
00000130: a21b afbc 8352 06be 93bc b6bc 4848 26be
00000140: 74f0 2a3d 3470 c43d 1d7d 2dbd f280 8b3c
00000150: f1e4 6dbd e020 283e 6385 563c 0217 2d3d
00000160: dcc8 c73d 8ebb 673d 1994 cabd 8074 b5bd
00000170: 2150 9cbd 4f83 46bd e383 3c3e 1bc7 cabd
00000180: 90b2 303c 45b0 0d3e 572c 763d e936 4bbd
00000190: a243 95bb 8a16 6d3d b035 34bd e3c1 1bbc
000001a0: 1afb 7abb b492 ffbb ea91 983c 3e64 2c3c
000001b0: bede 1f3d 3aea 71bd ee02 653b 27b8 6b3d
000001c0: bf68 113d d43e 03bb 17e5 e9bc 5136 c0bd
000001d0: 149f 20bc b382 c7bd 2839 35be e745 ad3c
000001e0: fef6 2abd 211b 88bd 966f 31bc bcf5 d23b
000001f0: 5523 ab3d 4b65 25bd 165a b9bd 6e26 263b
00000200: 2c43 a5bd d02d b33b f362 9d3d e75a babd
00000210: a27b bcbc 097d 7d3d a810 2cbe 4ce6 0ebd
00000220: d266 77bd 5028 19be 36a7 103e a20d b33d
00000230: fc02 9e3d c5fa bfbc 6856 46be 255b 98bb
00000240: 178d 513d ec54 1f3e 0138 c4bd f361 a73d
00000250: aab2 c2bd 8a81 fabd b2f6 2e3d 7b77 0e3e
00000260: f3e0 7a3c 1222 983d f0fa 0cbc c298 fb3c
00000270: badf 843c 7b3a 653d 02cf c7bd 9bd7 83bd
00000280: eaf0 c8b9 7fd0 58bd 9888 1bbd 4dbf 133e
00000290: 6dce a2bd e63b a33d 222a 2dbe a55e 443d
000002a0: f042 4ebe 7b9f df3c 323a 273e ba6c c23d
000002b0: 6320 71bd 7fab 56bd 3130 203e bddc 523e
000002c0: 817c b33d 27aa 8e3c 3b9e ee3d a15d a2bd
000002d0: a27d 6fbe eed5 f63c ea6a 39be 467d c63b
000002e0: 01d9 51bc 2cfd bbbc ab73 7c3d f96d 26bd
000002f0: fa2d 8e3d 5ed8 273e 3ec2 133d a2f4 b53d
00000300: 779d 60bd 75af 7bbc 137b 4fbd 6acb 23bd
00000310: 1282 5bbe f41c 82bd acdf 503e 2bbf 6b3d
00000320: 1040 193d 09b8 cdbd 2a91 a0bd b2a1 00bd
00000330: fe47 443d 1a39 943b 984d 0bbd 06df 5dbc
00000340: a652 ed3c a8cd a33c cfe7 0e3e c7e5 91bd
00000350: d8c3 433c 1df8 fbbc 4e85 693d 152f 853d
00000360: e0d9 18be f15a 243d 3590 04bd 405b fd3c
00000370: b2cb c4bd d27d 12be b3a3 d63c 1e47 e4bd
00000380: c8b0 69bd 38e4 8a3d 9a31 86bc 20db 243d
00000390: bc08 4c3e b2a2 44bd 111f 15be 44ef 013d
000003a0: 3c9c 1abe b82d 2fbe b3e2 2cbd 0cbd b1bd
000003b0: 8de6 85bd b927 a83d 503c d3bd 9e23 75bd
000003c0: 2731 543d 9c90 a53d 30f9 083e 488a 97bd
000003d0: a51d a33d b713 fdbd 4f35 403d 148e 0f3b
000003e0: 3044 82bd baef 863c ded7 fa3c fa3d 1a3e
000003f0: 40e2 4a3d 1584 4d3d cd4a ecbd e6b0 cf3d
0.45597523 0.10752643 -0.02330416 0.22423592 -0.121646024 0.054032817 0.14392471 -0.020755077
0.20406185 0.053330377 0.19464937 -0.06564703 -0.12509134 0.113892935 0.1607363 -0.09584467
-0.021960577 0.02326347 -0.019624148 0.07555692 0.035680078 -0.08185256 0.033368938 0.15844287
-0.03062458 -0.056324743 0.016422156 0.1915919 -0.06455894 -0.10048709 0.0026987623 -0.0644855
0.012261036 -0.083610535 0.020436157 0.044246044 0.06821058 -0.17405485 0.041285932 -0.0386894
0.042382758 -0.017723972 0.0062967204 0.07533589 0.08901503 -0.0141134765 -0.19229749 -0.13864622
0.12016055 -0.045620102 0.06583405 0.09051503 0.10461644 0.053908344 -0.104672596 0.107259266
0.0069152494 0.21315308 -0.045576006 0.11182332 -0.032206133 -0.041501895 0.035371635 0.11881785
-0.010473546 0.015943963 -0.020846162 -0.05528958 0.0522987 0.09153274 -0.012405868 0.15634449
-0.06836875 0.12217617 0.000667 -0.114267424 -0.021375481 -0.13117413 -0.022306716 -0.1623851
0.04173322 0.095917135 -0.042355645 0.01702926 -0.058079664 0.16418791 0.013093325 0.04225827
0.09755108 0.05657535 -0.09891529 -0.08860111 -0.07632471 -0.04846507 0.18409686 -0.099012576
0.01078476 0.13836773 0.06010088 -0.049612913 -0.0045551816 0.057882823 -0.043996513 -0.009506675
-0.003829664 -0.007799471 0.018624265 0.0105219465 0.039030783 -0.059061266 0.0034944373 0.05754867
0.035500284 -0.0020026462 -0.028551621 -0.0938536 -0.009803552 -0.09741726 -0.17697585 0.021151496
-0.041739456 -0.066457994 -0.010829827 0.006437985 0.083563484 -0.040379804 -0.09050386 0.0025352496
-0.08069453 0.0054681078 0.07684889 -0.090993695 -0.023008171 0.06188682 -0.16803229 -0.034887597
-0.06040079 -0.14956784 0.14126286 0.08742835 0.07715413 -0.023435006 -0.19368899 -0.004649537
0.051159944 0.15559739 -0.095809944 0.08172979 -0.09506734 -0.12231739 0.042715736 0.13912766
0.015312421 0.074283734 -0.00860475 0.030712489 0.016219962 0.055963974 -0.097562805 -0.06437608
-0.00038326468 -0.052933212 -0.037972063 0.14428444 -0.07949529 0.07970409 -0.16910604 0.047941823
-0.20142722 0.027297726 0.16330793 0.09493394 -0.058868777 -0.052409645 0.15643384 0.20592017
0.087639816 0.01741512 0.11651274 -0.079280145 -0.23387769 0.030131306 -0.1810719 0.006057414
-0.012808085 -0.02294787 0.061633747 -0.04063222 0.06942363 0.16391131 0.036073916 0.08884551
-0.05483767 -0.015361656 -0.050654482 -0.039988913 -0.21436337 -0.063531786 0.20397824 0.05755536
0.03741461 -0.100448675 -0.07840188 -0.031404205 0.04792022 0.0045234086 -0.034009546 -0.013541942
0.028970074 0.019995525 0.13955615 -0.07123905 0.011948548 -0.030757958 0.057011895 0.06503121
-0.14926863 0.04012579 -0.03236409 0.0309273 -0.09609164 -0.14305809 0.026201105 -0.11146377
-0.057053357 0.067818105 -0.016381074 0.040248036 0.19925207 -0.04800672 -0.14562632 0.031722322
-0.15098661 -0.17107284 -0.042208385 -0.08678636 -0.06538115 0.082107015 -0.10314238 -0.05984842
0.051804688 0.08084223 0.13376307 -0.07399422 0.079646386 -0.12357276 0.04692584 0.0021904754
-0.06360662 0.016471732 0.030620512 0.15062705 0.049532175 0.05017479 -0.115377046 0.101411626

bias_ih_l0 f4 [768]
00000000: 2c0d 92bd 26a4 fbbd 48c4 c7be 0a85 a8be
00000010: 58a9 81bc 5884 e3bd a158 79bd 9866 a0bd
00000020: e92e bcbe 8135 e7bd 2a0d 63be 72ac afbd
00000030: 17ee d4bd b9af 893b f358 1bbe eed1 0cbe
00000040: 1917 a0be ce28 d3bc aca1 18be 9d57 4cbd
00000050: 03eb c83b d737 dbbd 7637 1abe 9a17 b3bc
00000060: 0c04 89be bd11 c6be f909 dabd ba4f 05bd
00000070: 8d11 23bf 2e48 8dbc 8696 f9bd 1c20 12be
00000080: 8d91 26be b1f4 3ebd ad61 fdbd f4c8 3dbd
00000090: af37 0fc0 4bd7 dfbe 30d8 75bd 9050 1abd
000000a0: d2b3 85be 6cd9 32bd faa6 c5bd e7af bebb
000000b0: 3722 86bd 5326 c2bd 8819 a0bd eb91 4fbe
000000c0: 4546 70bd 7a8d c5be 0462 b03b bd27 42be
000000d0: 83fb c2bc 6eaa 3dbe d169 acbe 7efd ccbc
000000e0: fc9f 6cbd 5a7c 73bd c225 23bd d5f6 92be
000000f0: 5c67 ab3c c49e 5cbd f097 c4bb 8ba7 62bd
00000100: 74c0 cf3b 0652 efbd 058d 84bd d3e2 febd
00000110: a158 61bd 42a3 2dbe ea7d e9bd ae03 91bd
00000120: 1e2b 03be de11 c7bd 9429 1bbe f66d dabd
00000130: 5b92 05be abfb 19be 14e2 3bbd b616 4dbe
00000140: 0859 9abc 4a3f 9dbd 2d0f 7ebe 283f 80ba
00000150: 3c6d f5bd 3a6b 81be 527d 78bc fd90 54be
00000160: b8d7 90be b210 b9bd c22e 43be 37ba b7bd
00000170: 888e f4bd e9ec 3b3c 0cff 1abd a92e 873b
00000180: f0b0 8dbd 2c81 5b3d 05f3 08be 30c8 8ebd
00000190: e7dc abbd eb2f 2cbe ba5f c7bd c66d 2fbe
000001a0: 1cc4 0cbe 38ae b7bd bc13 fabd 79a1 e0bd
000001b0: 8de5 99bb b005 42bd 339c 94be 8b9a 7bbd
000001c0: 1df4 9cbd 05c2 90be 970d 4bbe 4f17 25be
000001d0: 1193 b9bd 45c3 95be 6e19 0cbd f475 93be
000001e0: f5b9 39be f2a3 6dbd 87ee b43a 9c2c c6bd
000001f0: a9ed 6d3d 45b9 3bbe 3ba3 18be 9f69 97bd
00000200: 3398 bebd cf63 b2bd b64b 19be 50da c6bd
00000210: ca17 5abc ccc8 42be c3d5 e3bc cea1 10be
00000220: d887 b9be eeb6 5bbd 1eeb 86be c0e4 43be
00000230: bdb5 2dbc ea2f b9bd ae44 2dbe cb25 53bd
00000240: 93b6 60bd bc74 33be dcc0 a6bd 7dd4 b0be
00000250: bf7d 073c 8906 52be 1821 bebd 52e1 26be
00000260: fec9 80be 4628 31be 688a 2dbe a722 7d3c
00000270: 2187 463c 794d 8fbd bad1 65be 3530 dcbd
00000280: 869a 01bc dee8 33bb 6a14 5dbe 017c aabe
00000290: 01ed 53be b500 debd 8cbf b8bd 7327 02be
000002a0: ca18 c9bd 2d79 64be 0c9a dcbd c80d 2bbe
000002b0: d3da 6dbd 954d 81be 39cf a7bd 03b0 e8bc
000002c0: 1a52 0f3d 6c27 a6bd 40c9 30bc 5c70 8ebd
000002d0: 7efe cabe e061 3dbe db93 ddbe 44f9 9fbd
000002e0: 88da 88bd f4da a13c 728f 2bbe dd4e 03be
000002f0: 425b 6fbd d00f 35bc 3993 1e3c 7678 f4be
00000300: dd28 10be 517a 25be 2a78 a1bd d956 2abd
00000310: 3474 e2bf c4df 6cbd fe26 d2bd d26c 35bd
00000320: d0d8 8bbd c8b7 7abe c1c7 01bf 0ecc 173b
00000330: 56f3 42be 8ffc bdbd 1016 03bf a69c e7bd
00000340: 3638 4abe 296d a4be d3bf c3bc 6550 8abc
00000350: e8f4 25bc 4781 e7bc fa72 d5bd 13bc c33c
00000360: 0688 5dbf 5cd5 b4bd 6054 ccbe d940 dfbc
00000370: fbd8 54bc 9b0c 0fbd d187 8fbd 29ad b0be
00000380: d696 56bc 3e82 bdbd d3d6 a0be 83aa febb
00000390: a86c c8bd cb98 e9bd a41b 14bf 6e0d f5bc
000003a0: d5ac e4bd 0614 27bf f6ba 1bbe 1ca4 1abd
000003b0: ace7 9fbe c5c4 83bd 0ce7 c2be e3a3 febe
000003c0: 926c e8bc bd4c fcbd b098 e0bd a391 4abe
000003d0: 8c8d 30be ec69 413d 0b6c b8b8 3872 3cbd
000003e0: a697 11be 98a9 4dbe 31aa 49bd 5aec 99be
000003f0: bddf 043d 1f6c 45be 8d36 08bf 8ed4 94be
-0.071314186 -0.12287168 -0.39016938 -0.32914 -0.01582782 -0.11109227 -0.06087554 -0.07832068
-0.3675454 -0.11289502 -0.2217299 -0.08577813 -0.103969745 0.004201856 -0.1517065 -0.13751957
-0.31267622 -0.025776293 -0.14905423 -0.049888242 0.006131531 -0.1070401 -0.15060219 -0.02186184
-0.267609 -0.38685408 -0.106464334 -0.032546736 -0.63698655 -0.017246332 -0.12186913 -0.14270061
-0.1626646 -0.046620075 -0.12372146 -0.046334222 -2.2377737 -0.43718943 -0.060020626 -0.037674487
-0.26113755 -0.04366438 -0.09650989 -0.005819309 -0.06549495 -0.09479966 -0.0781737 -0.20270507
-0.058660764 -0.385845 0.005382778 -0.18960471 -0.02380157 -0.18522045 -0.33674482 -0.025023218
-0.05776976 -0.059444763 -0.03983093 -0.28703943 0.020923309 -0.05386235 -0.0059995577 -0.055335563
0.006340081 -0.116855666 -0.0647221 -0.12445607 -0.055016164 -0.16956809 -0.11400969 -0.0708078
-0.12809417 -0.09720205 -0.1515258 -0.10665505 -0.13044111 -0.1503741 -0.0458699 -0.20028195
-0.018841282 -0.07678087 -0.24810477 -0.0009784447 -0.119837254 -0.2527712 -0.015166597 -0.20758434
-0.2828958 -0.090363875 -0.19060805 -0.089710645 -0.11941248 0.011470058 -0.037840888 0.0041254354
-0.06918514 0.053589985 -0.13373955 -0.069717765 -0.08391743 -0.16815154 -0.09735055 -0.17131719
-0.13746685 -0.089687765 -0.12210795 -0.109682985 -0.004696554 -0.047368705 -0.2902542 -0.06142668
-0.076637484 -0.28273025 -0.19829403 -0.16122173 -0.09061254 -0.2925054 -0.03420394 -0.2880093
-0.18137343 -0.05801768 0.0013803997 -0.09676477 0.05808798 -0.18332393 -0.14906017 -0.073931925
-0.093063734 -0.08710443 -0.14970288 -0.097096086 -0.013311336 -0.1902191 -0.02781189 -0.14124224
-0.36236453 -0.053641252 -0.26351255 -0.1913023 -0.010602412 -0.09042342 -0.1692073 -0.051549714
-0.054861616 -0.17525 -0.08142254 -0.34537116 0.008269726 -0.20510305 -0.09283656 -0.1629689
-0.25154108 -0.1730052 -0.16947329 0.015450156 0.012117178 -0.069971986 -0.22443286 -0.10751382
-0.007910376 -0.0027452032 -0.21589819 -0.33297732 -0.20695879 -0.108399786 -0.0902091 -0.12710361
-0.09819181 -0.2231185 -0.107715696 -0.16704476 -0.058070015 -0.25254503 -0.081938215 -0.028404241
0.034990408 -0.08112988 -0.010790169 -0.069550246 -0.39647287 -0.18494368 -0.43276867 -0.078112155
-0.066823065 0.019757725 -0.16753939 -0.12823053 -0.05843664 -0.011051133 0.009678655 -0.47748154
-0.14078088 -0.16159941 -0.078842476 -0.04158673 -1.7691712 -0.057830587 -0.102613434 -0.044293232
-0.06828463 -0.2448417 -0.50695425 0.0023162398 -0.19038138 -0.09276687 -0.5120554 -0.11309175
-0.19748005 -0.32114533 -0.02389518 -0.016884038 -0.010129191 -0.028259886 -0.10422321 0.023893392
-0.8653568 -0.088297576 -0.39908123 -0.027252601 -0.012991185 -0.03492413 -0.07008327 -0.3450711
-0.0130974855 -0.09253357 -0.31413898 -0.0077717914 -0.097863495 -0.11406096 -0.57854676 -0.02991363
-0.111657776 -0.6526493 -0.15208039 -0.037754163 -0.3123144 -0.06434015 -0.380669 -0.4973441
-0.028372083 -0.12319324 -0.10966623 -0.19782118 -0.17241496 0.047220156 -8.793928e-05 -0.046007365
-0.14218006 -0.20084226 -0.049234573 -0.30063134 0.032439936 -0.19279526 -0.5320824 -0.29068416

bias_hh_l0 f4 [768]
00000000: abaa 14be 8a3a 29bd 58dd e9be d87c ccbe
00000010: 9c5c 2fbd 978a bdbd 44f1 6bbd cbb2 9dbd
00000020: 4c31 eabe 406d 8dbc 84e8 50be ae84 41bd
00000030: 9d74 bcbd f5a9 af37 d5ec f8bd 7964 10be
00000040: ac2d 89be 66d6 09bd 970a 0fbe b6c5 c43c
00000050: 40c3 b5bd 7584 48bd 4eee 8ebd 28ad 77bd
00000060: 617f 34be fe4b d5be 3ea8 d6bd 0887 babc
00000070: 1b4d 1abf 14ea 46bd d8ff 5fbe b2ea 24be
00000080: 32f9 b4bd 38dd 87bd 8d7b 95bd 20b8 a3bd
00000090: 0021 11c0 e8ae e0be d208 e1bd 542d b63c
000000a0: cf79 8ebe 6028 97bd b225 80bd 5bce 21bd
000000b0: 81e1 54bd 8167 edbc ef2c 11be cb83 22be
000000c0: 5ec9 bcbd 57fc f1be c854 6e3c dfa1 8abe
000000d0: d173 b0bd 26f1 10be afe5 9dbe 814c 2bbd
000000e0: 05d9 1abd 20f9 a9bc b711 b9bd c257 b7be
000000f0: a229 acbd c125 e7bc 0a98 86bb 5fd2 91bd
00000100: ed27 24bd fba5 4abe d452 edbc 8a5c ddbd
00000110: b4da 30be 80e0 4ebe a3e0 f5bd 0338 17bd
00000120: b0a8 b8bd 2908 1fbe ec98 c3bd 9fd8 0abe
00000130: fb72 8abd 37ff 23be 7adb 953c 8a18 b7bd
00000140: 5924 3e3a c2a5 75bd a954 87be d185 c4bd
00000150: ca3a 10be 67a9 9fbe 43df b8bc 74e7 22be
00000160: afbc 61be 56e6 a1bd 5fec 9bbd 9c54 a8bd
00000170: 35f3 e4bd 8a33 173c 4897 97bd 508a bfba
00000180: c566 e9bd 9a54 ba3b 7454 a7bd ded7 a5ba
00000190: 261c ddbd 6ecd 5dbe 8f4c 7ebc e175 e6bd
000001a0: e046 4bbe 5e94 ebba f71a 68be d325 15be
000001b0: 31eb c7bd 0ea3 38bd aa87 5abe 0a12 52bd
000001c0: 9e28 0ebe 4906 88be 0caf 53be 825a 02be
000001d0: abf4 1ebe aee2 81be 0105 f4bd 3d1e 9abe
000001e0: 32fd 3bbe 214f 9f3c da2b 893c ef66 32bc
000001f0: bd35 423c 5989 d7bd ad10 18be 7d50 f4bd
00000200: b09b 24bd 662b 08bc 10a3 2fbe 9c74 f9bd
00000210: df3e 51bc 25c3 7cbe b254 31bd 529c fdbd
00000220: 24dc b9be d363 2d3d 64ee 75be 3473 49be
00000230: 43bf 87bd 4c59 523c a8f5 4dbe 3f9a 573d
00000240: dcfe a7bd fe43 0abe 9ab0 3ebd ac55 95be
00000250: c23c eabb 46f1 1fbe cb33 f5bd 4956 20be
00000260: da00 90be dd41 50be b97f 8ebd 0a02 a2bd
00000270: c1a1 d3bd ecfe 5ebc dcbb 1dbe 2c20 aebd
00000280: d0b9 3bbd 048a fdbc 6a90 1bbe 7441 80be
00000290: db77 90be 496d 00be f344 0abe adc5 08be
000002a0: 1aaf d3bd 86b8 74be e6c5 babd 3bf3 1abe
000002b0: 71d4 afbd 3290 9ebe 68c9 4bbd 4b9a 81bd
000002c0: 7094 c3bc dea2 90bc 70b4 3c3b 2db6 35bd
000002d0: 344f c4be af43 e0bd 27b2 e3be 4ab9 01be
000002e0: 5901 1abe 1219 02bd dff7 2ebe 29bf 84bd
000002f0: c5e7 a2bd 6dac 5c3d 9c2a f3bc fded e6be
00000300: 0f31 dcbd 533e eabd 7715 06be c21d bebd
00000310: d85f dfbf eb22 ecbd d108 c7bb 6a3c 263d
00000320: db31 b4bd 505f 8abe 0858 dfbe 1588 86bd
00000330: 9913 8dbe cd41 82bd 63af ddbe 7e3f 3bbd
00000340: db66 f1bd 3990 a6be 4d25 c3bc 9042 b5bc
00000350: f7f2 78bd fec8 f3bd e62f 46be 9e9e acbc
00000360: cf44 53bf 5437 cfbd fb80 bebe f560 e3bc
00000370: b1e7 5dbd 17e1 a2bd f995 11bd b473 8ebe
00000380: 08ad adbd a510 05be 0811 abbe bc2b b53c
00000390: 0f6c efbd c9ca a2bd 90cb 21bf 483d 27bd
000003a0: 9546 dbbd 6e82 1fbf 235f 20be 4a81 c0bd
000003b0: a705 93be 39cb 44bd d275 c6be a6d3 00bf
000003c0: e81c 6abd 2935 e1bd bd22 13be b074 28be
000003d0: 9921 d6bd 0a9e 5dbd ec62 8dbd 5d63 cebd
000003e0: 6fb0 51be 08ea 36be 82ce 4ebd a303 9bbe
000003f0: a4af 133d a658 5dbe 1932 04bf 8c80 4ebe
-0.1451823 -0.041315593 -0.45676684 -0.39938998 -0.04281293 -0.092549495 -0.057603136 -0.07700118
-0.45740736 -0.017264009 -0.20401198 -0.047245674 -0.0920193 2.0940768e-05 -0.12154547 -0.14100827
-0.26792657 -0.033651732 -0.13968883 0.024020057 -0.088751316 -0.048954446 -0.06979047 -0.06046787
-0.17626716 -0.4165954 -0.104813084 -0.022769466 -0.60273904 -0.048563078 -0.2187494 -0.16105154
-0.08836593 -0.06633991 -0.07298956 -0.079941034 -2.2676392 -0.43883443 -0.109880105 0.022238411
-0.27827308 -0.07380748 -0.0625719 -0.039503437 -0.05197287 -0.028980019 -0.14177297 -0.15870588
-0.09218095 -0.47262833 0.014546581 -0.27076623 -0.0861584 -0.14154491 -0.30839297 -0.041821007
-0.037804622 -0.020748675 -0.09036582 -0.3580914 -0.08406378 -0.028216245 -0.00410748 -0.07120203
-0.04007714 -0.19789879 -0.02897016 -0.10808666 -0.17270929 -0.20202827 -0.12005737 -0.03691865
-0.090165496 -0.15530457 -0.09550652 -0.13559197 -0.06760212 -0.16015325 0.018293131 -0.08940227
0.0007253341 -0.059972532 -0.26431778 -0.09595836 -0.14084926 -0.3118393 -0.022567397 -0.15908605
-0.22044633 -0.07905261 -0.076134436 -0.08219263 -0.111792006 0.009228596 -0.074019015 -0.0014613364
-0.11396555 0.005686355 -0.08170405 -0.0012652834 -0.107963845 -0.21660396 -0.015521183 -0.11252952
-0.19851255 -0.0017973294 -0.22666536 -0.1456521 -0.09761656 -0.045077376 -0.21340814 -0.051286735
-0.13882682 -0.26567295 -0.20672244 -0.12729838 -0.15523021 -0.25368255 -0.11915017 -0.30101195
-0.18358305 0.019446911 0.016744543 -0.010888799 0.0118536325 -0.10524244 -0.14850111 -0.119294144
-0.040187538 -0.008311128 -0.17152047 -0.121804446 -0.012771337 -0.24683817 -0.043293662 -0.12383331
-0.36300766 0.042331528 -0.2401672 -0.19672853 -0.06628277 0.012838673 -0.20113242 0.052637335
-0.082029074 -0.135025 -0.04655514 -0.29166925 -0.007148356 -0.15619382 -0.11972769 -0.15657915
-0.2812565 -0.20337625 -0.06957955 -0.07910545 -0.103335865 -0.013610583 -0.15403694 -0.0850223
-0.0458315 -0.0309496 -0.15191808 -0.25049937 -0.28216442 -0.12541689 -0.13502865 -0.13356657
-0.10336132 -0.23898515 -0.091197774 -0.15131848 -0.08585442 -0.30969387 -0.049752623 -0.06328257
-0.023874491 -0.017655786 0.0028794073 -0.04436319 -0.38341677 -0.109504096 -0.44471857 -0.12668338
-0.15039577 -0.03176219 -0.17086743 -0.064817734 -0.07954363 0.053875376 -0.029683404 -0.45103446
-0.10751545 -0.11437669 -0.13094126 -0.092830196 -1.7451124 -0.115300976 -0.006074049 0.04058496
-0.08798572 -0.27025843 -0.4362185 -0.06568924 -0.27554014 -0.06360207 -0.43297872 -0.045714848
-0.11787196 -0.32531908 -0.023821497 -0.022126466 -0.060778584 -0.119035706 -0.1935421 -0.021071728
-0.8252687 -0.10117975 -0.3720778 -0.027756194 -0.054176036 -0.07953089 -0.035543416 -0.2782265
-0.08480269 -0.1299463 -0.3341143 0.02211558 -0.116905324 -0.079488344 -0.63201237 -0.040829927
-0.10706822 -0.62308395 -0.15661292 -0.0939966 -0.2871525 -0.04804537 -0.38761765 -0.5032295
-0.057156473 -0.109964676 -0.1436872 -0.16450763 -0.10455627 -0.054105796 -0.069036335 -0.10077546
-0.2047746 -0.17862713 -0.05048991 -0.30276212 0.036056176 -0.21615848 -0.5163894 -0.20166224

weight f4 [1, 256]
00000000: a2a3 033d 3414 7f3c 5050 6dbc 7af7 91bd
00000010: 4786 0b3c 16b1 60bc cdf5 b7bc 90ae c4bb
00000020: 81ba 9fbd 8acd 8bba f96d 6fbd 91db 843c
00000030: 2e99 f73b aa71 32bc cdf6 84bd 6ebd e738
00000040: 1532 9a3c 0de1 bebb 93cd cb3b c527 883b
00000050: ae34 a8bb a197 c13b 7d29 94bb 41ef 31bc
00000060: 284e 273c a8dd 833c 4080 d8bc d18e f3bc
00000070: 95f0 98bc e98d b83b 659c 573c 2cf0 6a3a
00000080: e78a a43b 3d81 caba ca71 ebbb 01d5 21bc
00000090: eb65 13be 3891 b23d 8d27 81bc 02cb 623a
000000a0: 1cf2 d53b 26b4 03bc 18c8 a83a 7c4f f8bb
000000b0: 7e64 37ba 19bc aab9 4997 e73c 661b ad3c
000000c0: 305b 2ebc 9180 1c3d 03b3 27bc 9ef2 ecbc
000000d0: f70e 92bc 2e14 2dbc 123d 023d 281c b13b
000000e0: 1275 d7bb 0ce1 08bd b513 743c d22f 9ebc
000000f0: 9b1d 06bc 45a3 8b3c 73c6 28bb a97e 50bc
00000100: a1e6 8bbc 3d74 3cbc f5a4 c4bb 6516 25bc
00000110: 2fba 99bb c1ab 81bb 12f2 0cbb 2971 bb3b
00000120: 4c29 8a3b f4da 1bbc 921a 97bb 639a 9ebb
00000130: f24f 53bc cd62 823c 29dc 69bc b116 503c
00000140: ed11 7dbb b188 2cbb 4bbc 863c 7eb4 fb3b
00000150: e9a0 b63c 1c62 37bd fc2f 663a e860 853a
00000160: 6c5f 3abc 7936 8f3b 11d6 e33c 9284 673c
00000170: bfb8 4d3c 5f8d 02bc 2d92 08bd ce60 803a
00000180: 8b6a 333b de0b b139 25eb efbb 2019 e13b
00000190: b7fc 40bc 3c45 88bc 37c0 233c 2e22 7dbc
000001a0: 4483 f03b 756c c3b8 0f2a 24bc 9643 17bc
000001b0: a9a6 0f3c 05c9 b1bb d595 01bc 5f11 b2bc
000001c0: 12a6 e53a f303 363c a421 f5ba 2412 5dbb
000001d0: ec1b 7abc f267 123d 2680 343c 9888 08bc
000001e0: ceb9 6d3c cad7 933c ac0f b93a ab4e 013c
000001f0: d011 d7bb d93f c13c 88b9 823d 8ee7 c23a
00000200: 7a70 efba 9079 4fba fb83 a9bd 82f0 47bb
00000210: 6098 363b 1f26 5b3c 7fec 093c 4031 863c
00000220: f1e1 21bc 86c8 c33c 7e80 fb3a 1755 c5bc
00000230: 701f 06bc 4a74 babc b686 413c b1a9 2fbc
00000240: d77e 65bc 94ce 11bd 2b6f 7e3d aed6 9dbc
00000250: cc08 b43b 164b cebc 0eb0 15bb 53e2 cebc
00000260: b669 97bc 0f41 92bd bc18 65bb 92f6 a7bb
00000270: fb92 43bc 6f48 9ebb 42d8 743c 5bfd d2ba
00000280: 7930 153c c53a 40b9 e4bc 753b f28a 6bbc
00000290: e3ba b73c 444a 00bc 8ee5 d73d ed23 06bb
000002a0: e537 b23c 8f2a bbbb 809c d7bc 58bb 88bb
000002b0: 40ed 543c 1eb8 073c 15e7 56bd ed98 93bd
000002c0: 690e 07bc 92c7 6fbb 0f61 68bb 3f4b da3b
000002d0: ce04 c43c 20be 63bc 90a2 613d e3e2 a63b
000002e0: b268 ad39 39ca 633b 96b9 43bb 1aa7 9fbb
000002f0: 027c bdbb 9653 d9bb 55d8 6239 8557 1abd
00000300: 04b4 e8ba 07bd dd3c d902 083c f28d 14bb
00000310: 9193 9e3d 7e6e 0c3d 79e8 14bd 2bab f63b
00000320: 2af2 ddbb ffb5 d03b b5eb 7c3c bae1 653c
00000330: 4b8d 8dbc e8d2 7d39 459e 353d ed5b 05bb
00000340: 3ef7 c5bb e8e9 d7ba 1b70 253a 60a2 8ebb
00000350: 2db9 83ba f4d0 e3bb cb2d fbba 5c38 5f3a
00000360: 9cde e43d 0eb2 02bc 6a83 9e3c 0358 0fbc
00000370: ad3a 213c e3db 2e3c ff33 e5bb 6ad2 693c
00000380: 6e4f 0dbc b5a6 0ebd ef00 c43c 0bc8 8f3b
00000390: d5b8 33bd 04cd ce3b 8bf6 cf3d 40af 193b
000003a0: d52e 873d 69cb 9c3d 3286 ffbb a33f d03c
000003b0: 0c60 79bb d0be cfbb 395e be3d cd23 de3d
000003c0: 5988 19bb 6345 f1bb 90d8 96bc fd42 2e3c
000003d0: b65d af3a 65cb 1f3c 2c2a cdbb 31a6 803b
000003e0: b124 383d 9716 83bc 311e 7cbb bec0 84bd
000003f0: 671f 1cbb 5158 843c cb49 e03c d21d a1bc
0.032138474 0.015568782 -0.01448448 -0.071272805 0.008515901 -0.013714096 -0.022456074 -0.006002255
-0.07799245 -0.0010666114 -0.058454487 0.016217979 0.0075561022 -0.010891357 -0.06492386 0.000110502224
0.01882271 -0.005825168 0.0062195747 0.0041551315 -0.005133233 0.005907968 -0.0045215474 -0.010860265
0.010211505 0.016096905 -0.026428342 -0.029731186 -0.018669406 0.0056321514 0.013159846 0.000896218
0.0050214413 -0.0015449893 -0.0071851956 -0.009877444 -0.14394347 0.087191045 -0.01576593 0.00086514663
0.006529106 -0.008038556 0.0012877015 -0.0075778347 -0.00069958705 -0.0003256507 0.02827038 0.021131229
-0.010641858 0.038208548 -0.010235551 -0.028924283 -0.017829401 -0.010563893 0.031796522 0.005404968
-0.006575235 -0.033417746 0.014897277 -0.019309912 -0.008185769 0.017045626 -0.002575305 -0.012725511
-0.017077746 -0.011502323 -0.0060011097 -0.01007614 -0.0046913843 -0.0039572422 -0.002150659 0.005720277
0.0042163488 -0.009512652 -0.0046113217 -0.0048401817 -0.012897478 0.015916253 -0.014273682 0.012700723
-0.003861542 -0.0026326592 0.016447207 0.0076814285 0.022293525 -0.0447713 0.0008780954 0.0010175975
-0.011375289 0.0043705073 0.027812036 0.014130728 0.012556254 -0.007968276 -0.03334253 0.0009794475
0.0027376737 0.00033768913 -0.0073217326 0.00686945 -0.011779002 -0.016634576 0.009994558 -0.015450044
0.007339867 -9.318526e-05 -0.010019793 -0.009232422 0.008767762 -0.0054255747 -0.007909258 -0.021736799
0.0017520806 0.01110934 -0.0018702042 -0.0033732736 -0.015265446 0.03574366 0.011016881 -0.008333348
0.014509631 0.018047232 0.001411905 0.007892291 -0.0065634027 0.023590015 0.063830435 0.0014870034
-0.0018267774 -0.00079145376 -0.082771264 -0.0030508344 0.0027861819 0.013375788 0.0084182015 0.016380906
-0.009880529 0.023899328 0.0019188074 -0.024088426 -0.008186206 -0.02276053 0.011811903 -0.01072161
-0.014007292 -0.0355974 0.062117737 -0.019267406 0.0054942127 -0.025182288 -0.0022840532 -0.025254404
-0.018483024 -0.07141315 -0.003495737 -0.005125829 -0.011936898 -0.004830412 0.014944138 -0.0016097234
0.009105795 -0.0001833244 0.003749662 -0.014376389 0.022427982 -0.007830206 0.10541831 -0.002046819
0.021755168 -0.0057118605 -0.026319742 -0.0041727237 0.012996018 0.008283643 -0.05246647 -0.07206903
-0.008243182 -0.003658746 -0.0035458242 0.006661802 0.023928072 -0.01390031 0.055086672 0.005092965
0.00033075135 0.0034757985 -0.0029865257 -0.004872215 -0.005782605 -0.0066322787 0.0002163363 -0.03768112
-0.0017753844 0.027067674 0.00830146 -0.0022667614 0.0774299 0.03428506 -0.036354516 0.007527729
-0.006773253 0.006369352 0.015437056 0.014030868 -0.017279288 0.00024206529 0.04434039 -0.0020348981
-0.0060414365 -0.0016472908 0.00063109555 -0.0043528527 -0.0010049694 -0.0069523994 -0.0019163428 0.0008515173
0.11175272 -0.007977022 0.019349772 -0.008749011 0.00984065 0.010672542 -0.006994724 0.014271358
-0.008624895 -0.034826953 0.023926226 0.0043878607 -0.04387744 0.006311061 0.10154446 0.0023450404
0.066007294 0.07655985 -0.0077979797 0.02542097 -0.0038051633 -0.0063398853 0.09295315 0.10846672
-0.0023427217 -0.007363008 -0.018413812 0.010636088 0.0013379368 0.009753083 -0.006261131 0.0039260616
0.044956867 -0.016001983 -0.0038470144 -0.06482075 -0.0023822428 0.016155394 0.027378937 -0.01966754
