GRU/models/model_hs=128_layers=1_epochs=10_batch=16.pth (torch, 211643 bytes, 5 tensors)

weight_ih_l0 f4 [384, 5]
0.07708959 0.03588967 0.018127741 0.058297157 -0.205887 -0.25851324 -0.122305624 0.037979543
0.043126106 -0.0349843 -0.04165792 -0.14656727 -0.16615845 -0.1024308 -0.12928812 -0.1104729
-0.062305875 -0.10184978 -0.11621469 0.030236946 -0.0063012405 -0.056315374 -0.0032383695 -0.08111778
-0.06181864 0.030955976 0.05876893 -0.05894409 0.010818046 -0.26311266 -0.029792575 -0.15479115
-0.040078767 -0.1298388 0.13529995 -0.124681816 -0.25726798 -0.14288315 -0.2021286 0.0003691993
-0.029627599 -0.04837299 0.027150337 0.038560227 -0.23142724 0.15606505 0.09917627 0.10141017
0.14627387 -0.03270012 0.15648517 0.08018218 0.040523395 0.03239588 -0.19252716 -0.14138478
-0.12820542 -0.032033473 -0.07737669 0.05713988 -0.05547055 -0.049198505 -0.100642756 -0.17424077
-0.18428089 -0.015098465 -0.091202274 -0.1301524 -0.07944863 -0.02152726 -0.08216754 -0.08041989
-0.01811755 -0.09585743 -0.16790958 0.11016027 0.10867184 0.02472877 0.008580679 -0.09054314
-0.04038136 -0.15573783 -0.041239645 -0.18176524 -0.050921693 -0.052784283 -0.09385148 -0.10296433
-0.17668901 -0.052940283 -0.065063015 -0.107510045 -0.045893244 0.03840981 -0.086474605 -0.24282204
-0.19843058 -0.14767799 -0.19593234 0.020353766 -0.078168444 -0.028061878 -0.049883537 -0.16568981
0.054209206 0.22030665 0.07244266 0.03824843 -0.043142755 -0.08058917 -0.112594955 -0.17820162
-0.2540372 -0.21253492 -0.035117168 0.060218018 0.079782665 0.03157354 0.024833445 -0.10195187
0.0047287373 -0.07908983 -0.03842907 0.00351084 0.011016828 0.08366994 -0.069083415 0.07816293
0.01861795 0.055990443 0.0058698123 -0.07684241 -0.04318767 -0.14280093 -1.3685017 0.08075438
-0.036015175 0.12852497 -0.0382782 -0.22228737 -0.099060714 -0.10157769 -0.019068126 -0.010936644
-0.2795212 -0.028465826 -0.08755678 -0.13116013 0.0039278246 -0.13290012 -0.07079877 -0.061058264
0.038661376 -0.10052107 0.017955294 -0.07045673 -0.114875704 -0.04055613 -0.12258594 -0.1531926
-0.084392056 -0.15743206 -0.17930722 -0.138027 -0.088561244 0.069387585 0.026328623 -0.0508402
-0.07671864 -0.12470396 -0.07354287 -0.1289426 0.005621095 0.14734201 -0.23490351 -0.03484835
0.04253472 0.095963776 0.015371617 -0.12177801 0.017800981 -0.08766081 -0.064687416 -0.044797093
-0.013244934 -0.08902638 -0.08137854 -0.092747375 0.08154762 0.004547909 0.0088694235 0.033157993
0.11942076 0.13221648 -0.04713297 -0.05331349 -0.06752956 0.05379054 -0.035720564 8.0998645e-05
0.062145907 -0.04569814 0.06572533 -0.010795729 -0.07761688 -0.14240073 -0.01598846 -0.0844833
-0.018929116 -0.14322941 0.16170357 0.11833785 0.1768693 0.12606925 0.13959055 -0.018348526
-0.09846805 -0.056480087 -0.0663481 -0.11593616 -0.0788473 -0.041652676 -0.009903099 0.07222466
-0.0703006 -0.02981094 -0.06527649 -0.024284799 0.0036915832 0.08195571 0.03747346 0.03483953
0.024960743 1.1808219e-05 0.015637878 -0.15145479 -0.07963442 -0.1503508 -0.044359908 -0.0008116221
-0.21787614 -0.14534196 -0.0920799 0.025067847 -0.07091773 -0.08578391 -0.12722275 -0.059603572
-0.1172986 -0.12883998 -0.031834647 0.052554958 0.051934727 -0.06968078 -0.14300689 -0.041032
00000000: 26e1 9d3d 0c01 133d a180 943c 00c9 6e3d
00000010: 0bd4 52be d95b 84be 5f7b fabd 7090 1b3d
00000020: 00a5 303d b34b 0fbd 7fa1 2abd bb15 16be
00000030: 7125 2abe 3dc7 d1bd 1b64 04be 9e3f e2bd
00000040: 7234 7fbd 9e96 d0bd f801 eebd 79b3 f73c
00000050: a37a cebb f3aa 66bd d33a 54bb 1421 a6bd
00000060: 8b35 7dbd 6397 fd3c b1b7 703d 5c6f 71bd
00000070: 2c3e 313c b4b6 86be 8f0f f4bc 9281 1ebe
00000080: a229 24bd 76f4 04be 128c 0a3e 2e59 ffbd
00000090: a1b8 83be f64f 12be cdfa 4ebe 1791 c139
000000a0: 94b5 f2bc c222 46bd 626a de3c 54f1 1d3d
000000b0: 43fb 6cbe 84cf 1f3e ee1c cb3d 23b0 cf3d
000000c0: d1c8 153e 90f0 05bd a63d 203e 8e36 a43d
000000d0: dcfb 253d 8bb1 043d d725 45be 2cc7 10be
000000e0: 4848 03be 8835 03bd ac77 9ebd 820b 6a3d
000000f0: 1635 63bd 5f84 49bd ca1d cebd 2c6c 32be
00000100: 21b4 3cbe 8d5f 77bc 42c8 babd ac46 05be
00000110: f7b5 a2bd f059 b0bc 7547 a8bd 2fb3 a4bd
00000120: 426b 94bc e650 c4bd 7df0 2bbe b59b e13d
00000130: 578f de3d fd93 ca3c fa95 0c3c af6e b9bd
00000140: ed66 25bd bd79 1fbe e7ea 28bd ab20 3abe
00000150: 4493 50bd 5534 58bd 3435 c0bd f6de d2bd
00000160: f7ed 34be e9d7 58bd c23f 85bd 3a2e dcbd
00000170: 8efa 3bbd 9b53 1d3d 9919 b1bd 57a6 78be
00000180: 6331 4bbe e638 17be 7da2 48be f1bc a63c
00000190: c716 a0bd 06e2 e5bc ae52 4cbd 97aa 29be
000001a0: 790a 5e3d 1198 613e d15c 943d 63aa 1c3d
000001b0: 75b6 30bd ef0b a5bd 2f98 e6bd 7c7a 36be
000001c0: 2a11 82be c1a2 59be 05d7 0fbd 2ba7 763d
000001d0: 1865 a33d 4253 013d 826f cb3c 24cc d0bd
000001e0: 86f3 9a3b d9f9 a1bd cd67 1dbd 1f16 663b
000001f0: ed7f 343c 255b ab3d 9b7b 8dbd e313 a03d
00000200: ac84 983c 3c56 653d 8e57 c03b 8e5f 9dbd
00000210: 8ee5 30bd 683a 12be 102b afbf 8d62 a53d
00000220: a684 13bd 0d9c 033e 9ac9 1cbd 4d9f 63be
00000230: 58e0 cabd f707 d0bd c234 9cbc 9c2f 33bc
00000240: 671d 8fbe 2a31 e9bc f850 b3bd d74e 06be
00000250: fbb4 803b f816 08be f2fe 90bd 3b18 7abd
00000260: 645b 1e3d fedd cdbd fb16 933c 9e4b 90bd
00000270: f443 ebbd 2f1e 26bd 560e fbbd 85de 1cbe
00000280: bed5 acbd df35 21be 509c 37be f356 0dbe
00000290: 995f b5bd 141b 8e3d 20af d73c d03d 50bd
000002a0: aa1e 9dbd ca64 ffbd a59d 96bd 8709 04be
000002b0: 2a31 b83b d3e0 163e 8c8a 70be 25bd 0ebd
000002c0: e338 2e3d a888 c43d 3cd9 7b3c c066 f9bd
000002d0: 5dd3 913c 8387 b3bd d67a 84bd 287d 37bd
000002e0: 4801 59bc 7653 b6bd cba9 a6bd 56f2 bdbd
000002f0: 7002 a73d a006 953b 0f51 113c add0 073d
00000300: df92 f43d c263 073e 800e 41bd 3f5f 5abd
00000310: f04c 8abd 7853 5c3d ba4f 12bd d1dd a938
00000320: b58c 7e3d f92d 3bbd 009b 863d 92e0 30bc
00000330: 99f5 9ebd 7fd1 11be 3bfa 82bc 9505 adbd
00000340: 3c11 9bbc bbaa 12be 9f95 253e 1d5b f23d
00000350: 3a1d 353e 4c18 013e d3f0 0e3e a64f 96bc
00000360: 9ea9 c9bd aa57 67bd 83e1 87bd f06f edbd
00000370: b17a a1bd ff9b 2abd 9c40 22bc 86ea 933d
00000380: c3f9 8fbd 1336 f4bc aeaf 85bd eaf0 c6bc
00000390: 7dee 713b 65d8 a73d c57d 193d e5b3 0e3d
000003a0: 797a cc3c ea1b 4637 021b 803c f716 1bbe
000003b0: 5f17 a3bd 8ff5 19be bcb2 35bd 0ac3 54ba
000003c0: ec1a 5fbe 86d4 14be 6394 bcbd 165b cd3c
000003d0: 513d 91bd 79af afbd ae46 02be e022 74bd
000003e0: 403a f0bd a1ee 03be 0c65 02bd de43 573d
000003f0: 82b9 543d ccb4 8ebd 6670 12be 2c11 28bd

weight_hh_l0 f4 [384, 128]
-0.23808002 0.03744745 -0.0040692855 0.018290233 0.006688178 -0.019538108 -0.036035307 -0.03635044
-0.096258715 -0.033233996 0.05705618 -0.03118084 -0.08603646 0.03362246 0.0131213935 -0.0137126995
0.118989445 0.04482411 0.14108656 -0.047524553 0.045631483 -0.0042779753 -0.078907296 0.040605932
-0.08649297 0.039559234 -0.03181332 -0.087823085 0.017811859 0.029894968 0.10107865 0.12364051
0.012237313 -0.06675932 -0.13765067 -0.0012779159 0.00244124 0.058362063 0.26339218 -0.10952178
-0.0649299 0.090551116 -0.12254439 -0.10361418 -0.15784448 0.09494164 0.035054024 0.11506714
-0.11520777 -0.08206794 -0.09075768 0.025177915 0.07383015 0.05299721 0.044458523 0.0921891
-0.06657237 0.10955485 0.017278748 -0.09352425 -0.0020527914 0.068203114 0.09059633 0.07543185
-0.045677595 -0.120726846 0.025976086 0.048978113 -0.064629145 0.12860942 -0.20187773 -0.03474318
0.08002197 0.009178073 0.103749886 0.02377002 0.13642731 0.043194667 0.0509598 -0.060873717
0.0072316127 0.07323039 -0.0418572 0.05905406 0.05032854 0.07587249 -0.004796436 -0.017599635
-0.041116048 -0.033109535 0.0028316756 -0.0050998083 0.0133292815 -0.09492908 -0.08058334 0.048327815
0.1039916 0.021556305 -0.17415589 -0.09783294 -0.16143359 -0.020457612 -0.080392204 0.10796399
0.056549933 0.029803999 -0.10044255 0.28491986 -0.027371485 0.0059295543 -0.045315277 0.018965814
0.057567276 -0.16743948 0.06507996 0.08578914 -0.13535555 0.12068091 0.17015277 0.044505496
0.122472785 0.0057622464 -0.018455049 0.08915687 0.10467347 -0.01786318 0.023673363 -0.12578815
0.023474092 -0.5900599 0.09038172 -0.060530093 0.046748728 -0.034042414 -0.029348116 0.049573362
-0.08813283 -0.17043102 -0.067724794 -0.17065808 -0.05329575 -0.23263533 -0.09032786 -0.0963757
-0.07542994 0.11994196 0.02156323 -0.08185424 0.034211364 0.18192881 -0.1087883 0.18353526
0.16962406 0.11962779 -0.14688237 -0.2903721 0.17627487 -0.047282677 0.2532736 0.02329775
-0.0772724 -0.1474346 0.36127454 -0.1105466 -0.31835148 -0.12756199 0.22541103 0.0009644135
-0.22206163 0.26815736 -0.06588261 0.005039471 -0.22543178 0.1264202 0.09280153 -0.052736454
0.025239049 -0.050189756 -0.10752486 0.07116625 -0.030884942 0.18511355 -0.07140244 -0.021319719
0.038554415 0.25648516 0.24125035 -0.07570123 -0.16085972 0.07596236 0.15443854 -0.040610615
0.36676222 0.09142496 0.047645282 -0.013186782 -0.14758162 0.10220992 0.05283064 -0.055454925
0.085919686 -0.12590387 0.011676054 -0.11138808 -0.24570984 -0.11830087 0.07023308 -0.25242174
-0.12406113 -0.029832825 0.21248338 0.014002567 0.09782052 0.008152241 0.13036689 0.1384579
0.2004785 0.09215631 -0.009394443 0.03969002 -0.13539541 0.08856011 -0.0065305633 -0.13301234
0.20629464 0.016645601 -0.0066276053 0.010288645 -0.25706038 0.20925617 0.021753985 0.03863674
-0.1626984 -0.060660057 -0.11590182 0.03848132 -0.07271025 0.12624171 -0.11206493 -0.034651414
-0.04057047 -0.16965362 -0.025211135 -0.19638145 0.16511218 0.033826143 0.16874115 -0.04401306
0.1979897 0.07988261 -0.015175176 0.17309603 -0.105893925 -0.045666937 0.111458026 -0.13990454
00000000: 40cb 73be 7f62 193d a457 85bb 66d5 953c
00000010: 8128 db3b 620e a0bc c299 13bd 33e4 14bd
00000020: 4a23 c5bd 5f20 08bd beb3 693d f66e ffbc
00000030: e233 b0bd b4b7 093d 1dfb 563c 3bab 60bc
00000040: bdb0 f33d 7c99 373d ff78 103e 1ba9 42bd
00000050: 14e8 3a3d 422e 8cbb 269a a1bd 6852 263d
00000060: 3a23 b1bd dd08 223d af4e 02bd 97dc b3bd
00000070: 2dea 913c 4be6 f43c 5302 cf3d 3c37 fd3d
00000080: 037f 483c 1cb9 88bd 4cf4 0cbe be7f a7ba
00000090: 36fd 1f3b 0f0d 6f3d 57db 863e f44c e0bd
000000a0: f8f9 84bd dd72 b93d 8ef8 fabd ac33 d4bd
000000b0: fca1 21be c370 c23d cf94 0f3d 52a8 eb3d
000000c0: 0df2 ebbd 3c13 a8bd 2adf b9bd ea41 ce3c
000000d0: 4334 973d 9a13 593d 241a 363d a4cd bc3d
000000e0: 1857 88bd 4b5e e03d 298c 8d3c a489 bfbd
000000f0: 2088 06bb 13ae 8b3d 928a b93d 047c 9a3d
00000100: 6e18 3bbd a33f f7bd cdcb d43c 469d 483d
00000110: 495c 84bd 30b2 033e 09b9 4ebe dd4e 0ebd
00000120: 8fe2 a33d a15f 163c d27a d43d 58b9 c23c
00000130: 9ab3 0b3e e4ec 303d 39bb 503d b856 79bd
00000140: 2af7 ec3b d1f9 953d 7572 2bbd ace2 713d
00000150: 4d25 4e3d 0963 9b3d 6c2b 9dbb 1c2d 90bc
00000160: 4d69 28bd dd9d 07bd a293 393b 4b1c a7bb
00000170: 0f63 5a3c 2d6a c2bd e108 a5bd 63f3 453d
00000180: 8cf9 d43d d996 b03c ec55 32be a35c c8bd
00000190: d94e 25be b996 a7bc aba4 a4bd 391c dd3d
000001a0: e7a0 673d 8427 f43c d3b4 cdbd 04e1 913e
000001b0: 2a3a e0bc b54c c23b 839c 39bd 325e 9b3c
000001c0: aacb 6b3d 4175 2bbe a448 853d 37b2 af3d
000001d0: a59a 0abe 8e27 f73d 873c 2e3e 654b 363d
000001e0: 03d3 fa3d 3ad1 bc3b 0b2f 97bc e197 b63d
000001f0: 0b5f d63d ce55 92bc a4ee c13c 9cce 00be
00000200: bd4c c03c 2a0e 17bf 0d1a b93d 67ee 77bd
00000210: 987b 3f3d 0f70 0bbd 766b f0bc 700d 4b3d
00000220: fc7e b4bd 7885 2ebe 4cb3 8abd fec0 2ebe
00000230: a54c 5abd f537 6ebe d0fd b8bd 9f60 c5bd
00000240: 037b 9abd 21a4 f53d 5fa5 b03c 32a3 a7bd
00000250: 3721 0c3d 8c4b 3a3e 66cc debd abf0 3b3e
00000260: eeb1 2d3e 6aff f43d 5568 16be a7ab 94be
00000270: 6681 343e 7bab 41bd 14ad 813e ecda be3c
00000280: fe40 9ebd 19f9 16be faf8 b83e 4166 e2bd
00000290: f7fe a2be 9c9f 02be 26d2 663e b2d0 7c3a
000002a0: 2064 63be ec4b 893e 76ed 86bd 2622 a53b
000002b0: 97d7 66be 4c74 013e bb0e be3d 2e02 58bd
000002c0: 1fc2 ce3c c693 4dbd fe35 dcbd 9cbf 913d
000002d0: 6b02 fdbc 688e 3d3e 713b 92bd b1a6 aebc
000002e0: 3ceb 1d3d 0652 833e 550a 773e 3f09 9bbd
000002f0: 69b8 24be 2792 9b3d 2325 1e3e 5157 26bd
00000300: 42c8 bb3e 023d bb3d b327 433d 5f0d 58bc
00000310: a31f 17be 6f53 d13d f164 583d b424 63bd
00000320: a9f6 af3d f2ec 00be ec4c 3f3c 6f1f e4bd
00000330: 5c9b 7bbe ba47 f2bd 5cd6 8f3d 6c3d 81be
00000340: c313 febd f863 f4bc 3e95 593e 066b 653c
00000350: 2056 c83d fa90 053c e67e 053e e8c7 0d3e
00000360: 3c4a 4d3e 73bc bc3d 26eb 19bc 0192 223d
00000370: 18a5 0abe 015f b53d 56fe d5bb 6334 08be
00000380: e73e 533e 5b5c 883c 622c d9bb b491 283c
00000390: 6b9d 83be 4047 563e 6a35 b23c 8f41 1e3d
000003a0: 699a 26be ae76 78bd ef5d edbd 979e 1d3d
000003b0: 1de9 94bd 8245 013e 4c82 e5bd a4ee 0dbd
000003c0: 392d 26bd aeb9 2dbe 9587 cebc 3818 49be
000003d0: 2b13 293e 488d 0a3d 7bca 2c3e 0a47 34bd
000003e0: d0bd 4a3e 7e99 a33d 4da1 78bc 1640 313e
000003f0: eade d8bd 410d 3bbd 1b44 e43d 2343 0fbe

bias_ih_l0 f4 [384]
-0.0868818 -0.06629956 -0.08061531 0.03335417 -0.2042507 -0.25778195 0.052616037 -0.056372236
-0.1495402 -0.036385547 -0.089378744 -0.024692208 -0.18877038 -0.078743 -0.3291659 -0.1962441
-0.0026424273 -0.14551921 -0.14116886 -0.044115145 -0.008750272 -0.060880605 0.00079318834 -0.31133637
-0.11785195 0.023884052 -1.1904472 -0.19921649 -0.09032042 -0.014577269 0.021643383 -0.12559162
-0.09422266 -0.12709641 -0.36941242 -0.07814192 0.061509892 -0.045990832 -0.008195628 -0.12518108
0.06540371 -0.022516644 -0.01124502 -0.043871325 -0.4030562 -0.13434562 -0.28441313 0.06777516
-0.1962104 -0.044936776 -0.040551875 -0.056203734 -0.1119062 -0.047278807 -0.099775076 -0.36950666
-0.10086464 0.022548491 -0.18928923 -0.01445519 -0.26976177 -0.029701317 -0.15492679 -0.109581
-0.08192216 -0.12115501 0.027986659 0.023148857 0.018612048 -0.01648346 -0.1650755 0.013758624
-0.15059738 -0.009046487 -0.06283057 0.046637107 -0.07946712 -0.05506711 -0.15492536 0.049155563
-0.0015956387 -0.20214123 -0.043786135 -0.44696823 -0.016122095 -0.14597815 -0.12905939 -0.11953688
-0.14601783 -0.19304948 0.030156655 -0.021632472 -0.18925054 -0.09428655 -0.22888154 -0.19936913
-0.051683642 -0.065091565 -0.02671531 -0.04941554 -0.0584316 -0.117029324 -0.13414426 -0.06851257
-0.011855673 -0.07354359 -0.032341957 -0.22131398 -0.031964067 -0.036364064 -0.06339967 -0.20141101
-0.053221676 -0.047258202 -0.043652672 -0.11684435 -0.029676262 0.025393324 0.0037073442 -0.41808408
-0.0211791 -0.22365297 -0.13945036 0.044675864 -0.09324901 -0.010555074 -0.22604598 -0.2432627
0.3267857 0.105576344 -0.21095885 -0.21031167 0.148758 -0.5205848 0.27469242 -0.65839833
-0.74193746 -0.0663116 -0.51334274 -0.05057115 -0.2281326 -0.16766012 -0.13610828 -0.6879507
0.004882432 0.10016138 0.13751954 -0.34050313 0.07753425 0.116474494 -0.10342495 0.115931995
0.15918764 0.12735604 -0.41482466 0.49568355 0.18180612 -0.11738225 0.15284036 0.23275432
-0.7133754 0.10618633 0.16956472 -0.41477016 0.0018065628 0.12971099 0.5226774 0.6025967
0.13610373 0.0012253722 0.16768306 0.38366005 0.11531904 -0.16466269 0.07486871 0.06150919
-0.10989657 0.15073876 -0.3899529 -0.23432653 -0.0114697255 0.23000218 0.37186176 -0.5108788
-0.1156176 -0.07274293 -0.036867693 -0.40005767 0.08075707 -0.016171081 -0.08830002 0.24306588
0.03007743 -0.21895929 0.20202053 0.026114095 -0.05489571 0.048540846 0.11554343 0.20632815
-0.28404942 0.16172528 -0.4333641 0.12128316 0.18681484 0.23542485 -0.4619612 0.03488011
-0.26951694 -0.49603605 0.5731514 0.296838 0.09880909 0.32730618 -0.1513828 -0.037244275
0.16312459 -0.31540063 -0.31421092 -0.20756197 -0.12342784 0.17042078 0.05275444 0.139838
0.007098275 -0.17128728 0.14387225 0.04410565 -0.13637923 0.0194373 0.17317471 -0.34729192
0.18652797 0.23684788 0.068643205 0.036284093 -0.2871819 0.06999908 0.01440466 -0.23259607
0.33962053 0.088064276 -0.43605727 0.16200121 0.15604942 0.116967164 -0.015683973 -0.26999545
0.12139395 -0.4164547 -0.10331598 0.15541945 -0.012139006 -0.4770496 -0.55131173 -0.28283554
00000000: 16ef b1bd 10c8 87bd a419 a5bd 629e 083d
00000010: 1827 51be fffb 83be ea83 573d 93e6 66bd
00000020: 1121 19be 0309 15bd 340c b7bd 5047 cabc
00000030: 064d 41be 0344 a1bd 6f88 a8be 37f4 48be
00000040: 932c 2dbb fd02 15be 928e 10be 15b2 34bd
00000050: 4d5d 0fbc f15d 79bd f8ed 4f3a 7b67 9fbe
00000060: 5d5c f1bd 7da8 c33c 9360 98bf 68ff 4bbe
00000070: eaf9 b8bd 7fd5 6ebc 774d b13c 179b 00be
00000080: cff7 c0bd 9025 02be a023 bdbe df08 a0bd
00000090: ccf1 7b3d e260 3cbd f546 06bc 782f 00be
000000a0: 61f2 853d d374 b8bc 083d 38bc 6bb2 33bd
000000b0: 625d cebe e691 09be 999e 91be b4cd 8a3d
000000c0: 61eb 48be a00f 38bd b919 26bd e335 66bd
000000d0: 142f e5bd 6ca7 41bd e056 ccbd fa2f bdbe
000000e0: 1f92 cebd 9db7 b83c 09d5 41be 76d5 6cbc
000000f0: 371e 8abe 2d50 f3bc 21a5 1ebe 016c e0bd
00000100: cec6 a7bd 1e20 f8bd 4744 e53c aca2 bd3c
00000110: 4b78 983c 5208 87bc 8d09 29be da6b 613c
00000120: 3336 1abe b737 14bc 50ad 80bd 8d06 3f3d
00000130: a8bf a2bd 0d8e 61bd c1a4 1ebe 5857 493d
00000140: c024 d1ba 1cfe 4ebe 1759 33bd 05d9 e4be
00000150: 7c12 84bc 4c7b 15be 2528 04be c0cf f4bd
00000160: b385 15be c3ae 45be 170b f73c 9536 b1bc
00000170: e5ca 41be 4f19 c1bd ec5f 6abe 6c27 4cbe
00000180: 3ab2 53bd ba4e 85bd 11da dabc f367 4abd
00000190: f955 6fbd 12ad efbd 1d5d 09be 5150 8cbd
000001a0: 4c3e 42bc 069e 96bd 0079 04bd 22a0 62be
000001b0: c1ec 02bd 7cf2 14bd b0d7 81bd b03e 4ebe
000001c0: f9fe 59bd d191 41bd 25cd 32bd 174c efbd
000001d0: a21b f3bc a905 d03c eaf6 723b 1e0f d6be
000001e0: cb7f adbc 4905 65be 13cc 0ebe 0afe 363d
000001f0: 56f9 bebd 30ef 2cbc 9978 67be db19 79be
00000200: 7550 a73e 6938 d83d 9905 58be f15b 57be
00000210: 0454 183e 0c45 05bf 7ca4 8c3e cb8c 28bf
00000220: 9def 3dbf 60ce 87bd 6e6a 03bf b223 4fbd
00000230: 989b 69be 18af 2bbe f85f 0bbe 891d 30bf
00000240: cffc 9f3b 6921 cd3d ecd1 0c3e 6d56 aebe
00000250: 47ca 9e3d 2e8a ee3d 76d0 d3bd c16d ed3d
00000260: 1602 233e 9f69 023e e663 d4be 3cca fd3e
00000270: 622b 3a3e 1b66 f0bd 2f82 1c3e 2657 6e3e
00000280: c59f 36bf 3878 d93d 60a2 2d3e c15c d4be
00000290: 30ca ec3a f5d2 043e 30ce 053f c743 1a3f
000002a0: c75e 0b3e ab9c a03a 1cb5 2b3e 176f c43e
000002b0: 642c ec3d 569d 28be c454 993d 0ff1 7b3d
000002c0: 7411 e1bd 435b 1a3e e8a7 c7be 4bf3 6fbe
000002d0: 84eb 3bbc b185 6b3e aa64 be3e f4c8 02bf
000002e0: ecc8 ecbd 3ffa 94bd 9402 17bd 5cd4 ccbe
000002f0: f663 a53d 3779 84bc a4d6 b4bd 43e6 783e
00000300: f164 f63c dd36 60be 78de 4e3e 3aed d53c
00000310: 53da 60bd c4d2 463d 09a2 ec3d b047 533e
00000320: ed6e 91be 509b 253e e6e1 ddbe 4e63 f83d
00000330: 644c 3f3e 3613 713e 2e86 ecbe 72de 0e3d
00000340: 20fe 89be 70f8 fdbe 0dba 123f 26fb 973e
00000350: 6c5c ca3d ad94 a73e 1804 1bbe 748d 18bd
00000360: 220a 273e 317c a1be 41e0 a0be 208b 54be
00000370: bcc7 fcbd c982 2e3e 0a15 583d b131 0f3e
00000380: a598 e83b ef65 2fbe 3f53 133e 20a8 343d
00000390: ffa6 0bbe f93a 9f3c b654 313e 3fd0 b1be
000003a0: 3001 3f3e 4088 723e cf94 8c3d a19e 143d
000003b0: 8209 93be ad5b 8f3d 8601 6c3c aa2d 6ebe
000003c0: bee2 ad3e 0b5b b43d e642 dfbe a5e3 253e
000003d0: 6bcb 1f3e 7b8c ef3d ad7b 80bc d83c 8abe
000003e0: 649d f83d 8d39 d5be 5497 d3bd 4726 1f3e
000003f0: aee2 46bc d83f f4be c422 0dbf d2cf 90be

bias_hh_l0 f4 [384]
-0.13884687 -0.13514444 -0.16654518 -0.03755344 -0.22179231 -0.20674057 -0.035896085 -0.13087708
-0.18963557 -0.039139926 -0.030397788 0.08711448 -0.022417122 0.026903976 -0.41981184 -0.06286458
0.0016167619 -0.13036692 -0.14152381 -0.08678157 -0.073442295 -0.14869882 -0.06472156 -0.3100193
-0.101689816 0.05582373 -1.1519481 -0.20861124 -0.19506256 -0.041028984 0.055865057 -0.100235716
-0.05809503 -0.043127183 -0.25516623 -0.08096068 0.009224585 0.07384349 -0.0656655 -0.092060275
0.013860482 -0.07130272 -0.10028697 -0.095995076 -0.37146142 -0.041284997 -0.28343523 0.015660765
-0.25581074 0.046740826 -0.15715392 -0.14761104 -0.055037577 0.06588897 -0.10199169 -0.41919294
-0.10794221 -0.03216705 -0.1438982 -0.081953056 -0.44521454 -0.108605914 -0.16160578 -0.22833769
-0.026000975 -0.17973052 0.0006549858 -0.029726814 0.018335605 0.032905713 -0.11222018 -0.02531406
-0.12680128 -0.13286056 -0.18563823 -0.042692557 -0.083557 -0.07253554 -0.11047924 -0.109085456
0.029766353 -0.10984272 -0.06060777 -0.38095975 -0.08503238 -0.23621848 0.010450926 -0.08329399
-0.07008092 -0.15162177 -0.031089365 0.009301456 -0.2536766 -0.13290401 -0.13075745 -0.1443074
-0.039542966 -0.0613387 -0.024368023 0.04706532 -0.06799792 -0.10184106 -0.11091019 -0.05118482
-0.04834073 -0.09204216 -0.0446217 -0.2694688 -0.1687351 -0.060436375 0.022581305 -0.16879255
0.07674562 -0.09104153 -0.10425134 -0.018705938 -0.06902161 -0.043530617 -0.03327223 -0.35512987
-0.103703246 -0.24240656 -0.027148657 -0.115788236 -0.10231198 -0.009220644 -0.3012774 -0.2919536
0.20416242 0.10346011 -0.20719846 -0.19132239 0.16703896 -0.5596683 0.2529139 -0.53866017
-0.74027616 -0.07469917 -0.48729682 0.03467126 -0.13587673 -0.13013095 -0.20809345 -0.68786854
0.017330175 0.08085583 0.10347017 -0.33096117 -0.078581356 0.12916298 -0.109751984 0.14018333
0.20624472 0.045633823 -0.33287138 0.6063678 0.18230891 -0.17007428 0.23917024 0.2935044
-0.76812094 0.13112387 0.06677959 -0.42596936 0.009699127 0.15371819 0.50929683 0.7240103
0.080384016 0.09364486 0.117640935 0.38082835 0.0027370206 -0.10348694 -0.06250219 0.026964756
-0.07683992 0.15238167 -0.48846018 -0.36708632 -0.0065808874 0.20671691 0.23561652 -0.4904884
-0.1962179 -0.11058162 -0.10054153 -0.3420932 0.07266167 0.07287567 -0.21747571 0.11975175
0.038578354 -0.21794446 0.16112235 0.012446211 0.00063799584 0.081153974 0.22554252 0.19865505
-0.16708116 0.18841363 -0.38117898 0.13839649 0.12697919 0.2073155 -0.5096377 0.036521208
-0.26592478 -0.6497097 0.5814916 0.2623437 0.15026608 0.3596502 -0.06367762 -0.05437368
0.22592258 -0.21450244 -0.30393606 -0.08021811 -0.17032686 0.10216443 0.15439293 0.16206108
0.08598694 -0.116270535 0.16555297 0.15329823 -0.0056153703 0.039370693 0.16837953 -0.41604176
0.23716258 0.23288833 -0.06879259 -0.0023859488 -0.26538092 0.043292355 -0.016340917 -0.2972289
0.34176856 0.092425466 -0.41786343 0.19819917 0.3069228 0.15158361 -0.010960773 -0.33354065
0.07322978 -0.3246391 -0.050612085 0.20222425 -0.111645706 -0.31328225 -0.5483861 -0.27546415
00000000: e02d 0ebe 4e63 0abe d28a 2abe a3d1 19bd
00000010: 861d 63be cdb3 53be c607 13bd a404 06be
00000020: d42f 42be 3051 20bd c804 f9bc 1469 b23d
00000030: 1da4 b7bc ba65 dc3c 94f1 d6be 25bf 80bd
00000040: 87e9 d33a e87e 05be 9eeb 10be 89ba b1bd
00000050: ea68 96bd 8144 18be bd8c 84bd daba 9ebe
00000060: c042 d0bd 6ca7 643d 0973 93bf 2f9e 55be
00000070: 7bbe 47be 020e 28bd c2d2 643d 6248 cdbd
00000080: 0ef5 6dbd 21a6 30bd 26a5 82be b7ce a5bd
00000090: b722 173c 413b 973d a27b 86bd 198a bcbd
000000a0: 1317 633c 2907 92bd 4163 cdbd 1199 c4bd
000000b0: 3130 bebe 751a 29bd 6c1e 91be 014b 803c
000000c0: a0f9 82be 4f73 3f3d f5ec 20be 5927 17be
000000d0: 156f 61bd ccf0 863d 05e1 d0bd 75a0 d6be
000000e0: ce10 ddbd 99c1 03bd 0d5a 13be 01d7 a7bd
000000f0: 29f3 e3be c76c debd fc7b 25be 5bd1 69be
00000100: ffff d4bc 470b 38be 5ab3 2b3a a685 f3bc
00000110: 8d34 963c 24c8 063d b2d3 e5bd 6e5f cfbc
00000120: 32d8 01be 990c 08be f317 3ebe 64de 2ebd
00000130: ef1f abbd 838d 94bd f142 e2bd 3268 dfbd
00000140: 91d8 f33c 38f5 e0bd da3f 78bd 280d c3be
00000150: 7525 aebd 42e3 71be 5c3a 2b3c 0a96 aabd
00000160: 9686 8fbd bd42 1bbe 20af febc 2265 183c
00000170: e6e1 81be fd17 08be 48e5 05be 52c5 13be
00000180: cef7 21bd 4a3e 7bbd 739f c7bc 91c7 403d
00000190: 7e42 8bbd 0c92 d0bd e224 e3bd 2ca7 51bd
000001a0: ee00 46bd 9a80 bcbd 3ec5 36bd d1f7 89be
000001b0: e5c8 2cbe 228c 77bd 6efc b83c f4d7 2cbe
000001c0: cf2c 9d3d fb73 babd ba81 d5bd 323d 99bc
000001d0: 345b 8dbd 294d 32bd 7648 08bd 95d3 b5be
000001e0: 5e62 d4bd 6d39 78be dc66 debc 6222 edbd
000001f0: f288 d1bd 2f12 17bc 0841 9abe f17a 95be
00000200: f40f 513e e5e2 d33d d52b 54be 04ea 43be
00000210: 430c 2b3e 6c46 0fbf ee7d 813e a2e5 09bf
00000220: bd82 3dbf e1fb 98bd f87e f9be 7303 0e3d
00000230: 4523 0bbe 0c41 05be 7316 55be 2718 30bf
00000240: 03f8 8d3c be97 a53d 2be8 d33d be73 a9be
00000250: 43ef a0bd 4d43 043e a6c5 e0bd 388c 0f3e
00000260: d131 533e 88ea 3a3d 1e6e aabe ec3a 1b3f
00000270: 30af 3a3e f427 2ebe 0be9 743e 3546 963e
00000280: 93a3 44bf 5645 063e bdc3 883d a818 dabe
00000290: 16e9 1e3c 4d68 1d3e 4761 023f bd58 393f
000002a0: 60a0 a43d e0c8 bf3d bbed f03d effb c23e
000002b0: 965f 333b f6f0 d3bd 2601 80bd 31e5 dc3c
000002c0: 3f5e 9dbd f109 1c3e 7417 fabe bdf2 bbbe
000002d0: 7ca4 d7bb 99ad 533e 7545 713e 4c21 fbbe
000002e0: 58ed 48be 9e78 e2bd b8e8 cdbd d726 afbe
000002f0: a4cf 943d d73f 953d f4b1 5ebe 6840 f53d
00000300: 5604 1e3d d52c 5fbe 42fd 243e 31eb 4b3c
00000310: 2d3f 273a 0e34 a63d 9ef4 663e 3b6c 4b3e
00000320: 5317 2bbe 81ef 403e e429 c3be cfb7 0d3e
00000330: d506 023e 844a 543e 9e77 02bf 4397 153d
00000340: 4b27 88be 6053 26bf a2dc 143f ea51 863e
00000350: 5adf 193e 1224 b83e 6969 82bd f0b6 5ebd
00000360: 4058 673e 87a6 5bbe 829d 9bbe 6449 a4bd
00000370: 2a6a 2ebe 963b d13d 2e19 1e3e 57f3 253e
00000380: ec19 b03d 3f1f eebd b886 293e 36fa 1c3e
00000390: 2401 b8bb 2a43 213d af6b 2c3e 6d03 d5be
000003a0: bfda 723e 477a 6e3e 21e3 8cbd 945d 1cbb
000003b0: 02e0 87be 5353 313d 63dd 85bc 632e 98be
000003c0: 4afc ae3e 9049 bd3d 32f2 d5be b9f4 4a3e
000003d0: fc24 9d3e bc38 1b3e d094 33bc d7c5 aabe
000003e0: 7ff9 953d 1937 a6be 9e4e 4fbd e013 4f3e
000003f0: 81a6 e4bd 8866 a0be 0863 0cbf a309 8dbe

weight f4 [1, 128]
-0.0017237724 0.052923642 -0.02465499 -0.026566202 0.0035047696 0.10238261 0.0014009016 -0.06471171
0.103531726 0.004650803 0.09499714 0.0019900654 0.035375156 -0.011194469 -0.03955265 0.098976545
0.030335134 0.017233139 0.01758901 0.044784848 0.018065356 0.015937936 0.038127467 0.031587314
-0.007413179 -0.004035767 0.08964302 0.00043487694 -0.0069287135 0.05295849 0.0034509285 0.012010356
0.12233177 -0.012615289 -0.04587275 0.1051763 -0.009499397 0.007860364 -0.0069071716 0.004782838
-0.0040187915 0.011502696 0.003630831 0.009979334 -0.04979437 0.03556362 0.017246066 0.022554055
-0.055228297 -0.0090676835 0.05482944 -0.06947878 0.013405917 0.0033561103 0.001340357 0.08999036
-0.06859203 -0.0192393 0.01756527 0.06438022 -0.021995604 -0.029938258 0.030406302 -0.024453307
0.011571741 0.032560617 -0.0046516447 0.02376138 -0.00874417 0.01670799 -0.02736474 0.017169481
-0.047114447 0.0011365252 -0.0459152 -0.011154073 0.04768047 0.008503333 -0.095809445 -0.012739087
0.038552392 -0.07354469 0.0012177741 -0.003794617 0.023012787 0.0020559174 0.028760247 0.03060979
0.0035967014 -0.08535769 -0.041933488 -0.003912071 0.04604419 -0.02293963 0.027139083 -0.0050992696
0.022483515 0.014104661 -0.010239715 -0.035908177 -0.0050779483 -0.02441631 -0.001452924 -0.048946526
0.0042541376 7.692266e-05 0.008261716 0.058956217 0.044712603 -0.0067965547 0.008248646 0.0839824
-0.006194454 -0.0018490129 0.006344818 0.001010305 -0.0012231845 -0.0035746945 0.010443286 0.046865337
-0.009816612 -0.036417626 -0.02128703 -0.0016885286 -0.005045808 0.05237728 -0.083410345 0.04154855
00000000: 34f0 e1ba 76c6 583d 43f9 c9bc 5da1 d9bc
00000010: 47b0 653b f9ad d13d 759e b73a 9387 84bd
00000020: 7108 d43d c365 983b dc8d c23d c26b 023b
00000030: 8ae5 103d 0269 37bc f601 22bd 37b4 ca3d
00000040: 6381 f83c 832c 8d3c d416 903c 5170 373d
00000050: ccfd 933c 4690 823c 8c2b 1c3d b361 013d
00000060: 41ea f2bb 783e 84bb c296 b73d 3200 e439
00000070: 430a e3bb 00eb 583d f928 623b 16c7 443c
00000080: 1489 fa3d 5bb0 4ebc 11e5 3bbd ac66 d73d
00000090: 5ca3 1bbc c2c8 003c 8e55 e2bb 5ab9 9c3b
000000a0: 11b0 83bb ce75 3c3c 3cf3 6d3b 5c80 233c
000000b0: 2ef5 4bbd 29ab 113d 9f47 8d3c 48c3 b83c
000000c0: 1137 62bd 9f90 14bc d694 603d e44a 8ebd
000000d0: 7ea4 5b3c 30f2 5b3b ebae af3a de4c b83d
000000e0: fa79 8cbd bd9b 9dbc 0be5 8f3c c7d9 833d
000000f0: 2030 b4bc 1441 f5bc a316 f93c 4d52 c8bc
00000100: 6697 3d3c 485e 053d d36c 98bb 3aa7 c23c
00000110: b543 0fbc 32df 883c 052c e0bc 03a7 8c3c
00000120: 14fb 40bd 75f7 943a 9411 3cbd 93bf 36bc
00000130: 994c 433d 9051 0b3c be37 c4bd 9bb7 50bc
00000140: 1de9 1d3d 999e 96bd b89d 9f3a 1caf 78bb
00000150: 5085 bc3c 92bc 063b 9c9a eb3c 62c1 fa3c
00000160: a3b6 6b3b 03d0 aebd 73c2 2bbd d530 80bb
00000170: d598 3c3d e4eb bbbc c852 de3c c617 a7bb
00000180: 592f b83c 3c17 673c 7ac4 27bc 7414 13bd
00000190: eb64 a6bb b704 c8bc 0a70 beba 277c 48bd
000001a0: 4b66 8b3b 8a51 a138 265c 073c 137c 713d
000001b0: 9024 373d a2b5 debb 5425 073c f7fe ab3d
000001c0: d9fa cabb 945a f2ba 31e8 cf3b 366c 843a
000001d0: 4353 a0ba 6c45 6abb 511a 2b3c def5 3f3d
000001e0: dbd5 20bc a62a 15bd 2362 aebc 9e51 ddba
000001f0: 4e57 a5bb 8f89 563d 0bd3 aabd d02e 2a3d
