GRU/models/test.pth (torch, 57983 bytes, 5 tensors)

weight_ih_l0 f4 [192, 5]
00000000: 1d94 b73f 187d b63f 550e cc3f adcf b83f
00000010: d480 b4bf 753e 41bf c73a 84bf 0b3f 8fbf
00000020: 6377 b9bf 256c c6bf 830e 4bbe 3ae9 d1be
00000030: fc9e acbe 65c8 21bf 0247 fe3f 965e 083e
00000040: f48d 7cbe 1223 b6be b146 5cbf 328b 8140
00000050: b121 41be 7844 1cbe 7a7f 4ebe 6b5b 1dbe
00000060: 55e3 b2bf 167d bdbd 3ba9 a33c 885a cfbc
00000070: 3e19 1c3e a81a f2bf 8b40 92be aabf 96be
00000080: 27b3 0fbe 75b7 bfbd b3ca cf3e 6d30 e43f
00000090: d4bf dd3f 99e3 ec3f e9db ec3f a3f8 45bf
000000a0: ea69 6c3e b942 fbbe 453c 45bf bb5a bebf
000000b0: 4998 e13f 0181 07be db59 b8be cef3 bfbd
000000c0: fe13 98be 21e9 e4bd 26c8 3ebe 5bdc cfbe
000000d0: 6bc0 8cbe c564 aabe 5fb6 c93f 7e53 cabd
000000e0: 8638 6bbd 34cb 38be 0127 413a 3672 6c40
000000f0: 4210 9dbf 4ad0 b3bf 62de abbf 82d8 c0bf
00000100: 5c4c 53bf c1bd 30bf ee65 38bf d1ee 3ebf
00000110: 8109 22bf 0f49 d93e 94a5 b4be e054 0dbf
00000120: 9a3d d3be c00c b3be 0504 3dbf 4273 e43e
00000130: 7e90 b83e ee3f b23e 722d 093f 5e9f 46c0
00000140: 30a4 a1be ca3b 7dbf d155 8ebf 7f3c e5bf
00000150: d081 d53f 0184 533e dbff 7b3d c57f 893e
00000160: e208 783e 7009 8b3f 2546 a6be 72ba bdbe
00000170: 4f11 44be 0071 babe 3c7a c9be 8889 a7bf
00000180: 5dd1 bebf fe2d d1bf f895 dcbf fe36 b1bf
00000190: 3ca6 a8bc 11f0 16be 338a 613c 1303 14bd
000001a0: 39d9 7fbd 8777 b93e 13ce 803e 509a a33e
000001b0: e3fb 053e bcde a640 974a 72bd e11f 4cbe
000001c0: 0cc5 19be a199 0c3d 18ef f53e 6a34 5b3d
000001d0: 0dc0 f9be 60ac dcbe 6557 42bf a8c9 8cbf
000001e0: 63ed 8abe ba6e 48be 56df 81bd 14f9 57be
000001f0: a1ab 3d3f 6eac a43f 9831 ac3f 3357 a93f
00000200: 56a5 b83f 149c c3bf 9716 0940 10d8 0640
00000210: 8ed7 fa3f fe38 0240 c276 03bf 81ce c3be
00000220: 7760 cfbe 4cb7 a5be 7a61 c5be 68d6 2dbf
00000230: 9bfb 1c3f 216a b53e 8846 0a3f 7703 d03e
00000240: e447 4940 1d9e d8be 616c 7cbe 8afb 93be
00000250: 976c a5be 0834 853e d74b c5be a69c 11bf
00000260: d904 b2be 9b2a afbe 1238 e4bc 4bdf 7fbe
00000270: 3aa8 3dbf 863a 82bf 829d acbf af5b a440
00000280: 4691 cebe e0f7 ccbe f8f8 cebe 6991 0ebf
00000290: 2e1e 03c0 ce8a 14be 776b 15be 4c7c 8abe
000002a0: 0ed9 03be 7050 1fbf e50f aebe 4647 29bc
000002b0: 2a12 443e c2cd 0b3f 63ed a6bf b647 c73f
000002c0: a4d5 c33f 0fbc b63f 3927 c83f 7e2f 5abf
000002d0: 3ede 11bf 11e5 b5be 7107 c7be a7f5 f1be
000002e0: b027 423d cc8e 623f ae37 1e3f 4325 463e
000002f0: 747a e5bd 71ff 8e40 1521 89bf 7559 5abf
00000300: b758 5fbf f4ef 6abf 2f70 b0be fcc1 8abd
00000310: 5685 e43c a94c 013e f4b8 a83d e3f6 97c0
00000320: 2846 163e acf4 66bd 1b71 e8bc 84db b2bd
00000330: 664f 9240 f132 90bf ab41 b6bf 8a16 afbf
00000340: 572f b4bf 1936 dbbf 4879 d4be 1ba6 cfbe
00000350: 359f 01bf 2815 08bf 0ae5 11bf e39d f3bd
00000360: a738 13be 8434 37bd 7f96 ebbd 5b12 3d3f
00000370: 72fd fb3f ef10 1540 f665 1540 cd5a 1040
00000380: 31c8 4dbf d3b6 e5be 5640 e7be 4c48 c7be
00000390: 9e22 8ebe 2bfd 9b3e c64b 61bf d4c2 3abf
000003a0: 7d89 30bf 55c0 2ebf eec9 98bf 0399 5f3e
000003b0: 0fa4 fe3e 5c5d c13e 9995 f73e 2e8c 9ebf
000003c0: aefd 13bf 0e79 edbe c326 c4be 89ef 01bf
000003d0: 2b18 4c3f dbd7 77bf 34e7 a3bf 4765 a6bf
000003e0: 7f21 debf bd7f fabf 4be7 7cbe d949 4bbf
000003f0: 9967 38bf 2b33 a2bf 8901 d3bf ec6a 383f
1.4342076 1.4256926 1.5941874 1.4438378 -1.4101815 -0.75485927 -1.0330437 -1.1191114
-1.4489559 -1.5501753 -0.19829755 -0.4099825 -0.33715045 -0.631964 1.986542 0.13317332
-0.24663526 -0.35573632 -0.86045367 4.0482416 -0.18860509 -0.15260494 -0.20165816 -0.15366904
-1.3975626 -0.09252374 0.019978156 -0.025311723 0.15244004 -1.8914385 -0.28564867 -0.29443103
-0.14033185 -0.093611635 0.40584335 1.7827278 1.7324166 1.8506957 1.8504611 -0.77332515
0.23087278 -0.49074343 -0.7704509 -1.4871439 1.7624599 -0.13232805 -0.36006054 -0.09372674
-0.29702753 -0.11177278 -0.18631038 -0.40597805 -0.27490553 -0.33280006 1.575878 -0.09879206
-0.05742695 -0.18046266 0.0007368178 3.694471 -1.2270586 -1.404794 -1.3427241 -1.5066073
-0.8253839 -0.6903954 -0.7203053 -0.74583155 -0.6329575 0.42438552 -0.35282576 -0.55207634
-0.41257936 -0.34970665 -0.7383426 0.44619185 0.3604774 0.348144 0.5358497 -3.103477
-0.31570578 -0.98919356 -1.1119939 -1.7909087 1.6680241 0.20655824 0.0615233 0.26855293
0.24222139 1.0862255 -0.3247539 -0.3705631 -0.19147228 -0.36414337 -0.3935107 -1.3088846
-1.4907643 -1.6342161 -1.7233267 -1.3844907 -0.02058708 -0.14740016 0.013765859 -0.036135744
-0.06246302 0.36224005 0.25157222 0.3195367 0.13084368 5.2146893 -0.059153166 -0.19934036
-0.15016574 0.0343262 0.48033977 0.053516783 -0.48779336 -0.43100262 -0.75914603 -1.0999041
-0.27134237 -0.19573489 -0.06341426 -0.2109111 0.7409001 1.2865121 1.3452635 1.3229736
1.4425457 -1.5282006 2.1420038 2.1069374 1.9597032 2.0347285 -0.51353085 -0.38243487
-0.40503284 -0.32366407 -0.3855093 -0.6790528 0.6132142 0.35432532 0.5401387 0.40627643
3.1450129 -0.4230813 -0.24650718 -0.28902847 -0.3230941 0.2601626 -0.38534424 -0.5687965
-0.34769323 -0.34212193 -0.027858768 -0.24987523 -0.7408482 -1.017411 -1.3485568 5.136192
-0.4034521 -0.40032864 -0.40424323 -0.5569063 -2.048717 -0.14506075 -0.14591776 -0.27047956
-0.12875769 -0.6223211 -0.33996502 -0.010331934 0.19147554 0.54610837 -1.3041195 1.556876
1.5299573 1.4276141 1.563697 -0.8522872 -0.5697974 -0.35526326 -0.38872865 -0.4725773
0.04740113 0.8849914 0.6180371 0.19350152 -0.11204997 4.468682 -1.0713221 -0.8529275
-0.87244743 -0.9177239 -0.3446059 -0.06775281 0.02789561 0.126269 0.08238402 -4.7488875
0.146752 -0.05638568 -0.028374245 -0.087332755 4.572192 -1.1265546 -1.423879 -1.3678753
-1.4076947 -1.7125884 -0.4149878 -0.40556416 -0.50633556 -0.5315728 -0.5699011 -0.11895349
-0.1437708 -0.044727817 -0.11503314 0.73856133 1.968672 2.3291585 2.3343482 2.255542
-0.8038359 -0.44866046 -0.45166272 -0.38922346 -0.27760786 0.3046659 -0.88006246 -0.72953534
-0.6895979 -0.68262225 -1.1936624 0.21835713 0.49734542 0.3776654 0.4835632 -1.238653
-0.5780896 -0.4638142 -0.38310823 -0.50756127 0.7972438 -0.96813744 -1.2804933 -1.2999657
-1.7353972 -1.9570233 -0.24697606 -0.7940956 -0.7203308 -1.2671865 -1.6484843 0.7203815

weight_hh_l0 f4 [192, 64]
00000000: d0be d73e 4ca3 61bd 750a 3abf 35a1 fcbe
00000010: 074d 18bf b572 133f db72 36bf 7a85 ab3e
00000020: 5df8 65be 6fe2 1f3f 17e1 ff3e 8fb8 abbd
00000030: 54a2 933e b597 2cbd ad81 323f e8bb 01bf
00000040: 28fc 2ebe 748e 373f c190 1cbf b4c5 d6be
00000050: 61c6 fe3e 17e1 0c3e 8bc0 22bf 7fa7 58bd
00000060: b0f0 ca3e 333e cc3e 8036 86be 290c 233f
00000070: a366 603e 74cb 1cbf c40d 053f 5937 8e3d
00000080: afde 01bf 2a08 d8be beeb 013e 9b55 183f
00000090: 8c22 19bf af9e a43e 56ac 93bf f405 413f
000000a0: e7b2 85be 651a a53e a4b7 113f 76d5 b13e
000000b0: 4fb6 28be d1ab 7a3e b8be 843e 37b0 a7be
000000c0: 9d2a f63e 2ce4 e4bc 47a8 9ebc ce6b debe
000000d0: 202b fa3e 283a 94be 1e28 0c3f 3c1c 2ebd
000000e0: aefd b4be 210a 253e bc2a d23e 8aec 20bc
000000f0: 0389 233f 3685 623e ab92 56be 24f1 ac3e
00000100: f922 183d 72c6 6f3e 194f b8be 08cb 173e
00000110: 9b24 5a3e b49b d83e 6d73 4fbe b801 c43d
00000120: 99dd 5abf 26b0 09bf ee0b 613e 298d 1dbf
00000130: 2a81 ab3e d4fd 223e 56c7 b73c 4a28 ca3d
00000140: afd9 cd3e 2b75 593e fcdc 53be c5a6 ddbd
00000150: f571 2a3d 5c8f 05bf 5b0f 89bd b8cc 5d3e
00000160: 51be 9d3e a274 e53d 3a8f 893e 21a2 4f3e
00000170: 93f7 a63e e053 10be 77ec dc3d cfa6 d83d
00000180: 10a5 09bd e2c9 47be 886b 093e 0a9c d63d
00000190: 1a5c 5dbd 3b82 23bf e67f 94be 044e 713d
000001a0: aec8 b4bd 2aa9 9d3e d47a 22bd 4ccb 053f
000001b0: 82c4 14be 1116 853e 0e7c 9abd 6857 90be
000001c0: 27a0 a63e e972 9bbc ab16 8b3f 8cad d63e
000001d0: c7af 83bc 8017 b03e d003 143e fe9d 8abd
000001e0: 700f a2bd f072 2a3e 5540 0ebe f948 b63e
000001f0: f8a3 d63d 07de 67bf 4e95 7fbe ba23 123e
00000200: 0b09 86be 696d dcbe 630d 7cbe 4c02 d6be
00000210: 5bd6 a2be 36d3 123f 52c0 aa3e 27ef 83be
00000220: 4eb8 74be d63e 3abf 1d3c 343e c22b 27be
00000230: 9581 d8bd 36a7 35bc 373b 90be 6ccf c93f
00000240: 2a6a a9bf e942 9dbe 982a b63e 51d4 6bbd
00000250: 344b 08be ac47 adbe d2e5 b7be f42f f23e
00000260: 1893 f4bd 39e2 5f3e 13df cebd 5db5 36be
00000270: 2d20 c13e 3926 a53d f5f1 93bd 49ee 4cbe
00000280: 448c 273f bf0c 3a3e 5391 1dbf 5a8a be3e
00000290: 6e25 b93e 0942 d9be 213c 863e 60d6 d63d
000002a0: 2938 1f3e 488c 5d3e 3bb3 8ebe 9ac6 1abe
000002b0: b245 e63d fc9e 993d 75e0 a7be cc67 763b
000002c0: 0916 8cbe 34c1 eebd 3bbf 7a3e dc79 983e
000002d0: fdd2 76be 5508 843b 54f7 89bc 1141 a8bc
000002e0: 64a8 a3bd 78f6 eb3d 1af1 15bf 606a 5dbe
000002f0: 7df2 0cbe 605c 46be 5019 6fbe 3e12 003e
00000300: 620b 50bf 6e30 943e 0867 81be b112 9dbc
00000310: 7b93 01be 05b8 c6bd 4701 a3bd a9a5 28bf
00000320: c973 3bbf c32c 1fbf af18 66be 5492 7abf
00000330: 7574 b9be d0a6 1a3e 6076 e8bc 38f1 c53f
00000340: c2df 2dbf 47cf 5d3e cbd5 20bc 98cf 8e3e
00000350: d5b3 02bf 2d8b f2be 890d 9a3f 4500 75bd
00000360: 0597 b4bd ab5b d8be 4775 8cbe 6204 86bd
00000370: 545a e33e 3598 d1bd 340d 9abc c0b7 c43e
00000380: 5458 573f 454a f83d 3f1f 0cbf 9476 44bf
00000390: b480 793d 230e 023e d010 63be f3dc abbd
000003a0: 4ea6 4c3f 30c0 a4be 6e5f 913d f883 663e
000003b0: 0c7f 4b3f 878e b0bd a7b1 85be 8ca5 8fbd
000003c0: bdab 83bb 6b0f 89bd 68cf 553d 7b6e e73e
000003d0: 9d1e 34bd 4e3f 76be e11a 86be 6a08 d63e
000003e0: 857e 203f 85a8 593e a10d b83d b98e 1bbf
000003f0: eb3f 2c3e 2ed3 0fbf cf81 20bc 9757 2bbf
0.42137766 -0.055087373 -0.72672206 -0.4934174 -0.59492534 0.57596904 -0.71269006 0.33500272
-0.22458024 0.62454885 0.49976417 -0.08384811 0.28834784 -0.042136867 0.6972912 -0.5067735
-0.17088377 0.7170174 -0.61158377 -0.4194771 0.49760726 0.1375774 -0.6357505 -0.05289411
0.39636755 0.39891204 -0.26213455 0.6369043 0.21914153 -0.61247945 0.5197413 0.069441505
-0.50730413 -0.4219373 0.12687585 0.59505624 -0.5981834 0.32152316 -1.1536968 0.7539971
-0.26113054 0.322467 0.5692084 0.3473317 -0.16475795 0.24479605 0.25926757 -0.3275163
0.48079386 -0.027940832 -0.01936735 -0.43441623 0.48861027 -0.2895062 0.54748714 -0.042507395
-0.35349792 0.16117145 0.4104823 -0.00982202 0.6388094 0.22121128 -0.20954387 0.33777726
0.037142728 0.23415545 -0.35997847 0.14823544 0.21303026 0.42306292 -0.20258875 0.0957064
-0.8549438 -0.53784406 0.21977207 -0.6154352 0.33496982 0.1591714 0.022433918 0.09870966
0.40205142 0.21236102 -0.20689768 -0.108228244 0.041612584 -0.52171874 -0.06692382 0.21660125
0.30809262 0.112038866 0.26867086 0.20276691 0.3261076 -0.14094496 0.107872896 0.10578691
-0.03360468 -0.19510606 0.13419926 0.10478981 -0.054042913 -0.6387059 -0.2900383 0.058912292
-0.08827339 0.30793124 -0.03966792 0.5226333 -0.14528087 0.25993398 -0.07543193 -0.28191686
0.32544062 -0.018975692 1.0866293 0.4192928 -0.016075028 0.3439293 0.1445458 -0.06768416
-0.07913101 0.16645408 -0.13891728 0.3560255 0.10480493 -0.9057316 -0.24959299 0.14271441
-0.26178774 -0.43052223 -0.24614482 -0.41798627 -0.31804165 0.5735353 0.33349854 -0.25768396
-0.23898432 -0.7275213 0.17601056 -0.16325286 -0.10571591 -0.0110872295 -0.28170177 1.5766425
-1.3235524 -0.3071511 0.3557937 -0.057575528 -0.13309938 -0.33843744 -0.35917526 0.4730221
-0.119421184 0.21863641 -0.10101142 -0.17842622 0.3771986 0.08063931 -0.07223884 -0.20012774
0.65448403 0.18168925 -0.6154987 0.3721493 0.3616137 -0.42433193 0.2621775 0.104901075
0.15548767 0.21635544 -0.27871117 -0.15114823 0.11243762 0.07501027 -0.32788435 0.003759849
-0.2736056 -0.11657944 0.24487011 0.2978047 -0.24103923 0.0040293136 -0.016841568 -0.020538839
-0.07991102 0.115216196 -0.58571017 -0.2162261 -0.13764377 -0.19371176 -0.233495 0.12506959
-0.8126737 0.289432 -0.2527392 -0.019173952 -0.12653916 -0.09703068 -0.07959228 -0.6587778
-0.7322355 -0.62177676 -0.22470354 -0.9787953 -0.36221662 0.15102696 -0.028376758 1.5464239
-0.6791955 0.21661101 -0.009816597 0.27892756 -0.5105565 -0.47371808 1.2035381 -0.05981471
-0.08817867 -0.42257437 -0.27433226 -0.06543805 0.44404852 -0.10234109 -0.018805124 0.3842144
0.84119153 0.12123541 -0.5473518 -0.76743436 0.060913756 0.12700705 -0.22174382 -0.08391752
0.7994126 -0.32177877 0.0709828 0.2251128 0.79490733 -0.08620935 -0.261121 -0.070139974
-0.0040182755 -0.06692394 0.05219975 0.45201477 -0.043974508 -0.24047586 -0.26192382 0.41803294
0.62693053 0.21255691 0.089869745 -0.6076465 0.16821258 -0.5618161 -0.009796574 -0.66930526

bias_ih_l0 f4 [192]
00000000: 23f8 30bf c05e b0be dc70 7b3e 7eda 32be
00000010: b883 86be 25e1 a8be e96b 303e 865a 28bf
00000020: 8f16 04be 83c0 903e 9126 cdbe e262 4f3d
00000030: ff66 0cbf 52e6 aabe 6bfd f6bc b33b 4abe
00000040: 159f 9abe 3c47 ce3e 7abe 1bbc 958e 2cbf
00000050: dc94 73be 1b3a 8fbe 7a55 16bf 2bf1 e6bd
00000060: 0daf 12be c24e 22bf c430 08bf 8f67 46bc
00000070: bbe9 113f 1878 eb3d 678d fa3d 0f07 a93c
00000080: c082 b8be 9bbd 7abe 7370 4dbc cf52 62bf
00000090: 9876 e63d 8c06 48be 1cc5 1fbe 8fc6 d0be
000000a0: 91f2 a43d 16b7 f7be 22e8 c3bd 9baf 903d
000000b0: b42a 3cbf cb93 2b3d b92a 17bf a177 cfbe
000000c0: 7044 e6bd 2e44 8cbe 20dd 443d 0831 ac3d
000000d0: dc5a d2bb 0e77 19be 938d f2be 7f4a 04bf
000000e0: bbed 9bbe bdfa 133e fe07 50be 8724 30bf
000000f0: 698a 15be 507d 59bd 0a56 a5bd ceed 9fbe
00000100: 7d8b cebe 12ae 603d 2412 143e 37f8 b13e
00000110: f828 bc3d 9427 473f 9620 9e3e e021 aabf
00000120: 6e75 053f d886 f53c c193 0ebe 67e1 963c
00000130: 9383 efbe b574 f13d c7be dabe 0359 0c3d
00000140: fe93 bdbc 4372 843e cc82 ad3e e3f1 063f
00000150: a1ae 4bbd cd5b d23d 2678 a53d a94c 963e
00000160: 0e26 253f fa23 f4bd 7a0c 67bf ec6d b0be
00000170: 36a5 cdbb 384a 943e 1b89 cd3e b51f 683e
00000180: 06e7 323e 007b 863e 44b3 273d 7eea 39bd
00000190: e7e8 003d 10c5 d23d d37e 0d3e 71d6 3a3f
000001a0: f1eb 153e 8f7b 343f 7cc9 0c3e 1c72 f73e
000001b0: 7bb6 39bd 6d6f 0d3f 58ae 0c3f af7f 023e
000001c0: 0df5 a33e 34cb 033e 6bc1 553e f2dd 363e
000001d0: 109f 003f 0fcf 993e c6c8 723e 888e c83e
000001e0: 0021 713e 98f9 7e3e 3cba a93e af0d 63bf
000001f0: 1500 a13e fb46 363e 0564 2a3e 5b19 db3e
00000200: 697a 953f c301 c7be ab75 ad3e 175e 5b3e
00000210: 7ce5 bd3e 826c f63d e23e 283f 5577 963f
00000220: 9b55 0d3f 72f6 16be 84ac d43d 675e 353e
00000230: 2565 923e 2c7f 4fbe 9290 76be c6bb c8bd
00000240: 3b5d e5be 5230 39bf 506d af3e eebd 373e
00000250: 2ad5 65be 94d4 a33d c534 4d3c a5e6 bd3e
00000260: 289b a8be 2467 983f 4edc 9e3f 7278 f8bd
00000270: 597c b2be 45b0 bc3e 4f86 bfbe 0198 82be
00000280: 9419 94be d32c b5be 78bf 42be d11f 7c3f
00000290: 3946 e93d 3f71 0ebd 8b30 923e 6b49 963d
000002a0: 3325 4b3e 4b57 f8bd f784 88be 83cd c3be
000002b0: 747a 90bf c0de 94be cb9d f2bd 0de6 a0bf
000002c0: ec7c 82be 5a86 cebd 4739 23be ec02 6cbe
000002d0: c255 c3bd def4 c43e 18ea 2abe 3658 06be
000002e0: ce9e 783e 156f 70bd 5d47 74be 2782 853f
000002f0: 8eb2 4dbe f034 c13d 9b40 393e 27c9 6cbe
-0.69128627 -0.3444729 0.24554771 -0.1746616 -0.26272368 -0.32984272 0.17228664 -0.6576313
-0.1289923 0.28271875 -0.40068486 0.05063141 -0.5484466 -0.33378845 -0.030150136 -0.19749336
-0.30199495 0.40288723 -0.009505862 -0.6740506 -0.23787254 -0.27974018 -0.58724177 -0.11276468
-0.14324589 -0.63401425 -0.5319941 -0.012109651 0.5699727 0.114975154 0.122340016 0.020633249
-0.36037254 -0.24486391 -0.012539017 -0.88407606 0.11253089 -0.19533747 -0.15602535 -0.40776488
0.08054078 -0.4838187 -0.0956576 0.07064744 -0.7350266 0.041888993 -0.59049565 -0.40520957
-0.11243522 -0.27395767 0.048062444 0.084077895 -0.0064195227 -0.14986822 -0.47373638 -0.5167617
-0.3045481 0.14451118 -0.20315549 -0.68805736 -0.1460358 -0.053098023 -0.08073051 -0.31236118
-0.40340796 0.054853506 0.14460045 0.34759685 0.09187502 0.77794766 0.30884236 -1.3291588
0.5213231 0.029971525 -0.13923551 0.018418027 -0.4678007 0.11789838 -0.42723677 0.034264576
-0.023141857 0.25868425 0.33888853 0.5271284 -0.049727086 0.10271416 0.08079557 0.29355362
0.6451119 -0.119209245 -0.9025341 -0.34458864 -0.006275798 0.28962874 0.40143666 0.22668345
0.17470941 0.26265717 0.040942445 -0.045389645 0.031472113 0.10291493 0.13817911 0.7298346
0.14640786 0.70501035 0.13748735 0.48329246 -0.045340043 0.5524815 0.5495353 0.1274402
0.32022896 0.12870485 0.20874564 0.17858103 0.5024271 0.30040786 0.23709401 0.39171243
0.23547745 0.248999 0.33149898 -0.88692755 0.31445375 0.17800514 0.16639717 0.42792782
1.1677982 -0.38868532 0.33878836 0.21422611 0.37089145 0.12032415 0.6572095 1.1755167
0.5520875 -0.14742449 0.10384467 0.17711793 0.28592792 -0.20263356 -0.24078587 -0.0980144
-0.44797692 -0.72339356 0.34263086 0.17943546 -0.22444597 0.079995304 0.012524788 0.3709003
-0.32930875 1.1906476 1.2410982 -0.12132348 -0.34860495 0.36853233 -0.37407157 -0.25506595
-0.28925765 -0.3538576 -0.19018352 0.9848605 0.11390347 -0.03477597 0.2855266 0.07338222
0.19838409 -0.12126025 -0.26663944 -0.3824273 -1.128737 -0.29076195 -0.11846503 -1.2570206
-0.25485933 -0.10084219 -0.15939818 -0.2304799 -0.095378414 0.3846807 -0.16690862 -0.13119587
0.24279329 -0.058699686 -0.23855348 1.0430344 -0.20087644 0.09433925 0.18091051 -0.23123609

bias_hh_l0 f4 [192]
00000000: 6f7f f4be 6ffa 99be 7401 8a3e f520 9abe
00000010: 7bbb 91be 003e b1be abdf 573e 45bc 17bf
00000020: b30a 9ebe d4b3 773e 7510 9dbe 9644 663e
00000030: 54b8 f8be 061e c6be 6908 a13d 260a 17be
00000040: 00a0 bcbe b273 c03e 2b9d b4bc 08bc 38bf
00000050: 47df 5fbe 208f 3fbe 817f 0bbf 05e6 b3bd
00000060: 310c 90bd 97f7 37bf c826 d8be 2ac1 1b3e
00000070: 5a94 0d3f 605d 163e c0d8 c93d a87d 6c3c
00000080: e24a 90be e6f1 1fbe ad25 55be 2a6c 4cbf
00000090: 7b8f 013e 0f98 99bd 096b 57be 891f 08bf
000000a0: 2089 0c3e 29db cfbe 4dec 8dbd 156b ae3d
000000b0: d8de 2fbf 9edb dc3c e0e6 41bf eae1 81be
000000c0: 5d9e a73d cfdf 60be e96f 5a3d 1466 f83d
000000d0: cd24 89bd 96b6 2bbe f4c0 0fbf 7f3f eebe
000000e0: ca2a b1be e6cc fb3d 2c16 7fbe ee45 2ebf
000000f0: f490 1fbe 9ff9 0b3e dabe d3bd 0181 dbbe
00000100: aa5b 18bf a860 213e a7e4 3a3e 9b05 9c3e
00000110: ba63 1b3e 98fb 373f c34c ee3e acef a4bf
00000120: 9dfe a13e 10f0 473e 93d6 77be 8a98 583d
00000130: f137 febe 21b2 8e3e d0fb 9abe 1164 703d
00000140: bd56 af3d d7c4 473e 5af6 053e c7f6 db3e
00000150: ddc3 8d3d 5a24 ad3d bdf8 e5bc 96af 883d
00000160: f1d0 493f 4208 acbd 80a0 4ebf dc8c 9fbe
00000170: 5375 9bbc f28b 843e 04d4 923e 92b6 563e
00000180: 9be4 403d f7ac b43e a7d5 7a3e 46e3 923d
00000190: 8806 00be 4677 613e 2053 15bd 3354 2f3f
000001a0: 46ca 383e 107d 243f 3142 593d b14e 2c3f
000001b0: 4a19 e63d 328e 0d3f 9ce0 be3e d61e bb3d
000001c0: a838 c93e b9ea 8e3e 3e9a b23c 7a3c 183e
000001d0: ac37 ce3e 6933 b53e 3934 c33e 8b76 a53e
000001e0: 2020 7e3e 36d5 383e 7042 713e 036c 7dbf
000001f0: 3c5f f83e 57dc 223e 926a 1d3e 6820 c03e
00000200: 55e6 083e 76c6 9cbe cdf0 8a3e 8bc9 64bc
00000210: 6fae 4ebe 23e7 cf3e edd7 193f 9af1 06bc
00000220: 625a 973e 27aa 0fbe 8690 703e 79f3 803e
00000230: 5f2a 2a3f ade8 a5bd 9f6e 68be 3e6d 4abe
00000240: 1f95 f43d e449 d4be ef70 b63e ae5a ee3d
00000250: c66e 26bd b712 893d 237c 6bbe 2ae3 18be
00000260: e95f 55be 7a3b 013e d6e0 33be 8520 8bbe
00000270: e115 e4be df3c b43e 4c5d bcbe 7ebe c5bd
00000280: ead3 dcbe 8226 b4be 74f0 26be b228 81be
00000290: f5e9 883e 199e 923d 5653 603e bf0e c03d
000002a0: 3ee2 4b3d 4747 1c3e fa51 14be 6957 97be
000002b0: 498b 2bbd 8f97 91be 4d31 1d3d b4aa 1f3e
000002c0: 76eb 7dbe 08ea 96be 062e 2fbe 4cd3 d0be
000002d0: 4d2e 3dbe b6f3 04bd 219e 29be a11a 6bbd
000002e0: 00a6 b03d 0c34 98be 25bf 753d bae5 e33c
000002f0: 54c6 18be 72f2 7d3e cf73 313e b65b 8bbd
-0.47753474 -0.30073878 0.26954234 -0.3010327 -0.2846335 -0.34617615 0.21081416 -0.5927165
-0.30867538 0.24189693 -0.30676618 0.22487101 -0.4857813 -0.3869478 0.07862932 -0.14749965
-0.3684082 0.3758827 -0.0220476 -0.7216191 -0.21862517 -0.18706942 -0.5449143 -0.08784107
-0.07033575 -0.7186217 -0.42217088 0.15210405 0.5530449 0.14684057 0.09855795 0.014434256
-0.2818213 -0.1561962 -0.20815153 -0.79852545 0.1265239 -0.07499706 -0.21036924 -0.5317312
0.13724184 -0.40596893 -0.069298364 0.08516518 -0.6869941 0.02696019 -0.7574291 -0.2536767
0.08184502 -0.21960376 0.053329382 0.12128845 -0.06696472 -0.1676887 -0.561538 -0.4653282
-0.34602958 0.12294941 -0.24910802 -0.68075454 -0.15582639 0.13669442 -0.103391364 -0.4287186
-0.5951487 0.15759528 0.18251286 0.30473027 0.15174761 0.71868277 0.4654294 -1.2885642
0.31639567 0.1952517 -0.24202947 0.052879848 -0.49652055 0.27870277 -0.30270243 0.05868918
0.08561466 0.19508682 0.13082257 0.42961714 0.069221236 0.08454199 -0.02807271 0.06674115
0.78834444 -0.084000126 -0.80713654 -0.31162155 -0.018976843 0.2588802 0.2867738 0.20968083
0.047093015 0.35288212 0.24495564 0.07172255 -0.12502491 0.22018155 -0.036456227 0.6848785
0.18045911 0.6425333 0.05304164 0.67307574 0.11235292 0.552951 0.37280738 0.09136741
0.39301038 0.27913454 0.021802064 0.1486682 0.4027685 0.35390785 0.3812578 0.32317004
0.24816942 0.18050084 0.235605 -0.9899294 0.48510158 0.15904365 0.15372685 0.37524724
0.13369115 -0.30620164 0.2713684 -0.013964067 -0.20183729 0.4060603 0.600951 -0.008236313
0.29561144 -0.14029752 0.23492631 0.25185755 0.66470903 -0.0810102 -0.22698449 -0.19768235
0.11942505 -0.41462624 0.35633036 0.116383895 -0.040632986 0.06693023 -0.22996573 -0.14930406
-0.20837368 0.12620345 -0.17566237 -0.27173248 -0.44547942 0.3520269 -0.3678993 -0.09655474
-0.43130428 -0.3518563 -0.16302663 -0.2522636 0.26740995 0.07159061 0.2190679 0.093778126
0.04977631 0.15261565 -0.14484397 -0.29558876 -0.04188088 -0.28435943 0.038377095 0.15592462
-0.24796852 -0.29475427 -0.171074 -0.40786207 -0.18474694 -0.032458983 -0.16564228 -0.057398442
0.08625412 -0.2972721 0.059996743 0.027819503 -0.14919406 0.24799517 0.17329334 -0.06804602

weight f4 [1, 64]
00000000: b587 91c1 c21d 9441 9257 89c1 751a 8241
00000010: a96e 8241 7c96 86c1 a849 8341 8f68 92c1
00000020: 68b3 90c1 ebd8 81c1 3930 85c1 4ee4 8ac1
00000030: 8835 90c1 e942 9141 caf6 82c1 fcf4 8241
00000040: 39cd 93c1 76ab 83c1 a1f7 8241 97c6 9141
00000050: ab69 83c1 7288 8dc1 841a 8341 54db 9141
00000060: 3fb7 81c1 ae6d 8fc1 2a57 94c1 fc49 83c1
00000070: 6bd5 8f41 b9a5 8141 61f6 82c1 1b57 8c41
00000080: 6143 8541 f9bc 8141 ad46 7fc1 ef09 91c1
00000090: 3c44 8341 2a83 83c1 d898 92c1 f8e5 84c1
000000a0: bb0f 8141 0b5c 92c1 920a 83c1 14fb 82c1
000000b0: 9b5e 8f41 4fed 81c1 4b8d 82c1 ec33 8b41
000000c0: a8ee 84c1 f0ef 9441 5ee4 9141 7567 8341
000000d0: 0e4f 81c1 9147 9341 ff68 84c1 30e9 9241
000000e0: 7367 8241 5754 9041 41ed 82c1 98d1 93c1
000000f0: 541f 82c1 31aa 7fc1 7da2 52c1 3180 8841
-18.191263 18.51453 -17.167759 16.262918 16.304033 -16.823479 16.410965 -18.301054
-18.0876 -16.230917 -16.648546 -17.361477 -18.026138 18.157671 -16.370502 16.369621
-18.475206 -16.458721 16.370913 18.221968 -16.426596 -17.691624 16.387947 18.232094
-16.214476 -17.928555 -18.54256 -16.411125 17.979208 16.20592 -16.370302 17.542532
16.6579 16.217272 -15.954755 -18.12985 16.408318 -16.439045 -18.32463 -16.61229
16.13268 -18.294943 -16.380161 -16.372597 17.921194 -16.240873 -16.31899 17.400352
-16.616531 18.617157 18.236507 16.425516 -16.1636 18.409945 -16.551268 18.363861
16.300512 18.041182 -16.365847 -18.47734 -16.265297 -15.979051 -13.16467 17.062593
