GRU/models/test_2001.pth (torch, 58146 bytes, 5 tensors)

weight_ih_l0 f4 [192, 5]
000000 09 85 b2 3f 2b 68 c5 3f c5 d8 f7 3f 5c b3 13 40
       1.3946849 1.5422415 1.9363028 2.3078222
000010 07 01 c3 c0 cd df 17 40 7b 1d 28 40 fa 75 4b 40
       -6.0938754 2.3730347 2.6267993 3.1790757
000020 09 8e 72 40 6b ba fd c0 c2 3f c5 3f da cb d3 3f
       3.7899191 -7.929006 1.5410082 1.6546586
000030 ca 07 c5 3f de d4 d2 3f 9b a1 21 bf 26 69 31 40
       1.5393002 1.6471212 -0.63137215 2.7720428
000040 82 b2 4d 40 4f bd 3c 40 d1 0b 56 40 56 8d 21 40
       3.2140203 2.9490545 3.3444712 2.5242515
000050 30 2e db 3e 2b 87 20 3f f1 6c 6c 3f 1a ef 6b 3f
       0.42808676 0.6270625 0.9235373 0.92161715
000060 89 12 6e bf bc 85 52 40 1b 57 4d 40 6e 84 5a 40
       -0.9299703 3.2894125 3.2084415 3.4143329
000070 d5 40 54 40 a7 e7 94 c0 44 3d 77 40 f3 c6 81 40
       3.316457 -4.653278 3.8631144 4.055536
000080 72 01 83 40 4a f0 88 40 59 cd 47 40 d6 14 f9 3d
       4.0939264 4.279332 3.1219084 0.12162177
000090 f2 38 a9 3e f2 69 5a 3e ba 3f c8 3e 74 90 bc 3f
       0.33051258 0.21329477 0.3911112 1.4731584
0000a0 c7 58 32 40 9c 13 31 40 f6 13 5d 40 77 cb 71 40
       2.7866685 2.7668219 3.4543433 3.7780435
0000b0 67 08 4e c1 64 42 60 3e 22 ac f3 3e b6 11 e0 3e
       -12.877051 0.21900326 0.47592264 0.43763512
0000c0 89 0d 25 3f fa c3 51 3f b3 44 22 40 d1 4e 27 40
       0.6447378 0.8193966 2.535443 2.6141856
0000d0 bd bf 42 40 66 2b 4b 40 2b 90 04 c0 90 43 1e 40
       3.0429528 3.1745238 -2.0712993 2.4728737
0000e0 bd ab 35 40 fb 3f 71 40 cf 24 97 40 37 22 8e c1
       2.838607 3.76953 4.723243 -17.766706
0000f0 2a a5 58 bf 0f e7 1b bf eb 73 2e bf b0 a8 c1 be
       -0.8462702 -0.6089944 -0.68145627 -0.3782401
000100 24 e1 b7 3f 54 b7 83 40 10 aa 97 40 3d dc a1 40
       1.4365582 4.116129 4.7395096 5.0581346
000110 8f b2 b5 40 0f f9 29 c0 c9 cf a8 bf 5e a1 ba bf
       5.6780467 -2.6558263 -1.3188411 -1.4580495
000120 9f 2a c2 bf fa 18 f9 bf f5 fd c4 3f 1d 18 52 40
       -1.5169257 -1.9460747 1.5390002 3.2827218
000130 fb 30 52 40 c5 b6 56 40 ac 5d 5b 40 61 aa c1 bf
       3.2842395 3.3549054 3.4275923 -1.513012
000140 71 b1 23 bf f3 86 5a bf cc b2 66 bf 39 f0 8e bf
       -0.6394263 -0.85362166 -0.9011657 -1.116706
000150 3c 07 e4 c0 39 94 45 c0 15 51 58 c0 c7 56 6b c0
       -7.125883 -3.0871718 -3.3799489 -3.6771715
000160 6d 20 8c c0 1f 95 8d 3f c8 93 5a 40 21 92 60 40
       -4.378958 1.1061133 3.4152699 3.508919
000170 ca 9e 6f 40 90 18 82 40 c0 25 74 c0 02 ba 16 40
       3.7440667 4.0654984 -3.814804 2.355103
000180 4e ab 12 40 ad 37 24 40 19 71 2e 40 34 7e 84 c0
       2.2917056 2.5658982 2.725653 -4.1404057
000190 29 59 3d 40 f1 50 36 40 f9 a6 3d 40 a4 5e 37 40
       2.958567 2.8486903 2.9633162 2.8651514
0001a0 fa f2 e6 bf 66 ca 52 bf 94 ee 7a bf 3f 21 50 bf
       -1.80429 -0.82340086 -0.9802029 -0.8130073
0001b0 94 1c 3b bf 26 33 ef 3f f6 7c 4f 40 60 38 57 40
       -0.7309048 1.8687484 3.242002 3.3628159
0001c0 e9 6e 57 40 5d 78 65 40 81 bb cf c0 62 09 14 3f
       3.3661444 3.5854714 -6.4916387 0.5782682
0001d0 14 3c d3 3e be 8b 21 3f 30 06 2a 3f 3d c4 ce c0
       0.41256773 0.63103855 0.6641569 -6.461455
0001e0 49 e6 26 bd 97 4f 0c be 23 d2 6e be 24 eb 8b be
       -0.04074696 -0.13702236 -0.23322348 -0.27327836
0001f0 2e b4 0c 3e c9 b6 40 bf fa 8f 1d bf ea 0b 23 bf
       0.13740608 -0.7527891 -0.61547816 -0.63690054
000200 d8 81 c8 be 42 f8 3e 3f f4 a2 35 40 22 dc 2b 40
       -0.39161563 0.7459756 2.8380709 2.6853108
000210 7c 01 39 40 f3 53 33 40 f9 fa 7a c0 b2 a4 cb bf
       2.8907156 2.8019989 -3.9215682 -1.5909636
000220 73 ae 08 c0 db 3d 08 c0 3d e2 2f c0 08 e2 2e 40
       -2.1356475 -2.1287754 -2.7481835 2.7325459
000230 9f 4c 0b c0 72 7b 2b c0 3e 92 36 c0 1d 26 74 c0
       -2.1765516 -2.6794095 -2.852676 -3.8148263
000240 80 e0 c0 40 f5 78 3a 3f 9a 97 36 3f f4 ff 06 3f
       6.027405 0.72840816 0.71325076 0.52734303
000250 ea dc 43 3f e8 c6 b7 40 16 09 11 40 c8 1e 3e 40
       0.76508963 5.7430305 2.2661796 2.9706287
000260 f7 3b 55 40 ed ad 8c 40 e2 a7 e4 c0 7f 91 c3 3f
       3.331785 4.396231 -7.1454935 1.5278777
000270 7d 99 ae 3f c5 ca 8d 3f fb b9 8c 3f 21 9a dd 40
       1.3640591 1.1077505 1.0994257 6.9250646
000280 2a a3 62 be cf d6 b2 be d3 0f c5 be d9 65 ec be
       -0.22132555 -0.3492951 -0.38488635 -0.46171454
000290 d5 68 42 3e 80 1f 80 40 a5 f1 7d 40 5a 3c 83 40
       0.18985303 4.003845 3.9678738 4.101117
0002a0 a1 3f 86 40 d1 63 33 c1 89 bc 08 40 c8 7f fd 3f
       4.195267 -11.211869 2.1365073 1.9804621
0002b0 f5 5e 01 40 89 30 04 40 24 ab 89 40 bf 7a f1 bf
       2.0214207 2.0654624 4.302141 -1.8865584
0002c0 dd 3a fe bf 6a 75 0a c0 91 9d 2a c0 ef dc 3d be
       -1.9861714 -2.1634164 -2.665867 -0.1854131
0002d0 4f fd d2 3f dc 11 d6 3f ff 1f e3 3f fd 27 ed 3f
       1.6483554 1.67242 1.774414 1.8527828
0002e0 b1 bf 79 c0 ff ee 4e 3f 59 7a 89 3f fc 7e 70 3f
       -3.902325 0.8083343 1.0740463 0.9394376
0002f0 1e 6d 86 3f ae 95 05 c1 c1 32 08 c0 af 7b 04 c0
       1.050205 -8.349043 -2.1280978 -2.070049
000300 23 b2 02 c0 5b d4 08 c0 96 d9 2a 3e ff 1e 8a 3e
       -2.0421226 -2.1379611 0.16684565 0.26976773
000310 1a 23 c5 3e a5 1b 5e 3f 05 d1 43 3f d0 e8 a9 c0
       0.38503343 0.8676093 0.76490813 -5.3096695
000320 7d 6a be 3e d5 17 0f 3f 71 d4 de 3e 82 06 20 3f
       0.3719062 0.5589574 0.43521455 0.6250993
000330 2f 73 c4 40 a9 13 66 40 2c aa 62 40 55 cb 72 40
       6.1390605 3.59495 3.5416365 3.7936604
000340 6b bd 7f 40 da 45 26 c1 86 81 81 3f 99 0b 47 3f
       3.9959362 -10.392054 1.0117652 0.7775207
000350 a6 53 75 3f 1e fc d1 3e 03 d9 94 c0 6c d0 06 40
       0.9583076 0.41012663 -4.6514907 2.106471
000360 eb 15 14 40 8f b0 0f 40 f2 07 10 40 ab 19 29 40
       2.3138378 2.2451513 2.250485 2.6421916
000370 e3 76 11 40 ed 2b 25 40 f9 f8 34 40 89 52 40 40
       2.2728813 2.580806 2.827696 3.0050375
000380 62 a4 7e 40 4d aa 54 40 da 11 4b 40 e5 8d 57 40
       3.9787831 3.3228943 3.1729646 3.3680356
000390 9e e7 51 40 92 a5 ce c0 79 b5 45 40 08 9b 4c 40
       3.2797618 -6.457711 3.0892012 3.1969624
0003a0 a0 bd 50 40 9e 30 51 40 ec 2c f1 c0 f4 03 ac 3e
       3.2615738 3.2685924 -7.5367336 0.33596766
0003b0 9a 4c a6 3e 96 42 43 3e 8c 8e d9 3e 0a 00 09 c0
       0.32480317 0.1906837 0.42491567 -2.1406274
0003c0 71 d3 4d 3e 9e 7b da 3e b3 a6 34 3f e7 fa 6e 3f
       0.2010019 0.42672437 0.7056686 0.93351597
0003d0 7f a1 a4 c0 7c c9 35 40 1b bf 35 40 02 a6 42 40
       -5.144714 2.8404226 2.8397892 3.0413823
0003e0 9c e7 41 40 ed 0c 25 3f e0 dc 58 40 fe 67 67 40
       3.0297613 0.6447285 3.3884811 3.6157222
0003f0 d9 71 6e 40 0c 05 74 40 d0 53 30 3f 81 a2 07 3d
       3.7256987 3.812808 0.6887789 0.03311396

weight_hh_l0 f4 [192, 64]
000000 0b 66 02 40 ad 79 f1 3f cf d4 3b bf b1 b5 29 bf
       2.0374782 1.8865258 -0.73371595 -0.66292864
000010 d4 44 04 3e 21 05 08 40 55 e2 4d 3f ec 63 b5 bf
       0.12916881 2.125313 0.8042348 -1.4171119
000020 49 e3 1c bf 62 06 1b 3e 3c 45 da 3f fe 12 c3 bf
       -0.6128431 0.15139154 1.7052379 -1.5240171
000030 cc dd 80 bf 54 d9 e9 bf 38 8e af bf fa 4c 4a bf
       -1.0067687 -1.8269448 -1.3715277 -0.79023707
000040 bf ae aa 3f 57 18 a8 3c f3 29 a0 bf 80 5c 1c c0
       1.3334578 0.020519419 -1.2512802 -2.4431458
000050 7d 24 b9 bf 45 6a 34 3f 4d b7 a1 3e ff 30 df 3f
       -1.446426 0.70474654 0.3158516 1.7436827
000060 09 13 37 3e 82 2b 73 bf cd b4 5f bf 6f d7 fd be
       0.17878355 -0.9498826 -0.87385255 -0.49578425
000070 58 e4 fa bc 9a 1f 85 3f 0e 5b 99 bf 07 72 82 3f
       -0.03062646 1.0400269 -1.1980913 1.0191048
000080 53 39 f8 bd 53 d1 75 be 3c 2f ae bf 0a b6 0b 40
       -0.12120309 -0.24005632 -1.3608165 2.1829858
000090 ab 07 8c 3f d6 34 02 bf 47 51 96 be 91 6e a6 3f
       1.093984 -0.5086187 -0.29358885 1.3002492
0000a0 e7 31 74 bf 91 78 fb bf d0 b4 21 3f cf a3 b0 3f
       -0.95388645 -1.9646169 0.6316652 1.379999
0000b0 f1 40 75 3e d1 96 3c bf 85 3e 17 bf a1 56 a4 bf
       0.23950554 -0.7366763 -0.5907977 -1.2838937
0000c0 34 54 68 3f 46 8a f9 3f 8c 5a 9a 3e 3e fb 3a bf
       0.90753484 1.9495323 0.30147207 -0.73039615
0000d0 c3 ab 16 3f c1 0f 24 be 9d 68 ee bf 9d 8f 33 bf
       0.5885584 -0.16021635 -1.8625675 -0.7014101
0000e0 dc 95 0e 3f 1a ad 39 bf 33 02 e1 3f a0 54 65 be
       0.5569742 -0.7252976 1.7578796 -0.22395563
0000f0 c0 ef e0 bf bb 7d c1 3e 7d 9c 4e bf 46 8e c9 3f
       -1.7573166 0.37791237 -0.8070753 1.5746543
000100 7a ec 91 bf 82 89 40 3f 07 48 91 bf 67 d4 e3 3e
       -1.1400292 0.7520982 -1.1350106 0.44497988
000110 43 a6 32 bf 0a ba 5a 3f e1 38 10 3f 34 ea 02 3e
       -0.69784945 0.85440123 0.5633679 0.12784654
000120 6f 0a 05 3f c5 48 3b be 72 cd a4 3e 6e 4b 04 be
       0.51969045 -0.18289478 0.32187992 -0.12919399
000130 da d4 f8 be 44 32 83 bf 08 5f 76 be 8a d8 fd bf
       -0.48599893 -1.0249715 -0.24059689 -1.9831707
000140 bf f9 e5 be 02 5b d9 3e a1 a3 4e 3f d8 b3 ca be
       -0.44917104 0.42452246 0.8071843 -0.39590335
000150 07 92 d3 bc 77 ca 48 bf c5 f6 b0 bf 9e c6 7c 3f
       -0.025826467 -0.78433937 -1.3825308 0.98740566
000160 59 81 ad 3f 80 83 59 bf e8 d9 5d 3e 2f a6 35 3d
       1.3555099 -0.8496628 0.21665156 0.04434794
000170 38 46 b8 3f 11 d4 52 3f cb 39 92 3f 00 be b9 3e
       1.4396429 0.8235484 1.1423887 0.3627777
000180 e2 65 9c bd f1 16 ea 3c b1 c2 9b bf f3 21 19 3f
       -0.0763662 0.028575392 -1.216879 0.5981743
000190 92 36 04 bf 3f 14 5e 3d d0 c5 51 be bb c5 06 3f
       -0.5164577 0.054218527 -0.20485616 0.5264546
0001a0 35 e7 a2 bd 04 5d 94 3f 8e 2f a7 bf 6d 62 66 3f
       -0.079542555 1.1590886 -1.3061388 0.89993936
0001b0 76 97 1e 3e 15 b2 41 bf 55 ce fe bf 07 d0 ad bf
       0.15487465 -0.75662357 -1.9906718 -1.357911
0001c0 38 32 88 be 47 6d 15 40 d8 ab a1 3f 09 38 01 c0
       -0.26600814 2.3347948 1.2630568 -2.019045
0001d0 4b 45 01 bf bf 0e 71 bf c3 b8 a1 bf 22 30 80 bf
       -0.5049636 -0.94163126 -1.263451 -1.0014689
0001e0 58 c5 a1 3f f2 a3 96 3e 70 53 36 40 14 e7 e7 be
       1.263835 0.29421955 2.8488426 -0.45293486
0001f0 2f c5 26 3e 8b b1 11 c0 05 71 41 3f 47 22 56 be
       0.16286157 -2.2764614 0.7556308 -0.20911513
000200 d9 50 07 c0 96 54 64 c0 c7 6e 99 3f 9f 69 3a 40
       -2.1143095 -3.5676627 1.1986932 2.9126966
000210 ba d8 91 3e bd e7 a8 be 21 08 89 40 6c 0a da bf
       0.28485662 -0.32989302 4.2822423 -1.703443
000220 35 31 c1 3f 95 48 e7 3f 92 85 22 c0 3f 9c 12 40
       1.5093142 1.8069025 -2.5394025 2.2907865
000230 e6 bf 15 c0 7a d0 c3 bf 37 b5 44 c0 b9 f4 4b c0
       -2.3398376 -1.5297997 -3.0735605 -3.1868117
000240 09 d5 3d 3f 21 da 30 be c4 26 2b 3f af 72 d7 3e
       0.7415319 -0.1727071 0.66856027 0.42079684
000250 a7 39 1f 3f d0 42 06 bf dd 13 78 c0 ac 8b de 3f
       0.62197345 -0.524457 -3.8762124 1.7386374
000260 e8 a8 e8 3d 0e b1 0f bf 4e 38 6a 3f 40 b7 e3 3e
       0.11360341 -0.5612954 0.91492164 0.44475746
000270 df d0 e2 be 05 b4 dc 3e 99 1b 9e 3f 14 09 97 3f
       -0.4429998 0.43106094 1.2352172 1.1799645
000280 99 59 81 be 5e 07 f2 3f 07 22 ce bd 58 70 09 3f
       -0.2526367 1.8908498 -0.10065084 0.5368705
000290 1b 76 01 c0 2a 25 05 c0 68 28 94 3f 8f d6 ea 3f
       -2.0228336 -2.0803933 1.1574831 1.8346728
0002a0 31 14 10 3f fa 6e 14 40 55 d0 69 bf 1c c8 09 3e
       0.5628081 2.3192735 -0.91333514 0.13455242
0002b0 66 a8 31 bf 2d 6a c3 bf 85 ab 14 c0 3b 29 08 40
       -0.6939758 -1.5266777 -2.3229687 2.1275165
0002c0 1d b2 4e 3d 57 24 3e 3d 24 54 a6 3f 76 70 38 bf
       0.05046283 0.046421375 1.2994428 -0.720466
0002d0 3f 7b d0 be 01 60 ae 3e 70 78 f5 be 9e 50 da be
       -0.4071903 0.3405762 -0.4794345 -0.4263963
0002e0 13 4c 64 3f b6 57 9b 3f 17 f1 95 be af 86 35 3f
       0.8917858 1.2136142 -0.292855 0.70908636
0002f0 8e b9 8a bd d3 95 9d 3e 30 64 2e 3e c6 f2 27 c0
       -0.06773673 0.3077837 0.17030406 -2.6241927
000300 2b e2 f7 bc 60 26 25 3f 27 e2 b4 bf af 2e 71 bf
       -0.030259212 0.6451168 -1.4131516 -0.9421186
000310 f1 51 14 3f d2 fd 14 bf 9d 68 db 3f bd a7 a9 bf
       0.5793753 -0.581998 1.71413 -1.3254315
000320 89 7f 8e bf 65 fd 97 bf 06 a3 27 3f 2c c5 91 3e
       -1.1132671 -1.1874205 0.6548313 0.28470743
000330 7b a5 33 3f 01 b2 0d 3e b7 bb 79 bf 52 27 2e c0
       0.7017438 0.13837434 -0.97552055 -2.72115
000340 d8 cb 22 3f 96 4d 9d 3e c2 d8 00 3f b8 80 3e bf
       0.6359229 0.30723256 0.50330746 -0.7441516
000350 58 71 8c be 50 79 13 bf ae f0 d0 bf f7 5c a0 3f
       -0.27430224 -0.57606983 -1.632345 1.2528371
000360 df 00 96 3f 5e 0c b3 be de 88 be 3f 04 19 be bd
       1.1719016 -0.34970373 1.4885519 -0.09282115
000370 68 07 1c 40 43 28 f1 3e c4 d0 23 3f 5f 8c 80 3e
       2.437952 0.4710103 0.63990426 0.25107095
000380 01 64 cf bf 05 fe b4 3e f0 7d 78 be b2 58 1f 3f
       -1.6202394 0.35350052 -0.24266791 0.62244713
000390 16 02 ba 3e 29 65 48 bf 06 f0 6a be a3 1f b5 be
       0.36329716 -0.7827936 -0.22943124 -0.353757
0003a0 25 e2 7d bd 43 f5 0a be d0 22 dd be e4 bd 3c 3b
       -0.061983246 -0.13570122 -0.43190622 0.0028799707
0003b0 92 f8 9d be 1e 1e 02 c0 d7 fd 70 bf 85 a0 a7 be
       -0.30853707 -2.0330882 -0.9413733 -0.32739654
0003c0 7c 77 78 3f d5 df c3 bd 6a 8c 92 3f e4 35 51 bf
       0.9705732 -0.09564177 1.1449101 -0.81722856
0003d0 39 31 63 40 37 ea d6 3f 6d 91 da be d1 f1 3a bf
       3.5498793 1.6790227 -0.42689076 -0.7302523
0003e0 93 91 1a 3f 61 6d 69 3e 15 99 0f bf 42 8a a2 be
       0.6037838 0.22795631 -0.5609296 -0.31746107
0003f0 96 9f 14 be 01 55 98 bf c0 7c 9f 3f 07 0d cd 3d
       -0.14514002 -1.1900941 1.2459946 0.100122504

bias_ih_l0 f4 [192]
000000 2b ac 09 c0 36 74 be bf c1 3f 98 3e 95 52 b9 be
       -2.1511333 -1.4879215 0.2973614 -0.36195818
000010 c1 69 88 3f db 9e 54 3f d7 25 4c 40 d1 a4 7f 3f
       1.0657274 0.83054894 3.1898096 0.99860865
000020 72 3b c8 bf 03 8f 4e bd ac e8 02 c0 3a 64 a6 bf
       -1.5643141 -0.050429355 -2.0454512 -1.2999337
000030 27 ba f9 bf 58 3f b8 bd 3b 9d 80 3f cf 8a 56 be
       -1.9509934 -0.08996457 1.0047983 -0.20951389
000040 af 6d f1 bb 3b 9e ce bd 6d d9 6a bf ef 5e 48 bf
       -0.0073678116 -0.10088774 -0.91738015 -0.7826986
000050 9b 66 8a 3c 9c 98 19 bf 28 e0 80 bf c0 e8 10 c0
       0.01689463 -0.5999849 -1.0068407 -2.264206
000060 0e 87 b1 3d eb 4b 26 bf 73 f7 0d bf 13 37 4d bf
       0.08668338 -0.6495959 -0.554557 -0.8016216
000070 b1 82 b5 3e dd fb 9d 3f d5 05 9c bf 36 8f 78 3f
       0.35451272 1.2342488 -1.218928 0.9709352
000080 90 f5 74 3e 38 4c 7f bf 40 72 69 40 e5 f1 d9 3d
       0.239218 -0.99725676 3.6475983 0.10641841
000090 3b c1 d3 bf fd 3e d6 bf c7 54 cf bf 69 e0 c1 3f
       -1.6543344 -1.6737972 -1.6197747 1.514661
0000a0 9a af b6 3f 7a 45 18 bf 16 a0 10 bf 93 cf be 3f
       1.4272339 -0.5948101 -0.5649427 1.4907097
0000b0 f6 f4 03 40 38 8d b5 be 3e f5 a1 bf 20 65 a8 3f
       2.0618262 -0.35459304 -1.2652967 1.3155861
0000c0 07 42 e9 bd 1b 2e bc 3f 29 05 72 bd 9c 58 b5 3e
       -0.11389547 1.470157 -0.059086952 0.35419166
0000d0 94 27 7d 3f 23 be bd be ce 66 aa 3f 6f 32 0d 40
       0.98888516 -0.37059125 1.3312624 2.2062032
0000e0 c6 d4 2e 3f a1 27 17 bf bd 8d 14 c0 fe 23 09 c0
       0.68293417 -0.59044844 -2.321151 -2.1428218
0000f0 88 a3 cc bf 14 4c 85 be 09 5c 12 be 9a b9 b3 bf
       -1.5987406 -0.26034606 -0.14292921 -1.4041016
000100 f5 82 68 bf 25 1a 41 bf 72 9c d0 3e ce 3c c0 bf
       -0.90824825 -0.7543052 0.40744358 -1.5018556
000110 ad 44 71 3e ae 07 31 be 85 7d 9e 3f e5 d5 cd 3e
       0.23561354 -0.17288086 1.2382056 0.4020225
000120 4c 96 33 bf 3e 36 18 bf ba 7f 04 c0 b7 f0 b5 be
       -0.7015121 -0.59457767 -2.0702958 -0.35535213
000130 f1 1f 46 3f 41 ea a0 be a7 b9 db bf 1f 6a 8d be
       0.7739249 -0.31428722 -1.7166032 -0.27620026
000140 80 2e 17 bf 49 2d 9b bd bb 6d ad bf a9 0f f3 bf
       -0.5905533 -0.07576997 -1.3549112 -1.8989154
000150 78 2e 7d 3f 91 6e 25 be df 7f af bf 62 20 c1 bf
       0.9889903 -0.16155459 -1.3710898 -1.5088007
000160 54 c9 25 bf 75 cd 96 3e 21 c6 94 bf 1c 8b 1c 3f
       -0.6476033 0.29453626 -1.1622964 0.61149764
000170 c7 9c b0 bf e9 00 45 bf 1d c8 cc bf f6 a5 27 3f
       -1.3797845 -0.76954514 -1.599857 0.6548761
000180 7f 14 db 3d 50 f5 df bd 4b ba 19 bf cc d9 f8 be
       0.10697269 -0.109354615 -0.60049886 -0.48603666
000190 05 bd 34 bf d2 b2 d9 bf cc 13 ae 3e 4b e2 3b 3f
       -0.7060092 -1.7007697 0.3399948 0.7339217
0001a0 e2 14 55 3d f1 4d 84 bf d4 8b ce 3e ee 31 43 bf
       0.05202187 -1.0336286 0.40341055 -0.7624806
0001b0 c2 0b 4d 3f 09 d6 23 bf 1f a8 e1 bf 31 09 82 be
       0.80096066 -0.63998467 -1.7629431 -0.25397637
0001c0 f8 2c 36 3f 4d 03 c4 bf 4b 7c 94 bf 2a 8a 5d 3e
       0.71162367 -1.5313507 -1.1600431 0.21634737
0001d0 f0 47 99 bd 67 2c da 3f 95 cf 1f 3f 32 bb 59 3f
       -0.07484424 1.70448 0.6242612 0.8505126
0001e0 25 6d 50 bf 60 e8 2d be 6d f4 60 3e 62 f0 3b 3f
       -0.8141654 -0.16983175 0.21968241 0.7341367
0001f0 95 4d 87 bf 11 90 51 3f bf 37 a1 bf b7 81 79 bf
       -1.0570551 0.8186045 -1.2595137 -0.97463554
000200 7c b6 c6 3f 63 eb 97 3f d9 8f a7 3f d8 12 db bf
       1.552444 1.1868709 1.3090774 -1.7115126
000210 c1 e7 08 bf 5f 64 4b 3f 01 6b 7a 3f 12 08 2f 3d
       -0.5347863 0.7945003 0.97819525 0.042732306
000220 15 50 b4 bf fb cd 85 bf 47 43 cb 3f 81 b0 b1 bf
       -1.4086939 -1.0453485 1.5879906 -1.388199
000230 5e 0a 64 3f ce fc b8 3f c9 6a 25 40 f2 f0 0d 40
       0.8907832 1.445215 2.5846426 2.2178311
000240 08 57 ff 3d be b9 80 3d 34 e6 9c bf 14 28 8b 3f
       0.12467772 0.062854275 -1.2257752 1.0871606
000250 4e 5a 34 3f 8a be aa 3f cf 01 d6 3f 08 4e 5d c0
       0.70450294 1.3339398 1.6719302 -3.4578876
000260 c0 0a 03 40 c0 96 1c 40 3f c9 94 bf e2 80 0b 3f
       2.0475311 2.446701 -1.1623915 0.54493535
000270 ee 3a 00 3f a0 2c 8c bf 4f f5 f0 bf 78 8f fc bf
       0.5008992 -1.0951118 -1.8824862 -1.9731283
000280 20 b5 35 bf 5b d6 7c bf 5e 98 23 40 75 2a e5 bf
       -0.709795 -0.9876458 2.5561748 -1.7903582
000290 84 47 b4 3f 35 40 42 40 4e fc 86 3f 31 fc d2 bf
       1.4084325 3.035169 1.0545747 -1.6483213
0002a0 64 eb 96 3f 86 18 ca bf 70 91 73 40 4c b6 b2 bf
       1.1790586 -1.5788734 3.8057518 -1.3961883
0002b0 c4 a8 59 bf b9 fa 0f 40 51 3c c2 3f e2 ca dd 3f
       -0.8502314 2.249678 1.5174657 1.732754
0002c0 31 f3 36 c0 d9 c6 87 bf 16 3c e6 bf c9 de 56 40
       -2.8585932 -1.0607558 -1.7987087 3.3573477
0002d0 fd fc 04 c0 7a 31 9e 3f 30 80 7d 3f 40 37 7d bf
       -2.0779412 1.2358849 0.99023724 -0.9891243
0002e0 87 a1 f6 3f ba 2b 55 bf bc b1 24 40 b7 76 80 3f
       1.9268044 -0.83269846 2.573348 1.0036229
0002f0 c4 e6 8e bf bd eb 08 bf b5 2e f9 bf d1 51 d5 3f
       -1.1164174 -0.5348471 -1.9467379 1.6665593

bias_hh_l0 f4 [192]
000000 fd a5 14 c0 be 47 c6 bf 8f c5 7d 3e a9 56 cc be
       -2.3226311 -1.5490644 0.24782394 -0.39909866
000010 0d c4 84 3f 84 21 49 3f 3b 32 4b 40 1c 59 70 3f
       1.037233 0.78566766 3.1749408 0.9388597
000020 f6 b0 b4 bf d7 aa fd bd 58 da 06 c0 c8 f9 c0 bf
       -1.4116504 -0.12386101 -2.1070766 -1.5076227
000030 b8 e7 f3 bf 3c 83 f6 bd ed b1 7a 3f 01 62 32 be
       -1.905509 -0.1203675 0.97927743 -0.17420198
000040 3a 64 80 be c1 ee 89 be cd b8 8f bf 80 7a 43 bf
       -0.25076467 -0.26939967 -1.1228272 -0.76358795
000050 f6 dd e9 3d 8a 39 1d bf 45 45 99 bf 86 7c 1a c0
       0.11419289 -0.6141592 -1.1974264 -2.4138503
000060 58 a8 48 bb 59 4d 0e bf c1 a2 31 bf fd 28 61 bf
       -0.0030617919 -0.55586773 -0.6938897 -0.8795317
000070 37 ac 4b 3e af db 93 3f 23 1c b2 bf a4 08 85 3f
       0.19889913 1.1551417 -1.3914837 1.0393262
000080 4d a7 19 3e ce 1c 7d bf 7e d1 65 40 81 4a f1 3d
       0.15005226 -0.9887208 3.5909114 0.117817886
000090 f0 91 d3 bf 0d 7e cd bf 86 85 cf bf 9a 79 b0 3f
       -1.6528912 -1.6054093 -1.6212623 1.378711
0000a0 c7 9f bf 3f c8 4a 21 bf 18 1d 00 bf 5e 7e cf 3f
       1.4970635 -0.6300473 -0.50044394 1.6210439
0000b0 eb 87 08 40 d1 d7 a4 be c8 b6 9d bf ca 10 b6 3f
       2.1332958 -0.32195905 -1.2321405 1.4223874
0000c0 32 70 4e bd 78 11 ce 3f e5 84 32 bd 13 6e c1 3e
       -0.050399967 1.6099081 -0.04358377 0.37779292
0000d0 dd d4 82 3f e0 8a f9 be 95 52 a4 3f d5 5d 0a 40
       1.0221211 -0.48738766 1.2837702 2.161977
0000e0 c1 8d 33 3f eb ba 0f bf be e8 09 c0 c0 c6 ff bf
       0.70138174 -0.5614459 -2.1548305 -1.9982529
0000f0 b6 2b ca bf 25 64 d2 be cb 3f 2e be d2 9e bc bf
       -1.579459 -0.4109203 -0.17016523 -1.4735968
000100 10 e1 6a bf 4d 53 37 bf cc ff 84 3e 1c 3d d6 bf
       -0.9174967 -0.7161148 0.25976408 -1.6737399
000110 17 10 96 3e 73 dd 43 be fa 3e 86 3f 75 f6 07 3f
       0.2930915 -0.19127445 1.0487969 0.5311044
000120 00 9a 58 bf c3 55 11 bf 31 ab 06 c0 6a 30 87 be
       -0.84609985 -0.56771487 -2.1041987 -0.26404124
000130 f5 aa 3e 3f 73 ff 0c be 22 68 dd bf 76 9c c7 be
       0.7447961 -0.13769321 -1.7297404 -0.38986558
000140 22 a7 cf be cc b5 52 3b 22 bc a3 bf 42 c8 e8 bf
       -0.405572 0.0032151816 -1.2791789 -1.8186114
000150 ba 9b 7a 3f 94 cf 88 be 9e 13 94 bf 5d 35 bb bf
       0.9789387 -0.2672087 -1.1568487 -1.462566
000160 48 c7 38 bf 0d 8c c3 3e 77 1e 97 bf 98 85 15 3f
       -0.7217908 0.38192788 -1.1806172 0.5840697
000170 1f 29 97 bf df ee 64 bf 57 80 c5 bf 80 c5 07 3f
       -1.1809424 -0.8942699 -1.5429791 0.53035736
000180 ba cc fa 3d 40 b7 21 be c6 34 0b bf 3d 91 f4 be
       0.1224608 -0.1579256 -0.543774 -0.47767058
000190 f8 99 64 bf c2 63 d5 bf 8c 07 ab 3e bd 68 27 3f
       -0.8929744 -1.6671069 0.33404195 0.6539419
0001a0 e1 e9 14 bd 30 df 8e bf 48 ca dc 3e 6e 60 4e bf
       -0.036355857 -1.1161861 0.43123078 -0.8061589
0001b0 64 ad 56 3f d7 75 35 bf 6f e5 f7 bf 7d 65 77 be
       0.83858323 -0.70882934 -1.9366893 -0.24159808
0001c0 9c b8 1d 3f cc ac ae bf e3 a3 94 bf ab 9d 71 3e
       0.61609817 -1.3646483 -1.1612514 0.23595302
0001d0 68 ea 0a be 55 ce da 3f 53 d2 28 3f e9 46 5b 3f
       -0.13565981 1.7094218 0.6594593 0.85655075
0001e0 54 52 1e bf e4 97 a5 be 5b 3b 70 3e b6 f7 21 3f
       -0.6184437 -0.32342446 0.23460142 0.632686
0001f0 0f 31 74 bf 15 ce 3d 3f 4b 42 94 bf d1 f7 80 bf
       -0.9538736 0.7414258 -1.1582731 -1.0075628
000200 a1 bc 0a bf 50 93 1b 3f 7b a5 92 3e 99 9b 11 bf
       -0.54194075 0.60771656 0.28641877 -0.5687805
000210 3f 57 54 bd db e8 cd 3f 36 28 a1 3f cb ed 6f 3f
       -0.051841017 1.6086687 1.2590396 0.9372222
000220 f7 63 c1 3e 0f 75 52 bf 74 8f 7c bf 93 d4 97 3d
       0.3777158 -0.8220987 -0.9865639 0.07413592
000230 24 32 cc 3e 0d af f5 bf cc ec d6 3f 6c 75 06 3f
       0.39882004 -1.9194046 1.6791015 0.5252292
000240 ca 77 93 be eb 38 f9 3f 9c 2f a5 bf f8 35 27 bd
       -0.2880233 1.9470495 -1.2905154 -0.040822953
000250 38 51 63 3e cf b2 45 3e a5 6b 75 3f e8 3b 7e 3e
       0.22198951 0.19306491 0.9586738 0.2482754
000260 e1 68 31 3f 1a 95 33 3e a1 84 72 bf 0e b9 01 be
       0.6930066 0.17537346 -0.94733626 -0.12668249
000270 de 64 62 bf 1a 36 45 c0 42 8c d0 3e 5c 17 95 bf
       -0.8843516 -3.081427 0.40732008 -1.1647754
000280 11 6f 93 3f 41 43 e0 bf 0f a0 1e 40 4a bb 90 3f
       1.151827 -1.7520524 2.4785192 1.1307156
000290 9e 16 0f bf d5 35 2a bf 5f ed 14 bf a5 c5 06 40
       -0.55893886 -0.6648839 -0.581747 2.1058133
0002a0 8a 5f ec 3f c2 28 5f bf c3 35 84 3f ba 94 a3 bf
       1.8466656 -0.87171566 1.0328907 -1.2779763
0002b0 b5 66 c8 3f 26 81 79 3f 5f cb 9e 3f a0 3f f9 3f
       1.5656344 0.9746269 1.2405814 1.9472542
0002c0 c3 91 e0 3f 2b 5b be bf e4 7e 92 bf 35 0d 6f 3f
       1.7544483 -1.4871572 -1.1444974 0.9337953
0002d0 1f 06 9c bf e1 87 52 3e d3 d4 71 3f f0 23 86 bf
       -1.2189368 0.20559646 0.9446537 -1.0479717
0002e0 e2 74 95 3f 55 97 ac bf 88 08 61 3f 19 47 d2 be
       1.1676295 -1.3483683 0.8790364 -0.41069868
0002f0 66 01 82 bf 29 f4 82 be e1 cd f7 bf 2a 10 5c bf
       -1.0156677 -0.25576904 -1.9359704 -0.85962164

weight f4 [1, 64]
000000 bd 7c 24 c2 35 29 02 c2 e5 9c 32 42 b3 c7 eb 41
       -41.121815 -32.54024 44.653217 29.47251
000010 4c f9 2e c2 16 46 54 c2 db 5c 34 c2 92 28 31 42
       -43.743454 -53.068443 -45.09068 44.28962
000020 85 97 45 42 49 a9 b3 41 05 ba 34 c2 f6 88 21 42
       49.39797 22.457659 -45.18166 40.38375
000030 3c 99 18 42 eb f2 46 c2 27 69 ac c1 c2 f4 09 c2
       38.149643 -49.737225 -21.551344 -34.48902
000040 9f 06 32 42 57 fc f9 c1 9e 29 0c 42 a5 6c 94 41
       44.506466 -31.248213 35.04064 18.55305
000050 ea 9c ff 41 69 0a 01 42 cb d4 f5 c1 f3 2a c7 41
       31.951618 32.260166 -30.728903 24.895971
000060 89 5b eb c1 f9 37 31 42 f2 6e 39 42 63 32 35 c2
       -29.419695 44.30466 46.358345 -45.299206
000070 d8 09 22 c2 f0 90 2f c2 50 99 42 42 73 03 33 c2
       -40.509613 -43.89154 48.64972 -44.75337
000080 9d 33 2d 42 45 4d 52 42 97 cc 3a 42 e5 26 87 c1
       43.300404 52.57546 46.699795 -16.893991
000090 f6 d0 07 c2 1a be e8 c1 47 a3 3e 42 0a 4e c8 c1
       -33.954063 -29.092823 47.65945 -25.038105
0000a0 56 e4 2f 42 74 3e dc 41 c8 06 83 c1 5d d7 1f c2
       43.972984 27.530495 -16.378311 -39.960316
0000b0 c0 ed 1d c2 5f 2e 05 c2 9d 08 04 c2 30 0f ef 41
       -39.482178 -33.295284 -33.00841 29.882416
0000c0 85 fa 35 c2 bb ba 18 c2 48 a4 38 42 14 e6 24 42
       -45.494648 -38.182354 46.16043 41.224686
0000d0 40 18 0e c2 bc cf 47 c2 d2 ae 34 42 37 0c 4d c2
       -35.52368 -49.952866 45.170723 -51.26193
0000e0 31 82 45 c2 6a d6 51 42 53 d0 9a c1 6f 5f 3f 42
       -49.37714 52.45939 -19.35172 47.843197
0000f0 ba 38 06 42 0e c3 57 42 13 b7 4c 42 fc e0 31 c2
       33.555397 53.940483 51.178783 -44.46971
