GRU/models/test_epochs=50 (1).pth (torch, 608005 bytes, 9 tensors)

weight_ih_l0 f4 [384, 5]
-0.2126004 -0.19475086 -0.24295233 -0.3373078 -2.0140069 0.22278339 0.14493728 0.1886807
0.103024274 -0.051656373 0.15847096 0.07318318 0.0726302 0.0009292364 0.015165489 -0.20107879
-0.23970155 -0.1518392 -0.21757983 -0.25675207 -0.015873732 -0.099024154 0.017387345 -0.19781387
-0.058798 -0.13487677 -0.06989826 -0.008458782 -0.014440181 0.014739304 -0.13530132 -0.110817835
-0.047261402 -0.17871712 -0.051531337 -0.067863196 -0.1594762 -0.15284133 -0.13312343 -0.65841293
-0.1656171 -0.28966227 -0.19799542 -0.15695377 -0.22110517 -0.15882388 -0.19781885 -0.13397549
-0.18943211 -0.610489 -0.017145501 -0.007051483 0.064870045 0.033193458 -0.0033964217 0.07771464
0.11696523 0.03675229 0.19344787 0.015230811 0.10702185 0.1328512 0.019637922 0.12493987
0.051170547 0.28480193 0.13780454 0.37801164 0.5317148 -0.23254938 0.07503514 -0.042408805
0.11044505 -0.114528574 -0.17347905 -0.23471932 -0.30880794 -0.17120498 -0.21601765 -0.12340443
0.109656006 0.08487717 0.104027964 0.027849926 -0.08888214 -0.053074773 -0.16239457 -0.013475164
-0.14601545 -0.15383987 0.058883123 -0.056586187 0.0037215813 -0.0798843 -0.13967073 -0.08270883
0.00998832 -0.09745652 -0.07348021 -0.15645649 -0.14739601 -0.07536109 -0.13753009 -0.049210835
-0.48184144 0.2650504 0.30074087 0.34220657 0.26731643 -0.052081496 -0.0026560216 -0.054187045
-0.08071808 0.0230584 0.011005694 -0.5419299 -0.53009117 -0.4080253 -0.04050214 -0.08138169
0.026127396 0.07333571 0.11112217 0.03162597 -0.12051422 -0.0071937605 -0.043674447 -0.031357765
0.08344696 -0.25427982 -0.27393046 -0.25231844 -0.16107403 -0.26928276 -0.659229 0.02464853
-0.058290202 -0.008185494 0.0025065085 -0.05809666 0.23331451 0.19924721 0.09391102 0.17233586
-0.06721923 0.0999904 0.19190073 0.2880449 0.4632686 -0.15846042 -0.26596823 -0.20196241
-0.1371573 -0.037544694 -0.052577883 0.2039974 0.13486692 0.1508033 0.07588615 0.05365046
-0.1463019 -0.09022857 -0.19622292 -0.23844258 -0.14962797 -0.003626849 0.005935772 0.01688205
-0.025000447 0.1519166 0.02246516 0.13915853 0.07470598 0.050404817 -0.0124462955 -0.18158816
-0.1185839 -0.12903032 -0.07553475 -0.45699748 -0.24733081 -0.25938275 -0.29679334 -0.2314619
-0.23355103 0.03907855 0.0313083 -0.08328729 -0.09672092 -0.010753134 -0.01106673 0.05516356
0.12581345 -0.0009851559 -0.02283184 -0.1385399 -0.2246093 -0.23563439 -0.21988556 -0.2026602
0.053719435 0.06821216 -0.012242023 -0.25939748 -0.124345556 -0.035122126 -0.17104422 -0.013361271
-0.15244372 0.027633108 0.008734135 0.103038065 0.028617514 0.027625605 0.14473252 -0.2335807
-0.24048829 -0.23383322 -0.26715097 -0.30972338 0.07250409 0.037870247 0.0964233 -0.055722803
-0.07233483 0.036188778 -0.03827393 0.021408148 -0.044087972 -0.102126 -0.11595531 -0.1373468
-0.029264592 -0.063789174 -0.22517729 -0.11394406 -0.15433921 -0.14379862 -0.17887291 -0.18570851
0.17594424 0.04021186 0.109532125 0.17237218 -0.056421757 0.22453786 0.20228367 0.10182587
0.10457411 -0.104154 0.03591275 0.102200024 0.13379525 0.08604296 -0.29108983 -0.27386943
00000000: ebb3 59be c56c 47be 7fc8 78be 9cb3 acbe
00000010: 7de5 00c0 5421 643e 706a 143e 8335 413e
00000020: 64fe d23d a295 53bd 3646 223e 10e1 953d
00000030: 24bf 943d 0098 733a ac78 783c 99e7 4dbe
00000040: 5374 75be bc7b 1bbe 3fcd 5ebe 0275 83be
00000050: a109 82bc 2dcd cabd e86f 8e3c b88f 4abe
00000060: 2cd6 70bd 231d 0abe d226 8fbd b496 0abc
00000070: 8296 6cbc 1f7d 713c 6e8c 0abe 76f4 e2bd
00000080: 2c95 41bd 9f01 37be 8612 53bd dcfb 8abd
00000090: bb4d 23be 7082 1cbe 8251 08be c08d 28bf
000000a0: 8797 29be 9d4e 94be 50bf 4abe 7db8 20be
000000b0: 6569 62be baa2 22be 0691 4abe df30 09be
000000c0: 7efa 41be 0249 1cbf b974 8cbc 2010 e7bb
000000d0: 96da 843d ddf5 073d 8096 5ebb da28 9f3d
000000e0: 778b ef3d 9289 163d 3317 463e a78a 793c
000000f0: 462e db3d 250a 083e b5df a03c 79e0 ff3d
00000100: 3598 513d 8fd1 913e a21c 0d3e be8a c13e
00000110: 761e 083f 6d21 6ebe 06ac 993d dbb4 2dbd
00000120: 0431 e23d f58d eabd 7ea4 31be 435a 70be
00000130: 131c 9ebe 5c50 2fbe bb33 5dbe 76bb fcbd
00000140: 5493 e03d 15d4 ad3d 9d0c d53d 8725 e43c
00000150: d707 b6bd ef64 59bd c34a 26be efc6 5cbc
00000160: 1385 15be 3388 1dbe 6e2f 713d ebc6 67bd
00000170: c6e5 733b 619a a3bd d805 0fbe 3f63 a9bd
00000180: 0da6 233c 4997 c7bd cb7c 96bd 2136 20be
00000190: fbee 16be ea56 9abd b0d4 0cbe 4d91 49bd
000001a0: ecb3 f6be b0b4 873e b5fa 993e b335 af3e
000001b0: b3dd 883e 6853 55bd a610 2ebb 3cf3 5dbd
000001c0: 854f a5bd f8e4 bc3c 3a51 343c ebbb 0abf
000001d0: 0eb4 07bf b1e8 d0be 92e5 25bd 72ab a6bd
000001e0: 1f09 d63c 0831 963d 0594 e33d 3c8a 013d
000001f0: 29d0 f6bd a3b9 ebbb fae3 32bd 0071 00bd
00000200: 3de6 aa3d f730 82be 9d40 8cbe e22f 81be
00000210: 97f0 24be 6edf 89be 3bc3 28bf b7eb c93c
00000220: b5c1 6ebd 731c 06bc 3c44 243b c3f6 6dbd
00000230: 00ea 6e3e 7607 4c3e 6c54 c03d d078 303e
00000240: 3caa 89bd c4c7 cc3d a081 443e 9f7a 933e
00000250: 8b31 ed3e 7343 22be fd2c 88be 3ccf 4ebe
00000260: f772 0cbe 77c8 19bd e85b 57bd b2e4 503e
00000270: 8e1a 0a3e 2e6c 1a3e 336a 9b3d 96c0 5b3d
00000280: 2ad0 15be c2c9 b8bd a9ee 48be 4b2a 74be
00000290: 1338 19be 6eb0 6dbb dd80 c23b 3a4c 8a3c
000002a0: bdcd ccbc 0690 1b3e db08 b83c 937f 0e3e
000002b0: 73ff 983d 4875 4e3d 8ceb 4bbc 3ff2 39be
000002c0: 1edc f2bd 8620 04be f7b1 9abd 93fb e9be
000002d0: 4a44 7dbe d1cd 84be 4cf5 97be 5904 6dbe
000002e0: 0028 6fbe d410 203d 223d 003d 8792 aabd
000002f0: 9e15 c6bd ea2d 30bc 3b51 35bc 2ff3 613d
00000300: 3ed5 003e 5920 81ba d709 bbbc 67dd 0dbe
00000310: fbff 65be 244a 71be ae29 61be 2886 4fbe
00000320: e908 5c3d d1b2 8b3d c492 48bc bfcf 84be
00000330: e2a8 febd 38dc 0fbd 3726 2fbe 3be9 5abc
00000340: 351a 1cbe d45e e23c 9e19 0f3c 9f05 d33d
00000350: 476f ea3c 184f e23c c334 143e c72f 6fbe
00000360: 9042 76be fa71 6fbe 03c8 88be 1094 9ebe
00000370: 067d 943d d51d 1b3d 9479 c53d 983d 64bd
00000380: 4924 94bd af3a 143d 20c5 1cbd 2460 af3c
00000390: 9795 34bd 7027 d1bd fa79 edbd a4a4 0cbe
000003a0: 4cbc efbc e6a3 82bd e094 66be 815b e9bd
000003b0: 190b 1ebe f23f 13be 762a 37be 5f2a 3ebe
000003c0: ba2a 343e 31b5 243d 6152 e03d 5582 303e
000003d0: 801a 67bd 41ed 653e 7323 4f3e 158a d03d
000003e0: f32a d63d b14e d5bd 3f19 133d 3f4e d13d
000003f0: 9f01 093e 4b37 b03d ba09 95be 9d38 8cbe

weight_hh_l0 f4 [384, 128]
0.16230004 0.06592974 -0.07019259 0.21177995 -0.1879804 -0.06162891 -0.104021974 0.00015971504
-0.105964325 0.053016998 -0.05971971 -0.04166568 -0.00072283193 0.103391044 0.048017513 0.06518916
0.020256609 0.060573872 0.019418983 -0.05281324 -0.056060605 0.034620788 0.0451575 0.19250229
-0.00024944328 -0.07456426 0.10733498 0.02798561 -0.013411855 -0.17115355 -0.014199708 0.028712923
-0.06197822 0.017141841 0.05003648 -0.0058448836 0.11709579 -0.024503613 -0.11699285 0.0029663423
0.19005449 -0.027626313 -0.08290788 -0.13930932 -0.05208407 0.01905922 -0.1032406 -0.24785142
0.07255001 -0.102369055 -0.0135303745 -0.13408066 -0.07771397 -0.033154234 -0.18534458 -0.07217827
0.11698212 -0.039655734 -0.092929386 -0.087108165 0.04123128 -0.11981877 -0.00406875 -0.07851658
0.008495006 0.023268696 -0.08142593 -0.073134944 0.0028742035 -0.053852297 -0.16472355 0.11297487
-0.060962904 -0.15252851 0.012655092 -0.03614515 0.024615893 -0.005244196 0.049128152 -0.25708205
-0.03904326 -0.06576921 -0.081743695 -0.011510913 -0.10407445 -0.14580745 0.010360431 -0.09873621
0.0049450286 -0.17189686 0.026275143 0.06644677 0.009722522 -0.017041167 -0.060091276 0.059424855
-0.036846943 0.07979281 0.01259368 -0.16986877 0.030830551 0.03647454 0.011154612 0.106548525
-0.049185935 -0.032126367 -0.25928438 0.13766496 -0.09564514 -0.08386224 0.010616071 0.06779819
-0.10111192 0.04873699 -0.057443377 -0.04103044 -0.037709095 -0.03594175 0.07299723 0.025207128
-0.07495064 -0.09594976 -0.2272331 0.08609599 -0.0050644916 0.08656583 -0.06471851 -0.15035212
-0.0066262796 -0.682692 0.022107048 0.014685732 -0.077597216 0.06161151 0.039235957 -0.14203109
-0.04490611 -0.04586723 -0.043766163 0.18969811 0.0062079164 -0.121090114 0.17636602 0.00043847313
-0.055671815 -0.0396986 0.05058191 -0.058343563 -0.1128784 -0.18598063 0.03365685 0.0005797111
-0.059225563 -0.062360585 -0.00802946 0.1608833 0.0160143 0.21770625 -0.14856844 -0.042689886
-0.03303525 0.01755513 0.07997657 -0.090737306 0.048921674 -0.075297736 -0.0021447707 0.0841708
0.053741086 0.011596533 0.028644554 -0.03549474 0.019235197 0.022418797 -0.030157305 -0.09371715
-0.120972805 0.08653571 0.09704272 -0.14549455 -0.0004953188 0.06791919 -0.11192928 -0.19198525
-0.098763645 -0.015761772 -0.13074891 -0.0625881 0.119383134 -0.11558849 0.0872818 0.014403715
0.025982894 0.051636226 -0.14747804 0.103345245 0.095576935 -0.18590441 -0.040627263 0.15178475
-0.038061447 0.083811454 -0.05929504 -0.0683787 -0.046280615 -0.027040744 0.09315235 -0.17470595
-0.0025343995 0.012655081 -0.09829746 -0.15852916 0.08583199 0.12619488 -0.06284957 0.10857355
-0.07251269 -0.13869852 -0.0023685338 0.18714125 0.078245476 -0.23977718 0.018764911 0.21142015
0.15659939 -5.3035143e-05 0.25812936 -0.021732911 -0.16909598 -0.10479681 0.21729751 0.079098575
-0.15528157 0.19336608 0.07429858 0.23557235 -0.11807813 -0.17681889 -0.022791943 0.13445976
0.024453916 -0.0047529354 0.010478628 0.05986449 -0.018922206 0.0021458452 -0.07702889 -0.22806099
-0.024339747 0.030797077 -0.072057955 0.26358852 0.015614867 0.08201081 0.017566055 -0.026590886
00000000: fb31 263e 2c06 873d 22c1 8fbd d8dc 583e
00000010: ef7d 40be 996e 7cbd 7909 d5bd 2e79 2739
00000020: d303 d9bd 5a28 593d a89c 74bd a2a9 2abd
00000030: 6e7c 3dba afbe d33d 03ae 443d e581 853d
00000040: 30f1 a53c 4f1c 783d 8f14 9f3c b252 58bd
00000050: ce9f 65bd 87ce 0d3d 12f7 383d 521f 453e
00000060: b6c7 82b9 26b5 98bd 71d2 db3d 1442 e53c
00000070: 66bd 5bbc e042 2fbe e4a5 68bc 5d37 eb3c
00000080: e0dc 7dbd 0c6d 8c3c 0df3 4c3d 7086 bfbb
00000090: ebcf ef3d cdbb c8bc f399 efbd f766 423b
000000a0: a59d 423e 9450 e2bc 9bcb a9bd 1aa7 0ebe
000000b0: 1b56 55bd 1522 9c3c cf6f d3bd c3cc 7dbe
000000c0: 1a95 943d dea6 d1bd 81ae 5dbc 714c 09be
000000d0: 8028 9fbd bccc 07bd f8ca 3dbe 33d2 93bd
000000e0: 5294 ef3d 0d6e 22bd c351 bebd c465 b2bd
000000f0: 21e2 283d 8b63 f5bd 2653 85bb 4dcd a0bd
00000100: a32e 0b3c fe9d be3c a3c2 a6bd c6c7 95bd
00000110: 225d 3c3b 3a94 5cbd 4aad 28be 5e5f e73d
00000120: 3db4 79bd 6f30 1cbe 4e57 4f3c f00c 14bd
00000130: 45a7 c93c 81d7 abbb 9a3a 493d 42a0 83be
00000140: d3eb 1fbd 02b2 86bd 3d69 a7bd 4598 3cbc
00000150: fc24 d5bd 8c4e 15be ccbe 293c 3636 cabd
00000160: e809 a23b bb05 30be f83e d73c 3f15 883d
00000170: 374b 1f3c eb99 8bbc 4522 76bd 7a67 733d
00000180: d2ec 16bd 6a6a a33d b955 4e3c 14f2 2dbe
00000190: 5a90 fc3c 5466 153d d5c1 363c 1d36 da3d
000001a0: 3177 49bd f096 03bd ecc0 84be 0bf8 0c3e
000001b0: 99e1 c3bd f7bf abbd 07ef 2d3c c7d9 8a3d
000001c0: c413 cfbd 70a0 473d bf49 6bbd 890f 28bd
000001d0: da74 1abd a837 13bd 927f 953d 2e7f ce3c
000001e0: b97f 99bd 4f81 c4bd cbaf 68be 1853 b03d
000001f0: 09f4 a5bb 6d49 b13d 238b 84bd e8f5 19be
00000200: 4321 d9bb e7c4 2ebf d719 b53c 6d9c 703c
00000210: 4aeb 9ebd 5a5c 7c3d e2b5 203d 9970 11be
00000220: 78ef 37bd 47df 3bbd 2644 33bd 3940 423e
00000230: c76b cb3b 18fe f7bd 4b99 343e dee2 e539
00000240: 2108 64bd 009b 22bd fa2e 4f3d a9f9 6ebd
00000250: ca2c e7bd b571 3ebe c4db 093d c1f7 173a
00000260: 8196 72bd d06d 7fbd ff8d 03bc 97be 243e
00000270: 6c30 833c 63ee 5e3e 5322 18be 97db 2ebd
00000280: f84f 07bd c7cf 8f3c c2ca a33d 7bd4 b9bd
00000290: 1862 483d b335 9abd 488f 0cbb be61 ac3d
000002a0: 9d1f 5c3d 62ff 3d3c fca7 ea3c ef62 11bd
000002b0: 2293 9d3c a0a7 b73c 740c f7bc c7ee bfbd
000002c0: 97c0 f7bd a239 b13d 55be c63d 86fc 14be
000002d0: 48d8 01ba 3719 8b3d 2e3b e5bd c897 44be
000002e0: 9844 cabd d51e 81bc 0be3 05be 312e 80bd
000002f0: 257f f43d a9b9 ecbd cdc0 b23d 8ffd 6b3c
00000300: 14da d43c 8280 533d 7c04 17be aca6 d33d
00000310: d7bd c33d ba5d 3ebe c668 26bd 766d 1b3e
00000320: 52e6 1bbd 57a5 ab3d 5bdf 72bd 220a 8cbd
00000330: be90 3dbd 8d84 ddbc a9c6 be3d 1ee6 32be
00000340: 2b18 26bb 4257 4f3c 2e50 c9bd 7855 22be
00000350: afc8 af3d 3b39 013e 46b7 80bd cf5b de3d
00000360: 8981 94bd fc06 0ebe 6739 1bbb f5a1 3f3e
00000370: 2a3f a03d 2688 75be dfb8 993c 867e 583e
00000380: 975b 203e 0d72 5eb8 8829 843e 3809 b2bc
00000390: 7f27 2dbe b69f d6bd 3d83 5e3e 6ffe a13d
000003a0: 2202 1fbe c201 463e db29 983d e139 713e
000003b0: f2d2 f1bd 0310 35be 2bb6 babc d2af 093e
000003c0: 9453 c83c 83be 9bbb 8dae 2b3c 7834 753d
000003d0: be02 9bbc 4fa1 0c3b 53c1 9dbd d288 69be
000003e0: 2664 c7bc 274a fc3c 1f93 93bd 13f5 863e
000003f0: 80d5 7f3c 49f5 a73d b0e6 8f3c 21d5 d9bc

bias_ih_l0 f4 [384]
-1.2342225 -0.12007456 0.0581187 -0.2699739 -0.07881542 -0.0568802 -0.042390063 0.024552949
-0.051119577 -0.275435 -0.004785588 0.0147377765 0.04752357 -0.5566863 -0.19885696 -0.0056638084
-0.3599085 -0.11501904 -0.029897047 -0.15906313 -0.0339355 -0.30216154 0.42725834 -0.36659923
0.09425418 -0.1409844 -0.02127038 -0.06735568 0.091295 -0.42792964 -0.07577613 0.06836711
-0.018040698 -0.06590181 0.14940062 0.029186092 -0.15019189 0.073043086 0.32808062 0.13425498
-0.51505166 0.004193651 -0.15708883 -0.3761197 0.016989294 -0.10034998 -0.16527084 -0.1245318
-0.048584722 -0.06960614 -0.39228463 0.15337646 -0.24223663 0.03746316 -0.23631409 -0.3331802
-0.3526842 -0.023976652 0.05338067 0.057673186 0.11387015 -0.3412254 0.07575207 -0.016666006
0.07583265 -0.044335037 -0.11962464 0.15494934 -0.86886114 -0.31689295 -0.21188743 0.1919962
-0.01663234 -0.12780792 0.15044843 0.052775737 0.0146171115 0.15933721 0.02291998 0.12345013
0.078182496 0.13401017 -0.17672622 0.03407209 0.044666626 -0.15133815 0.087838545 -0.1213432
0.048775297 -0.020537518 0.08157975 -0.058845885 -0.14273338 -0.19629347 0.1347012 -0.13415101
0.17847973 -0.5173076 0.0139121255 0.024472257 -0.34966886 0.3347801 -0.032250956 0.018231725
-0.113817245 0.08557798 -0.29479665 -0.2923282 -0.50362694 0.114893325 -0.065190814 -0.0637097
-1.024319 -0.12139699 0.08259617 -0.071116656 -0.52998555 0.0665223 -0.18610452 -0.11680563
-0.1327015 -0.12549289 -0.26892716 -0.04733244 0.057360787 0.121525615 0.0012248538 -0.13683319
-0.74238575 0.34314537 1.0285685 -0.44753003 0.5282132 0.46167555 1.1839573 0.99126226
0.28315046 0.008141797 0.67752045 0.27913937 0.7712816 -0.0921919 0.5672838 0.662374
0.55639404 -0.043145116 0.7712923 -0.26076052 0.8434026 0.13408925 1.6069 0.49220073
0.4234035 0.0010070202 -0.13562241 0.48792174 0.16559705 -0.17934735 1.4142783 0.67036384
1.0223236 1.000626 1.3915719 0.6700185 -0.24016298 1.2481722 1.0713123 0.9536514
0.307222 1.074695 0.1286473 -0.21871309 1.1723334 0.6527363 0.34673342 -0.00677769
0.7042165 1.7006917 0.58332247 1.0662205 0.65518546 0.5539172 0.06558382 0.40585673
0.5206621 0.5870642 0.93124574 1.0596797 1.6596503 0.35780713 0.7097251 2.316835
0.8271602 0.55813414 0.5259679 0.47912312 0.3695013 0.363628 -0.54705447 0.29257405
0.72732174 0.46303135 0.87664026 0.8458883 0.6298195 0.7964097 0.56534296 0.4201217
0.78298247 0.65092367 0.6399883 0.48979568 1.0208799 0.28339693 0.7473934 0.41915223
0.9792761 0.5086242 1.0002692 0.2638804 -0.07286371 0.14074627 0.75881785 0.12745003
1.6074828 0.087380506 1.3045315 0.61447275 0.20231158 1.0447392 0.9564722 0.56320125
0.5795375 0.90936863 -0.23501717 -0.28770697 -0.3533351 0.8236241 0.25004256 0.038764108
0.08954537 0.07897368 0.92588985 0.47341725 -0.12132199 0.5434228 0.6206718 0.36320323
-0.09548259 0.2706626 -0.24695516 0.30338106 0.20982482 0.90465665 0.43628308 0.085343815
00000000: 01fb 9dbf a7e9 f5bd e00d 6e3d 053a 8abe
00000010: fb69 a1bd 36fb 68bd 34a1 2dbd 4423 c93c
00000020: c362 51bd d105 8dbe 6cd0 9cbb b776 713c
00000030: 13a8 423d fe82 0ebf 29a1 4bbe 7897 b9bb
00000040: ed45 b8be 1a8f ebbd a7ea f4bc 72e1 22be
00000050: f3ff 0abd ebb4 9abe 9bc1 da3e e5b2 bbbe
00000060: 5608 c13d 375e 10be 383f aebc c6f1 89bd
00000070: dff8 ba3d 9819 dbbe 8430 9bbd 0e04 8c3d
00000080: 16ca 93bc 87f7 86bd 7afc 183e ac17 ef3c
00000090: e7cb 19be 9d97 953d 2ffa a73e 237a 093e
000000a0: 6dda 03bf e56a 893b e5db 20be c392 c0be
000000b0: 222d 8b3c 4a84 cdbd c23c 29be 870a ffbd
000000c0: c600 47bd aa8d 8ebd 88d9 c8be b80e 1d3e
000000d0: e10c 78be f872 193d 52fc 71be 9896 aabe
000000e0: 0693 b4be af6a c4bc b0a5 5a3d b83a 6c3d
000000f0: c134 e93d 18b5 aebe e723 9b3d 2687 88bc
00000100: 264e 9b3d a898 35bd c3fd f4bd 0aab 1e3e
00000110: af6d 5ebf cb3f a2be 05f9 58be a79a 443e
00000120: 8c40 88bc 14e0 02be 270f 1a3e 5f2b 583d
00000130: 9c7c 6f3c 4b29 233e afc2 bb3c 6cd3 fc3d
00000140: 251e a03d f639 093e b8f7 34be 2d8f 0b3d
00000150: 5af4 363d 63f8 1abe b2e4 b33d c982 f8bd
00000160: 9bc8 473d 4c3e a8bc 4913 a73d 6208 71bd
00000170: b328 12be 2801 49be 1def 093e e25e 09be
00000180: 64c3 363e 456e 04bf afef 633c 0b7a c83c
00000190: cc07 b3be 4c68 ab3e 9419 04bd b35a 953c
000001a0: 0419 e9bd 8243 af3d 96ef 96be 0bac 95be
000001b0: b2ed 00bf 314d eb3d c382 85bd 3b7a 82bd
000001c0: e31c 83bf fc9e f8bd 2e28 a93d 9ca5 91bd
000001d0: 22ad 07bf d83c 883d 2f92 3ebe ca37 efbd
000001e0: e7e2 07be 3581 00be d2b0 89be a9df 41bd
000001f0: 25f3 6a3d 6ce2 f83d 468b a03a 001e 0cbe
00000200: fe0c 3ebf c0b0 af3e 22a8 833f a822 e5be
00000210: fb38 073f bd60 ec3e ea8b 973f 5dc3 7d3f
00000220: 19f9 903e 2c65 053c fb71 2d3f 5beb 8e3e
00000230: b672 453f 1bcf bcbd 8339 113f 5891 293f
00000240: d76f 0e3f efb8 30bd 6a73 453f 6782 85be
00000250: 3ce9 573f b14e 093e e6ae cd3f bc01 fc3e
00000260: 58c8 d83e fefd 833a 9ae0 0abe e1d0 f93e
00000270: 4692 293e d5a6 37be 1207 b53f f79c 2b3f
00000280: 80db 823f 8314 803f 071f b23f 5586 2b3f
00000290: 49ed 75be 1bc4 9f3f c320 893f 8022 743f
000002a0: 344c 9d3e 9b8f 893f 1ebc 033e 53f6 5fbe
000002b0: 050f 963f ba19 273f 0b87 b13e 6217 debb
000002c0: 8847 343f 44b0 d93f 9f54 153f ea79 883f
000002d0: 3cba 273f 85cd 0d3f cf50 863d 74cc cf3e
000002e0: 1d4a 053f d749 163f 1f66 6e3f 96a3 873f
000002f0: 6c6f d43f 7f32 b73e 8bb0 353f 0647 1440
00000300: c5c0 533f e1e1 0e3f d5a5 063f a04f f53e
00000310: 462f bd3e 732d ba3e c30b 0cbf 44cc 953e
00000320: c231 3a3f 7212 ed3e 7f6b 603f 238c 583f
00000330: da3b 213f 82e1 4b3f 51ba 103f 311a d73e
00000340: 8a71 483f efa2 263f 46d6 233f 80c6 fa3e
00000350: 31ac 823f 6719 913e 2d55 3f3f 1f9b d63e
00000360: d7b1 7a3f 3235 023f d208 803f 551b 873e
00000370: 9239 95bd ca1f 103e e341 423f 4382 023e
00000380: ffc1 cd3f 8df4 b23d e3fa a63f 164e 1d3f
00000390: c42a 4f3e 04ba 853f 5ddb 743f f52d 103f
000003a0: 925c 143f 62cc 683f 57a8 70be 544e 93be
000003b0: 57e8 b4be 07d9 523f 9405 803e 1dc7 1e3d
000003c0: 9063 b73d f4bc a13d 1e07 6d3f bf63 f23e
000003d0: aa77 f8bd c21d 0b3f 59e4 1e3f c6f5 b93e
000003e0: 608c c3bd 4a94 8a3e d0e1 7cbe c354 9b3e
000003f0: 51dc 563e 9497 673f 7f60 df3e bdc8 ae3d

bias_hh_l0 f4 [384]
-1.1603703 0.017328046 -0.041741922 -0.2104734 0.05985738 -0.07787384 0.06352065 -0.0687774
-0.100607626 -0.28543591 -0.041264698 -0.11710797 -0.070657976 -0.4444799 -0.102604024 0.046229742
-0.35944894 -0.11006017 0.022762058 -0.13829021 -0.044851393 -0.18309438 0.40125355 -0.30117753
-0.054684702 -0.23787938 -0.08088432 -0.055436198 0.11451574 -0.33474383 0.07299916 0.009907313
0.03178028 -0.03745946 0.108093575 -0.091345735 -0.18966717 0.1216313 0.25510505 0.17541236
-0.5509713 0.11542886 -0.17330281 -0.41378534 0.08956706 -0.08746669 -0.063746065 -0.2179853
-0.10952811 0.02785949 -0.41451073 0.19805504 -0.26863697 0.065824494 -0.14986442 -0.2572304
-0.35608235 0.06858429 0.11849288 0.0032596418 0.1329074 -0.34287336 0.06524754 -0.112564586
0.10477817 -0.018441971 -0.16672343 0.1601449 -0.91239905 -0.31923154 -0.11830072 0.17390008
0.008978876 -0.15919067 0.17044415 0.07107931 -0.042901665 0.07241448 -0.031248733 0.03548948
0.061576992 0.12989937 -0.11961985 0.05456627 0.086911924 -0.19667026 0.07052868 0.022554234
0.037136927 -0.049822967 0.09447719 -0.03921693 -0.22466774 -0.14054053 0.116703875 -0.117555395
0.20877375 -0.53687465 0.047057107 -0.009921637 -0.27573693 0.34985572 0.07909744 0.13671197
-0.12219129 0.008648777 -0.3020721 -0.22829673 -0.60649294 0.14100645 -0.019090476 -0.118265316
-0.95107865 -0.15581505 0.16942863 0.022132471 -0.49771363 0.0052311546 -0.16900836 -0.23217851
-0.017244779 -0.16413648 -0.21932103 -0.1302564 -0.06737376 0.109401695 -0.051712908 -0.062048018
-0.69589823 0.29448524 1.0907519 -0.31606242 0.57410705 0.44864607 1.2019817 0.87839025
0.3461682 -0.10690297 0.7477345 0.27556014 0.655641 -0.106888235 0.62261033 0.75747025
0.4951907 -0.074768275 0.74506277 -0.28124425 0.83247215 0.010285483 1.6845902 0.5015142
0.4785163 0.019159641 -0.12037286 0.5187314 0.2380063 -0.20996155 1.4189343 0.6667601
1.0341626 1.021274 1.3341187 0.5613591 -0.21558656 1.3157307 1.0829957 0.97866786
0.38365328 1.0639393 0.2581278 -0.2665499 1.0246524 0.73677784 0.38318434 -0.15973277
0.70807683 1.5977517 0.59453654 1.0690681 0.5730425 0.6063695 0.14337833 0.27375072
0.5018312 0.6771615 0.9207755 1.1130688 1.7588778 0.40151885 0.86594534 2.1850033
0.788879 0.61818844 0.36664894 0.47659656 0.40412083 0.2942916 -0.6536443 0.24351518
0.6206132 0.48732486 0.7810551 0.8626753 0.58072686 0.88824975 0.6419592 0.49609
0.75595886 0.672559 0.5225235 0.38845003 0.87731427 0.20741306 0.70070726 0.4918778
0.9133381 0.4684028 1.0308833 0.33647963 -0.045274932 0.035559505 0.81528044 0.11382929
1.7235944 0.101623245 1.2861265 0.6215308 0.22029355 1.1811156 0.85755646 0.48712432
0.6191341 0.92641133 -0.2636864 -0.3693236 -0.45239195 0.8725549 0.20107996 0.038873326
0.10204352 0.21688256 0.9371087 0.56236553 -0.06909476 0.51101846 0.67159283 0.28184375
-0.19669157 0.19493172 -0.22556041 0.4276181 0.28953424 0.86434734 0.5019605 0.11860522
00000000: 0487 94bf 8cf3 8d3c 94f9 2abd 5786 57be
00000010: 032d 753d 527c 9fbd 1d17 823d 2adb 8cbd
00000020: 5f0b cebd a824 92be 2c05 29bd 4ed6 efbd
00000030: 21b5 90bd df92 e3be 0f22 d2bd 665b 3d3d
00000040: b109 b8be 3a67 e1bd 7f77 ba3c f39b 0dbe
00000050: 18b6 37bd 187d 3bbe 1b71 cd3e f133 9abe
00000060: 11fd 5fbd a796 73be aea6 a5bd 1111 63bd
00000070: 3a87 ea3d 8b63 abbe 9580 953d 4852 223c
00000080: 0a2c 023d 176f 19bd 2a60 dd3d 7913 bbbd
00000090: 1c38 42be d519 f93d 219d 823e 4c9f 333e
000000a0: 750c 0dbf f765 ec3d 4b76 31be acdb d3be
000000b0: ef6e b73d bc21 b3bd 4c8d 82bd 8a37 5fbe
000000c0: 4650 e0bd 9639 e43c c03a d4be f1ce 4a3e
000000d0: c98a 89be fece 863d 0f76 19be b4b3 83be
000000e0: 6d50 b6be ec75 8c3d 65ac f23d b79f 553b
000000f0: e118 083e 198d afbe 81a0 853d 4388 e6bd
00000100: f095 d63d 9e13 97bc 8cb9 2abe 06fd 233e
00000110: fc92 69bf 5172 a3be a647 f2bd dd12 323e
00000120: 231c 133c e102 23be e988 2e3e 0792 913d
00000130: a8b9 2fbd 0b4e 943d 58fd ffbc 6b5d 113d
00000140: 2838 7c3d 5704 053e 40fb f4bd e280 5f3d
00000150: e1fe b13d ee63 49be 5771 903d a8c3 b83c
00000160: e41c 183d 2b13 4cbd 427d c13d eea1 20bd
00000170: 4d0f 66be dbe9 0fbe 7102 ef3d e2c0 f0bd
00000180: c9c8 553e 9e70 09bf f4be 403d 5d8e 22bc
00000190: 642d 8dbe 4a20 b33e d7fd a13d 39fe 0b3e
000001a0: 6d3f fabd 9ab3 0d3c 32a9 9abe 9ec6 69be
000001b0: 1f43 1bbf ff63 103e a163 9cbc 1635 f2bd
000001c0: e479 73bf fb8d 1fbe b37e 2d3e 284f b53c
000001d0: 52d4 febe 1b6a ab3b 8710 2dbe 34c0 6dbe
000001e0: ec44 8dbc 6513 28be b195 60be ef61 05be
000001f0: 41fb 89bd ff0d e03d ead0 53bd 1026 7ebd
00000200: 6326 32bf c5c6 963e c29d 8b3f efd2 a1be
00000210: aef8 123f f0b4 e53e 89da 993f 2fde 603f
00000220: f53c b13e f2ef dabd 876b 3f3f 3816 8d3e
00000230: 17d8 273f 38e8 dabd 6463 1f3f 92e9 413f
00000240: a389 fd3e 1c20 99bd 6fbc 3e3f 3fff 8fbe
00000250: e51c 553f 7184 283c a7a0 d73f 3c63 003f
00000260: 1700 f53e aef4 9c3c 0c86 f6bd 95cb 043f
00000270: ecb7 733e 2900 57be a49f b53f cab0 2a3f
00000280: 715f 843f 1bb9 823f 67c4 aa3f 3bb5 0f3f
00000290: b9c2 5cbe dd69 a83f 9a9f 8a3f fa89 7a3f
000002a0: 346e c43e 2a2f 883f 5429 843e 3a79 88be
000002b0: cf27 833f 799d 3c3f bd30 c43e fd90 23be
000002c0: 8644 353f 2183 cc3f 8c33 183f 39d7 883f
000002d0: eab2 123f 083b 1b3f c5d1 123e 0e29 8c3e
000002e0: 0278 003f 755a 2d3f f1b7 6b3f 0a79 8e3f
000002f0: e822 e13f e193 cd3e 98ae 5d3f 18d7 0b40
00000300: f9f3 493f 9941 1e3f 69b9 bb3e 7704 f43e
00000310: ede8 ce3e 63ad 963e 3c55 27bf 0b5c 793e
00000320: 82e0 1e3f a582 f93e 3af3 473f 4ad8 5c3f
00000330: 84aa 143f 5664 633f 7057 243f 82ff fd3e
00000340: 8586 413f d42c 2c3f 1ac4 053f ece2 c63e
00000350: ab97 603f 1764 543e 8d61 333f 68d7 fb3e
00000360: 87d0 693f 7ed2 ef3e fcf3 833f 0f47 ac3e
00000370: 3572 39bd d8a6 113d 38b6 503f 551f e93d
00000380: be9e dc3f d91f d03d cb9f a43f a41c 1f3f
00000390: a294 613e cc2e 973f d288 5b3f 5c68 f93e
000003a0: 937f 1e3f 4b29 6d3f e701 87be fc17 bdbe
000003b0: eb9f e7be c25f 5f3f e8e7 4d3e a339 1f3d
000003c0: 31fc d03d 7616 5e3e 5be6 6f3f 30f7 0f3f
000003d0: 8e81 8dbd 1bd2 023f 82ed 2b3f d34d 903e
000003e0: 8469 49be 2e9c 473e 4ff9 66be c2f0 da3e
000003f0: d53d 943e de45 5d3f 7c80 003f 4be7 f23d

weight_ih_l1 f4 [384, 128]
-0.5175298 0.01849292 0.013406744 -0.40292954 -0.11590785 -0.0011846013 -0.07609825 0.08539718
-0.21276705 -0.3200342 -0.03061266 -0.063494705 -0.036548086 -0.093892835 0.0575794 -0.24085206
0.009768488 -0.12839569 0.06879138 0.47246197 0.054947603 0.11845292 -0.0024838015 0.15557139
0.03213379 -0.04826878 -0.33426243 0.047633648 -0.0931496 -0.10749155 0.11953633 0.031116959
0.07154211 -0.11492505 -0.05326679 -0.008511305 0.3022897 0.118773624 -0.1266679 0.08179125
0.07567042 -0.012006718 0.036387116 0.4675363 -0.03371002 -0.026981508 -0.21488833 0.30127358
0.027158784 -0.09108828 0.027495213 0.08742614 -0.050139036 0.097573794 0.35870454 0.02912483
0.027974019 0.04981334 0.00071912137 0.094340034 0.050046414 0.04128903 -0.13858478 0.09181917
0.019557197 -0.0033710946 -0.019100728 -0.049782045 0.0661997 -0.0032068347 0.6127533 0.060623724
-0.0866596 -0.054149054 -0.029922083 0.057173785 -0.015743561 -0.21137883 -0.15152189 0.04791205
-0.08202724 0.027141117 -0.04205559 0.1418156 -0.12953158 -0.03784876 0.28178862 -0.14241768
0.075294554 -0.03043436 -0.06654674 0.111949325 0.28362387 -0.17785268 -0.11658425 0.1676407
-0.02887125 -0.26951888 0.09494438 0.012686314 0.029026138 0.07703106 0.053654414 0.10525212
-0.0031957612 0.08412037 -0.17210472 0.24792945 0.295482 0.1552316 -0.07863495 0.33416143
-0.2111612 0.027922424 0.03228436 0.03662846 0.35291934 0.0798291 -0.076923825 -0.01209188
-0.3357547 -0.104449704 0.48289466 -0.14474104 0.04200692 -0.013608848 -0.0684791 0.11555016
-0.3925341 0.041343894 0.052371476 -0.33847514 0.18835649 0.11417232 -0.0036113632 0.13648342
-0.1328663 -0.2940987 0.12219045 0.007384006 0.21764646 -0.0020859558 -0.06620283 0.0219694
-0.12607649 -0.052656937 -0.08221297 0.3814879 -0.10532508 -0.23467626 -0.032931607 -0.14169092
0.17879015 -0.020410212 -0.31580245 -0.10925588 -0.101358294 -0.07296682 -0.010134676 0.24761589
0.070113026 0.07953497 -0.047790054 -0.13233219 0.21906163 0.0534012 0.0701281 -0.12230198
-0.048621774 -0.0012492312 0.032432232 0.28992328 -0.036822405 -0.10529865 -0.06625021 0.3076461
-0.061883517 -0.04152708 0.016072892 -0.024966132 0.04859268 0.047752023 0.2919079 0.25980198
-0.15774548 0.07311918 0.09997629 -0.010631017 -0.021642476 0.064442515 -0.15285628 0.03146165
-0.11370527 0.11413662 0.16143484 0.039447866 -0.10413792 -0.112716 0.24020194 0.23175618
-0.031555012 0.0065811 0.15227626 -0.036813244 0.032333672 -0.002953356 -0.29665768 0.064809784
0.078414485 0.037514884 0.12249696 0.123473346 0.043531816 0.040525965 0.1526039 -0.22863215
0.048715334 0.040644247 -0.019513153 0.04060017 0.19098629 -0.02001809 -0.0697783 0.21381536
-0.036450308 -0.28886035 -0.08199344 -0.02553873 -0.17999233 -0.030631933 -0.22189406 0.03494196
0.12869507 -0.1224302 -0.10913086 0.03838558 0.23364009 0.13338204 -0.00780496 0.16040882
0.08893999 0.09307503 -0.04793739 0.028217869 0.31050014 0.14112382 -0.20346457 0.11240303
-0.20310985 -0.0060384385 0.23127146 -0.056669742 -0.058043946 -0.0071394346 -0.16285609 -0.040451277
00000000: d57c 04bf 777e 973c f6a7 5b3c c84c cebe
00000010: 1861 edbd a044 9bba 66d9 9bbd b7e4 ae3d
00000020: 9bdf 59be 86db a3be 67c7 fabc 8309 82bd
00000030: 72b3 15bd e34a c0bd 60d8 6b3d eca1 76be
00000040: 020c 203c 297a 03be 7fe2 8c3d 89e6 f13e
00000050: bd10 613d 7297 f23d 46c7 22bb 1b4e 1f3e
00000060: b99e 033d 7cb5 45bd 7224 abbe 801b 433d
00000070: 38c5 bebd 8824 dcbd 77cf f43d fee8 fe3c
00000080: ab84 923d d35d ebbd 472e 5abd 0073 0bbc
00000090: b7c5 9a3e 963f f33d 3bb5 01be 2c82 a73d
000000a0: 18f9 9a3d d3b7 44bc a80a 153d eb60 ef3e
000000b0: 8513 0abd 5308 ddbc b00b 5cbe 8840 9a3e
000000c0: 197c de3c 7e8c babd a43d e13c 7a0c b33d
000000d0: 975e 4dbd c5d4 c73d 1fa8 b73e 3297 ee3c
000000e0: c529 e53c 1309 4c3d 6b83 3c3a 5935 c13d
000000f0: 78fd 4c3d b01e 293d 2be9 0dbe b00b bc3d
00000100: 6a36 a03c 95ed 5cbb 2179 9cbc 42e8 4bbd
00000110: b593 873d c229 52bb 66dd 1c3f 9550 783d
00000120: 977a b1bd 66cb 5dbd 281f f5bc 0f2f 6a3d
00000130: a4f8 80bc b173 58be 8e28 1bbe 6d3f 443d
00000140: e6fd a7bd 0c57 de3c 7b42 2cbd 1c38 113e
00000150: eda3 04be 4d07 1bbd 9946 903e f1d5 11be
00000160: 0834 9a3d 7b51 f9bc a849 88bd b045 e53d
00000170: 2637 913e 031f 36be b9c3 eebd 01aa 2b3e
00000180: 6683 ecbc 61fe 89be 3372 c23d 42da 4f3c
00000190: 39c8 ed3c 76c2 9d3d bbc4 5b3d 6c8e d73d
000001a0: fa6f 51bb 4d47 ac3d 383c 30be 38e1 7d3e
000001b0: 6b49 973e 08f5 1e3e 5c0b a1bd 3517 ab3e
000001c0: a43a 58be 91bd e43c 9b3c 043d b907 163d
000001d0: d8b1 b43e 707d a33d 3d8a 9dbd 051d 46bc
000001e0: 0ae8 abbe bae9 d5bd f83d f73e ff36 14be
000001f0: 730f 2c3d a5f7 5ebc c53e 8cbd 90a5 ec3d
00000200: 3bfa c8be 3758 293d 7983 563d 9d4c adbe
00000210: 86e0 403e 2dd3 e93d 9fac 6cbb 4fc2 0b3e
00000220: 1a0e 08be 1b94 96be fd3e fa3d 88f5 f13b
00000230: b7de 5e3e 88b4 08bb 5995 87bd 2cf9 b33c
00000240: 321a 01be cdae 57bd 465f a8bd 6252 c33e
00000250: adb4 d7bd f94e 70be 4be3 06bd 6d17 11be
00000260: c414 373e 5133 a7bc dcb0 a1be 8cc1 dfbd
00000270: f094 cfbd a16f 95bd e90b 26bc 058f 7d3e
00000280: 6b97 8f3d 3be3 a23d 81bf 43bd 1782 07be
00000290: b151 603e 37bb 5a3d 529f 8f3d 7679 fabd
000002a0: a027 47bd 3ebd a3ba a9d7 043d d370 943e
000002b0: 17d3 16bd d2a6 d7bd 31ae 87bd ca83 9d3e
000002c0: 9279 7dbd 4d18 2abd 4cab 833c c685 ccbc
000002d0: 1e09 473d a097 433d f474 953e c404 853e
000002e0: 0888 21be 82bf 953d 5ec0 cc3d b82d 2ebc
000002f0: 904b b1bc 70fa 833d 5b86 1cbe eedd 003d
00000300: 4fde e8bd 76c0 e93d 2d4f 253e 1694 213d
00000310: 4346 d5bd a5d7 e6bd 7ff7 753e 7e51 6d3e
00000320: d43f 01bd 45a6 d73b 4fee 1b3e 7cc9 16bd
00000330: 5070 043d 178d 41bb 84e3 97be feba 843d
00000340: c697 a03d 35a9 193d b0df fa3d 98df fc3d
00000350: 6b4e 323d 8efe 253d 3244 1c3e 8c1e 6abe
00000360: bb89 473d 957a 263d 0cda 9fbc 5d4c 263d
00000370: e991 433e fafc a3bc ede7 8ebd 6af2 5a3e
00000380: eb4c 15bd 81e5 93be 2dec a7bd 9936 d1bc
00000390: e94f 38be d2ef fabc 3238 63be 4d1f 0f3d
000003a0: a4c8 033e afbc fabd 0080 dfbd 333a 1d3d
000003b0: 593f 6f3e 4d95 083e c0c0 ffbb 3642 243e
000003c0: 2b26 b63d 1f9e be3d ff59 44bd 2929 e73c
000003d0: e0f9 9e3e c382 103e 0459 50be 8f33 e63d
000003e0: 07fc 4fbe 18de c5bb 6dd2 6c3e 881e 68bd
000003f0: 7dbf 6dbd ebf1 e9bb bfc3 26be 3db0 25bd

weight_hh_l1 f4 [384, 128]
0.6810802 -0.016297737 0.10869872 0.002156057 -0.057991046 0.05734643 -0.09230835 -0.07880955
0.0096038915 -0.1549845 0.09374305 -0.15403536 0.031211156 0.048876647 0.031261064 0.12102459
0.2130592 0.09628736 -0.057625115 0.088837 0.08142956 -0.13676497 -0.010744708 0.03511238
-0.06426516 0.14911675 -0.08208852 -0.11950609 -0.045083288 0.38776204 0.04475047 -0.0015472777
0.13833141 -0.18861498 -0.066487886 0.113898374 0.057346985 -0.07852471 0.038736254 -0.22179237
0.10432206 0.101122625 -0.5909423 -0.042556904 -0.012790099 0.02541868 -0.050565533 -0.13913986
0.02900545 -0.018668668 0.022482589 0.12271409 0.4454477 0.08929869 0.008870797 -0.12889597
-0.16786149 -0.04788624 0.01102527 0.0990941 -0.043174867 -0.0038505227 0.10918334 0.09243078
-0.49838287 0.097820945 -0.23084605 -0.094476655 0.013251122 0.2982629 -0.27401814 0.061013196
0.01239799 0.024295608 -0.018619843 0.13479069 -0.17100093 0.032135054 0.09573018 -0.0056895483
0.01982922 -0.0076298993 -0.10405638 -0.2210258 0.07837843 0.15252599 -0.024931317 0.039402876
0.0024304597 0.10358569 -0.018924935 -0.1295758 0.053355362 -0.16070002 0.030238977 -0.014910692
0.13364133 -0.015080774 -0.28217947 0.03330031 0.41767514 0.004727429 0.12720856 -0.0036856132
-0.051582467 0.12675819 -0.027394857 0.13758737 0.11224417 -0.061664168 0.10343916 0.06379192
0.2478496 0.18021806 -0.11783807 0.14393675 0.111737296 0.28033194 -0.049309973 -0.07211689
-0.24879928 -0.14244254 0.17104886 0.06152515 -0.047778197 -0.054438904 -0.0066944365 0.033306517
-0.13217044 -1.1067451 -0.12816045 -0.15012553 -0.031237785 0.075008065 0.38336214 0.18906349
0.010910141 -0.21453902 -0.25328392 -0.28807795 -0.13328703 -0.033403907 -0.1643668 0.042635433
-0.16171281 0.04920413 0.15726262 -0.07014156 -0.120228924 0.19496071 0.012702303 -0.078819126
-0.0071183974 0.004737471 0.121532805 0.10349156 -0.25008303 0.5187089 0.1397582 -0.03367627
-0.06272696 -0.15070431 0.061825365 0.11638425 0.054061588 -0.004325741 0.103235856 -0.19384606
-0.041139577 0.027697781 -0.4094152 0.3045459 -0.12777738 -0.3159239 0.1837982 -0.07706806
-0.0055468543 0.36698133 0.13133687 -0.0023094213 0.36967695 -0.082728796 -0.17100489 -0.21147889
-0.04593294 -0.06349843 -0.103129104 -0.26190618 0.14296275 -0.006164517 0.098877 -0.10382919
-0.41704124 -0.03946538 -0.05952398 -0.23595165 0.21019919 0.0008945246 -0.40505263 -0.24508324
0.1926181 0.14661774 -0.0033386392 0.12880126 -0.08453853 0.35037112 0.0021544693 0.22325788
0.13015255 0.022085024 -0.07244244 -0.42116645 -0.101546645 0.14061585 0.22625731 0.16702174
0.16510423 0.1960787 -0.11648467 -0.1722874 -0.13741091 -0.0127419485 0.060604602 0.08939161
0.1595188 0.16392553 -0.37300575 0.12753431 0.26403105 -0.104090996 0.0139867505 -0.24000987
0.05909962 0.12641601 -0.12315223 -0.18851344 0.1816422 -0.13845542 0.08623269 -0.10238728
0.23630138 -0.0081964955 -0.01316706 -0.074831165 0.020747297 0.29847085 -0.078602485 -0.117865294
-0.1788318 0.106724694 -0.17329085 -0.12004682 -0.08046699 -0.09628389 -0.018196495 0.10018358
00000000: 465b 2e3f d582 85bc 6f9d de3d a24c 0d3b
00000010: 0588 6dbd 17e4 6a3d 290c bdbd e766 a1bd
00000020: a459 1d3c 42b4 1ebe 5bfc bf3d 72bb 1dbe
00000030: 8aae ff3c e132 483d 9a0b 003d bedb f73d
00000040: 312c 5a3e 4f32 c53d 5008 6cbd 2cf0 b53d
00000050: 8bc4 a63d 1e0c 0cbe 920a 30bc 00d2 0f3d
00000060: 749d 83bd 10b2 183e 071e a8bd 9cbf f4bd
00000070: 41a9 38bd bf88 c63e 454c 373d 06ce caba
00000080: c0a6 0d3e 4924 41be cd2a 88bd 8d43 e93d
00000090: ace4 6a3d 90d1 a0bd e8a9 1e3d 8a1d 63be
000000a0: cea6 d53d 6119 cf3d ff47 17bf 2650 2ebd
000000b0: 908d 51bc d63a d03c ce1d 4fbd ae7a 0ebe
000000c0: d69c ed3c 09ef 98bc 682d b83c 8651 fb3d
000000d0: b911 e43e 3be2 b63d d256 113c 4efd 03be
000000e0: e2e3 2bbe 5d24 44bd 56a3 343c d9f1 ca3d
000000f0: 21d8 30bd 0d59 7cbb 849b df3d 594c bd3d
00000100: 0a2c ffbe 5956 c83d e862 6cbe fa7c c1bd
00000110: 3c1b 593c eab5 983e 1b4c 8cbe f9e8 793d
00000120: f020 4b3c 9507 c73c a488 98bc 9206 0a3e
00000130: de1a 2fbe 0ca0 033d 2f0e c43d 646f babb
00000140: e370 a23c 3c04 fabb 831b d5bd 9654 62be
00000150: df84 a03d c62f 1c3e c33c ccbc e964 213d
00000160: 5948 1f3b bc24 d43d 7708 9bbc 85af 04be
00000170: 278b 5a3d 8c8e 24be bbb7 f73c fa4b 74bc
00000180: 46d9 083e 5a15 77bc d479 90be e865 083d
00000190: 84d9 d53e 8ce8 9a3b f642 023e 548a 71bb
000001a0: 2348 53bd e6cc 013e 2e6b e0bc b4e3 0c3e
000001b0: 45e0 e53d 9193 7cbd e9d7 d33d 57a5 823d
000001c0: 49cc 7d3e 158b 383e 1655 f1bd 2864 133e
000001d0: 86d6 e43d ab87 8f3e 41f9 49bd 05b2 93bd
000001e0: 3dc5 7ebe 75dc 11be 6f27 2f3e cc01 7c3d
000001f0: 12b3 43bd 54fb 5ebd 015d dbbb 6a6c 083d
00000200: b057 07be d3a9 8dbf 7e3c 03be 82ba 19be
00000210: 62e6 ffbc d49d 993d 0b48 c43e dc99 413e
00000220: 73c0 323c 1eb0 5bbe 6eae 81be f47e 93be
00000230: 657c 08be 89d2 08bd c54f 28be 7ea2 2e3d
00000240: 0b98 25be 458a 493d 7409 213e 61a6 8fbd
00000250: 953a f6bd c8a3 473e 521d 503c ec6b a1bd
00000260: 7241 e9bb ca3c 9b3b 31e6 f83d 62f3 d33d
00000270: e20a 80be 1bca 043f c61c 0f3e 21f0 09bd
00000280: fe76 80bd 3b52 1abe 983c 7d3d de5a ee3d
00000290: af6f 5d3d f2be 8dbb 526d d33d 957f 46be
000002a0: f981 28bd 75e6 e23c de9e d1be 71ed 9b3e
000002b0: 13d8 02be c7c0 a1be 9835 3c3e dcd5 9dbd
000002c0: 63c2 b5bb fae4 bb3e 2c7d 063e a959 17bb
000002d0: 4c46 bd3e b76d a9bd e81b 2fbe ec8d 58be
000002e0: 2e24 3cbd 770b 82bd 5a35 d3bd 9118 86be
000002f0: d464 123e b7ff c9bb 0680 ca3d 66a4 d4bd
00000300: 6e86 d5be 73a6 21bd 6bcf 73bd 4f9d 71be
00000310: 753e 573e 887e 6a3a 0f63 cfbe 1af7 7abe
00000320: ae3d 453e f622 163e 12cd 5abb 7ae4 033e
00000330: 8922 adbd d863 b33e ff31 0d3b b79d 643e
00000340: b646 053e a7eb b43c b45c 94bd 21a3 d7be
00000350: b0f7 cfbd 9afd 0f3e ffaf 673e bf07 2b3e
00000360: 1511 293e dbc8 483e 848f eebd 1c6c 30be
00000370: 72b5 0cbe 9bc3 50bc 883c 783d f312 b73d
00000380: e558 233e 18dc 273e 9cfa bebe 5b98 023e
00000390: 142f 873e a92d d5bd af28 653c 26c5 75be
000003a0: 7112 723d 3373 013e 3d37 fcbd ab09 41be
000003b0: 6a00 3a3e 42c7 0dbe c49a b03d 6cb0 d1bd
000003c0: fdf8 713e 984a 06bc a7ba 57bc 1541 99bd
000003d0: 3cf6 a93c 2cd1 983e 57fa a0bd 5c63 f1bd
000003e0: af1f 37be 7a92 da3d 2873 31be 1bdb f5bd
000003f0: e1cb a4bd 7d30 c5bd d110 95bc 0c2d cd3d

bias_ih_l1 f4 [384]
0.75443923 0.15834346 0.28546453 0.112692915 0.1279923 0.016757572 0.025237491 0.042840008
0.16024041 0.11325055 0.3599692 -0.028303174 0.25927946 0.05488879 0.02501419 0.13636385
0.047377665 0.22029671 -0.017894585 0.80566347 0.15872155 0.07208511 0.68509805 0.26065397
0.16475499 0.04116676 0.46621898 0.12430272 0.034706965 -0.034025077 0.899932 0.1536014
0.10243994 0.007119737 0.093550295 0.7051595 0.11486075 0.23407564 0.83696645 -0.22698785
-0.009233475 0.15373507 -0.30177113 0.041678533 0.19263864 0.2604977 -0.08970693 0.14511772
0.014153234 0.056994006 0.060475737 0.048943166 -0.25418368 0.046996094 -0.0140828 -0.35394898
0.12242323 -0.01905063 1.3667568 0.6856034 0.07400785 0.17992282 0.12718222 0.36372396
0.008921036 0.15673685 0.10274295 0.2507785 -0.10526866 -0.018734602 -0.18125969 0.08066796
0.0026409917 -0.11832551 0.5173925 0.12431978 0.06327954 0.06312604 0.28254217 0.12596235
0.16448301 0.13603644 0.02422809 -0.070099466 0.1749435 0.3678215 0.08823799 -0.08596914
-0.029303214 0.008501366 0.30551484 0.050198216 0.064114325 0.19174221 0.15073986 0.23949295
0.15874015 0.51004344 -0.10487982 -0.06690515 -0.08410061 0.6102051 0.13844024 0.08660106
0.19217306 -0.04989901 0.14085896 0.10444694 0.15627131 0.07000221 0.010624387 0.24602209
-0.246718 -0.086047426 -0.020735206 0.13898964 0.11050526 0.11903789 -0.03294727 0.09823595
-0.0029783743 0.1321097 -0.00065117667 0.1482517 0.23155226 -0.109782316 0.5791597 0.1482272
0.49114168 0.11900159 0.81521666 0.18605734 0.64524484 0.42266732 0.117438376 0.96454346
0.91760355 0.61708874 1.0768138 -0.28652322 1.0209036 1.0076197 0.22742666 1.4784359
0.9175173 1.1599245 0.19332094 0.87641007 0.25111315 1.345276 0.871325 0.90572065
0.94939137 0.31787717 0.95091844 0.6635207 0.18373157 -0.2508979 0.68674976 1.1744764
0.8494013 0.2764317 0.18564923 0.74449223 0.28323302 0.7455982 0.44116443 -0.3898846
0.20056066 0.86935115 -0.6196067 0.446258 0.94771403 0.8413348 0.15466088 0.41390273
0.04488822 0.27559075 0.20178269 0.13671781 -0.36441138 0.019031713 0.17059515 -0.37018535
0.48159528 0.2971907 1.2901449 0.9703343 0.44812453 0.40641096 0.37989295 0.47361603
-0.31417868 0.93484676 0.38168624 0.24510416 0.61084455 0.3294181 -0.048139133 0.3899035
0.19768149 0.21269082 0.47615242 1.2451016 0.77970403 0.42074692 0.76004994 0.23750761
1.4615477 0.602748 0.24063942 -0.22123916 1.1066368 0.9632962 0.7290559 -0.18793367
0.13623765 0.14222606 1.3142937 0.42572114 0.45274517 0.42957947 0.16770755 1.011814
0.5014804 1.0227561 0.10237736 0.26325116 0.18189898 -0.07247217 1.0928724 0.24568631
1.3109154 0.47487366 0.25032458 0.7386436 0.3060535 1.0229055 0.34912467 0.39540443
-0.4103545 0.67261857 0.1862573 0.7403176 0.24869193 -0.24806528 0.011427245 0.24444586
0.44164506 1.3294926 0.7232997 0.19669099 0.54129684 -0.2730495 0.8697903 0.33119032
00000000: ee22 413f ca24 223e 6828 923e 8bcb e63d
00000010: 6a10 033e 2d47 893c dbbe ce3c 0179 2f3d
00000020: 1016 243e e8ef e73d e24d b83e 0fdc e7bc
00000030: 47c0 843e 11d3 603d 8fea cc3c f7a2 0b3e
00000040: 150f 423d 7695 613e aa97 92bc f63f 4e3f
00000050: e787 223e 5ca1 933d 9662 2f3f 7074 853e
00000060: 88b5 283e 7a9e 283d 41b4 ee3e 6d92 fe3d
00000070: e428 0e3d e15d 0bbd f261 663f af49 1d3e
00000080: 08cc d13d af4c e93b 4c97 bf3d 5585 343f
00000090: 1d3c eb3d 86b1 6f3e 6f43 563f 816f 68be
000000a0: 0048 17bc ba6c 1d3e bf81 9abe 1cb7 2a3d
000000b0: 1043 453e f45f 853e 44b8 b7bd bd99 143e
000000c0: f7e2 673c 8c72 693d 68b5 773d a178 483d
000000d0: 5d24 82be fa7e 403d 8bbb 66bc cd38 b5be
000000e0: 08b9 fa3d 1110 9cbc e3f1 ae3f b483 2f3f
000000f0: 6d91 973d b03d 383e 0e3c 023e 073a ba3e
00000100: 8929 123c a07f 203e e56a d23d 0a66 803e
00000110: 1897 d7bd 4f79 99bc 249c 39be 3e35 a53d
00000120: 7d14 2d3b a554 f2bd d673 043f 5e9b fe3d
00000130: b498 813d 3a48 813d 5ea9 903e 46fc 003e
00000140: 3c6e 283e 234d 0b3e fd79 c63c 4f90 8fbd
00000150: 6424 333e 1a53 bc3e 1fb6 b43d 9710 b0bd
00000160: 4b0d f0bc 5049 0b3c 716c 9c3e a59c 4d3d
00000170: 5f4e 833d 1258 443e 8d5b 1a3e a43d 753e
00000180: c78c 223e 3592 023f 3bcb d6bd 9105 89bd
00000190: f13c acbd 6736 1c3f 47c3 0d3e e65b b13d
000001a0: 04c9 443e e862 4cbd 553d 103e 47e8 d53d
000001b0: 9605 203e 525d 8f3d e911 2e3c 37ed 7b3e
000001c0: a5a3 7cbe a239 b0bd e1dc a9bc 4d53 0e3e
000001d0: 9550 e23d 23ca f33d b7f3 06bd ee2f c93d
000001e0: d430 43bb c447 073e bab3 2aba 4bcf 173e
000001f0: 091c 6d3e 8dd5 e0bd cf43 143f dfc8 173e
00000200: ec76 fb3e 1bb7 f33d 0ab2 503f d185 3e3e
00000210: c42e 253f da67 d83e 8883 f03d 52ec 763f
00000220: 11e8 6a3f 87f9 1d3f 09d5 893f 2cb3 92be
00000230: f8ac 823f aff9 803f 89e2 683e 633d bd3f
00000240: 6ae2 6a3f 6878 943f edf5 453e 695c 603f
00000250: e791 803e 0132 ac3f 280f 5f3f 4fdd 673f
00000260: 500b 733f ccc0 a23e 646f 733f 7edc 293f
00000270: 2124 3c3e b175 80be d5ce 2f3f 3e55 963f
00000280: 5d72 593f 7588 8d3e d51a 3e3e 0b97 3e3f
00000290: eb03 913e 86df 3e3f 4ee0 e13e f49e c7be
000002a0: c65f 4d3e cc8d 5e3f 8b9e 1ebf ee7b e43e
000002b0: 639d 723f b861 573f 6c5f 1e3e 0feb d33e
000002c0: b6dc 373d 3b1a 8d3e 1fa0 4e3e c1ff 0b3e
000002d0: 2194 babe 65e8 9b3c 7fb0 2e3e ef88 bdbe
000002e0: a893 f63e 6129 983e 7823 a53f d467 783f
000002f0: 9470 e53e 1915 d03e 5481 c23e cd7d f23e
00000300: 07dc a0be 1e52 6f3f 616c c33e 96fc 7a3e
00000310: 4f60 1c3f 7da9 a83e 8a2d 45bd 6ea1 c73e
00000320: 046d 4a3e 9fcb 593e 40ca f33e 7d5f 9f3f
00000330: af9a 473f 246c d73e a292 423f 3235 733e
00000340: ff13 bb3f b14d 1a3f 2e6a 763e 858c 62be
00000350: 46a6 8d3f 949a 763f 68a3 3a3f af71 40be
00000360: e281 0b3e b5a3 113e c73a a83f 1ff8 d93e
00000370: 37ce e73e d7f1 db3e 87bb 2b3e 1f83 813f
00000380: 0561 003f ace9 823f 39ab d13d dbc8 863e
00000390: ba43 3a3e 4a6c 94bd 3ee3 8b3f 3195 7b3e
000003a0: 13cc a73f a422 f33e 8b2a 803e bf17 3d3f
000003b0: 0bb3 9c3e 91ee 823f 78c0 b23e 7372 ca3e
000003c0: fc19 d2be bb30 2c3f 3cba 3e3e 7485 3d3f
000003d0: 19a9 7e3e d304 7ebe 5739 3b3c 0450 7a3e
000003e0: 4d1f e23e d02c aa3f 2b2a 393f 5d69 493e
000003f0: 6e92 0a3f 25cd 8bbe 94aa 5e3f c791 a93e

bias_hh_l1 f4 [384]
0.7521338 0.041136183 0.24551931 0.19554503 0.019588856 0.066778556 -0.10471742 0.036595732
0.20135792 0.15010865 0.4763087 -0.12340195 0.23998217 0.029687127 0.001277507 0.059633438
0.11207857 0.078947514 0.04166847 0.8063326 0.1878692 0.10027072 0.63925123 0.38591832
0.13498841 -0.00024790267 0.47148925 0.1894167 0.081622 -0.07998892 0.8111559 0.16108595
0.052383263 0.06701037 0.21229194 0.70930135 0.06934115 0.11039082 0.72852945 -0.078800105
0.09758382 0.16086599 -0.20772834 -0.02387412 0.16924138 0.17510876 -0.0032313603 0.1355152
0.108138494 0.016686682 -0.076864235 0.12847155 -0.1748992 0.116844505 0.029530317 -0.21505533
0.23641549 -0.009011777 1.3019733 0.66727954 0.030069502 0.11960784 0.12412467 0.30954725
0.0054691164 0.193604 0.09839547 0.18147999 -0.03537291 -0.025970954 -0.19323899 0.1205966
0.09407833 -0.04934059 0.5958325 0.07054509 0.12881123 0.15983385 0.2326047 0.11307791
0.0913403 0.07793854 0.09873826 -0.098432295 0.26649845 0.34660283 0.002238952 -0.120537765
-0.05834269 0.02974262 0.19992298 0.013177866 0.07308725 0.13112973 0.10119073 0.17099823
0.105449654 0.51398075 -0.22244585 -0.035346456 -0.14630327 0.58321065 0.038376857 0.09472399
0.14556229 0.037263744 0.19880381 0.046980828 0.15044838 0.10131912 0.0612695 0.119487986
-0.22404508 -0.05317729 0.05933876 0.05120573 0.08528613 -0.0025310444 0.034962285 0.052478593
-0.004429577 0.039403766 -0.0036295615 0.076169446 0.15362737 0.023088647 0.57382905 0.17683463
0.48094898 0.23138425 0.7681334 0.1985541 0.7621406 0.48432344 0.08482305 0.9068124
0.7822354 0.7825451 1.1003937 -0.33471692 1.0996696 1.0708579 0.23858687 1.4490242
1.066391 1.0978159 0.1708448 0.94596446 0.24713385 1.2300838 0.9191052 0.9298023
0.908634 0.27163085 1.005242 0.724575 0.059417315 -0.33885604 0.7184091 1.0892984
0.9822165 0.28301123 0.1891421 0.68569404 0.35811448 0.72200376 0.46573782 -0.4054738
0.22004482 0.83273154 -0.45712972 0.4817205 1.040393 0.8186306 0.08006292 0.43925208
0.08273318 0.20691381 0.09689113 0.02667505 -0.48327708 0.13023302 0.14817134 -0.27632335
0.54222167 0.3135241 1.2813079 1.0096042 0.41911936 0.46297827 0.38115114 0.49264762
-0.38414106 0.9359958 0.38855088 0.3649375 0.56844795 0.39384344 -0.089793995 0.40800244
0.1700501 0.24816748 0.3800353 1.3631012 0.7750062 0.5164469 0.622301 0.17614509
1.4230932 0.56433845 0.17050214 -0.17460403 1.0557939 0.9586093 0.8268685 -0.1640116
0.16015902 0.2320551 1.2795143 0.34495804 0.44480535 0.38787588 0.29465762 0.9258848
0.52949 0.99666995 0.031942926 0.2954112 0.1522883 -0.07231572 1.0335417 0.23273316
1.2578491 0.46724135 0.24528112 0.72768456 0.26724717 1.0150592 0.26243982 0.30969012
-0.50058883 0.6335491 0.1766347 0.86171377 0.17647517 -0.2506616 0.08350772 0.26924682
0.38738325 1.192828 0.6863207 0.20700833 0.62022984 -0.2583431 0.8721872 0.39352664
00000000: d78b 403f 6a7e 283d 6a69 7b3e f53c 483e
00000010: cf78 a03c 32c3 883d 1676 d6bd 68e5 153d
00000020: c530 4e3e 15b6 193e bcde f33e 29ba fcbd
00000030: e3bd 753e 6b32 f33c 0672 a73a 3142 743d
00000040: 7389 e53d 3caf a13d 8fac 2a3d d06b 4e3f
00000050: c960 403e bc5a cd3d f8a5 233f 1697 c53e
00000060: 673a 0a3e eff8 81b9 0a67 f13e 74f6 413e
00000070: 6f29 a73d 3bd1 a3bd eaa7 4f3f b7f3 243e
00000080: d58f 563d bc3c 893d 0f63 593e c694 353f
00000090: bc02 8e3d 9514 e23d e880 3a3f f361 a1bd
000000a0: 07da c73d 0eba 243e bdb6 54be a993 c3bc
000000b0: 9d4d 2d3e b64f 333e 3bc5 53bb 7fc4 0a3e
000000c0: b777 dd3d 82b2 883c ff6a 9dbd 0c8e 033e
000000d0: c718 33be 2c4c ef3d 90e9 f13c 7737 5cbe
000000e0: e716 723e 22a6 13bc 10a7 a63f d5d2 2a3f
000000f0: 5154 f63c f5f4 f43d 1335 fe3d fa7c 9e3e
00000100: 4636 b33b 2140 463e 9083 c93d e4d5 393e
00000110: 2fe3 10bd 0ac1 d4bc 71e0 45be 5afb f63d
00000120: 24ac c03d 5c19 4abd 7b88 183f f279 903d
00000130: 17e7 033e 7cab 233e ed2f 6e3e 6495 e73d
00000140: a010 bb3d 3e9e 9f3d 4937 ca3d df96 c9bd
00000150: 7c72 883e ed75 b13e 62bb 123b 81dc f6bd
00000160: bff8 6ebd cca6 f33c 9cb8 4c3e fae7 573c
00000170: c5ae 953d df46 063e 163d cf3d 291a 2f3e
00000180: fdf5 d73d 3e94 033f d8c8 63be 72c7 10bd
00000190: 86d0 15be 4b4d 153f 0d31 1d3d a7fe c13d
000001a0: 480e 153e dea1 183d 3a93 4b3e f86e 403d
000001b0: 240f 1a3e 6680 cf3d baf5 7a3d 1eb6 f43d
000001c0: 136c 65be 6ed0 59bd 330d 733d 19bd 513d
000001d0: 7faa ae3d e1df 25bb 9d34 0f3d cbf3 563d
000001e0: fc25 91bb d865 213d f0dd 6dbb bafe 9b3d
000001f0: 7e50 1d3e 6724 bd3c 76e6 123f 2314 353e
00000200: f23e f63e feef 6c3e 64a4 443f c451 4b3e
00000210: a51b 433f 3ef9 f73e b5b7 ad3d dc24 683f
00000220: 9440 483f e054 483f b3d9 8c3f 0460 abbe
00000230: f9c1 8c3f df11 893f 1e50 743e a079 b93f
00000240: 807f 883f 3b85 8c3f f0f1 2e3e ba2a 723f
00000250: a810 7d3e 6373 9d3f 7a4a 6b3f 8607 6e3f
00000260: 3d9c 683f 3313 8b3e c5ab 803f bf7d 393f
00000270: 925f 733d 8a7e adbe a9e9 373f 216e 8b3f
00000280: 8a72 7b3f d9e6 903e 77ae 413e a589 2f3f
00000290: c85a b73e 3dd5 383f 3075 ee3e 439a cfbe
000002a0: 6e53 613e e52d 553f e80c eabe 12a4 f63e
000002b0: 992b 853f c691 513f 07f8 a33d a6e5 e03e
000002c0: 0370 a93d 37e1 533e db6e c63d a285 da3c
000002d0: 1870 f7be ce5b 053e 3aba 173e 417a 8dbe
000002e0: 0acf 0a3f 3b86 a03e e601 a43f b63a 813f
000002f0: d096 d63e 7d0b ed3e 3e26 c33e 4f3c fc3e
00000300: 23ae c4be 6c9d 6f3f 24f0 c63e 17d9 ba3e
00000310: ce85 113f d9a5 c93e eae5 b7bd b2e5 d03e
00000320: 9d21 2e3e 9e1f 7e3e fd93 c23e 1a7a ae3f
00000330: ce66 463f dd35 043f 1e4f 1f3f 615f 343e
00000340: eb27 b63f 7c78 103f 1d98 2e3e 66cb 32be
00000350: 4124 873f 6b67 753f a7ad 533f a8f2 27be
00000360: ba00 243e da9f 6d3e 20c7 a33f 579e b03e
00000370: 87bd e33e ab97 c63e 5ddd 963e c906 6d3f
00000380: a88c 073f c325 7f3f 96d6 023d 2340 973e
00000390: 77f1 1b3e 441a 94bd 184b 843f 9a51 6e3e
000003a0: 3301 a13f 423a ef3e f92a 7b3e 8949 3a3f
000003b0: 9fd4 883e 76ed 813f 835e 863e b48f 9e3e
000003c0: 9726 00bf 4630 223f badf 343e 4699 5c3f
000003d0: e8b5 343e b856 80be 1806 ab3d b8da 893e
000003e0: 1957 c63e 97ae 983f b7b2 2f3f fef9 533e
000003f0: 62c7 1e3f 8c45 84be a947 5f3f 537c c93e
