GRU/models/test_epochs=50.pth (torch, 608005 bytes, 9 tensors)

weight_ih_l0 f4 [384, 5]
00000000: 3318 42bc 7832 1ebe cb9f 55bd 53b0 0ebe
00000010: e473 3abe 1b53 7dbd 9dd9 58bd 91a8 bbbd
00000020: 60e3 1d3b 71a9 4fbe 84d5 acbd c0dc 21bd
00000030: 41dd c2bd 00e0 48be b035 62be 666d a93d
00000040: b0d0 54bd 1325 403d f70b 593c c616 13be
00000050: 2d38 45bd a12a 713b e796 383d f707 593c
00000060: 9287 72be 5c73 c6bd 51b8 00be 4bbd e3bd
00000070: 3e78 bbbd cee6 afbd da14 3bbd d85a ecbd
00000080: 1d38 56bd e0c0 f6bc feb2 6ebe fd03 8fbc
00000090: 54ce 28bd 2321 32be 6682 29be cf46 b3bd
000000a0: bdec 8dbd 9745 92bd 65f8 8dbd 02a9 59bc
000000b0: 60f1 37be e1c1 c53c 0da1 f7bd ca99 ce3c
000000c0: 82f9 dbbd 2a71 13be 7d74 b0bd 4f9c abbd
000000d0: 96a0 efbc 89b5 96bd 31a9 efbe 4a3f 0fbd
000000e0: b59c e0bd 7ec4 68bd 3f51 7abd b4e1 e13c
000000f0: 0af2 ec3b bddc 1abe ca0c 9dbd 88cf 09be
00000100: 0c5b c2be 6f65 1bbe 8d6b 0ebe 06d3 21bd
00000110: 8972 17be a530 81be afdc 8cbd 412f 8ebd
00000120: 6788 2fbd 30d1 963b b41a 4bbf 54ac 07be
00000130: 1438 8fbd cb61 e6bd c206 cabd c3ba 7abe
00000140: 6b46 883c 70b7 a33c 2468 bcbd cf7d c5bd
00000150: ce22 34be 611d a1bd a2d5 343b ce98 82bc
00000160: 2bf9 94bc 4165 41be ee2f 16bd 6692 b5bd
00000170: d577 99bd 7df1 23bd 52e9 93be dfae edbd
00000180: 7726 abbd bf17 3abe 912f 2ebe 25c4 90bf
00000190: 9e2d 88bc 42b3 1fbc b69c febd 5307 15bd
000001a0: 4891 07be bdf1 ecbd 844b b1bd 12a9 50bd
000001b0: 0f32 25bd f3f7 13bd 00a6 fcbd 1d64 d0bd
000001c0: 5b55 2abd cef1 29be f532 7abe ce0a 36bc
000001d0: 650b 3bbd 3063 f9bc 0068 43bd a99c 89be
000001e0: 3b4f ed3d bcb3 ac3d 06e5 5bbc 3150 ab3c
000001f0: 6b57 31be 354a f53c be08 37bd e86e a43d
00000200: cd9e dcb7 5e87 62bd eeba 45be 90de 9dbd
00000210: 3c18 1bbe 716b 77be a559 92be 9369 b43c
00000220: 2926 f43d 5c8b fb3d c332 fe3d e7a8 a0be
00000230: f7d5 fabc 8bd4 f8bd d886 aebc f124 4fbd
00000240: eee4 f5bd 12f7 65bc 404d 95bd 0194 52bd
00000250: 365b 00be 1924 d2be c963 03be 1bb9 a8bd
00000260: 5a2c 32be 6e8e 9abd 7141 7bbe a32c 503c
00000270: c9b3 a6bd 1546 4b3d 01f0 13bd f2a6 0dbe
00000280: a830 0d3d d7a6 d1bd 7606 2abd 7fd3 a6bd
00000290: ebfa 80be 94d1 b4bd 7da0 93bd 8fec 38be
000002a0: 0d71 4abd c54c 69bd 9526 20be a013 30be
000002b0: 0c39 81bd 1d07 7dbd aa70 cfbe 950e f6bd
000002c0: 74e7 c4bc 0372 48bd 3060 17be 5914 86be
000002d0: bc1f 30be 7859 0dbe 29f9 b5bd f908 34be
000002e0: 86fa 91be 24cb 81bd 793a a8bd 3adb 81bd
000002f0: 989b 2ebd 4608 3dbf e42d fdbd 9702 46be
00000300: 5b7e 07be 7124 44be ff2d a8be c5bc dbbd
00000310: 084d cdbd 14da 853a a901 01be 77ea 49bd
00000320: c829 f23a 3a99 80bd 1169 88bd d247 8f3d
00000330: 59bc 56be 96f6 b63c 7d19 a7bd 0595 02be
00000340: 20e5 76bc 18e2 87bc c96c cbbd 2c9b 5abd
00000350: cc0f 36bc 4adf ebbc f45b 05c0 8d9e 08be
00000360: 63ce dbbd 3f02 df3c 671e 0abd cc1b 15be
00000370: d6bf 3fbe b6db 29be 5933 12be 918b bebd
00000380: 65b5 fdbd b060 dbbd 65a5 29be 5a7c 2ebe
00000390: da1e 2dbe d516 88be 33c7 c2bd cbf3 04bd
000003a0: 0dca 2bbe 12ef dcbd eda6 03bf 48a0 d6bd
000003b0: 3393 94bd 075d a4bd a6d1 ecbd b23c 40be
000003c0: 5727 43bd cc92 183c 04d9 14be 9de6 19be
000003d0: 61a2 55bd 7ec1 213d 5774 9bbc 965e 65bd
000003e0: 4b43 07bd 0d84 d6bd 61b0 5bbe b571 a2bd
000003f0: e2dc 59be f87e 6abd b133 bbbb d3be 2ebd
-0.01184659 -0.1544894 -0.052154344 -0.1393445 -0.18208271 -0.061846834 -0.052941907 -0.09163011
0.0024091825 -0.2027948 -0.084391624 -0.039517164 -0.09514857 -0.19616699 -0.22090793 0.08272819
-0.051956832 0.046910357 0.013247482 -0.14364156 -0.048149277 0.003679909 0.045065787 0.013246528
-0.23684528 -0.09689972 -0.12570311 -0.11120089 -0.09153794 -0.085889444 -0.045674182 -0.115407646
-0.052299608 -0.030121267 -0.23310468 -0.017457956 -0.041212395 -0.17395453 -0.1655365 -0.0875374
-0.0692992 -0.071421795 -0.06932143 -0.0132849235 -0.17963171 0.0241403 -0.12091265 0.025219817
-0.10740949 -0.14398637 -0.086159684 -0.08379423 -0.029251378 -0.07358844 -0.4680877 -0.034972467
-0.109673895 -0.056828015 -0.06111264 0.027573444 0.0072310017 -0.15123267 -0.07668455 -0.13458073
-0.37960088 -0.15175413 -0.13908215 -0.03950789 -0.14789785 -0.25232425 -0.068780296 -0.06942607
-0.042854693 0.004602574 -0.7933762 -0.13249332 -0.06993118 -0.11249121 -0.0986457 -0.24485306
0.01663514 0.01998493 -0.09199551 -0.09643137 -0.17591402 -0.07866932 0.0027593155 -0.015942004
-0.018185219 -0.18886282 -0.036666803 -0.08865814 -0.07493559 -0.040025223 -0.28888947 -0.1160562
-0.08356946 -0.18173121 -0.17010333 -1.1309859 -0.016623314 -0.009747328 -0.12432234 -0.036383938
-0.13239014 -0.115695454 -0.086569816 -0.050942488 -0.040330943 -0.036125135 -0.123363495 -0.10175345
-0.041585308 -0.16596147 -0.24433501 -0.0111109745 -0.045665164 -0.030442804 -0.047706604 -0.26877335
0.11587378 0.08432719 -0.013421303 0.020912262 -0.17318504 0.029942611 -0.04468607 0.08028966
-2.6299991e-05 -0.055304877 -0.1930959 -0.07708466 -0.15145963 -0.2416208 -0.28584018 0.022022998
0.11921341 0.1228244 0.12412026 -0.31378862 -0.030619605 -0.12149914 -0.021304533 -0.05057234
-0.120065555 -0.014035957 -0.07290125 -0.05141068 -0.12534794 -0.41043165 -0.12831034 -0.08238431
-0.17399731 -0.075466976 -0.24536683 0.012705955 -0.0813976 0.049627382 -0.036117557 -0.13833216
0.03447023 -0.102369 -0.041510068 -0.081458084 -0.25191435 -0.08829036 -0.07208345 -0.1805899
-0.04942422 -0.05695798 -0.15639718 -0.17194986 -0.06309709 -0.061774362 -0.40515643 -0.120145
-0.024036147 -0.048936855 -0.14782786 -0.261874 -0.17199606 -0.13803661 -0.08885414 -0.17581548
-0.28511447 -0.06337574 -0.08214278 -0.06340642 -0.042628855 -0.7384075 -0.123622686 -0.19336925
-0.13231795 -0.19154526 -0.32847592 -0.10729364 -0.10024458 0.0010212087 -0.1259829 -0.04929587
0.0018475587 -0.06279226 -0.06660665 0.069961205 -0.20970286 0.022334378 -0.081591584 -0.12752159
-0.015069276 -0.016587302 -0.099328585 -0.05337064 -0.011112165 -0.028792996 -2.0837374 -0.13341732
-0.107327245 0.02722275 -0.0337204 -0.14561385 -0.18725523 -0.1658772 -0.142774 -0.09303964
-0.12388114 -0.10711801 -0.16567 -0.17039624 -0.169063 -0.2657992 -0.095106505 -0.03245906
-0.16776295 -0.107877865 -0.51426584 -0.1047979 -0.072546385 -0.08025556 -0.11563425 -0.18773153
-0.04764494 0.009312343 -0.1453591 -0.15029378 -0.05215681 0.03949117 -0.018976374 -0.055998407
-0.03302316 -0.104744054 -0.21454002 -0.07931844 -0.21275666 -0.057249993 -0.005712949 -0.042662453

weight_hh_l0 f4 [384, 128]
00000000: 2033 0c3f b3e4 f03d 9863 873b 0b48 293b
00000010: 1005 ff3c 1399 96bb 954e d4bd 0a45 c93c
00000020: 8eef b13b 33b0 c4bd 9492 2c3c 17d1 f03b
00000030: 60ef a9bd ca6b 093d e42a febb c7c3 173d
00000040: 31d3 993a d308 94bd 4f87 9d3d c773 143e
00000050: 0fdd 33be c693 cebd b7e7 113e 07a7 16be
00000060: 733b 3a3d cc1e 5f3e 2ca5 edbb df59 f7bd
00000070: c150 823e 9111 2e3e 7043 523d 0d0b fd3a
00000080: 2748 cfbd 7b39 5a3d f2b6 503d 5fcf 0d3b
00000090: 7cb9 3a3e 5b44 fdbc 3ec7 a4bd 94b7 a1bc
000000a0: 9ea7 c13d e0c6 f5bc 38e2 833d a30f 7dbd
000000b0: fc04 903d 10f9 6abc 6001 f4bc b48a 833d
000000c0: 5104 19be 826d 8b3d 0d6d ad3b e585 d13d
000000d0: 1f9e 633e 5de2 89be f9d8 733d c428 9cbd
000000e0: c63b ec3b 561f fa3d 7a59 a2bc 2b63 413c
000000f0: 77cb d13b 6a64 6a3d bb71 9abd cc2d 0fbd
00000100: 730d 81bd e008 debd 5aa7 80be 4ec2 2dbd
00000110: ca92 a53d 99fb 143d 09a2 343e c03b 6d3d
00000120: 545d eb3d dba2 25be b1f5 383d fb24 f0bd
00000130: f962 b1bd 2362 e6bd 7dd1 033e cc9c 6bbd
00000140: b3e2 5d3d 0f00 133e 1066 d1bd 9cc1 9b3b
00000150: 3931 15be 1953 093d 2225 a0bd 131a ed3c
00000160: 12f0 2a3d 2931 a2bc 49d8 bfbc 2a17 5bbd
00000170: 7af5 653d 5ec4 31be ae04 cabb 66cc bf3d
00000180: f6cb 3a3e 4995 ddbc c255 ce3c db76 98bd
00000190: 3f93 c53d 50f7 e5bd 9f13 56bd 81d8 b73c
000001a0: 446c 05be ca9d bc3c da18 2c3d e98e b03d
000001b0: 310d c4bd 0371 563d 9dab 2c3e 2bec a23d
000001c0: 1acd 8fbd 9c83 243e 463b 53bd 678c 323d
000001d0: 9031 48be db9b 703e 623e afbd dbba a4bd
000001e0: 044d 81bc eaab 7cbd 6b3c 8b3d c939 cc3d
000001f0: 50e0 653e 9fda ac3c a651 33bd e80f 7ebd
00000200: 2010 a0ba 6466 bd3e 560d eabc 5800 f7bd
00000210: 1b14 643d 90e7 f83d 9e97 f5bd 76c3 813e
00000220: 1f9d b23d e3eb 073e 1d34 00bd 3d9e a83c
00000230: 786b 1a3e 39a6 3bbe be52 e9bd ae39 4cbd
00000240: 5a64 49bd d75d 4dbe ad53 483c 5f24 9b3c
00000250: 45ca 22be 3de4 35bd 2c7d ac3b a756 96bc
00000260: d1a7 55bd 1cf3 553e 3283 e0bd 09c4 2abe
00000270: 04d8 75bd 1e9d 663c 12d7 f3bd 99ac 01be
00000280: 909c 393d b526 92bd ed7f 973d 6668 903d
00000290: f9ec e23c 4efc 76bd ec83 33be 4471 963d
000002a0: aee1 c73c a8e7 a13d 4911 3b3e 43d2 8cbe
000002b0: 5642 32bc c90b 5b3e 6e18 45be 53e1 283d
000002c0: 8703 4aba 2247 053d b847 d33d 25b1 0a3d
000002d0: fa57 bd3d db77 05be c490 243c abe6 d6bd
000002e0: 64ea a43d bbf3 103d 2d90 e23d a8a3 12be
000002f0: 3275 06bd 1f69 cebc 0daf b7bd fd40 a8bd
00000300: 0064 8f3d 4e75 a23c 49aa 88be d559 52bd
00000310: 1aca 9bbc 9031 d73d aa9b 9abd 7212 9c3d
00000320: 48ef 3e3c 9441 ab3d 9d36 afbd a785 443d
00000330: 6d7b 07bd e9c0 e8bd 1092 ac3e fd3b abbd
00000340: 9198 8cbd 898d 633d 225a d5bd 958a cebc
00000350: 04c5 40be 484b 1bbe e603 373d e4a3 ffbc
00000360: d330 c4bd d735 92bc 78a1 d4bc 9b5d fe3d
00000370: 6e6a 343e 67f3 9dbe 0ff6 47be 16d1 71bd
00000380: 0839 363e 295a 183e 4643 023d eaef 9dbc
00000390: 649f aa3c 1a2a b4bc 7c50 0c3e 75c6 3d3d
000003a0: 9a29 52be e273 b0bd 0227 89be f430 a7bd
000003b0: d0d1 22be 8119 13bd bb5c a4bc c945 133e
000003c0: 8a83 70bd d8dc ba3d f694 1fbd a36d bbbd
000003d0: b93a 483d 1ce6 a43b 171b e5bd 7d79 bfbc
000003e0: 4a24 a33d 7b16 19bd 7ce2 9d3c 9edf 223e
000003f0: e600 0d3e 4462 82bd eb8d 38be f00b adbc
0.5476551 0.11762371 0.0041317455 0.0025830294 0.031130344 -0.0045958846 -0.10366551 0.024569053
0.0054301685 -0.0960392 0.010532994 0.007349144 -0.0829761 0.03355006 -0.007756578 0.037051942
0.0011735914 -0.072282456 0.07691824 0.1449729 -0.17564796 -0.10086779 0.14248548 -0.14712153
0.04546685 0.21789092 -0.007252356 -0.120776884 0.25452235 0.16998889 0.051333845 0.0019305662
-0.10121184 0.053277474 0.05095572 0.0021638495 0.18234819 -0.030916383 -0.08045815 -0.019740857
0.094557986 -0.030002058 0.06439632 -0.06178249 0.07032201 -0.014341608 -0.029785812 0.0642294
-0.14943053 0.06807996 0.005292541 0.102306165 0.22228287 -0.26930514 0.059533093 -0.07624963
0.007209274 0.12213008 -0.019818056 0.011803429 0.0064024287 0.05722467 -0.075412236 -0.034955785
-0.06301393 -0.108415365 -0.2512768 -0.04242163 0.080846384 0.036372755 0.17639937 0.05791831
0.1149241 -0.16175406 0.045156185 -0.117258035 -0.08661456 -0.11249187 0.12872882 -0.05752258
0.054171275 0.14355491 -0.10224545 0.0047533046 -0.14569558 0.033526514 -0.078195825 0.028943097
0.041732855 -0.019798832 -0.023418562 -0.053488888 0.056142308 -0.17360064 -0.0061651086 0.09365158
0.18241867 -0.027048724 0.025187377 -0.07444545 0.096472256 -0.11228812 -0.052264806 0.022442104
-0.13029581 0.023024458 0.042015888 0.08621008 -0.095728286 0.05235387 0.1686234 0.07955202
-0.07021542 0.1606583 -0.0515702 0.04359093 -0.19550157 0.23496954 -0.085568205 -0.08043452
-0.015783794 -0.061687388 0.06798633 0.09971959 0.2244885 0.02110034 -0.043779038 -0.062026888
-0.0012211837 0.3699218 -0.028570812 -0.120606124 0.055683237 0.12153542 -0.11991809 0.25344437
0.08721375 0.13273577 -0.0312997 0.020583266 0.15080059 -0.18325128 -0.11392735 -0.049859695
-0.04916797 -0.20055328 0.012226981 0.018938242 -0.15897472 -0.044407118 0.005263945 -0.018351866
-0.052161995 0.2089352 -0.109625235 -0.16676344 -0.06002046 0.014075546 -0.11906256 -0.12663497
0.045315325 -0.07136289 0.07397447 0.070511624 0.027700888 -0.06029921 -0.17530793 0.073458225
0.024399605 0.07905513 0.18268313 -0.27504167 -0.0108800735 0.21391214 -0.192476 0.04123051
-0.0007706214 0.03253854 0.10316414 0.033860344 0.09245296 -0.13034002 0.01004428 -0.10493215
0.08052519 0.03538869 0.110626556 -0.14320242 -0.03282661 -0.02519661 -0.08968935 -0.082155205
0.07001495 0.019831326 -0.26692417 -0.0513552 -0.019017268 0.105075 -0.07549222 0.07620706
0.011653729 0.083621174 -0.085553385 0.047979023 -0.033076692 -0.1136492 0.33705187 -0.08361051
-0.06865037 0.0555549 -0.10417582 -0.025212565 -0.18825155 -0.15165436 0.044681452 -0.031206079
-0.09579625 -0.017847938 -0.0259559 0.124201976 0.17618725 -0.30849764 -0.19527458 -0.05903729
0.17795193 0.14878143 0.03180244 -0.019279439 0.020827956 -0.021992732 0.13702577 0.04633184
-0.20523682 -0.08615853 -0.26787573 -0.08163634 -0.1590035 -0.035912994 -0.020063749 0.1438209
-0.058719195 0.09124154 -0.03896042 -0.09151771 0.048884127 0.005032314 -0.111868076 -0.02337336
0.07965906 -0.037374955 0.019273035 0.15905616 0.13769874 -0.06366399 -0.18022887 -0.021123856

bias_ih_l0 f4 [384]
00000000: 1ffb 00be e907 e2bb edce e1bd fc84 d8be
00000010: c16e c8bd b296 2dbd 6344 cdbd f2fe febd
00000020: 7eb6 1cbe 4c91 17be c4c0 8ebe 42e7 993d
00000030: d01a 81be e39e f1bd 5bda 95be 7b5e 90be
00000040: bf9f 32be 94f8 ab3c 5963 61bc d6d4 07bf
00000050: 75a9 34bd 0c48 09be 89e1 21be 4fb2 d1be
00000060: 6254 17be a583 0fbd 037d 233d f3aa 8dbe
00000070: b11f ddbc d4a3 45be 8a40 20bd af5e 1dbe
00000080: c12f 2cbe 9dff 32bd 3cd8 6ebe f7d5 59bd
00000090: 8e29 70be 2867 91be 3e3c 16be d2c4 23bd
000000a0: 8be7 4dbe e57e 8b3d 85d2 a7bf 6798 903d
000000b0: f0bc d3bc 8b6f e6bd 5a66 d0be 9179 a0bd
000000c0: 3d3e 143e aaf3 173d 1186 2ebd 242c 73be
000000d0: 6eb9 5cbd 964c 10be aacc 963c bc5e 53bd
000000e0: 5d32 a4bd 2614 edbd cd7f a2bc 5a8b a6be
000000f0: fcfc fb3b 983e 92ba 8402 35bc 1c18 2abd
00000100: 7d70 8bbc 1051 2abd 3b25 2abe 26c6 283e
00000110: a270 16bd faea 7abe 4279 82bd 4501 66be
00000120: 6319 57bd 8c00 c1bd b3e2 693c e733 c5bd
00000130: ee7a 963c e2ce a4bd 39f9 f4bd 25f7 c1bd
00000140: a3d3 e8bd aea5 403c 664d 96be 555b 8cbd
00000150: 20bf 68be 7d45 4abe 9c3b 58bd 08bd 5abc
00000160: b067 6ebe 5d33 1bbe d907 3dbe e86f 81be
00000170: 229f 9fbd c577 6ebe cc18 62bd fcf4 7ebb
00000180: 4eab 2fbe 314d b0bd bfaf 18bf de1d 9ebd
00000190: 85e9 11be 578f 60be d22d 933d 983e 4fbe
000001a0: 4011 3dbe 9a8f dbbd 55f4 5abd 3068 9bbe
000001b0: 0ba8 9bbd 4410 73bc 5914 98bc 4e8c 5dbe
000001c0: 3733 09be 1750 5cbd 523d 04be d477 a3bd
000001d0: a03f 6dbd 1072 18be ec5c 6ebd de0e 68bd
000001e0: 2740 9d3d 82e6 74bd 5168 27bc 15b6 5fbd
000001f0: 8cbb a0bc 68d8 543b fb5f 0a3c 1c3b c3bd
00000200: 6972 b63d 00f8 cb3d 5cb2 f43d dd98 c3bc
00000210: 35f1 dbbd 8738 3d3e 9d3e 243d 1806 21bd
00000220: 9afd 8bbe 89e3 833c e363 9ebd 334b 863e
00000230: 3b2d c6bd 5985 86bb 235f 06bf 9d2b b33e
00000240: 90ed 103d 031d 8fbc 6f2d 35bc da31 06bf
00000250: 129b 863e 5424 cc3d ca7d 233e 8fa9 643d
00000260: 2470 49be 1250 d03d b603 0abd 25a1 a0be
00000270: fafb 4e3e 7da4 f8bc ca01 b33e 68a3 b2bb
00000280: b812 e7bc e423 9d3d de40 60be e078 0f3d
00000290: 090c 2f3d f472 0fbf 135b 443e ff3c 613d
000002a0: 69fc 60be d9db 963d 7670 1bbf 46ee 293e
000002b0: ba5c 4cbe e939 9f3c e814 8b3d bfba 0d3d
000002c0: fae7 3b3e d681 883d 0e3c fd3d 5d60 9c3d
000002d0: 7409 183d 964b 523e 294c 93bd cd70 8b3e
000002e0: 25ab 153e 8c7f 0f3e e36f 9dbc 6f7c ddbe
000002f0: b9e0 813e b3fc 933b c22f 3a3e 00b0 18be
00000300: 74a8 01be cd93 713e 4c81 c9bd b764 a0be
00000310: 7343 563e c742 84bd 7a82 c4be adf7 743e
00000320: 4844 263d beaa 163d ea20 763d ce5f 28be
00000330: fc7b fb3d 29bf aa3d 73f4 593d 18ad 473e
00000340: 874f ce3d bdbd 193e 8fdf f33c ba02 093e
00000350: 7b8b 9abe 7b1f 233a 0b07 2c3e 2d24 8a3c
00000360: b9c9 44bd dcd7 adbc 1c29 a9bd b87a 393e
00000370: 5bc1 1dbc 4622 73be 3d7a 1b3d 35a5 743d
00000380: 9ea5 273e eaa5 1abd 3019 10bf 626b 83be
00000390: 2c06 9e3d 1694 01be 9ccc 40be 8aa0 513b
000003a0: 929f 983c df49 44bd 0453 c43e d66e f73d
000003b0: 3142 193e 095a 073c 5cec 103e dce4 86be
000003c0: bad7 47be 1ddb 253e 5b19 04be 4c35 203e
000003d0: c62b 0bbd 29fd 453d fac5 e3bd bd84 623e
000003e0: 5f93 9d3d 59ce b63b 16f7 073e cbaf 933d
000003f0: 82f1 ab3d ed2c f13d 0670 703e 4174 263d
-0.12595795 -0.0068979156 -0.11025796 -0.4228896 -0.0978675 -0.042380042 -0.10022809 -0.12450971
-0.1530399 -0.1480152 -0.27881444 0.07514812 -0.2521577 -0.11797883 -0.29268155 -0.28197083
-0.17443751 0.020992555 -0.0137565965 -0.53059137 -0.04410692 -0.1340639 -0.15808691 -0.4095635
-0.14778283 -0.035037655 0.039914142 -0.27669486 -0.02699265 -0.19300777 -0.03912405 -0.1536815
-0.16815092 -0.043700803 -0.23324674 -0.05318257 -0.23453352 -0.28399014 -0.14671418 -0.039982624
-0.20107858 0.068113126 -1.311112 0.070603184 -0.025846928 -0.11251744 -0.40703088 -0.07835687
0.14476867 0.03709761 -0.042608324 -0.23747307 -0.053887777 -0.14091715 0.018408138 -0.051604018
-0.080174185 -0.11576109 -0.01983633 -0.32528192 0.00769007 -0.001115757 -0.011047963 -0.0415269
-0.017021412 -0.041581213 -0.16615765 0.16481838 -0.03672851 -0.24503699 -0.06370784 -0.22461422
-0.052514445 -0.094239324 0.014275241 -0.0962904 0.018369164 -0.08047272 -0.11961598 -0.09470967
-0.113684915 0.011758251 -0.29355925 -0.06853358 -0.22729158 -0.1975307 -0.052791223 -0.013350733
-0.23281741 -0.15156312 -0.18460025 -0.2528069 -0.07794024 -0.23287876 -0.05519943 -0.0038903346
-0.17155191 -0.08608473 -0.5964317 -0.077205405 -0.14249237 -0.2192968 0.07186474 -0.20238721
-0.18463612 -0.10720749 -0.05345567 -0.30352926 -0.07600411 -0.014835421 -0.01856439 -0.21635553
-0.13398443 -0.053787317 -0.12914017 -0.0798184 -0.057922006 -0.14887261 -0.058194086 -0.056654803
0.07678252 -0.059790142 -0.010217742 -0.054617006 -0.01962068 0.003247762 0.008445735 -0.095327586
0.08908541 0.099594116 0.11948082 -0.023876602 -0.10739366 0.18478595 0.040098775 -0.039312452
-0.2734192 0.016099708 -0.07733896 0.26229247 -0.09676596 -0.0041052517 -0.5248892 0.34994212
0.035382807 -0.017469889 -0.0110581955 -0.5241982 0.26290184 0.099678665 0.15965953 0.055825766
-0.19671685 0.10171522 -0.033694945 -0.31372944 0.20213309 -0.030351872 0.34962302 -0.0054516084
-0.028207168 0.07672861 -0.21899745 0.035027385 0.042736087 -0.5603478 0.19175367 0.05498981
-0.21971287 0.07366151 -0.60718477 0.165948 -0.19957247 0.019436793 0.06791097 0.034601923
0.18350211 0.06665389 0.1236497 0.07635567 0.03711839 0.20536646 -0.07192261 0.27234498
0.14616068 0.14013499 -0.01921839 -0.43258998 0.25366762 0.004516208 0.1818228 -0.14910889
-0.12661916 0.23591538 -0.098391145 -0.3132684 0.20924167 -0.06458049 -0.38380796 0.23922606
0.04059246 0.036783926 0.060089983 -0.16442797 0.122795075 0.08337242 0.05321164 0.19499624
0.100737624 0.15013786 0.029769687 0.13379946 -0.3018454 0.00062226475 0.16799562 0.016862953
-0.04804394 -0.021221094 -0.08259794 0.1811322 -0.009628619 -0.23743543 0.037958372 0.059727866
0.16371772 -0.037755884 -0.56288433 -0.25667864 0.07716021 -0.12654147 -0.18828052 0.0031986558
0.018630777 -0.04792201 0.38344586 0.12081687 0.14966656 0.008261212 0.14152664 -0.2634648
-0.19515887 0.16196866 -0.12900297 0.15645331 -0.033977292 0.048337135 -0.111217454 0.22120948
0.076941244 0.005578798 0.1327785 0.07211264 0.08395673 0.11776147 0.23480234 0.040638212

bias_hh_l0 f4 [384]
00000000: 1788 c3bd b4cd d6bd 7b62 db3c 9ea5 bcbe
00000010: 028e e1bd 995c 1ebe 2221 ffbd 821d 99bc
00000020: 13e3 3ebe 8737 a5bd 3e3a c4be d0e3 143c
00000030: 6228 94be 70a7 07bd 7126 b1be 8167 81be
00000040: 45e0 50be 2217 e03c aae3 b0bd 2927 d9be
00000050: 801a d3bd f4ad 20bd 91e1 1fbe e7f2 b5be
00000060: 0b62 54bd a607 c0bc bb48 81bd bec7 39be
00000070: 9a96 c53d 2d33 2dbe e7d3 903d e898 2abe
00000080: d830 2abe ddaa 1ebd 50e8 24be 8fc6 3fbe
00000090: a135 8fbe b6a3 86be ac59 d5bd fd2d 133d
000000a0: 08f5 8abe 412b 73bd 8f0b 98bf f69f 223d
000000b0: 946e 823a 3db0 4bbe 2438 c8be c2cf 0ebc
000000c0: e654 f73d d0ea 983c eb3c 4ebd 2318 02be
000000d0: 9ad9 15be 87d5 1cbe 92f9 1dbd e9d5 d4bd
000000e0: d937 75bd b1b8 bcbd 410a a73d bddc a2be
000000f0: 04d6 083d 6ea0 5f3d c5a6 d2bd 4ea2 98bd
00000100: 572f 14be 7fbd 9a3d 4501 24be 876c 8b3c
00000110: 6681 353d 4243 2bbe da0f de38 cf39 78be
00000120: 4f99 673d 4b02 fbbd 0c74 c9bc b058 b8bd
00000130: dfe8 56bd e833 c1bd f5ec 19bd 9ab4 55bd
00000140: f91a 66be fbab 6ebd 9f43 89be 34cb 42be
00000150: abc5 56be 84db b2bd bf97 15be 1db1 02be
00000160: 66f9 69be 40b9 c8bc 8785 95bd 51cb 3bbe
00000170: 4ec8 533d 6a68 a0be 91be 25bc c58a 6c3d
00000180: ab06 86be 22c6 85bd ff5a 13bf 9f88 63be
00000190: 93b4 11be a170 29be bb79 4c3b db91 52be
000001a0: 016e 71be eeb8 ebbd 92d8 b7bd b206 39be
000001b0: 384d 6fbe 6a7f cc3c 17d0 1bbe 875b 30be
000001c0: 5b81 b0bd df2d 63bd c090 28be 06fd f1bc
000001d0: b1eb 31be 8e34 2ebe 8afe 1bbd 9261 80bd
000001e0: 7451 e83d cf51 f7bc 6a2d dcbc ad4f 12be
000001f0: 8d3d 913c d4a3 0ebe f2c0 d6bc 31ab 7fbd
00000200: 1bd8 063e 557d 46bd 5b4d 873c d34c ecbd
00000210: 7acd 84be b7de da3d 2a89 ea3d 0453 09be
00000220: 3d26 69be 702e f93c d545 02be 817b 1e3e
00000230: 121d 39be e012 be3d 0457 05bf 3d7c c63e
00000240: 70da dd3d 5d28 ab3b 19bb 9bbd 2db2 10bf
00000250: 9eeb 683e 4624 4c3e 20b5 743e 569b dbbd
00000260: 5639 33be 0f53 303e 23b0 ffbd aad2 e0be
00000270: 2ff4 ab3e ae80 70bc 2881 bc3e 9e15 c83d
00000280: ea31 ca3d 90eb 463d 3e0e 1fbe 0c26 d4bc
00000290: d3cd ba3d cece fbbe d968 e73d 7319 223e
000002a0: 92c5 62be 85b6 b8ba 0476 1bbf a175 333e
000002b0: da25 5abe 02da 7d3d 261c 833d 0f5d 5a3d
000002c0: a5e4 853e 4584 f03d 25f1 f43d d910 953d
000002d0: 0567 7b3c 30cd 523e ac9f 293d 9cc9 913e
000002e0: e070 363e d6cb 343e 87dc 2c3d 42ce f8be
000002f0: b794 383e b2ed 0b3e 23a8 5c3e 5081 debd
00000300: 9b1e 8c3a f2e9 5d3e 73b8 50bd 6d87 6bbe
00000310: 1974 9a3e a7f6 c2bd 7aa4 bdbe c358 7d3e
00000320: 40fb 9a3c a8d6 7a3d 630e d13d 8d05 39be
00000330: 9a7b 433e 8d35 3dbd 3b03 b4bd b844 133e
00000340: 6cef d03d b928 6f3e 38e7 abbd 5834 763d
00000350: e0d3 8fbe c9fe 3cbc 6d92 7b3e 8edd 7b3c
00000360: 7f73 d4bd 0b5a 2ebd 76f6 25be c1ff 1e3e
00000370: 7a0d f13d 4d26 0fbe 4820 c23d d0a5 b83c
00000380: 7e37 5d3e 21bd c83d ff39 1ebf da51 78be
00000390: 7cbb 963d 8167 a4bd 3bcb 5ebe 9105 bfbc
000003a0: e3ff 0b3c ab85 d03d 500c a03e c718 fd3d
000003b0: 98ad 593e 36eb b9bd d0e5 fd3d 41e3 7cbe
000003c0: 8818 97be d1a0 c43d a969 a9bd 988d 773e
000003d0: 2497 00bd 1b60 b53c 0cce 09be a307 663e
000003e0: bf1c 613d 2897 f0bc 0c63 993d f95e fb3d
000003f0: b132 5ebb 520c c03d 46e7 583e a59e efbc
-0.095474415 -0.104884535 0.026780358 -0.36845106 -0.11013414 -0.1546501 -0.124574915 -0.018690828
-0.1864131 -0.080672316 -0.38325685 0.009087518 -0.2893706 -0.033118665 -0.3459964 -0.2527428
-0.20398052 0.02735478 -0.086371735 -0.4241269 -0.10307789 -0.039228395 -0.1561339 -0.35536882
-0.051851314 -0.023441147 -0.063127 -0.18142602 0.096478656 -0.16914053 0.07071667 -0.16659892
-0.16620195 -0.038737167 -0.16104245 -0.18728088 -0.27970603 -0.26296777 -0.10417494 0.03593253
-0.2714007 -0.059367422 -1.1878527 0.039703332 0.0009951168 -0.19891448 -0.39105332 -0.0087165255
0.1207674 0.018666655 -0.050351065 -0.1270452 -0.1463379 -0.15315829 -0.038568087 -0.103923626
-0.059867714 -0.092149146 0.08156253 -0.31809035 0.033407226 0.054596357 -0.10285715 -0.07452832
-0.14471184 0.07555675 -0.1601611 0.017019523 0.044312857 -0.16724876 0.000105887375 -0.24240802
0.05654269 -0.12256297 -0.024591468 -0.09001291 -0.052468177 -0.094337285 -0.037579495 -0.05217419
-0.22471227 -0.058269482 -0.26809403 -0.19022828 -0.20973842 -0.087332755 -0.14608668 -0.12762876
-0.22849044 -0.024502397 -0.07300859 -0.18339278 0.051704697 -0.31329662 -0.010116235 0.05774953
-0.26176962 -0.065319315 -0.57560724 -0.22220086 -0.1422904 -0.16546871 0.0031200487 -0.20563452
-0.2357712 -0.11509882 -0.089768544 -0.1806896 -0.233693 0.0249631 -0.15216099 -0.17222415
-0.086184226 -0.055463668 -0.16461468 -0.029539596 -0.17375065 -0.17012236 -0.038084544 -0.0626861
0.11343661 -0.030190377 -0.026877124 -0.14288206 0.017729545 -0.13929683 -0.02621505 -0.06241912
0.13168375 -0.04845937 0.016516378 -0.115380906 -0.25938016 0.10687011 0.11451943 -0.13410574
-0.22768493 0.030417651 -0.12721951 0.154768 -0.18077496 0.09280944 -0.520859 0.3876666
0.10832679 0.0052233175 -0.076040454 -0.56521875 0.22746131 0.19935712 0.23897219 -0.10722987
-0.1750234 0.17219184 -0.12484767 -0.43910724 0.33584735 -0.014679117 0.36817288 0.09769748
0.098728016 0.048564494 -0.15532777 -0.025897048 0.09121289 -0.49181217 0.11299295 0.1583002
-0.2214568 -0.0014092481 -0.6072695 0.1752534 -0.21303502 0.061975487 0.06401853 0.053311404
0.26151004 0.117439784 0.11960057 0.07278604 0.015344386 0.20586085 0.04141204 0.28474128
0.17816496 0.17655882 0.0422025 -0.48594862 0.1802548 0.13664892 0.21548514 -0.10864508
0.0010690273 0.21671274 -0.050957154 -0.2300088 0.301667 -0.095197015 -0.37039548 0.24740891
0.018918633 0.06123987 0.10207822 -0.18068524 0.19090119 -0.046193648 -0.08789679 0.14381683
0.10201916 0.23355378 -0.08393711 0.060108513 -0.28091335 -0.011535355 0.24567576 0.015372647
-0.10373592 -0.04256634 -0.16207299 0.1552725 0.117701486 -0.13979454 0.094788134 0.022540003
0.216032 0.098016985 -0.61807245 -0.24249974 0.073599786 -0.08027554 -0.21757214 -0.023318084
0.008544895 0.10181745 0.31259394 0.123582415 0.21257627 -0.09078066 0.12397349 -0.24696065
-0.29510903 0.09600986 -0.08272106 0.24175107 -0.03139414 0.022140553 -0.13457507 0.2246385
0.054959055 -0.029368952 0.07489595 0.12273974 -0.0033904726 0.0937735 0.21181974 -0.029250452

weight_ih_l1 f4 [384, 128]
00000000: b817 ff3d a946 0abd 10ae e03d 1f23 3cbe
00000010: dd20 e03d 9550 353e bd32 14bd 9266 bf3c
00000020: 3694 f73d 9700 0b3e 9660 97bc 6c5b a2bd
00000030: 7197 a3bd 599b 5cbe 9310 e4bd c24a 59be
00000040: 620f 2abe 1a50 ecbd 74ad 313b f035 fa3d
00000050: adc6 59be 6ec2 15be 8770 2f3e 611b f83c
00000060: d986 3dbd 252d 9a3e 5037 dfbb c959 aabd
00000070: 2225 753c 0cfa 41be 1997 25bc 4970 cfbc
00000080: 8f0f c8bd a95b 983d acc2 6d3e 8e37 eebd
00000090: 1a76 403e 2f7a 76be f7ae d23c 1ac7 24be
000000a0: 38f6 37bd b9c6 943d f510 313e b049 10bd
000000b0: 31b0 033e 6960 833d 986e efbc 01ba 433d
000000c0: d45b 513c 50d4 ce3d 3ae9 21bc d09b d73c
000000d0: 9c27 ec3d ef59 b7bd 6484 16be 7d96 5fbc
000000e0: 4ad7 d2bd 5aae 45be 1a9e a33d de8e 32be
000000f0: 3749 61be 4a9d 13be c3ad 49bd 788f 763b
00000100: c3b8 edbd 2113 f9bc 7f56 16be 972d 1a3d
00000110: 8b01 ecbc 00a2 e7bc 17dd 543e fb58 fcbd
00000120: e2cd a2bd 8ee8 353c e3c3 62bd 80b1 29bd
00000130: dfa4 01bd c82b 38be 250e 943d 14e8 943c
00000140: 540b 04be b6ab 93bb 9e66 dd3c ba4e ff3c
00000150: 4549 18be 6376 223d 3552 213d 97b9 fdbd
00000160: bb6b 623d bf15 a4bc c47e 733d 39b6 1fbd
00000170: 61cc 10bc 7dce 86be 9738 af3d 6946 a9bd
00000180: bf48 123d 6adf 063e 9a48 153e 9bd2 8b3d
00000190: 1f70 63bd 14dd 47bd b9c4 6c3a 03a2 d73c
000001a0: a45a babd 4bd7 63bd 572a 28be f654 153d
000001b0: 7770 733c 588a b1bd 9e2c 36bd 92f9 e1bd
000001c0: 2b55 2cbe 36cd 52be 8cfa b63d d6a0 423e
000001d0: 67a4 853d 5ea3 f3bd e7c4 df3d 54c6 e73d
000001e0: 076e c23d 1b2b fdbc c8e5 973d f0dc f0bc
000001f0: 4369 973d 4438 1cbd b1fb ac3c a8df 9d3d
00000200: a8e4 dd3d 07cc 48be f660 fdbd f1e9 fa3d
00000210: 8624 92bd 7669 b73d 31e2 283d 1bce 2cbd
00000220: 46cf 4abe 159a 44bd 5a2e adbd 226c 703d
00000230: a801 55bd d3c2 04bd 7a91 9f3d 1ca7 ad3c
00000240: 4741 97bc 71b6 2dbe 1aa2 47bd 8b05 82bd
00000250: aac4 0fbe 915a f93d f417 babc 8946 a83d
00000260: 6530 02bd 10ab 653b 14a1 143e 2076 f6bc
00000270: 6c55 723b 1a51 47be 9d16 383d c696 d5bd
00000280: 289e b5bd 36f0 50bd e1b8 04bd a099 b4bd
00000290: 7b03 00be fc02 30bc b93c b13c fc37 63be
000002a0: 861e 95bc fa50 c93d cd7e 2bbd b9b1 073d
000002b0: 857a c93d 1f29 b4bd b11c 93bd 950c 0c3e
000002c0: 93b8 b73d 9c74 5c3e db92 113d 66fe 3e3d
000002d0: 8e02 533d 9e1a 053e fd66 1f3c 759e 36be
000002e0: 6be5 06be 66de 44be 7fc2 b5bd 951a cebc
000002f0: b223 a73d ed09 83bb 99d7 8d3d 3641 cd3d
00000300: cc43 be3c cdf2 1f3e a39b 943d 59e2 3cbc
00000310: b434 27be b477 2d3d 79df b03c d17e a33d
00000320: 0419 83be 955a 113e a4ee ac3d 24b9 e9bc
00000330: 1098 233d 4c78 c13d 5ec2 033d 8dba 5c3c
00000340: 0184 333e 389c d8bd 767a 843c 74e6 64be
00000350: 55f4 fcbc 4533 58bc 0651 34bd f693 60bc
00000360: 9bd4 093e 9446 feba 9f3a bfbd a4c3 9fbd
00000370: 6ffe 4cbd 1d92 9dbd 57fc 1d3e bb46 30be
00000380: 8072 903d c140 5a3d 8d5a 81bd ad4e 27bb
00000390: a333 eabd 544f 6abd 9282 913d 92b2 1fbe
000003a0: 53c2 2ebc e879 77bd aff9 353d c4f9 52be
000003b0: 1ded 03bd 0a7a c53d 2c93 5cbd 9e06 debd
000003c0: 2b4e c03d 21ce bbbd ad50 94bc 518e c23d
000003d0: cc05 023c 7ae7 023d 8023 f9bd ee09 2f3c
000003e0: 3a24 583d 7571 c63d 3ff7 03bd 3b55 083e
000003f0: 24ed 253e f628 8f3b 0bec 07bd 5758 f83b
0.12455696 -0.033758793 0.109707 -0.18372773 0.10943768 0.17706521 -0.0361812 0.023364339
0.12088816 0.13574444 -0.018478673 -0.079275936 -0.079878695 -0.21543635 -0.11135974 -0.21219924
-0.1660743 -0.11538716 0.0027111443 0.12217319 -0.21267195 -0.1462495 0.1713277 0.030286493
-0.04627118 0.30112568 -0.0068120137 -0.083179064 0.014962466 -0.18943042 -0.010106825 -0.025322096
-0.097685926 0.07439358 0.23218793 -0.1163169 0.18795052 -0.24070047 0.025718195 -0.16091576
-0.044912547 0.07264466 0.17291625 -0.035226524 0.1286018 0.06414873 -0.02922754 0.04778481
0.012778241 0.10099089 -0.009882266 0.026319414 0.115309924 -0.089527 -0.1469894 -0.013646719
-0.102949694 -0.19304791 0.0798914 -0.17437312 -0.22000585 -0.1441547 -0.049237978 0.0037622135
-0.11607506 -0.03040463 -0.14681433 0.037641134 -0.02880933 -0.02827549 0.20787464 -0.12321659
-0.07949425 0.011102809 -0.055362593 -0.041429043 -0.031651374 -0.17985451 0.0722926 0.01817707
-0.12894946 -0.0045065535 0.02702647 0.03116547 -0.148717 0.039663684 0.03938504 -0.12388914
0.05527852 -0.0200299 0.059447065 -0.03899214 -0.00883779 -0.26329413 0.085557155 -0.08265383
0.035713907 0.13171163 0.14578477 0.06827279 -0.05552685 -0.04879482 0.00090319995 0.02632237
-0.090993196 -0.05562524 -0.16422401 0.03645798 0.014858357 -0.08668965 -0.044476144 -0.1103393
-0.16829364 -0.20586094 0.08934507 0.19006667 0.06525498 -0.11896394 0.10926228 0.11317125
0.09493642 -0.030904343 0.07416874 -0.029402226 0.07393124 -0.038139597 0.02111611 0.07708675
0.10834628 -0.1960908 -0.123720095 0.12251652 -0.071358725 0.08955662 0.041231338 -0.042188745
-0.19805631 -0.047998507 -0.084561065 0.058696873 -0.052003533 -0.03241236 0.07791419 0.021197848
-0.018463744 -0.16964127 -0.048738576 -0.063487135 -0.14039865 0.12175477 -0.0227165 0.082165785
-0.031784434 0.0035044588 0.14514571 -0.030085623 0.0036977185 -0.19464532 0.04494344 -0.104291484
-0.088680565 -0.051010333 -0.032402877 -0.08818364 -0.12501328 -0.010742899 0.0216354 -0.22189325
-0.018203031 0.09829898 -0.041868974 0.033128474 0.09837822 -0.08796906 -0.07183207 0.13676675
0.089707516 0.21528858 0.035540443 0.046629332 0.05151611 0.12998435 0.009729144 -0.17833884
-0.13173454 -0.19225463 -0.08874988 -0.02515916 0.08161105 -0.003998986 0.069258876 0.100222036
0.023225687 0.15619965 0.07256248 -0.011528575 -0.16328698 0.042350486 0.021590935 0.07983173
-0.25605023 0.1419471 0.084439546 -0.028530665 0.03993994 0.09446773 0.032167785 0.013472212
0.17530824 -0.10576671 0.016171675 -0.22353536 -0.030878225 -0.013195817 -0.044022582 -0.013707152
0.13460009 -0.0019399696 -0.09337353 -0.07800987 -0.050047334 -0.076938845 0.15428291 -0.17214482
0.07053089 0.05328441 -0.06316099 -0.0025529072 -0.1143563 -0.05720456 0.071049824 -0.15595463
-0.010666448 -0.060418993 0.04442757 -0.2060309 -0.03220855 0.09642418 -0.05385129 -0.10841106
0.09389909 -0.09170175 -0.018104875 0.09499801 0.007935952 0.031959035 -0.12164974 0.01068352
0.052768923 0.09689609 -0.032218214 0.13313763 0.16203743 0.0043688966 -0.033184092 0.0075788903

weight_hh_l1 f4 [384, 128]
00000000: 2e43 ccbe e909 71bd 2c69 823c b460 473d
00000010: 6a99 11bd 08ab 233e 00df 513e 18d8 b33d
00000020: 4f2d 5d3d 76e4 5f3d a914 bd3b ead5 66bc
00000030: 3e3a 95bc 6590 c93d 8422 463e 7efe 2b3e
00000040: 7ce4 1b3d a11c 683e 2767 e23d e937 dcbd
00000050: 88c9 633d 04f6 3f3c 6e02 b8bd 142b 3d3e
00000060: 1daf 46bd 2664 083e 07de d83b c808 a8bd
00000070: 7b2a fc3c 7544 4c3d 8b87 30bd 1668 1cbd
00000080: 5d6c e4bd 6d0f 583c 5794 dabd 66b8 1c3e
00000090: db20 4dbd 5b59 583c cfd2 0bbe c060 e5bd
000000a0: eb6a e2bd e970 fbbd ad7e 543d f67b 51be
000000b0: 50a3 1e3c a473 00bd 84fd 103d 6eb1 a23d
000000c0: 3ae7 d1bd d8db 543d fc58 bd3c 4489 e73c
000000d0: 6125 f63c 9b9e 1f3c 8732 a1bd 35d2 1abd
000000e0: 1782 ee3d f62c 093d 59c8 23be 07df e13d
000000f0: 8a44 863d d607 d0bd c229 153b cd48 4fbd
00000100: 773e 153d e985 53be 7fce ffbc 2bbf 18be
00000110: de1c a53b 4ec2 d53d d650 783d 2bd8 0cbe
00000120: b0ad 3e3d e5aa 0dbe fa63 0c3d 4181 f03c
00000130: 2d67 833d 7695 80bd 53ac a33c 991e 83bd
00000140: 1f97 1ebb 61cb 83bd c334 67be 7f63 4dbd
00000150: edc8 9e3c 415d 783c c081 043c 2aa8 c33d
00000160: 3107 3a3e 4054 8e3e a8b2 c73c 7923 6b3c
00000170: be55 9ebd f70d e43d fd2a 6abd 2b19 d2bd
00000180: a550 b2bc 7c7f 90be 9f26 343c cd70 c93c
00000190: e0c1 20be a337 ebbd e12a 89bd e37a 293d
000001a0: 273a 04be deba 043e 658a 6abd 1b17 18bc
000001b0: b41a 433d b210 25be 95a9 88bd 9845 3e3e
000001c0: e4c6 19be 70d9 1e3e 240e a03c be41 d23d
000001d0: e10a 4fbc e227 19be b575 19bb 08b3 63bd
000001e0: 6ff4 fa3d b830 3fbd e834 97bd d906 083e
000001f0: 81f3 183e 1e76 c13d d8f6 babd aa40 a5bd
00000200: 3e91 eb3c beca 8e3e 1475 7d3e c998 83bc
00000210: 0367 4e3d 92d2 013d 797b 7c3e fa0b 12be
00000220: a67b 83be 836b 4a3e ec5d 94bd 7ce0 0cbd
00000230: 1e49 d0bd 14f1 8f3b f0bd 5a3e 150c dabd
00000240: 355a 983e 0989 d73d 51ee 003d a377 423d
00000250: 6ea6 3ebd 7edd 27bd 9af7 cdba 5b91 993e
00000260: c61e 13bd 1df8 2f3e 96e5 583e dbb7 063e
00000270: 996e 0bbe af9e 05be 7152 13bc a3a4 243d
00000280: dc09 8f3c ace0 2b39 aaef debc 1cd0 46bd
00000290: 3964 703d 0e75 383e a848 8cbd 2c22 a8bd
000002a0: fe5f 51bc a30a 17be 6808 65bc 69fb 01bd
000002b0: 41e8 4dbd 25bf 83bd ce3d 93bc 82dc 0abe
000002c0: 61aa 5c3b fd57 783d 44c2 3e3e c29f 1ebd
000002d0: 691b 61bd 9780 043d e1f6 d83d 4aa7 0cbe
000002e0: 1afe 1e3d 9f57 4b3c 9e8a 7dbd 1866 4c3c
000002f0: 4170 b23c 99ff 38be f0c2 35be 2af0 1a3c
00000300: 5bae 273e 2afd 01be a183 4a3e c20b 4abd
00000310: 9268 ee3c cbf2 e2bc 468b 02be 2a17 33bd
00000320: 89b8 08bd a9e8 56bc da3a 65bd 426f bf3d
00000330: e017 a1bc 8a6d 5a3d 4115 03bd fcec 323e
00000340: 94ed e53c 09dc a73d 16b6 99be 59db 2d3c
00000350: 6c80 7e3d 2b22 823d a5f6 c43d 501b 753e
00000360: 983f 89bd cd44 e53d f79c b13d ae18 e03b
00000370: a403 9c3e 313f 0a3d 5e37 4abd a3fe 7bbc
00000380: 74d7 03bd 60bc 39be adce 053d e4c8 063d
00000390: 8b6d 3ebd 4c94 3b3d e8e3 a13b 27b3 cb3c
000003a0: 2b09 893e c888 fc3c 9899 893e 4243 eb3d
000003b0: a3ff 8cbd 570f 88bd 7fa3 813e a56e 3c3d
000003c0: 3a64 1cbd e4c7 343e ac2a 023e b455 8c3d
000003d0: 152f febd 229f 323e cc88 323d c7ac 523e
000003e0: e0ba 2d3e 0e7c a33d 432b 44bd b164 633d
000003f0: 9103 523d 5950 903d e8bd c93d a04e cebc
-0.39895004 -0.05884734 0.01591929 0.048676208 -0.035546698 0.15983212 0.20495224 0.08781451
0.053998288 0.054661237 0.005770285 -0.014089087 -0.018216249 0.09841994 0.19349104 0.167963
0.038059697 0.22667171 0.11054831 -0.107528515 0.055612117 0.01171637 -0.089848384 0.18473464
-0.048506845 0.13319454 0.0066182646 -0.082048 0.030781975 0.049869973 -0.043098014 -0.0381852
-0.11153481 0.013187272 -0.10672825 0.15304717 -0.05008016 0.013204898 -0.13654636 -0.11200094
-0.11055549 -0.12277395 0.05187862 -0.20457444 0.009682491 -0.031360283 0.03539802 0.07943998
-0.10249181 0.05196747 0.02311372 0.028263696 0.03004712 0.009742404 -0.078709655 -0.037798125
0.116459064 0.033490144 -0.15994395 0.11028867 0.065560415 -0.101577446 0.0022760485 -0.050606538
0.036436524 -0.20656551 -0.031226395 -0.14916675 0.0050388416 0.10437451 0.060623966 -0.13754337
0.04655236 -0.13834722 0.034275033 0.029358508 0.064161636 -0.062785074 0.019979632 -0.064023204
-0.0024198962 -0.06435276 -0.22578721 -0.050143715 0.019382918 0.015158952 0.008087575 0.09553559
0.18166806 0.27798653 0.024377182 0.014351719 -0.07731198 0.11135476 -0.057169903 -0.10258707
-0.02176697 -0.28222263 0.010995536 0.02458992 -0.15698957 -0.11485221 -0.066976316 0.04137696
-0.12912808 0.12961909 -0.05726089 -0.0092828525 0.047632888 -0.1611965 -0.0667297 0.18581235
-0.15017277 0.15512633 0.019537993 0.102664456 -0.012636871 -0.1495662 -0.0023416106 -0.05559066
0.12253653 -0.04667732 -0.07383138 0.13283862 0.1493664 0.09446357 -0.09129113 -0.08068974
0.02875578 0.27889055 0.24751693 -0.016064065 0.05039121 0.031694956 0.24656476 -0.14262381
-0.25680274 0.19767575 -0.07244477 -0.034393772 -0.10170196 0.0043927524 0.21361518 -0.10646836
0.29756323 0.10524184 0.031477276 0.047477376 -0.04654544 -0.040982716 -0.001571405 0.2999371
-0.03591802 0.17184491 0.2118133 0.13156073 -0.13616408 -0.13048814 -0.0089918235 0.040196072
0.017460756 0.00016391528 -0.02721389 -0.048538312 0.05868933 0.18013403 -0.068497956 -0.08209643
-0.012779234 -0.14750151 -0.013979055 -0.031733904 -0.050270323 -0.06432942 -0.017973807 -0.1356068
0.003367089 0.060630787 0.18628794 -0.038726576 -0.05495778 0.032349195 0.105939634 -0.1373569
0.03881655 0.012411027 -0.061899774 0.012475513 0.021782042 -0.18066253 -0.17750144 0.009456674
0.16375105 -0.1269423 0.19776775 -0.04932762 0.029102597 -0.027703663 -0.12748441 -0.043723263
-0.03337911 -0.013116994 -0.05596433 0.093473926 -0.019664705 0.05332712 -0.03200269 0.17473215
0.028067388 0.08196265 -0.30021733 0.010611379 0.06213419 0.06354173 0.09617356 0.239362
-0.06701583 0.11194763 0.08672517 0.0068388795 0.30471528 0.03375167 -0.04936921 -0.015380534
-0.032187894 -0.18138266 0.032667805 0.032906428 -0.046491187 0.045795724 0.0049404986 0.0248657
0.26764807 0.030826941 0.26874995 0.11487438 -0.06884696 -0.06643551 0.2532005 0.046003956
-0.03818152 0.17654377 0.1271159 0.06852284 -0.12411324 0.17443517 0.04358749 0.20573722
0.16965818 0.07982646 -0.04789282 0.05551595 0.051272932 0.07046575 0.09850675 -0.025183976

bias_ih_l1 f4 [384]
00000000: 6a89 00bd 96c7 ecbd f176 c8bd edb5 f63c
00000010: 1342 f83d 7773 16be 7167 98be 08d7 32be
00000020: 7c24 81be 3b01 8d3d 3527 e03a 6e6c 39bd
00000030: 5788 173d 2aa2 deb9 56ae e5bc 7793 26be
00000040: 9c78 62bd 1f9f 1ebe 59bc 16bf d4cf a33c
00000050: b7cb 393d 1557 933b 75f9 5bbe c763 8cbe
00000060: 09ca 59bc ce0b 20be e185 863d f445 01be
00000070: 109a 9d3d a95f 42be 0533 28bd 5e2d 06bd
00000080: 6623 193e 2412 b33d bfb3 89bd 1b1a b03d
00000090: fcf0 b3bd 6683 d2bc da57 b93c 15b9 41be
000000a0: ade0 20be 4ae8 fbbc 31bf 06be 4e9a c63d
000000b0: 01a4 59bf c0aa 29bf db6e 14bf c9d2 8ebc
000000c0: e7e1 25bf 03b3 b1be 9516 4fbd 8ff4 68bd
000000d0: a0ac 89bd 83a7 32bf 8ca2 093c 73cb 3c3b
000000e0: ff97 153d fb6e 0bbe 4158 213d 18a5 e83d
000000f0: bae1 20be 73a6 d5bd 1243 0cbe 3d4a 80bf
00000100: 48ca 7e3d bcdc 32bd 5ef8 babd 336d ddbd
00000110: afd6 2ebf efb5 72be 2f9a 0bbe 29a3 3dbe
00000120: 0a21 7dbe cfa3 373d 2e4d 44bd fd58 8cbd
00000130: 6823 06be 74df 95bd 1b9e 12be 1b93 40be
00000140: a6bb 37be 1c6a 6bbc 32d8 013d c5ad b7bd
00000150: 4bb1 ffbd a64f 89bd b30b 333d 571a a5bd
00000160: 78be bebc 8095 9dbd c162 60bf a9d8 99bd
00000170: fdb2 7cbe 19c0 d3bd 0eaf 9b3c 5468 053d
00000180: f904 75be b4ea 69be e34e 1cbe 98c8 543e
00000190: b7fe 02be 4ce2 a33c aff3 f6bd 53f2 6ebf
000001a0: a5a6 67bd 949e 0b3c f1e9 a8be 0280 57bc
000001b0: 791f c83d 0c41 573c e35f 7dbd d082 34be
000001c0: 2f30 92be 116d 1ebe 84d0 4dbe af80 51be
000001d0: daf4 48bc d323 07be 3474 d4be b05f b4be
000001e0: 93c2 6abe 996e 183d 125a b73d b8cf 11bd
000001f0: 728e 84bd 5c3c 17bd ff1f 7cbe db4e bfbd
00000200: 949b f93a 9ff8 cdbd b884 e33d 3278 5eba
00000210: 01a8 833e 11f1 913c 928f c03d 5706 de3d
00000220: 970b b0bd 65f5 753e aac9 683e 27fb a13d
00000230: 2df5 df3d ce1c 1abe 6840 38bd 1ed2 1cbe
00000240: 5a0b ce3d 37fb 6f3d 3fc5 a7be 4542 99bc
00000250: 4d9e 623e 6191 08bc 8964 ef3d 4641 a43d
00000260: 0b8f c5bd 5412 b93d e1a5 523e ba67 ab3e
00000270: efff 423e 3d36 013d 67df 6e3d 3aa7 afbd
00000280: ae50 903e b085 88bd 75e7 883d 49c0 1d3e
00000290: f8ec bbbc 0938 7a3e 240e 26be ddd6 9e3d
000002a0: bfd9 1a3d b629 303e c546 ac3d 5ff6 843e
000002b0: e38c e5be 7973 d3be 92a5 28bf 0a45 0abe
000002c0: 312e cfbe e316 13be eb3f 8c3e c7ce 88ba
000002d0: 3fd5 9bbd c5e9 d7be a35c 4f3e f47f 84bc
000002e0: 47b8 7d3d fab3 18bd 6e82 99bc 937a d8bc
000002f0: d45a 20be b6c6 81bd db04 c43d 3063 1cbf
00000300: 5d60 143e c76c b53c 6769 4d3d 4e93 ff3c
00000310: 1113 00bf 7d40 0abd 1aee 0bbd 0150 8e3d
00000320: a917 ddbe 2533 cfbb d745 2d3e df48 afbc
00000330: 2464 a53d 79ea 1c3d e89d 86bd 8f95 b23d
00000340: a62d 68be b8d8 123d 1e33 77bc ea00 26bd
00000350: 01c6 5a3d 5001 603e 1d1c b3bb 66d9 e23c
00000360: 81a1 293e 7842 093e 747e dfbe f216 353e
00000370: c8a3 d23d e87c 943d add8 01bd 4187 a33d
00000380: 63f0 b6be 872e b7bc c47d 12be c642 753e
00000390: 2963 ad3d cf55 6fbe 2da0 2a3e 77f1 01bf
000003a0: 6844 bebd d3f2 94bb 2f97 733e d33e 30bd
000003b0: 6797 403e 6bd1 263e d09c 9c3d f921 a43a
000003c0: 7424 0ebe eecd 59bb d2fc 613e 23a2 d43b
000003d0: f92f 133e c64b 013e 196e 3f3e d106 5c3e
000003e0: ff90 a53e 674c 223e 235f ce3d 5988 663d
000003f0: fe83 893d 5dfc c33d 4fb2 993d 85cf d33d
-0.03138105 -0.115615055 -0.09788311 0.030116046 0.12121978 -0.14692484 -0.2976642 -0.1746484
-0.25223148 0.06885 0.0017101528 -0.045269422 0.03699526 -0.0004246396 -0.028037231 -0.16267191
-0.055290803 -0.15490387 -0.58881146 0.019996561 0.045360293 0.004496465 -0.21481879 -0.27419874
-0.013292798 -0.15629503 0.06568504 -0.12624341 0.07695401 -0.18981804 -0.04106428 -0.03275811
0.1495491 0.087436944 -0.06723737 0.08598729 -0.087861985 -0.025697421 0.022624899 -0.1891826
-0.15710707 -0.030750412 -0.13158871 0.096974 -0.85015875 -0.6627617 -0.5798165 -0.017434495
-0.64797825 -0.34706888 -0.050558645 -0.056873854 -0.06722379 -0.6978685 0.008400571 0.0028807789
0.036521908 -0.13616554 0.039390806 0.11359614 -0.15711108 -0.10432138 -0.1369746 -1.0022656
0.06220463 -0.04366754 -0.091294035 -0.10811844 -0.6829633 -0.23702215 -0.13633035 -0.18519272
-0.24719635 0.044833954 -0.047925167 -0.06852911 -0.13099444 -0.07318011 -0.14318125 -0.18806116
-0.17942676 -0.01436856 0.03170032 -0.08968691 -0.12484988 -0.06704645 0.04371233 -0.080616646
-0.023284182 -0.076945305 -0.87650687 -0.07512028 -0.24677654 -0.10339374 0.019004371 0.0325702
-0.23927678 -0.22843438 -0.15264468 0.20779645 -0.12792479 0.020005368 -0.12058198 -0.9333851
-0.05655541 0.008521695 -0.32990983 -0.013153078 0.09771628 0.013138067 -0.061859023 -0.17628026
-0.28552386 -0.15471293 -0.20099074 -0.20459245 -0.012265408 -0.1319726 -0.41494906 -0.35229254
-0.22925787 0.03721485 0.089527264 -0.035598487 -0.06472482 -0.036922798 -0.2462158 -0.09341212
0.0019043558 -0.10057186 0.111092985 -0.00084865384 0.25714114 0.017815145 0.09402384 0.10841053
-0.085959606 0.24019392 0.22733179 0.07909232 0.109354354 -0.1505005 -0.044983298 -0.15314528
0.10060759 0.058589187 -0.32767674 -0.018708358 0.221307 -0.008335442 0.116890974 0.080202624
-0.09646424 0.09036699 0.2057109 0.33477575 0.19042943 0.031545866 0.05831852 -0.08576818
0.28186554 -0.06666124 0.06684772 0.15405382 -0.022940144 0.24435438 -0.16216332 0.07755826
0.037805315 0.17203411 0.08411936 0.25969216 -0.4483405 -0.41299036 -0.6587764 -0.13502899
-0.4046493 -0.143642 0.27392516 -0.0010437601 -0.07609033 -0.4217054 0.20250182 -0.016174294
0.06194332 -0.037281014 -0.018738952 -0.026425635 -0.15659648 -0.06336729 0.095712386 -0.6108885
0.14489885 0.022146596 0.050149348 0.03119817 -0.50029093 -0.033752907 -0.03416262 0.06948853
-0.43182114 -0.0063232356 0.16921173 -0.021397052 0.08075741 0.038309548 -0.06573087 0.08719932
-0.22673663 0.03585121 -0.015087871 -0.040528215 0.053411487 0.218755 -0.005465998 0.027691554
0.16565515 0.13404262 -0.43651164 0.17684534 0.10285145 0.072503865 -0.03170078 0.07984782
-0.35730276 -0.022361053 -0.14305788 0.23951253 0.08466179 -0.23372577 0.16662665 -0.5075907
-0.09290391 -0.0045455485 0.2378814 -0.043028664 0.18807755 0.16290824 0.07647097 0.0012522332
-0.13881093 -0.0033234316 0.220691 0.0064890548 0.14373769 0.12626562 0.18694343 0.21486975
0.32337186 0.15849458 0.1007674 0.056282375 0.06714629 0.09569619 0.07504713 0.103423156

bias_hh_l1 f4 [384]
00000000: 54da ffbc 4f38 c1bd 4cdc 70bd ea74 db3b
00000010: da45 473c d517 0abe 5dde 23be 26f5 84be
00000020: 8aa1 69be 0aa1 cbbc 7517 f8bc 09ba 423c
00000030: de50 4abd 4ac1 743a 34c9 87bc 8292 8ebd
00000040: 0594 51be df85 85bb 8899 fdbe c18f fabc
00000050: fd4a 94bd 16af 9bbc 3b30 66be d7fe 10be
00000060: 6d44 07be 4b4e f1bd 8b10 a93d 2f62 3cbd
00000070: 129f 983c 2dcf 91be 9162 72bd 8ecf f8bb
00000080: d56c 223e da07 6dbd 4f14 0bbc c1cd 8e3d
00000090: e918 62be ce3c e9bd 7402 8d3d 964a 10be
000000a0: 6491 3fbd 1b02 bbbd a81a c9bd 5431 0d3e
000000b0: 5631 47bf bc8f 2dbf 91cc febe 1446 123d
000000c0: 0d12 21bf c434 aabe b4f9 ebbc d7cb d9bd
000000d0: e9c0 18be f1fc 10bf ec7c 5ebc 3b9f c0bd
000000e0: c767 b5bd 21b3 04be 03a8 56bd 4163 dd3d
000000f0: 0282 2fbe 3b7e 24be 4bb5 4dbe 121e 82bf
00000100: 9414 3ebb 38aa 15be 2cc3 d7bd 3da7 01be
00000110: 3e60 2dbf 21ec 16be 770a ebbd afcb 2ebe
00000120: 95f0 74be 7c9b 5f3b f245 47be b33f a93d
00000130: 7e79 6fbe 9995 15be 2d5c 50be 1b47 6bbe
00000140: 6c00 c8bc e0b7 fabc 6fa9 e73c 1e3e a0bd
00000150: 53e4 0d3d b74d a6bc 2b3b b63b 13c5 21be
00000160: a798 823d 6055 b2bd b75e 6cbf 8de1 c2bd
00000170: e6c5 31be 35ac d7bd 5886 f13c 4a45 52bd
00000180: 5167 71be 6e3d 6abe 4402 85be 2077 353e
00000190: eb86 f8bd c9d6 b3bd ccad 2dbd 5c21 78bf
000001a0: 1994 edbd 4ee2 1ebe c30d 9dbe d6be 8dbd
000001b0: abdc 4c3d a752 14bd be76 b1bb f954 d0bc
000001c0: caae 94be 2e5d 8cbd dec6 c0bd 8623 fdbd
000001d0: 477c d1bd cb8f 5cbe 810d b3be 236c 8ebe
000001e0: 8ed2 68be 04a7 f23b b854 9e3d 8a57 b13b
000001f0: dafa 4e3d 2b44 4a3d a7d7 84be 95ca abbd
00000200: 910b 88bd c60f a7bd 0b01 0c3e c1f6 fbbd
00000210: 60a7 2a3e a482 ac3d 7a01 b93d 6d0a a53d
00000220: 7e84 22bd c920 7c3e fad2 833e 6406 593d
00000230: 1e8d aa3d 5953 debd 3201 0cbe 06da b5bd
00000240: b804 753d 576c 063c f577 c4be e783 7abd
00000250: 86e3 483e 7524 ed3d cc5a 293d fa0b 003d
00000260: 7d56 0bbd 89d3 1e3e 2ecc 613e b645 783e
00000270: 1f41 4f3e 4a85 1abc fd30 bfbc 91ac 48bd
00000280: bf67 853e 0e2f 96bd 77f2 353e 1f40 1d3e
00000290: 30de afbb 7043 a23e dce8 fdbc a760 0a3e
000002a0: 8ad1 c83c f717 8a3d 81a4 b93d d30a b83e
000002b0: 49bf dfbe 4f8d ddbe ebf5 3abf b566 4bbd
000002c0: cc72 e8be b134 6dbe 4e17 8e3e 7cf7 9dbc
000002d0: 489e 803c d950 dbbe b78c 653e 4f72 5c3d
000002e0: 0fe3 ea3d 258b 14bc a66d b33c 3973 0fbc
000002f0: 627c 4dbe d2f5 d2bd 1de8 da3d 25a4 18bf
00000300: 2ea9 093e fa62 d43d b907 503d cbc9 f13d
00000310: 4016 13bf 6227 87bd 9288 f0bb 6023 f93d
00000320: 063c b6be 89e4 8a3d de9f 023e c66c 75bd
00000330: 1f95 2a3d 7978 afbd 59fe 23be b872 033e
00000340: 4acf 66be 2362 0e3e 9fca 93bd 4120 c93a
00000350: 1dcb 043e 1085 7e3d afd9 0ebd d9af e43c
00000360: f480 773e 5e36 253e a698 c7be 26cf 463e
00000370: b68f f43d d020 613e 1764 6b3d 56b0 cc3d
00000380: 99f9 ddbe 2898 af3d 46a7 1cbd f7d6 873e
00000390: e988 1b3e 9045 0dbe 16ea 693e e074 0cbf
000003a0: a3fe 7cbd dca9 1abd 3955 1d3e 45e0 b23d
000003b0: f815 963e e592 0b3e 8bc8 3a3d 6a50 133c
000003c0: e45a 7dbd dec3 213e 8312 f63d b38d ba3d
000003d0: 5709 823d 0fad d13c f044 383e ac63 9f3d
000003e0: ee34 bc3e e76a e33d d553 ff3d 9f54 b83d
000003f0: 1c8d 283d a06e ac3d abfc d23d 7f03 f33c
-0.031232037 -0.09434568 -0.05880384 0.006697287 0.01216265 -0.13485654 -0.16002794 -0.25968283
-0.22815529 -0.024857063 -0.030284623 0.011885175 -0.049393527 0.00093366636 -0.016575433 -0.06961538
-0.20466621 -0.0040747966 -0.49531198 -0.030586125 -0.072408654 -0.019004386 -0.22479336 -0.14159714
-0.13209696 -0.11782511 0.082551084 -0.045992073 0.018630538 -0.28478375 -0.05917603 -0.007593102
0.15861829 -0.057868816 -0.008488729 0.06972838 -0.22079815 -0.11388551 0.068852335 -0.14090952
-0.046769515 -0.09131261 -0.098195374 0.13788348 -0.77809656 -0.67797446 -0.49765447 0.035711363
-0.6291817 -0.33243382 -0.028805591 -0.106345825 -0.1491734 -0.5663596 -0.013579588 -0.09405371
-0.088576846 -0.12958957 -0.052406322 0.10809947 -0.17139438 -0.16063778 -0.20088689 -1.0165427
-0.0029003965 -0.14615715 -0.10535273 -0.12661453 -0.6772498 -0.14738514 -0.114766054 -0.17069887
-0.239199 0.0034119776 -0.19460276 0.08264103 -0.2338619 -0.14607848 -0.20347662 -0.22976343
-0.024414264 -0.030605257 0.028279034 -0.07824348 0.034641575 -0.02030073 0.0055612526 -0.15797834
0.063767724 -0.0870769 -0.92332023 -0.09515677 -0.17360649 -0.10530893 0.029483005 -0.05133561
-0.23574568 -0.22874996 -0.2597829 0.17721224 -0.121351086 -0.087812014 -0.042402074 -0.969259
-0.11600513 -0.15516016 -0.30674562 -0.06921165 0.050015133 -0.036211636 -0.0054157665 -0.025431143
-0.29039603 -0.0685371 -0.09412931 -0.12360291 -0.10228782 -0.21539228 -0.3497124 -0.27816877
-0.2273657 0.0074051637 0.077310026 0.005412047 0.0505322 0.049381416 -0.2594578 -0.08388249
-0.06642831 -0.081573054 0.13672273 -0.12302924 0.16665411 0.08423355 0.09033485 0.08058629
-0.039677136 0.24621882 0.257469 0.05298461 0.08327697 -0.10855741 -0.13672331 -0.08879475
0.059818953 0.008204541 -0.3837277 -0.061160948 0.19618043 0.11579219 0.041346356 0.03126142
-0.03401803 0.15510382 0.22050545 0.24245343 0.20239685 -0.009431193 -0.02333879 -0.048992697
0.26055714 -0.07333194 0.17768274 0.15356492 -0.005367063 0.31692076 -0.030994825 0.13513432
0.024513979 0.06742852 0.0906458 0.35945758 -0.43700626 -0.43271872 -0.7303149 -0.049658496
-0.45400083 -0.23164631 0.27752155 -0.019283049 0.015700474 -0.4283512 0.2241696 0.05381995
0.11469089 -0.009066378 0.02190287 -0.008755499 -0.2006698 -0.10300793 0.10688803 -0.59625465
0.13443443 0.10370441 0.050788615 0.11806067 -0.57455826 -0.065993086 -0.007340499 0.1216495
-0.3559267 0.06781871 0.12756297 -0.059918188 0.04164612 -0.085679 -0.16014995 0.1283673
-0.22540012 0.13904624 -0.07216381 0.0015344695 0.12968107 0.062138617 -0.034875568 0.027915882
0.24170285 0.1613402 -0.3898365 0.19414958 0.11941473 0.21985173 0.0574685 0.09994571
-0.4335449 0.085739434 -0.038245462 0.26531193 0.15188946 -0.13796067 0.22843203 -0.5486584
-0.061766278 -0.037759647 0.15364541 0.08734182 0.29313636 0.13630255 0.04560141 0.00899134
-0.06185426 0.15797374 0.120152496 0.09109058 0.06349438 0.025595216 0.17995048 0.07782683
0.36759132 0.111043744 0.124671616 0.09000515 0.041150197 0.084195375 0.10302099 0.029664753
