GRU/models/test_epochs=100.pth (torch, 608012 bytes, 9 tensors)

weight_ih_l0 f4 [384, 5]
00000000: a142 853e 5023 4b3e 6e52 143e 5469 773e
00000010: b072 3fbf aa06 adbe 5c73 96be 68a7 c0be
00000020: 01f1 97be 8f1a d03e 52ce 96be dbb8 ddbe
00000030: 9295 9fbe f8ee 9fbe a68d 42be 2852 e9be
00000040: c517 04bf 0c20 22bf 8619 25bf 0e21 00bf
00000050: 4579 123e c95e bdbc e7a9 7dbd bf49 77be
00000060: 3a32 5bbe 6e0f 08be abd5 17be e662 88be
00000070: 8865 b6be 73c8 f0be 71ca 833e 32f5 d2b8
00000080: d5aa 2abe 72e6 dfbe 7102 333c d90c ba3d
00000090: 359b 0abe c06b 943b c038 80be 4442 80be
000000a0: ae78 bdbe cdc3 c8be 7925 f9be 6554 ebbe
000000b0: 50f0 c8be ed59 b6be a76c dabe 8d8f 9dbe
000000c0: b90e adbe d815 af3e 78b9 b13e f2ae 343d
000000d0: 250f 07be 04d5 14bf a0ba 82be b763 1cbf
000000e0: 91fe 18bf b933 03bf 68f2 22bf 8c35 f9be
000000f0: b7b3 96be 9aaf 9dbe f3ce 91be d066 fcbe
00000100: 96af 0fbf 04ae 733e a1fc ab3e 6603 ac3e
00000110: 2247 9a3e 04fa c1be 3d0b adbe c780 d6be
00000120: 4845 b7be 0422 bbbe 4191 e23e f1b8 f0be
00000130: 9f03 cfbe 9ae1 f8be b3c1 f1be bf83 933d
00000140: 4513 853d 10ff c53d 8724 49bd 757c 32be
00000150: 12df 97be 4cb4 533d ee19 3abe 8117 36be
00000160: 2247 eebe d7e2 3a3d 80dd 56bd 9337 8dbe
00000170: 75bd b8be ca6a d7be 4faf 5ebf 8965 0d3f
00000180: 44c8 593e 4df9 1b3e 1dd8 c5be a7ee 00be
00000190: 6163 fdbe 998d 0fbf ab49 dcbe a212 10bf
000001a0: a449 3bbf bd1d 87be 949d c9be 1856 92be
000001b0: 1a04 91be fd40 64bf 847f 133e 8e66 45be
000001c0: 701c a6be 0be0 4ebf ea82 893e 7ca1 edbe
000001d0: caef 05bf 6680 d6be e0a2 bdbe 99d4 43bf
000001e0: 9cf4 e6be f0c7 a2be 1b8a f2be 5c90 c5be
000001f0: 901a 0ebe 4d22 58be aa4b 59be b624 70be
00000200: 644e 95be 3630 9abe 6b1e 6fbe 0c49 85be
00000210: 3a17 afbe 7610 90be a5e0 34bf fa4e bebe
00000220: ba4a bebe 4369 f4be 3d2a 15bf b7e5 f9be
00000230: 881c c6be c639 a6be c89a c7be 3839 53be
00000240: 9356 62bf 1a21 ab3c c787 59be 8a43 80be
00000250: 335d b7be b98c 33bf f133 e0be 92d7 1cbf
00000260: 0c32 0fbf 8b5b 2ebf 7f0a 44bf 938e 9d3d
00000270: 91d9 ae3c 9dd9 dcbd a7bc c4be f970 c23e
00000280: 9272 8bbe e63c a9be 2253 b1be dc9e c4be
00000290: 2f45 5b3c f034 83be 3126 5cbe eb57 a9be
000002a0: 04ca 9bbe e186 88be be3a 17bf ba0b 05bf
000002b0: f374 18bf 1a75 fcbe 2b36 fbbe a624 1dbe
000002c0: 1803 32be 3f47 16be 0c88 6ebc 3b16 713f
000002d0: 3778 6ebe fded d9be ff54 a2be 5fdb c4be
000002e0: 0bd2 f2be 3be8 93be 00c5 babe 1528 a2be
000002f0: d0b7 e2be 0402 76bd 98f5 fbbe 39f0 f2be
00000300: a1e1 01bf 9c9c 19bf d0f1 a5bf 1703 bbbe
00000310: bfc2 84be 7e78 97be 8d82 40be c29a 12bf
00000320: a02c 87be 58c5 bcbe dad7 bdbe 4729 acbe
00000330: f1b0 933e d09b b7bc 635f 06bd 321c e6bd
00000340: 95b6 36be 5760 e8be 78d6 b6bc 6b71 b83d
00000350: 8f7c aa3d 2f5d 403b 3196 27bf 0f33 27be
00000360: ad06 8ebe c5f3 84be 9a67 76be 0807 bdbe
00000370: 0651 64be 1df4 a4be 926c 75be 754b f7be
00000380: 0ba9 29bd d54d d8be 3243 c0be 972a d5be
00000390: b951 f3be da4f 8e3d d641 13be b830 c7be
000003a0: 7324 00bf 35ca 14bf ef08 eebd 7075 9fbe
000003b0: 8466 97be 9962 d6be 47ff e8be 4661 f4be
000003c0: b1e6 59be e10d 88be dabd aebe feb2 33bf
000003d0: 39cb eb3e 0d17 82be 36fc 84be 4a67 8cbe
000003e0: 5ebb c8be 291f 8fbe 3d96 b2be b737 a6be
000003f0: a678 d3be d044 b0be a565 e23e fe2d e5be
0.26027396 0.1983769 0.1448457 0.24161273 -0.74784374 -0.33794147 -0.29384887 -0.3762772
-0.2967606 0.40645263 -0.29454285 -0.43305096 -0.311688 -0.31237006 -0.18999347 -0.45570493
-0.5159877 -0.6333015 -0.6449207 -0.5005044 0.14304073 -0.023116486 -0.06192961 -0.24149226
-0.21405879 -0.13287136 -0.14827602 -0.26637954 -0.35624337 -0.4702793 0.25740388 -0.000100592515
-0.1666673 -0.43730503 0.010925875 0.09084482 -0.1353577 0.0045294464 -0.25043297 -0.25050557
-0.37006134 -0.39211884 -0.48661402 -0.45962825 -0.39245844 -0.35615483 -0.4266102 -0.30773583
-0.33800295 0.34196353 0.34711814 0.044112153 -0.13189371 -0.58137536 -0.2553301 -0.6108965
-0.5976344 -0.512508 -0.6365113 -0.48673666 -0.29433987 -0.30798036 -0.28478202 -0.4929719
-0.561273 0.2379685 0.33591178 0.33596343 0.30132395 -0.3788606 -0.33797637 -0.41895124
-0.35795045 -0.3654939 0.44251445 -0.470161 -0.4043245 -0.4860962 -0.47218093 0.07202863
0.06497816 0.0966779 -0.0491071 -0.17430289 -0.29662377 0.051685616 -0.18173954 -0.17782404
-0.46538645 0.045626488 -0.052457333 -0.27581462 -0.36082044 -0.4207366 -0.8698625 0.55233055
0.21267802 0.1523182 -0.38641444 -0.12591039 -0.49489883 -0.56075436 -0.43024954 -0.5627843
-0.7315924 -0.26389876 -0.39378035 -0.2858131 -0.28323442 -0.89161664 0.14404112 -0.19277403
-0.3244357 -0.8081061 0.26857692 -0.46412265 -0.52319014 -0.41894835 -0.37038326 -0.76496273
-0.45108497 -0.31793165 -0.4737099 -0.385867 -0.1387732 -0.21106835 -0.2122027 -0.23451504
-0.2916137 -0.30114907 -0.23351447 -0.26032293 -0.34197408 -0.2813756 -0.7065528 -0.3716963
-0.37166387 -0.47736558 -0.58267576 -0.4880807 -0.38693643 -0.32465953 -0.38985276 -0.20627296
-0.8841335 0.020889807 -0.21243201 -0.25051528 -0.35813293 -0.701366 -0.43789628 -0.61266434
-0.5593574 -0.68108433 -0.76578516 0.076932095 0.021343978 -0.10783694 -0.3842518 0.37976816
-0.27235848 -0.33054274 -0.34633738 -0.3840245 0.013383194 -0.25626326 -0.21498944 -0.3307489
-0.30427563 -0.26665404 -0.5907401 -0.5197102 -0.5955345 -0.4930809 -0.49064764 -0.15346012
-0.17383993 -0.14675616 -0.014558803 0.94174546 -0.23288046 -0.42564383 -0.31705472 -0.38448617
-0.47425875 -0.28888115 -0.36478424 -0.31671205 -0.44280863 -0.060060516 -0.4921081 -0.474489
-0.5073491 -0.6000459 -1.296442 -0.36525795 -0.2592983 -0.29584116 -0.18799801 -0.5726739
-0.26401234 -0.3686931 -0.37078744 -0.33625242 0.28845933 -0.022413164 -0.03280581 -0.112358466
-0.17843087 -0.45386 -0.022319064 0.09006008 0.08324539 0.0029352417 -0.6546355 -0.16328071
-0.27739468 -0.2596723 -0.24062958 -0.36919427 -0.22296533 -0.32217494 -0.23967198 -0.48299757
-0.041420978 -0.4224688 -0.37551266 -0.41634056 -0.47523287 0.06948824 -0.14380583 -0.38904357
-0.5005562 -0.58121043 -0.11622798 -0.31144285 -0.295704 -0.418721 -0.4550726 -0.47730464
-0.21279408 -0.2657309 -0.3412922 -0.70194995 0.46053484 -0.2540821 -0.25973672 -0.27422553
-0.3920545 -0.2795346 -0.34880248 -0.32464382 -0.41302985 -0.344275 0.44218174 -0.44761652

weight_hh_l0 f4 [384, 128]
00000000: f95d 63bf 40bd 4cbd 43e1 28be 195f 91bf
00000010: a2af cabc 8623 27be 345b 053f 408a 8ebe
00000020: ca7f edbe 8188 8cbb 6c0f 0cbe b4aa 753f
00000030: 0c0d 2cbe a4ff d8be 9cf2 b23e 4bc9 05bf
00000040: dac9 e83d 65ff bc3e 1679 653e c816 013f
00000050: b989 533f af58 103e fd1a ff3e d15c aebc
00000060: 561d 8ebe 9428 eabd 9532 0abf aa69 b0be
00000070: 4144 8f3f cecc 653d 654a b63e 71a6 07bf
00000080: 3cbd 5abe 2426 a83d 2057 3dbf 8c8a b6be
00000090: ef56 84be e0c6 9dbe fe34 433f dbcf babd
000000a0: f126 8fbe 0e89 a63d 546a c13d 73a8 f5be
000000b0: a081 993f 20fc 683d 6aa2 89bd a163 363e
000000c0: ff3d a13d 12e3 9fbe 935d 05bf 3e9f da3e
000000d0: b146 71be 0025 c3bd 240a 6f3f a8c1 eb3b
000000e0: 4998 743e 6d7d e73e b5e0 6c3b e1d0 aabe
000000f0: 71f9 2abe f309 49be f99a 73bf 9aec bbbd
00000100: d40e bb3e 9803 b3be 695b 873d 253f 13bd
00000110: 4c70 6abe 1450 eb3d 80ac 393f 3de0 c83e
00000120: 9786 0c3f db1d 573d 6fe7 6ebe 6218 833f
00000130: 07d3 a83e 17b2 b83f c0bd f43c 0d9b 72bf
00000140: 2f5e d3bd 5f29 abbe 0e7b 153e cca0 ebbe
00000150: e3ed c8be 4067 b2be a14e 4c3e a2f4 cf3e
00000160: 3da4 a9bd b05d 373e 3023 bfbe 3454 603e
00000170: c354 7a3f ffff 27be 5113 fc3d 95ad 6ebd
00000180: 0c66 8d3e e8b9 f33e 41c2 633d c3ab e73e
00000190: d8c8 9bbd ea71 1f3e dbe6 84be 5638 17bf
000001a0: f32c 8d3e bf5c 3d3f c019 033e a3bb 3fbf
000001b0: 9b7a 62be 75a9 bebd 550d f3be 0470 163e
000001c0: 2057 c3be 5c89 f6bd f0bf 81bc 980a ff3e
000001d0: 8fe4 ef3e 78c4 5bbe 8a43 c8be c61c 8a3e
000001e0: 0fa0 a63d 9e8a e73c 1107 053e 9137 733e
000001f0: ad7d 603e 3442 9f3e d243 49be 5b5a 5b3d
00000200: 1b41 02be 6b81 62be 9efc 533e 4f15 8b3e
00000210: 0eab a93d 4258 9c3d 117e 65be 21c3 16be
00000220: 7041 993e 0538 543c 05f5 18be 4de0 d7be
00000230: 7d51 213e d846 423e 77df 35be 56de 143e
00000240: d6a4 093e e5b2 6dbe 3f14 31be 3c0f a13c
00000250: 3953 94be 860c 94be 26ab 69be c20b f43d
00000260: ceb4 c03d b193 c3bd 07ee 933d 816a 073e
00000270: 3a53 233d e97b 9dbd 6823 2fbe a9be 77bc
00000280: 4206 00be 8bfb d63b 621e e43e ef48 b1bd
00000290: 1b04 e53c eb50 7f3d 17b4 dcbe fcd6 07be
000002a0: 8379 6dbe 1ba4 f73d c0e8 71bd b7ef 0e3e
000002b0: 0807 9abe e25a fd3d 2f85 e33d 61db 843e
000002c0: 5413 72be 1585 723e e7ee 453d 15bd 543e
000002d0: 7e24 bebd 210a 28bd 56ba 81be c859 61bd
000002e0: 0644 a1be 2c41 6fbd 2f75 f4bd c725 433e
000002f0: 1b76 7a3e 57df b23e aca2 973e 9be9 0e3e
00000300: dbc9 9bbe 66a3 f6bc f271 01bd d200 30be
00000310: 14f6 743e 5e0b 61be f031 c6bd 05e0 c9bd
00000320: 7b5d 58bd d78e 503e 06dd 933e 8036 91be
00000330: 1abf fa3d b57b 78be 12b9 d23d 3e54 753e
00000340: b1c5 3c3e f42f 853e fdbe b43e a78f fe3e
00000350: 4ff2 923e 6179 483e 022f a7bd 45bf 39bd
00000360: 8eae 6f3d d3d2 35bc a815 73bb b169 cebd
00000370: 808c 9abe f6d5 4e3e 015c 7abd b30b 113e
00000380: 11c4 c3be 5e24 f9bd 5169 6b3d b13a 0bbe
00000390: 4c6e 58b9 37cd 193e a921 df3d c104 b03e
000003a0: 6ba5 c6be becd 81be 5870 59be c5e5 4f3e
000003b0: dc07 84bd a561 eabd a993 bc3e 0a1f a33e
000003c0: a2bf 4a3e 5229 113f 3e9f 603e 10db 49be
000003d0: 1b94 043d b92b 403e d167 443e fc70 16bd
000003e0: 111f 29be 8a05 35be 8041 5fbe d128 20be
000003f0: 5b41 4e3d 0854 e63c 2a38 4d3e 5a8a 2bbe
-0.88815266 -0.04998517 -0.1649218 -1.1357147 -0.024741951 -0.16322145 0.5209229 -0.2783985
-0.46386558 -0.0042887335 -0.13677758 0.959636 -0.16801852 -0.42382538 0.3495072 -0.52260274
0.11366625 0.369136 0.22409472 0.50425386 0.82632023 0.1409633 0.49825278 -0.021284493
-0.27756757 -0.11433521 -0.5398343 -0.34455615 1.1192704 0.05610352 0.35603634 -0.52988344
-0.2136125 0.082104 -0.7396107 -0.35652578 -0.25847575 -0.30815792 0.76252735 -0.091216765
-0.27959397 0.0813161 0.094441086 -0.4798008 1.1992683 0.05688107 -0.06720431 0.17811443
0.07873153 -0.31227928 -0.5209591 0.42699617 -0.23562123 -0.095285416 0.9337485 0.0071947165
0.23886217 0.4521288 0.0036144678 -0.33362487 -0.16696717 -0.19632702 -0.95158345 -0.091759875
0.3653475 -0.3496368 0.06609232 -0.03594889 -0.228944 0.11489883 0.7252884 0.3923358
0.5489287 0.052518707 -0.23330472 1.0241816 0.329735 1.4429349 0.029875636 -0.9476784
-0.103206985 -0.3343 0.14597723 -0.46021116 -0.39243993 -0.34844398 0.1995187 0.40616328
-0.08283279 0.17906833 -0.37331533 0.21907121 0.97785586 -0.16406249 0.12308372 -0.05827101
0.27616918 0.47602773 0.055605177 0.4524823 -0.07606667 0.15570799 -0.2595738 -0.59070337
0.27573356 0.73969644 0.12802792 -0.74895686 -0.22117083 -0.09309665 -0.4747111 0.14691168
-0.3815241 -0.12037918 -0.015838593 0.4981277 0.46854064 -0.21461666 -0.39114028 0.26975077
0.081359975 0.02826434 0.12990977 0.23751666 0.21922942 0.31105196 -0.19654778 0.053552967
-0.12720148 -0.22119682 0.20701835 0.27164695 0.08284579 0.07634021 -0.22411372 -0.14722873
0.29932737 0.012952809 -0.14937218 -0.42163315 0.15753742 0.18972337 -0.17761026 0.1453794
0.13441786 -0.23212774 -0.1729288 0.019660585 -0.28969744 -0.28915805 -0.22819194 0.11916305
0.09409486 -0.09549654 0.072231345 0.13224222 0.039874293 -0.076896496 -0.1710335 -0.0151211405
-0.12502387 0.006560748 0.4455443 -0.08656489 0.02795606 0.06233303 -0.43106148 -0.13265604
-0.23190884 0.120918475 -0.05905986 0.13958631 -0.3008349 0.1237085 0.11109387 0.25948623
-0.23640186 0.2368358 0.04832354 0.20775254 -0.09284304 -0.041025285 -0.25337476 -0.055017263
-0.3149721 -0.058411762 -0.119364135 0.1905738 0.24459116 0.3493602 0.29616296 0.13956301
-0.3042744 -0.030107211 -0.031602807 -0.17187813 0.23921996 -0.21976992 -0.096774936 -0.098571815
-0.052823525 0.20366989 0.28879565 -0.28361893 0.12243481 -0.2426594 0.102892056 0.23957917
0.18434788 0.26013148 0.35301962 0.49718973 0.28700492 0.19577552 -0.08163263 -0.045348424
0.058516078 -0.011097628 -0.0037091766 -0.10078753 -0.30185318 0.20198807 -0.061122898 0.14164619
-0.38235524 -0.121651396 0.057473484 -0.13596608 -0.00020640454 0.1501969 0.10895092 0.34378627
-0.3879808 -0.2535228 -0.21234262 0.20302494 -0.064468116 -0.114444055 0.36831406 0.31859618
0.19799665 0.56703675 0.21935746 -0.19712472 0.032367807 0.18766679 0.19180228 -0.036728844
-0.16515757 -0.17677894 -0.2180233 -0.1564057 0.050355297 0.028116241 0.20040956 -0.16751996

bias_ih_l0 f4 [384]
00000000: 00cd afbd 6a67 44bd 9c0e c9bd 204f 87be
00000010: 44bd c93c 5635 debd 1773 9cbe 2565 e0be
00000020: 5e84 02bc 8e06 c2bd 225f 2dbc 12a3 96be
00000030: 8733 0cbe 982c ee3d b0c9 94bd a005 bebd
00000040: b427 8d3d a626 e2bd 7e79 893d f627 893d
00000050: c38e 99bd 4668 e3be 2588 9cbe 7c02 bcbe
00000060: 9a75 a6be 5f5b 75be d6fe 93be 1cd8 603c
00000070: b946 03bf ad70 023e 3199 0cbe 0a00 96be
00000080: 10f6 00be e180 ac3d c6ed 82be c038 6a3e
00000090: e49e 8dbd 5b61 09be 8ce9 1ebf 34aa d0be
000000a0: 7602 033d 28b3 c33d 2b38 aabe b21f 1a3e
000000b0: c993 8ebe bcce a7bd dfe7 3abd d46f 22be
000000c0: dbcd 6fbe 921f 0abe a7a8 c1bc 8e0d 07be
000000d0: 9790 febd 463d 00be 9c4e a3bb 37ed d9be
000000e0: 6baa ad3c a1a5 b5be a825 f3be 6fbe 80be
000000f0: 91c2 f13c 089c c7be b048 08be a8e5 28be
00000100: ae5a 0fbe b717 54bd e34c f4be e3b9 003d
00000110: 13cf 2fbe 4783 c2be 846a cbbd d7ec 0ebe
00000120: 343b bdbe 1e8f 8b3d c354 4cbd 9819 53bd
00000130: 36fc b3be 7b25 91bd 4b52 bebe 6e6e a7be
00000140: 327a af3b 9d9f ebbd a864 85bd c62f 17be
00000150: 8319 ee3b a1f2 3dbf cc5a 4ebe 1718 c3bc
00000160: a9cc c9be 6cf3 88be 34a9 603e 4de5 6b3d
00000170: b609 4cbe e217 4bbe 7218 9f3d ded5 c9bd
00000180: f5d8 2bbe 13de 31bd 851e 1fbf be44 19bd
00000190: 5c9d 27be 7cdd 35bd fd50 a4be 5a2a 97be
000001a0: ea77 26be 97ee 89bd 4766 d7bd 198e 1b3c
000001b0: 579f 18bd db15 5ebc ee6f 93be 0629 0fbd
000001c0: 38ff 9ebc 2c2f 2dba 3bf2 54bd a0d2 b9be
000001d0: edc4 12bf d7f2 05be 5893 abbd 8e26 89bd
000001e0: 42d0 a9be 6d72 17bf c76e ffbe ad19 82bd
000001f0: b35e 16bf 4677 00bf ab0f efbe 6abd b9be
00000200: ee00 7d3e 43e9 883d 429a 493e 99d3 8abe
00000210: c3ea 0abe 1f45 5d3a cee9 083b 657f 6d3d
00000220: 93d4 42be cf88 8b3e f6da 0fbc c8bc cabe
00000230: 3393 3a3e 085f d83d aece 36be 2d56 9f3d
00000240: 5fe8 1dbe 0219 033e 56a9 7dbd fc48 3f3c
00000250: 1666 30be aac8 993f f286 21be 554f e53e
00000260: c4ed bd3d b89c bf3e 284d 153f b65e a43e
00000270: cb60 283f 2b77 3c3e 7c17 0ebf 581e 4a3e
00000280: eef7 573e f250 52bc df63 8dbe 0b98 073f
00000290: ef00 523e 660f 0a3f ef0a b3be 382b 7f3e
000002a0: 2645 023f aa07 b03e 892e a63e 6b0e 0a3d
000002b0: 469c 983e 873a b63e 00b1 d13c 4494 9e3d
000002c0: 595c f53d 5903 223d 8247 173d b3e6 593d
000002d0: ea37 863e 3ae1 a43e 506d cbbe fdb8 8c3e
000002e0: dafe 793e 4bba b7ba 660d 8e3e 9861 5bbd
000002f0: 8682 6ebe e2c6 803f 7815 05be 0d2a 823e
00000300: 62b7 1fbe cb9b 833e d394 203e 5383 3d3e
00000310: 1183 a4bd 9bca 3ebd 8017 98be 2801 f23e
00000320: 378b a83f c571 473e 0d52 e13d 1b16 94bd
00000330: a32e 7d3f b4b7 8f3c bca3 2d3e 6f7b abbe
00000340: 500c c8bc d834 623e 480f 2b3e b0bc 9b3d
00000350: 0082 0d3d 33c9 863f b841 d63d 0a34 3e3e
00000360: 5e27 a63e 248e 10be 03f2 033f 1e00 1f3e
00000370: fd6d c6be c509 453e 7876 f03d 3570 af3e
00000380: 31ca 00bd 5722 173e cf58 9d3e 1896 543d
00000390: 808a 2c3e 7043 f2bd 2626 263c 957d 04bd
000003a0: 20b3 093d c053 5a3b 32b5 06be 3071 69bd
000003b0: 94a5 883e 4126 d43d 0d75 03bf 8fcd 4dbd
000003c0: ee54 283d 4c1a 073e 69d2 273e 693a 913d
000003d0: bdf1 363e 5a1f 413e 9169 ff3c 3750 69bd
000003e0: ba4c 503e 526d d83e a889 6f3e 9c59 3e3e
000003f0: 98e7 ee3e ebc3 453f 6f49 2a3e 9f4c 123f
-0.085840225 -0.047950186 -0.0981724 -0.26427555 0.024626382 -0.10850017 -0.30556557 -0.43827167
-0.007966129 -0.094739065 -0.010581763 -0.29421288 -0.13691531 0.11629599 -0.07265031 -0.09278417
0.068923384 -0.11042528 0.06712626 0.06697075 -0.07497933 -0.44415492 -0.3057262 -0.36720645
-0.32511598 -0.23960637 -0.28905362 0.0137233995 -0.5127979 0.12738295 -0.13730313 -0.29296905
-0.12593865 0.08423019 -0.25572032 0.22873211 -0.069150716 -0.13416044 -0.62075114 -0.40754855
0.03198477 0.09555656 -0.33245978 0.15051153 -0.27847126 -0.08193728 -0.045631286 -0.15862972
-0.23418371 -0.13488606 -0.02363999 -0.13188764 -0.12429922 -0.12523374 -0.004983736 -0.42563793
0.021199426 -0.35477927 -0.47489667 -0.2514529 0.029511722 -0.3898623 -0.13308978 -0.16493857
-0.13999435 -0.05178043 -0.4771491 0.031427275 -0.17168836 -0.37990782 -0.099324256 -0.13957535
-0.3695923 0.06814407 -0.049885523 -0.05153808 -0.3515336 -0.07087227 -0.3717216 -0.3270144
0.005355143 -0.11505053 -0.06513339 -0.14764318 0.007266225 -0.7419835 -0.20151824 -0.023815198
-0.39413956 -0.26748216 0.21939546 0.057591725 -0.1992558 -0.1983333 0.077683344 -0.09855245
-0.16781981 -0.043424677 -0.62155944 -0.037419073 -0.16368622 -0.044400677 -0.3209304 -0.295245
-0.16256681 -0.067349605 -0.10517555 0.009494328 -0.037261333 -0.013555015 -0.28796333 -0.034951232
-0.019408807 -0.00066064554 -0.05198882 -0.36293507 -0.57331735 -0.13080917 -0.08377713 -0.06696807
-0.331667 -0.59158975 -0.49889204 -0.063525535 -0.5873825 -0.50181997 -0.4669164 -0.36277324
0.24707386 0.06685116 0.19687751 -0.2711456 -0.13566117 0.0008440781 0.0020891312 0.05798282
-0.19026403 0.27252814 -0.008780232 -0.39597154 0.18220215 0.10565001 -0.1785228 0.077801086
-0.15420674 0.12802508 -0.06192907 0.011675116 -0.17226443 1.2014363 -0.15774134 0.44787088
0.09273866 0.37424254 0.58320856 0.3210351 0.65772694 0.18404834 -0.55504584 0.19738138
0.21090671 -0.012836682 -0.27615258 0.52966374 0.20508169 0.53929746 -0.3496928 0.2491883
0.5088676 0.34380847 0.32457379 0.033705156 0.29806727 0.35591528 0.025597095 0.07743123
0.119805045 0.039553974 0.03693343 0.053198528 0.26214534 0.32203084 -0.39731836 0.27484885
0.24413624 -0.0014017312 0.27744597 -0.05355987 -0.23291978 1.0060694 -0.12996471 0.25422707
-0.15597299 0.25704798 0.15681772 0.18507127 -0.080328114 -0.04657994 -0.2970543 0.47266507
1.3167485 0.19476993 0.11001978 -0.07230779 0.98899287 0.017543651 0.16956991 -0.3349261
-0.024419934 0.22090471 0.16705048 0.07604349 0.034547806 1.0530151 0.104617536 0.18574539
0.3245191 -0.14116722 0.51541156 0.15527388 -0.3875579 0.19242008 0.11741346 0.34265295
-0.031442825 0.14759193 0.30731818 0.051900953 0.16849709 -0.11829269 0.010140931 -0.032346327
0.033618093 0.003331408 -0.13155058 -0.05699271 0.26688826 0.10358859 -0.5135048 -0.050244864
0.04109662 0.13193625 0.16388859 0.07091219 0.17865653 0.18859616 0.031178268 -0.056961264
0.20341769 0.42270905 0.23392355 0.18588871 0.46661067 0.7725207 0.16629575 0.57148165

bias_hh_l0 f4 [384]
00000000: e6ef cabb 1362 a4bd 75e5 efbd f636 80be
00000010: 56b2 06bb 2523 afbb 8769 a5be 3733 c2be
00000020: ef0e 85bd 0dd8 38bd c3cd f73c 5f4d 9cbe
00000030: c7db 5ebe 3022 bc3d bb2e 963c ea4e 9abd
00000040: 6ab0 223d 7d2e e4bd 58b4 5ebd 4a99 e13d
00000050: 22ad 1fbd 6122 e1be 5055 cabe b627 a0be
00000060: bd84 98be 5409 b7be 96c4 cdbe 2ded d5bd
00000070: cdce 12bf c063 523d d08e febd 43c9 b6be
00000080: 3914 6fbd 02fd 3b3d 8305 8abe b6bf 583e
00000090: 1492 54bd 9789 20be 4985 1ebf 8996 d3be
000000a0: dfb0 1b3d 4766 0fbc b7f9 b4be a091 713e
000000b0: acbe 96be 46a1 74bd 8f0b c3bd 3a72 cbbd
000000c0: 78bf 25be 42bb 13be 96e2 90bd 5676 24bd
000000d0: 6cfc a1bc 2f7c 10be 2471 16be ed66 90be
000000e0: 352f 9abd d1d8 9fbe 9c9b 07bf 675c 23be
000000f0: 4111 1f3d a5fd c9be fbc2 8cbe 8d05 a0bd
00000100: d1f5 6bbe ab5a 93b8 0fe4 e2be 6001 d83c
00000110: c9c6 a8bd 64df 0cbf 4593 08be a063 c2bd
00000120: 05c8 e1be 5e55 4d3d 6ffb d5bd 54ab 8d3c
00000130: ff75 73be 7ab5 04be 7469 d7be 78a7 91be
00000140: 1776 783d 0051 7dbd 0b62 b0bc 2795 71be
00000150: 7359 debd 5f86 22bf 9181 82be eb13 debc
00000160: 1b7b a6be 3d85 a6be efee 423e 6c84 b63c
00000170: e587 4abe 0595 44be 5cfb e73d fef4 7bbe
00000180: 9bcc 58be 4517 803b 43ea 23bf a49c bbbc
00000190: b30c f7bc b509 823c 99cb 9abe 3b9b 68be
000001a0: 37f3 14be f91e 39bd 47a7 e6bd a1f2 89bd
000001b0: b552 ca3d 3691 b33d c42e 80be 3a87 5dbd
000001c0: 4f19 bf3d 7171 74bd 7eb7 0ebe 7196 8abe
000001d0: 7abd 1fbf 8443 99bc 4611 b7bd c416 87bd
000001e0: 9caa babe d88b 2ebf e101 ffbe 0143 59bc
000001f0: 5c8b 0abf a735 07bf 2d5f f6be 87c7 5ebe
00000200: e9dc 9f3e 6eb4 483e 7a9d 863e d187 8dbe
00000210: 0f7f 4ebd 57b3 4dbd 9628 10bd ddbd f93c
00000220: dc3d 39be ca1d 9e3e b82e d63d fc4b 85be
00000230: c959 6e3d 8313 e03d 05d9 4dbe 86e2 8f3d
00000240: fb51 0bbe 1d7e ed3d bd99 653b 0123 323d
00000250: e28c 0ebe 206d 993f a96a 2ebe 0e76 c73e
00000260: a765 4c3d c33d b53e 7c9b e63e 5b57 643e
00000270: 2f74 333f 9b09 b03d ce3e 13bf 1e3e df3d
00000280: 667f b03e 2a8d aebc de81 b2be 5cbe ee3e
00000290: 3ab6 4b3e 044b fe3e 5149 6cbe a66f 2e3e
000002a0: 3bdb de3e cc1e 613e abd6 623e 09f4 1ebd
000002b0: 6463 c13e ca56 fb3e f96f e8bc 4213 073e
000002c0: 2331 b33d d323 b53b 9abe 333d eab8 243e
000002d0: 4798 623e 0d4e 613e 3adf bbbe 5c0d 433e
000002e0: 5c8b 923e 5336 5dbd dd16 2c3e c2ed fb3b
000002f0: 1333 3ebe 73a5 783f d64f 34be 9cd1 823e
00000300: 189d acbd eaa3 453e e085 8d3e f182 193e
00000310: 3271 36be bdf0 83bd 9791 45be 1d6c 033f
00000320: 04ef aa3f 9ffb af3d af14 5f3d fbed 64bd
00000330: 831f 8f3f a519 5b3d 234c 5f3e 0f03 7fbe
00000340: 46b3 46bd 1173 833e 24b0 753e 0c23 9a3c
00000350: 7aee 91bd e99f 8d3f 8c7e 243d e0cc 723e
00000360: f2f0 e43e bb6c eabd bd8a c63e 7630 f03d
00000370: 2922 e3be a4f6 423d e223 b53d 6562 8b3e
00000380: 764a f4bd cab9 df3d e7d6 813e 90cb e6bd
00000390: 916d 773d d65c bbbd fb00 a13d e52f aabc
000003a0: 7b89 1b3c 1566 623c 80ff 32be 27a9 a23d
000003b0: b8cf 673e 8e5d b93d 218e 08bf 9a2d 083c
000003c0: af15 28bb 86a6 203e fa4c 773e 25b3 e43c
000003d0: 739b 283e b8a4 253e f55d eabd 2125 ef3d
000003e0: 1e18 9c3e f6bb eb3e 3b94 a03e 187d 2a3e
000003f0: ac33 043f fd98 613f 6dd8 a73d 6985 083f
-0.006193149 -0.08026519 -0.11713687 -0.25041932 -0.0020553074 -0.0053447657 -0.32307073 -0.379297
-0.06496989 -0.045127917 0.030249482 -0.3052778 -0.21763526 0.09186208 0.01833283 -0.07534583
0.039719023 -0.111416794 -0.054371208 0.11015566 -0.03898347 -0.43971542 -0.39518213 -0.31280297
-0.2978877 -0.35749304 -0.40189046 -0.10445628 -0.573468 0.05136466 -0.12429583 -0.35700426
-0.058368895 0.045895584 -0.2695733 0.21166882 -0.051897123 -0.15677486 -0.61922127 -0.41325787
0.038010474 -0.008752412 -0.35346767 0.23590708 -0.29442346 -0.059724115 -0.09523689 -0.09933896
-0.16186321 -0.14426902 -0.07074468 -0.040151916 -0.019773684 -0.14109872 -0.14691597 -0.28203526
-0.07528535 -0.31220105 -0.52971816 -0.15953217 0.038834814 -0.39451328 -0.27492508 -0.07813559
-0.2304299 -7.0263945e-05 -0.4431462 0.026367843 -0.0824104 -0.5502837 -0.13337429 -0.09491658
-0.44097915 0.05013024 -0.10448348 0.01729361 -0.2377548 -0.12959853 -0.42072642 -0.2844808
0.060659494 -0.061844826 -0.021531126 -0.23592053 -0.10856905 -0.63486284 -0.25489476 -0.027109107
-0.32515797 -0.32523528 0.19036458 0.02227994 -0.19778402 -0.19197471 0.1132724 -0.24605176
-0.21171801 0.003909024 -0.6402933 -0.02290184 -0.030157423 0.01587377 -0.30233458 -0.22715466
-0.14545904 -0.045195553 -0.11262374 -0.06735731 0.09879056 0.08767931 -0.2503568 -0.05408404
0.09330999 -0.0596785 -0.13937184 -0.27067903 -0.62398493 -0.018708952 -0.089388415 -0.06596139
-0.3645829 -0.68182135 -0.4980612 -0.013260604 -0.54118896 -0.5281624 -0.48119488 -0.21755801
0.3122323 0.19600078 0.2629202 -0.27642682 -0.05041414 -0.05021986 -0.035194956 0.030486042
-0.18090004 0.30882102 0.1045813 -0.26034534 0.058191095 0.109412216 -0.20102318 0.07025628
-0.13605492 0.1159632 0.0035034262 0.043490414 -0.1392093 1.1986427 -0.17032875 0.38957256
0.04990163 0.35398683 0.450405 0.22298948 0.7009916 0.08595582 -0.5751771 0.1090052
0.34472197 -0.021307547 -0.34864706 0.46629608 0.19893733 0.49666607 -0.23074843 0.17034778
0.43526635 0.21984404 0.22152202 -0.03880695 0.37771142 0.49089652 -0.028373705 0.1319094
0.087496065 0.005527952 0.043882944 0.16086164 0.22128402 0.2200243 -0.36693746 0.19048065
0.28621948 -0.054006886 0.16805597 0.007688255 -0.18574171 0.97127455 -0.1760858 0.25550544
-0.08428401 0.1930081 0.276412 0.14991356 -0.17816618 -0.064424016 -0.1929382 0.5133684
1.3354192 0.08592915 0.054463085 -0.05589102 1.1181492 0.053491253 0.21806388 -0.2490351
-0.048510812 0.25673726 0.23992974 0.01881554 -0.07125564 1.1064426 0.040159747 0.23710966
0.44715077 -0.1144652 0.38777724 0.11727993 -0.44362 0.047598496 0.08844735 0.27223507
-0.11928265 0.10924108 0.2535927 -0.11269295 0.060407225 -0.091485664 0.07861515 -0.020774791
0.009493227 0.013818284 -0.17480278 0.079424195 0.22637832 0.09051047 -0.5334187 0.0083116535
-0.002564769 0.15688524 0.24150458 0.027917454 0.16465549 0.16176116 -0.11443702 0.11677004
0.3048715 0.4604184 0.3136309 0.16649282 0.51641345 0.88124067 0.08195577 0.5332857

weight_ih_l1 f4 [384, 128]
00000000: 539c 11be 8ed1 853f 1eec 89be 1a91 adbe
00000010: 940e 303f 7d9b a9be f37c 123f 635d 2a3f
00000020: e6ce 15bf 36cd e0be fd42 253f 23fc e93e
00000030: 16ba 24bf 9adf 273e 80f8 923e 7db7 cabe
00000040: 54c8 0bbf c191 873e 0639 033e 18a9 73bf
00000050: 95f3 b03e bf4c ff3d 27e9 813e 30c9 483f
00000060: 1d91 12bf 03f6 b53e 30cc 85be 0fda 10bf
00000070: 382f da3c 2ea2 2a3f 7376 653d d05d 89be
00000080: a1f0 f6be 4e53 aa3e 825b 05bf e238 8ebc
00000090: 8c19 dcbe 3c84 07bf 9a7d 093f 18d9 e03e
000000a0: d6d3 44be b9e5 4a3e b28e 083f 4b42 5bbe
000000b0: 7a60 edbb ece4 81be 331f 24bf 44ce 48bf
000000c0: 2d32 f53e 4113 17bf d55b ddbe fcb5 16bd
000000d0: 0f2e d9bd eec9 d8bd 22de a23e fac5 173f
000000e0: bd22 243f 1519 6b3e d5f7 e53e 5729 15bf
000000f0: 915c 13bf 60a6 89bd 9fe2 acbe 7d39 81be
00000100: 1aca 353f 3d8d dfbe aaf4 813d 190d 8cbe
00000110: 8f31 2abf 7542 ae3e 2f43 d03e 9358 e63d
00000120: 87c7 5b3e 8e12 62bc 418d 12bf 2928 6d3e
00000130: 9112 08be 2922 163f cd4d 93be ddca 7fbe
00000140: 524d 3cbf 1171 28bf 6333 58bd 91e2 9cbe
00000150: c21e e2be fcbb 82bd fbb2 e23d ce7a 513e
00000160: 389d cfbe e35f 3fbf f592 8c3e 9801 23bd
00000170: 6023 ae3e ef0a 15be 63eb dc3e 135a 69bf
00000180: 47e6 973e 8e82 bd3e 13e5 10bf 67cb 303e
00000190: ea22 763e 4ad4 a93e ff62 033f 66a4 f1be
000001a0: 535b 113f 7cda 0a3f bcf9 5f3f 48db b9be
000001b0: 91f8 9bbe ff5a f33e 3cea 5cbe 4001 c1be
000001c0: cddd 9cbe a3d3 b6be f75f f6be 26fa ea3e
000001d0: 15dc 11bf 3283 04bf 865c 8ebe 918b 253f
000001e0: 4354 243d 660e 713e e767 3a3c c3e2 433f
000001f0: 8d8f 87be 04b4 a4be 648e 28bf 7f6b 413d
00000200: 92c9 05be 59d6 7b3e 0522 7fbe c138 03be
00000210: 3cbf f43d 42d2 843d f10f 5e3e 5c66 ca3d
00000220: 6d54 0c3c 7df5 75be 3919 1d3e 4d1b d93d
00000230: 7245 b73b add5 0a3e 9bb6 a73e 49bd 37be
00000240: 6199 0dbd 3350 de3d 445b 273e c613 dfbd
00000250: c281 413e 5e3f 983d d1c0 12be 1510 03be
00000260: 4277 10be 2195 e23d 2a0d 4cbd 8f2d 57be
00000270: c209 e1ba bb81 f2bd c773 dbbd 2b8b 98be
00000280: aea2 72be b94f 393e 096e babd 5361 bf3e
00000290: 6a29 3fbd 0060 90be de9b c53d e18a febd
000002a0: c433 023f 4a0e b4bc 62ee 88bd 0916 84be
000002b0: ed8b a93e 66a8 ae3e 5e1f 13be 8c4f d6bd
000002c0: ab8d d43d a748 5bbe 9f1d 5abe 5f4f 11bf
000002d0: fd1b 68be 27ee 9bbc 4cd1 6dbd aa09 44be
000002e0: 4deb 013e bf8c 7abe ddf6 303e 0304 52be
000002f0: 5d5c 97be fe02 23be 62ca cd3d 41e0 b5bd
00000300: a7ae 2c3d f029 0bbe ef98 06be 1360 ccbe
00000310: e774 2cbd 4d01 f43d 4fb3 ed3d ee8f 393e
00000320: 8a76 8a3e d6a6 453e ab6c b3be 2460 0c3d
00000330: c6ff 65bd 3ade 893e 8ee9 62bd 7867 15bd
00000340: 02a1 95bd 334f 69bd d036 453e 9545 7ebe
00000350: 6fc0 e0bd eb29 4a3d 7a60 6abb b068 ab3d
00000360: 8ce1 01be c53f 9bbe c1d4 e63e 86c3 aa3e
00000370: 0e38 e93c 5b76 83be 528c 01bd 06ce d8bd
00000380: dc2a 33bb c5b0 a73e d107 d53d a043 043e
00000390: 0ce6 583e 6122 19bd ee7e 8b3e 5786 e0bd
000003a0: 2aec af3d fc45 ab3d 8dd7 3b3e 20cd d3bd
000003b0: ee1a 0dbb bc81 803e 240e e13c 28eb 8bbe
000003c0: fd8b 35bd 07c6 9c3e a55c 0abe ba5c c43d
000003d0: fdd7 193e 4b30 d5bd 7cf2 fabd 2762 aa3e
000003e0: 2e97 0c3e d0ff 3a3d 42ea 5cbe a463 583e
000003f0: 06ee f7bd 0073 a4bd e6a4 afbd 91b7 8dbe
-0.14219789 1.0454576 -0.26937956 -0.33899766 0.68772244 -0.3312644 0.5722191 0.66548747
-0.58518827 -0.43906564 0.6455534 0.45700178 -0.64346445 0.16393891 0.28705215 -0.39593115
-0.5460255 0.2647839 0.12814721 -0.9517989 0.34560838 0.1246581 0.25373194 0.7843199
-0.57252675 0.35539255 -0.26132345 -0.5658273 0.026633844 0.66653717 0.056021165 -0.26829386
-0.4823046 0.3326668 -0.52092755 -0.017361108 -0.4298824 -0.5293615 0.5370728 0.4391563
-0.19221434 0.19814195 0.53342736 -0.21412008 -0.007244167 -0.25369966 -0.64110106 -0.78439736
0.47889844 -0.59013754 -0.43234125 -0.036794648 -0.10604488 -0.1058539 0.318101 0.59286463
0.64115506 0.22958787 0.44915643 -0.58266205 -0.5756312 -0.06721187 -0.33766648 -0.25239173
0.7101151 -0.43662444 0.06345494 -0.27353743 -0.6648187 0.34035078 0.40676257 0.11247363
0.21462832 -0.013798369 -0.57246786 0.23159851 -0.13288333 0.58645874 -0.28770295 -0.2497973
-0.7355548 -0.65797526 -0.05278338 -0.30641606 -0.4416409 -0.063835114 0.11069294 0.20457003
-0.40549636 -0.74755687 0.2745587 -0.03979644 0.34011364 -0.14554952 0.43148336 -0.9115307
0.29667875 0.37013668 -0.5659954 0.17265092 0.24036756 0.33169776 0.5132293 -0.4719574
0.56779975 0.5423963 0.8749044 -0.3630011 -0.3046308 0.47530362 -0.21573728 -0.37696266
-0.3063797 -0.3570834 -0.4812009 0.45893973 -0.56976444 -0.5176269 -0.27804965 0.64666086
0.04011942 0.23540649 0.011377311 0.76517886 -0.26476708 -0.3216859 -0.6584227 0.047221657
-0.13065174 0.24593486 -0.24915321 -0.12814619 0.119505376 0.06485416 0.21685769 0.09882805
0.008565051 -0.24019428 0.15341653 0.1060091 0.0055929953 0.13558073 0.32756504 -0.179433
-0.0345701 0.108551405 0.16343409 -0.10892443 0.18897155 0.07433961 -0.14331366 -0.12799104
-0.14107993 0.110636 -0.04981724 -0.21013473 -0.0017169046 -0.118411504 -0.10715442 -0.29793677
-0.2369487 0.18096818 -0.09103019 0.3737894 -0.046670355 -0.28198242 0.0964887 -0.12428833
0.5086024 -0.02197947 -0.06686093 -0.2579806 0.33114567 0.34112853 -0.14367434 -0.10464391
0.103785835 -0.21414433 -0.21300362 -0.56761736 -0.22666927 -0.019034458 -0.05806093 -0.19144312
0.12687416 -0.24467753 0.17281671 -0.20509343 -0.29562655 -0.1591911 0.10048367 -0.08880664
0.04215875 -0.13590217 -0.13144277 -0.3991705 -0.042103674 0.119143106 0.11606466 0.18121311
0.27043563 0.19301924 -0.35043845 0.034271374 -0.056152128 0.26927358 -0.055398516 -0.03647563
-0.073061004 -0.056960296 0.1925919 -0.24831231 -0.10974204 0.049356382 -0.003576307 0.08369577
-0.12683696 -0.3032209 0.45084193 0.33352298 0.028469112 -0.25676236 -0.03162796 -0.10586171
-0.0027338779 0.32752052 0.104018815 0.12916422 0.21181506 -0.037386302 0.27245277 -0.10963123
0.085899666 0.08362958 0.18343945 -0.10341859 -0.0021530944 0.2509898 0.027472563 -0.27327847
-0.044322956 0.30619833 -0.13511904 0.09587999 0.15023799 -0.10409602 -0.122532815 0.3327801
0.13729545 0.045654118 -0.21573737 0.2113176 -0.12105946 -0.08029747 -0.08576374 -0.27679113

weight_hh_l1 f4 [384, 128]
00000000: 9aa4 6d3e fa8e da3c 7266 793e 9dc7 bc3e
00000010: d28e 70bc 84c3 5b3e f0c7 b3be a8d7 113d
00000020: 9250 8cbd 32db 4f3e 1f77 453e 3f49 a43e
00000030: 3a45 3cbe dbf3 46be eb4a 653e 1302 8dbe
00000040: 0574 02be 2d17 a4bd 0895 f23e 9fe5 8a3e
00000050: fc3d 1a3e 6f11 35be 378b f8bd 04c2 20bd
00000060: c22d 36bd ac14 48be 363e 61bd fe42 f83d
00000070: 6a91 4d3d 957c 29be bbc0 243f a017 5bbd
00000080: 872b 92bd a993 27bc bef4 5abe e577 7e3c
00000090: 383a 63be 87aa 21be ca00 eebd 7d16 b8be
000000a0: 2110 d3bd d378 063f b376 9fbd ac94 023d
000000b0: 3e62 01be 8b70 0bbd 2b8d d6bd 6977 a43e
000000c0: 8a0b 9a3c a03a 06be 0956 d03d b615 84bd
000000d0: 80d8 83bc a27b e2bd 5480 ddbd 2e12 c0bc
000000e0: 5225 0cbc b5ed 2ebd 98a3 8a3e 3dba 7f3e
000000f0: 33f7 40be bd68 a43e ea3b 373e 224f e43d
00000100: 43f2 b7be 0d8c 543e c079 d73e 4e5d 66be
00000110: 6d85 193e a6bb e63d 03c9 b1be 7ed8 013f
00000120: a56a e93d 1239 213e 18e2 243e c5da 33bd
00000130: f5b4 41be 1a84 d73d 4fea 57be 1bc6 6e3d
00000140: abe6 f73d dc21 67be 021e dd3d 9f5e 683e
00000150: a79d 1cbf 882a 433e e3c9 433e 4994 0fbe
00000160: 5c38 45be a299 973d 3ebf 533c 9085 313e
00000170: 1ea6 66bd 2114 fabd c5a6 833e 3638 c3bd
00000180: 712f 66bd 58f8 9f3c 06a0 bf3c 6962 46be
00000190: 9fea 0bbe 44ab 01be 8a8f 72bd aa13 54be
000001a0: 1225 a4bd 99b7 5f3e 4090 123e 5791 0b3e
000001b0: 249a 033e 1df0 5dbe bc60 86be b30a 92bd
000001c0: d96c 54be 2843 ef3d d01e c53d e2a7 0cbe
000001d0: 2f15 1dbd 7326 ea3d a4a9 84bc 6e6f acbd
000001e0: bd9e 27be 6d1f c23d c058 a03e c1d5 2e3e
000001f0: 6800 98be f5d5 ff3d d960 de3d 2073 0abe
00000200: 869e 8abd 1caf 02bf 59f8 533e 4da2 583e
00000210: 91e6 f7bd bc03 113e 8208 14be ef4d 08be
00000220: 2706 503e 0e03 93bb 7e26 20be 3c5b 123e
00000230: e214 c7bd 5ca6 583e e242 1fbe 44af 903e
00000240: d6ba 1cbc a860 0f3e 27fd c53e d4ed 13be
00000250: bc0f 863e 7b76 893e 6256 053e 0f8c d13e
00000260: b5ff 0cbe 777f 593d 50cd 0cbe cf7b 3b3e
00000270: 31fe 0abf ce1e d63e 4fe0 fb3d c941 72bc
00000280: 3ec5 d43d 4ae8 7c3e 7d45 53be 2345 5fbe
00000290: 4f82 833e 2794 f03e d03d c8bd 0385 573d
000002a0: cd00 bebd 770c 323e dca4 28be 1d79 753d
000002b0: e285 85bc b41e 9fbb 10cf 0c3e 4745 0c3d
000002c0: 0b9d 78be f8fb 213e beff c8bd a76d 393e
000002d0: 2479 06bf 9c0a 0d3f 9876 173d d65c ed3d
000002e0: bc2e d93e c515 b93d 7cb2 0a3e 63a5 a73e
000002f0: e226 ac3e 6427 39be dee0 a83d 3824 073f
00000300: ef73 023e e86b b23e 2289 bd3e 0d61 b63e
00000310: b6a4 693e 9c94 513e 29f8 89be bd4e 1e3e
00000320: beb1 dabe b85b 013f 6205 1e3e 2f50 bbbd
00000330: 0117 e4bc c9df 13bf dc55 c9bd 86c8 b43d
00000340: 142e 68bd acd5 d63d 0bc9 d43d 949d 20be
00000350: e71e 18be 2e89 21be 4744 90be e351 a93e
00000360: 3fde ce3c 3e53 ff3e a826 c03c 8b0b 7dbc
00000370: 38ee a63e 55fe 093e d477 193e a4b7 3dbd
00000380: 8c50 b9bd 4faf 0ebe 9dac e9be a13f 9e3e
00000390: d3b0 af3e da4b aa3e 7b51 93bd 6455 373e
000003a0: 2f53 433d 3e52 81be c51e c0be e557 aebe
000003b0: ed69 3fbc b5d7 093e 95bd 06be b3ea 2a3f
000003c0: db2b 2d3f bb86 7ebe cc04 c4be 94ba da3e
000003d0: 0ff8 e33d ad41 09bf 8912 0bbe 0cd4 753e
000003e0: 484b d03e 6c47 c8be 0e86 9a3e 598a 8d3d
000003f0: 4875 5bbe 9fe4 6d3e 90a1 d6bd 98c5 9d3d
0.23207322 0.026679505 0.24355486 0.36871043 -0.0146824885 0.21461302 -0.35113478 0.035606056
-0.06851305 0.2029846 0.19283722 0.32087132 -0.18385783 -0.19428961 0.2239186 -0.27540645
-0.1273957 -0.08012233 0.47379327 0.27128312 0.15062708 -0.17682432 -0.12135928 -0.039247528
-0.04447723 -0.19539136 -0.05499097 0.12122153 0.050187506 -0.1655143 0.64356583 -0.053489327
-0.071372084 -0.010228076 -0.21382424 0.015531515 -0.22190177 -0.15787707 -0.11621244 -0.35954657
-0.10305811 0.52528113 -0.07786312 0.031880066 -0.12635133 -0.034042876 -0.104761444 0.32122353
0.01880433 -0.13108301 0.1017266 -0.064494535 -0.016094446 -0.11058737 -0.10815492 -0.023446169
-0.00855382 -0.042707164 0.27077937 0.24973388 -0.18844299 0.3211116 0.17893949 0.11147906
-0.3592702 0.2075655 0.42085075 -0.2249653 0.14992304 0.1126626 -0.34723672 0.50720966
0.11397294 0.15744427 0.16101873 -0.043909807 -0.18916686 0.10523243 -0.21085475 0.058294397
0.12104543 -0.2257151 0.10796739 0.22692345 -0.6117806 0.19059193 0.19119982 -0.1402141
-0.1925978 0.0740235 0.012924014 0.17336106 -0.056310765 -0.122108705 0.25713173 -0.09532206
-0.056197587 0.0195276 0.023391735 -0.19373478 -0.1366372 -0.12662989 -0.05921892 -0.20710626
-0.08014883 0.2184738 0.1431284 0.13629662 0.12851769 -0.21673627 -0.26245677 -0.07130947
-0.20744647 0.11682731 0.09625018 -0.13735917 -0.03835028 0.11433115 -0.016194172 -0.08419691
-0.16369148 0.0947865 0.3131771 0.17073728 -0.2968781 0.12491981 0.10858316 -0.13520479
-0.06768517 -0.51048446 0.20700206 0.21155663 -0.12104524 0.14161581 -0.1445637 -0.1331098
0.20314847 -0.004486448 -0.15639684 0.14292616 -0.0972078 0.21157211 -0.15552858 0.28258717
-0.0095660295 0.14001715 0.38669702 -0.14446193 0.2618388 0.26848206 0.13021234 0.4092717
-0.1376942 0.053100076 -0.13750196 0.18308948 -0.54294115 0.41820377 0.12298643 -0.014786192
0.103891835 0.24697986 -0.20631976 -0.21803717 0.25685355 0.4698803 -0.09777415 0.052617084
-0.092774965 0.17387567 -0.16469139 0.059929956 -0.016299192 -0.004855955 0.13750863 0.034245756
-0.24278657 0.15818775 -0.09814404 0.18108235 -0.52528596 0.55094314 0.036978334 0.11589973
0.42418468 0.09037355 0.13544649 0.32743368 0.33623415 -0.18081433 0.08246015 0.5278964
0.12739538 0.3484795 0.37018687 0.3562092 0.22816738 0.20466846 -0.26947144 0.15459724
-0.42713732 0.50530577 0.15431741 -0.09146153 -0.027843 -0.57763344 -0.098308295 0.08827309
-0.05668457 0.104899734 0.103899084 -0.15685111 -0.14855538 -0.15774986 -0.2817709 0.33070287
0.02525246 0.49868196 0.023455933 -0.015444647 0.3260362 0.13475926 0.14987117 -0.04631771
-0.09048566 -0.13934062 -0.45639506 0.3090792 0.34314594 0.33260995 -0.071932755 0.17903668
0.047686752 -0.25258058 -0.37523475 -0.34051433 -0.0116829695 0.13461192 -0.13158257 0.6676437
0.67645043 -0.24856083 -0.3828491 0.42720473 0.11131298 -0.5361584 -0.1358129 0.2400667
0.40682435 -0.3911699 0.301804 0.06911153 -0.21431458 0.23231743 -0.10480034 0.07703704

bias_ih_l1 f4 [384]
00000000: 4248 acbe e862 abbd 4b3e cc3e d762 a6bd
00000010: 59ea d6bd f073 153e 8445 f1bd 2d53 233e
00000020: 96fe 263d 97c8 79bd 825a 373e f4cf 03bf
00000030: 5cf3 523d e1f7 9c3e 25a0 593e 989f 7f3c
00000040: 962f ffbe 53b3 e2be e6b5 383e ba7f 5939
00000050: 0aaa 9cbc 02ac ad3e 54ab bd3e e5be e63d
00000060: 07fe ec3d a0f7 cfbc 7b29 93bc 6bf5 8fbd
00000070: a5dc 0bbe 4c53 a0bd 0907 513d aab0 07bd
00000080: 92e4 e63e 1831 a23e 7336 48be 52e4 0abd
00000090: dc21 0abf 6280 74be bdbc 1d3e 88aa 393e
000000a0: 284f 75be ad6d 61be 24ea 5fbe 5c69 b93d
000000b0: e534 ecbe 2dc4 5abe 5b0d 18bd 6a96 9cbd
000000c0: bb32 f1bd 325a 453e f661 94be 5a6d eebd
000000d0: 4ea5 f23d d766 80be 98e6 5f3e 3cc0 2f3e
000000e0: 427f 2c3d e652 703e 53f5 adbe 96f0 8b3e
000000f0: 8345 a93c f4f8 c3bd 7721 d8bc edfa 833e
00000100: 5bd9 b93d 85b1 783e 9238 2f3f ebf3 843e
00000110: b917 fe3e eec5 1b3e 204b e63d 41d5 62be
00000120: 9ab7 113f c5b9 4a3e ac87 58be 690b 8fbf
00000130: f794 6bbe 764f ee3c 34f4 36be d110 cdbb
00000140: deb2 00be 4982 d8bd f5dc 05be 6186 c93e
00000150: 9560 89be 1eda c3be 7257 5abd aecf aebe
00000160: 87c8 8abe 6c5a 9c3e 82b3 7fbe e3ab 18bd
00000170: c76f 873e 3238 d53c 6c22 6ebe 4b88 ec3b
00000180: 1ba8 143e bce9 fd3b c888 34be e5c3 e9bd
00000190: 79a6 553e f2d6 f7bd c205 08bf b39f 0c3e
000001a0: 83ad b8bd f4f7 b6be 4138 cc3c e43a 42bd
000001b0: 9116 fbbe 8465 f7bd 30bb 843d 6755 663e
000001c0: fab5 e93d 614c 51be 2c2b a43e fcfe 03be
000001d0: 3fc1 ddbe 404f 2dbe 9b61 82bd bb90 82be
000001e0: e55a 9ebd f6d8 86bd c36a 3abe ab48 43be
000001f0: 511d e6bd 009a efbc 7048 94be 1b64 91bd
00000200: 940c 833c 1a91 e13e feae 20bd 0545 f9bd
00000210: 474a c2be 88a0 4d3e 2c1e 0d3e 01dd 96bd
00000220: a1dc 31bd 410a cbbe 33d7 d53d d43f 843e
00000230: 30f1 773c 2cd3 c13d 632a b63e 01c0 8a3e
00000240: c937 883d 2240 60bc af5f 983e 25e6 9c3e
00000250: 1e19 61be eba9 d3be ff21 763c d0c1 8e3e
00000260: f7ac 193d 4b9c 8c3e 7a24 153e 8826 893d
00000270: a158 8a3e 60e7 153f 4d43 7b3d 27d7 41bc
00000280: 5ef4 0fbd 28f9 36bd 2684 9abe 7374 913e
00000290: 35b0 033f c20c 103f e907 733e 1bf2 5ebd
000002a0: 2be6 3d3e bb9d abbe 184d 8fbd e1f6 38be
000002b0: 1c14 77bd 1848 8fbe 7291 b43d a3a3 e53e
000002c0: d0d8 9c3d 9f14 913e 4f4d e4bb 35c7 2ebe
000002d0: f108 b7be 7bbd b33e 0e30 23be 5814 14bd
000002e0: a688 083f 5192 bfba d4c2 053e 9d71 80be
000002f0: dcfc ee3d 9bba 8c3e 8b9c e53e e8c1 80be
00000300: 56c8 8b3e 8841 86be 797c f4bd 270f 4b3d
00000310: 47c9 33bd 69cb e03d b1c8 1e3f cb1a b13d
00000320: ec86 83be 2e84 afbe bb1f d73d b8a7 c1bc
00000330: 3221 1a3e 2340 d63e 0fe3 0d3f 6c8b 8a3d
00000340: f04f d33e d9bf 023f 54c1 45be 3c27 2bbe
00000350: 2df9 17be e646 eb3e bc05 483e 1cb2 fc3e
00000360: 074c ebba a194 6abc 55f9 d2bb 23e1 b73d
00000370: 0a8e 05be 407e c0bb 9bca fa3e d82b 333e
00000380: f784 2bbe 0181 b6bd 1881 0a3f 92d0 bb3e
00000390: cfab f63e 6e0b af3e 386a ca3c 1310 8d3e
000003a0: b90c efbd ef7e f23e 3706 b53e d9b9 cd3e
000003b0: a2e5 0a3f c5a2 ae3e 6d6e 6c3e 9ba7 3e3e
000003c0: aeca 9c3e 9177 5dbe c174 353e bdc9 b93e
000003d0: e1cb a83e 8595 093f a685 8dbd 7d89 b63e
000003e0: b36f d93e 94fb 723e f0b4 23bd abaa 1e3f
000003f0: a456 b03d db35 d23d c926 39bc fad7 603e
-0.33648878 -0.08368474 0.39891276 -0.08124321 -0.10493917 0.14595008 -0.11780837 0.15949698
0.040770136 -0.060982313 0.1790562 -0.51489186 0.051501617 0.30657867 0.21252497 0.015602015
-0.49840993 -0.4427744 0.18038139 0.00020742315 -0.01912405 0.33920294 0.37044775 0.11266879
0.11571889 -0.025386631 -0.017964115 -0.07029232 -0.13658388 -0.078283876 0.0510321 -0.033127464
0.4509626 0.3167808 -0.1955202 -0.03390915 -0.53957915 -0.23877099 0.15404029 0.18131459
-0.23955977 -0.22014494 -0.21866661 0.09053299 -0.46134105 -0.21363898 -0.03712211 -0.07645877
-0.11777254 0.19272688 -0.28980988 -0.11641951 0.118479356 -0.2507846 0.21865308 0.17163175
0.04211355 0.23469123 -0.3397623 0.2733199 0.020663029 -0.095689684 -0.026383145 0.2577738
0.090746604 0.24286468 0.68445694 0.25967345 0.49627474 0.15212223 0.11244798 -0.22151662
0.5692078 0.19797428 -0.21145505 -1.1175357 -0.23006044 0.029090624 -0.17866594 -0.006258108
-0.12568232 -0.10571725 -0.1307257 0.39360335 -0.268315 -0.38252348 -0.05330605 -0.34142822
-0.27106115 0.30537736 -0.2497082 -0.0372733 0.26452467 0.026027773 -0.23255318 0.007218396
0.14517252 0.0077488106 -0.17630303 -0.11414317 0.20864286 -0.121015444 -0.53133786 0.13732795
-0.0901747 -0.35736048 0.024929168 -0.047419444 -0.49040654 -0.120799094 0.06481016 0.22493516
0.114116624 -0.20439292 0.32064188 -0.12890238 -0.43311498 -0.16924763 -0.06366273 -0.25501046
-0.077321805 -0.06584351 -0.18204789 -0.1907069 -0.112360604 -0.029248238 -0.28961515 -0.07099172
0.015997209 0.44056016 -0.039229386 -0.121713676 -0.37947294 0.20080769 0.13781041 -0.07366372
-0.0434233 -0.3965626 0.104414366 0.25829947 0.015133187 0.09464106 0.35579214 0.27099612
0.06651265 -0.013687165 0.297605 0.30644336 -0.21982238 -0.41340575 0.015022754 0.27882242
0.037518468 0.27462992 0.14564696 0.066968024 0.27020743 0.58556175 0.06134348 -0.0118310815
-0.035145156 -0.044671208 -0.30178946 0.28409156 0.51440746 0.56269467 0.23733486 -0.05443011
0.18544833 -0.33518776 -0.06997126 -0.18062927 -0.060321912 -0.2798469 0.08816804 0.44851407
0.07658541 0.28336045 -0.0069672237 -0.17068179 -0.3574901 0.351055 -0.159363 -0.036152214
0.5333351 -0.0014615749 0.13062602 -0.2508668 0.11669323 0.2748612 0.44845995 -0.2514794
0.27301282 -0.2622187 -0.11937804 0.049574997 -0.043893125 0.109762974 0.6202498 0.086476885
-0.25688875 -0.34280533 0.10504099 -0.023639545 0.15051726 0.41845807 0.5542459 0.06764874
0.41271925 0.51073986 -0.1931203 -0.16714185 -0.14841147 0.4595253 0.19533437 0.49354637
-0.0017951735 -0.014317662 -0.006438414 0.08978488 -0.13042465 -0.005874425 0.489827 0.17497194
-0.16749941 -0.08911324 0.5410323 0.36682564 0.48177955 0.34188408 0.024708852 0.27551326
-0.116723485 0.47362468 0.35356304 0.40180853 0.5425664 0.34108558 0.23088999 0.18618624
0.30623382 -0.21627642 0.1772032 0.36286727 0.32968047 0.53743774 -0.06910257 0.3565177
0.42468032 0.23728782 -0.039967477 0.6197917 0.086102754 0.10264178 -0.011300751 0.21957389

bias_hh_l1 f4 [384]
00000000: 09b5 bdbe af8d 6ebd 0943 ac3e e9e2 97bd
00000010: a655 273d 7960 473e 4f8c 39bd 3a04 163e
00000020: 9c41 acbd 5a91 d2bd 524a 7f3e c0f6 00bf
00000030: ceb0 f83d 05c4 723e d14b 973e b2a8 3c3d
00000040: b6fe 04bf f430 aebe 5fa9 9e3e f173 debc
00000050: a4f6 49bc 44f9 a23e 0d42 b13e 0bd5 093d
00000060: 0990 cf3d 181d 493d 6fa0 203d 8bb6 edbd
00000070: 3c78 28be 023f 03be e360 19bc 31ab 10be
00000080: c576 d63e abd9 c73e 1e58 59be 9b0d 96bd
00000090: 90f0 0cbf 4636 7cbe 322b 223e 6414 d83d
000000a0: 0821 d4bd 69c7 53be 6f59 43be 6faa 80bd
000000b0: 120d a1be 9709 19be 494a 24bd 9397 35bd
000000c0: 6bf5 81bd d0cc d43d 68d9 51be 2520 9fbd
000000d0: 8042 083e dd15 26be f967 873e 6ed6 0b3e
000000e0: bb29 b73c 39e9 4f3e cca8 a8be 6955 b73e
000000f0: 7461 0fbd 8497 34be 8976 bcbd 5e8d b33e
00000100: 5a91 84bd 4543 323e 2ede 1f3f fe3d 953e
00000110: 6c8a eb3e c502 8d3d d589 f33c 7688 bebe
00000120: d547 2f3f f451 573e 28a4 eabd 8135 82bf
00000130: a14b a5be ff31 93bd 599a 1fbe c838 b6bc
00000140: b710 41be c686 1fbe f5e3 72bb eef9 d23e
00000150: e3d0 93be ad34 90be 3b6f f8bd 11a7 bbbe
00000160: 4e80 33be 46f4 223e ab99 adbe 9ac8 3abc
00000170: 5a2a 033e 9a85 5d3d cb1f 7abe d090 c83d
00000180: d5cf 0b3e 03dd 963d 480e 7abe b564 7cbd
00000190: 7c23 363d a8bc 09be 8b55 06bf 91dd 243e
000001a0: a4b7 7bbe dbdf acbe c272 f7bc a235 63bd
000001b0: 8235 c5be 14cc b6bc 6ebe 0b3d 6b83 ad3e
000001c0: b41d 10bd 1094 17be bfb9 d33e 27c3 1cbe
000001d0: f68f dabe e108 a6bd 2f5b 273b 7db0 aebe
000001e0: e63b 6e3c ce04 fbbd e3f4 23be a99e 1abe
000001f0: 2aa3 44bd dd8a 083d d528 66be 7f68 37be
00000200: 9160 7fbd 3c99 8d3e 0d6b ad3b de2c c4bd
00000210: 22bb 91be fcb8 0f3e ac10 273e 2573 c6bd
00000220: d4b2 d9bd 09e0 a4be 9dfb 463e bb4a 0a3e
00000230: d933 583c 8a31 14bd c9f8 5e3e bbe2 423e
00000240: c903 99bd 60b7 803b 5bf5 963e de8b c93e
00000250: d503 22be 6591 d0be cd22 133d 37bb ab3e
00000260: 4bed febb c049 833e b2a8 c03d 67ec cfbd
00000270: f41e ac3e a1bb 133f e9f9 273e 8a7e 80bd
00000280: 4915 cbbd e076 6fbd d4f4 b3be 84b1 3d3e
00000290: 3765 133f 293f 2c3f ae66 073e 308f d3bb
000002a0: f649 443e de8b a7be 0d25 81bc b257 b9bd
000002b0: f730 25be 480f 6fbe fd21 c53d c0df d03e
000002c0: 0c61 753d 4536 813e 06c7 e0bc 39b1 9abd
000002d0: 7b68 01bf 8f29 bf3e 0663 a7bd 62b1 e9bd
000002e0: 780d db3e e3ac a13d a1a9 da3d 882b 92be
000002f0: c7d5 783e 37c3 9b3e a006 f83e 4913 b2be
00000300: 8c91 9b3e 602f a0be 944c 3b3c 80c3 9b3d
00000310: 0941 d23c 39fe 7dbc a59c 0f3f 4094 61bd
00000320: 0d23 73be ad7c 74be b59f 563d f198 05bd
00000330: 144e fd3d d014 d43e d725 193f ed31 b5bc
00000340: a087 d83e bd7a 023f c9e0 90be 4b07 3cbe
00000350: 8047 a5bd 2bfc a93e a4fe 6b3e 9932 113f
00000360: ab87 d3bd 7037 fd3a a329 21bd 641f 173e
00000370: ae25 f9bd e9e2 d5bd 4077 043f 40df 3e3e
00000380: d32b 26be 9074 ffbd 0158 283f 5345 e43e
00000390: af5b e73e 3fbd d23e 3bab 4d3d 1c29 743e
000003a0: 8e48 e03c 737c c13e c16c cb3e 9b1c 913e
000003b0: 4883 113f cef0 a73e 8bb0 1f3e 3e6e 8e3e
000003c0: 3eda b33e 8b70 bebd adc3 3d3e 9f72 bb3e
000003d0: eec1 863e 8655 013f 0f5c e0bd ce24 ef3e
000003e0: 0a72 b83e f57e 8b3e cc61 1d3d ab6e 1a3f
000003f0: a140 5abc 6613 ff3b eeeb 88bd 74c4 b43e
-0.3705218 -0.05824059 0.33644894 -0.074163266 0.040853165 0.19470395 -0.045299824 0.1465005
-0.084109515 -0.1028163 0.24930695 -0.5037651 0.12143098 0.23707588 0.2955003 0.046059318
-0.5195116 -0.34021723 0.30988595 -0.027154895 -0.01232687 0.318308 0.34620705 0.03365044
0.101348944 0.04910001 0.0392155 -0.11607083 -0.16452116 -0.12817004 -0.0093614785 -0.14127804
0.4188749 0.39033255 -0.2122502 -0.07326814 -0.5505457 -0.24630079 0.1583679 0.10550764
-0.10357863 -0.20681538 -0.19077085 -0.06282508 -0.31455284 -0.14945064 -0.040109906 -0.044334006
-0.06345638 0.103906274 -0.2049309 -0.07769803 0.13306618 -0.16219278 0.26446512 0.13656017
0.022358766 0.20303811 -0.32941282 0.3580735 -0.035005048 -0.17635924 -0.09202296 0.35068792
-0.06473036 0.17408474 0.62448394 0.2914886 0.46004045 0.06885294 0.02972881 -0.37213486
0.6846898 0.21027356 -0.114570916 -1.0172578 -0.32284263 -0.071872704 -0.15586223 -0.022243872
-0.18854032 -0.15578756 -0.0037062143 0.41206306 -0.28870305 -0.28165188 -0.121305905 -0.366509
-0.17529413 0.15913495 -0.33906302 -0.011400366 0.12809125 0.05408249 -0.2442619 0.09793246
0.136535 0.073663734 -0.2441951 -0.06161948 0.044467434 -0.13450873 -0.5247428 0.16100146
-0.24581772 -0.33764538 -0.030206088 -0.05547107 -0.38517386 -0.022314109 0.034117155 0.33889326
-0.035184577 -0.14802575 0.4135265 -0.1530882 -0.42687958 -0.08107162 0.0025536527 -0.34119025
0.014540648 -0.12256776 -0.16011386 -0.15099587 -0.048007168 0.033335555 -0.22476514 -0.17910956
-0.062347952 0.2765597 0.0052923025 -0.0957887 -0.28463084 0.1403541 0.16314954 -0.09689931
-0.10629812 -0.32202175 0.1943192 0.1350507 0.013195955 -0.036180057 0.21774592 0.19031803
-0.07471425 0.00392811 0.29484066 0.39364523 -0.15821774 -0.40735927 0.03592186 0.3354127
-0.0077797524 0.25642204 0.09407176 -0.10152512 0.33617365 0.57708174 0.16403927 -0.062741354
-0.09916169 -0.058462977 -0.35147727 0.18524748 0.57576317 0.67283875 0.13222763 -0.0064562783
0.19168839 -0.32723898 -0.015764738 -0.0904993 -0.1613196 -0.23345673 0.096256234 0.40795708
0.059907004 0.25236717 -0.027438652 -0.07553334 -0.5055005 0.37336394 -0.08173184 -0.11410786
0.42783713 0.07894304 0.106768854 -0.28548837 0.243003 0.30422375 0.48442554 -0.34780338
0.3038448 -0.31286144 0.011431832 0.07605648 0.025665777 -0.015502506 0.56098396 -0.055073023
-0.2374384 -0.23875685 0.052398402 -0.03261656 0.12368408 0.4142213 0.59823364 -0.022118533
0.42290974 0.50968534 -0.28296497 -0.18362157 -0.08070278 0.332002 0.23046356 0.5671783
-0.10328611 0.001931889 -0.03934635 0.14758068 -0.1216539 -0.1044367 0.5174446 0.1863985
-0.16227655 -0.124734044 0.65759283 0.4458414 0.45187137 0.41160008 0.050212126 0.23843807
0.027378347 0.3779026 0.3973141 0.28342137 0.56840944 0.32800907 0.1559469 0.27818483
0.35127443 -0.092988096 0.18531676 0.36610886 0.26319832 0.50521123 -0.10955059 0.46707767
0.36024505 0.27245298 0.038423344 0.60325116 -0.013321073 0.007784295 -0.06685625 0.35306132
