GRU/models/test_3001.pth (torch, 58146 bytes, 5 tensors)

weight_ih_l0 f4 [192, 5]
000000 7c aa e9 3f 3e 90 f6 3f db 52 15 40 7b 52 2e 40
       1.8255153 1.9262769 2.333182 2.7237842
000010 5b 6f 69 c0 25 32 15 40 4e 89 24 40 18 70 4b 40
       -3.6474216 2.3311856 2.5708804 3.1787167
000020 f7 ed 70 40 eb e3 2c c1 c8 3b 83 3f 0e 5d 98 3f
       3.7645242 -10.805644 1.0252619 1.1903398
000030 d6 6c 8a 3f 80 dc 9b 3f 2b 9a b5 c0 80 96 3f 40
       1.0814464 1.2176666 -5.6750693 2.9935608
000040 6d 2d 5b 40 89 ac 4c 40 53 88 65 40 de 07 01 40
       3.4246476 3.1980307 3.5864456 2.0161052
000050 38 fe 4c 3f 66 75 80 3f 38 42 a9 3f 62 a3 a7 3f
       0.8007541 1.0035827 1.3223333 1.3096735
000060 aa be d4 bd 3b 87 1b 40 89 00 16 40 ec 6a 24 40
       -0.10387929 2.4301288 2.3437827 2.569026
000070 bf 7d 1c 40 59 4c 14 c0 f3 f6 96 40 34 c4 9d 40
       2.445175 -2.31716 4.717645 4.9302006
000080 29 0a 9e 40 b5 d7 a4 40 3a b1 80 40 a6 0a 3e 3f
       4.9387403 5.1513314 4.021634 0.74235
000090 14 c0 88 3f e3 49 65 3f fc e4 9a 3f 1e cb ea 3e
       1.0683618 0.8956587 1.210113 0.4585809
0000a0 9a fb 75 40 5f 49 76 40 d3 5c 95 40 4c 0a 9f 40
       3.8434815 3.8482282 4.667581 4.970007
0000b0 88 8d 55 c1 09 0e 57 40 2b 79 68 40 2c 1a 63 40
       -13.347054 3.3602316 3.6323955 3.5484724
0000c0 07 72 73 40 35 53 cb 3f a2 c3 2b 40 d4 ce 30 40
       3.8038347 1.5884768 2.6838155 2.7626238
0000d0 5c 91 52 40 2c 54 5b 40 d2 8c 7a c0 72 1b 65 40
       3.290122 3.4270124 -3.914845 3.5798001
0000e0 d1 dd 7c 40 92 12 a1 40 54 99 be 40 2c 8d bb c1
       3.9510386 5.033517 5.956217 -23.443932
0000f0 4c 22 05 bf fe 64 a4 be 99 bc e4 be 4e fe d8 bd
       -0.5200546 -0.321083 -0.4467514 -0.1059538
000100 af a2 66 40 b2 fe 8c 40 52 b4 a1 40 29 8f ad 40
       3.6036794 4.4060907 5.0532618 5.4237256
000110 c4 50 c2 40 87 9a d9 be 5b 34 09 c0 f9 bc 0e c0
       6.072359 -0.42500708 -2.1438205 -2.230284
000120 32 a9 17 c0 50 76 2f c0 33 7a 33 40 40 1c 81 40
       -2.3697019 -2.7415962 2.8043334 4.0346985
000130 45 a2 81 40 ec 76 83 40 a3 31 86 40 7f 21 85 3f
       4.0510583 4.108267 4.193559 1.0400847
000140 47 5e 87 3c 9f 49 67 be fd 11 7a be fa cb 06 bf
       0.016524447 -0.22586678 -0.24420924 -0.52654994
000150 0a 73 2a c1 da f7 70 c0 af 8e 8c c0 79 f7 9b c0
       -10.653086 -3.7651277 -4.3924174 -4.873959
000160 26 e1 bd c0 50 59 b8 40 d2 94 69 40 98 ce 7f 40
       -5.933734 5.7609024 3.6497083 3.9969845
000170 79 42 86 40 3b ec 96 40 15 e3 03 c0 55 c4 32 40
       4.1956143 4.7163367 -2.060735 2.7932332
000180 54 48 2d 40 a7 ae 3e 40 58 4d 47 40 c2 3e f6 c0
       2.7075396 2.97941 3.1140957 -7.695161
000190 d0 62 1a 40 14 04 13 40 1d 2c 1a 40 ed 19 13 40
       2.412281 2.297124 2.4089425 2.2984574
0001a0 a7 86 73 c0 dd 6f c0 bf c2 0e d3 bf 06 80 bf bf
       -3.8050935 -1.5034138 -1.6488879 -1.4960945
0001b0 15 be b2 bf 72 2e d3 3f 8c 7b 8d 40 99 e1 95 40
       -1.3964258 1.6498549 4.4213314 4.683789
0001c0 50 20 96 40 38 b7 a0 40 bb 32 dd c0 46 8c 4f bd
       4.6914444 5.0223656 -6.9124427 -0.050670885
0001d0 5d c7 aa 3e 38 3e f6 3b 08 7d 70 3c 2d 38 39 c0
       0.33355227 0.0075147413 0.014678247 -2.8940537
0001e0 39 57 73 3f dc 11 63 3f d4 fb 4d 3f ea 26 43 3f
       0.95054966 0.88699126 0.80462384 0.76231253
0001f0 98 14 81 be 67 67 49 bf b2 73 13 bf 5b 72 1b bf
       -0.25211024 -0.78673404 -0.5759841 -0.6072137
000200 67 3f 9d be 82 d9 57 3f c1 3a 82 40 11 4b 77 40
       -0.30712435 0.84316266 4.069672 3.8639567
000210 16 f9 85 40 0d e2 7f 40 bb 6b 87 c0 42 d5 27 c0
       4.186656 3.998172 -4.2319007 -2.6223912
000220 07 6f 57 c0 aa 28 55 c0 45 35 87 c0 df e3 f2 3f
       -3.3661516 -3.330607 -4.2252526 1.8975791
000230 95 e3 2b c0 90 65 72 c0 5b 04 84 c0 40 e3 bc c0
       -2.6857655 -3.787449 -4.1255317 -5.9027405
000240 af 0f aa 40 d8 5b 26 3f c2 1d 2f 3f b3 17 fe 3e
       5.3144145 0.6498389 0.6840478 0.49627456
000250 13 ef 4c 3f f6 71 5d 40 bd 3f 48 40 29 a7 75 40
       0.800523 3.4600806 3.1288903 3.8383276
000260 95 74 87 40 c3 30 a9 40 d3 c7 71 c0 e2 fe d2 3f
       4.232981 5.2872024 -3.7778213 1.6484034
000270 f7 4f bd 3f f8 0d 9b 3f 76 9a 9a 3f 64 28 22 40
       1.4790028 1.2113638 1.2078388 2.5337152
000280 22 3c 2e 3f ed f2 38 3f 7d 87 30 3f 61 cc 24 3f
       0.68060505 0.72245675 0.6895674 0.6437436
000290 f9 3c 61 41 44 1e 8c 40 9c d0 8b 40 10 7a 8f 40
       14.077386 4.3786945 4.369215 4.48365
0002a0 93 19 93 40 64 cf 1d c1 30 cd 65 3f 20 db 35 3f
       4.596872 -9.863132 0.89766216 0.71037483
0002b0 2b f5 3b 3f b4 96 42 3f 7a b8 07 40 39 14 2b c0
       0.7342097 0.76011205 2.1206346 -2.6731093
0002c0 51 c3 30 c0 3c 67 3b c0 c1 fd 5a c0 88 6b 65 c0
       -2.7619212 -2.928176 -3.421738 -3.5846882
0002d0 8d 90 23 40 fe 95 22 40 cd 61 25 40 4e 39 2a 40
       2.5556977 2.5404048 2.5840943 2.6597476
0002e0 bd c2 26 3f 9e a7 af bf f6 1e 94 bf b1 e8 9d bf
       0.651409 -1.3723028 -1.1571949 -1.2336637
0002f0 9c e3 97 bf 08 b5 6c c1 58 8b 16 c0 b7 79 13 c0
       -1.1866336 -14.794197 -2.3522549 -2.304304
000300 1e 74 11 c0 d6 f2 17 c0 06 2e 7b 3f 7d 64 c8 be
       -2.2727122 -2.3741965 0.981171 -0.39139166
000310 2a 90 a2 be 45 c8 40 3e f3 2f 39 3b f5 22 09 c0
       -0.31750613 0.18826397 0.002825734 -2.1427586
000320 8f 16 fb bd 07 55 dd 3d 19 e2 a7 bd 3a 12 2c 3e
       -0.12260162 0.10807233 -0.081974216 0.16803828
000330 64 ee 1d 41 d1 db 67 40 4b 7b 66 40 31 c6 78 40
       9.870701 3.6227915 3.6012752 3.8870966
000340 9b 53 84 40 67 30 31 c1 39 90 93 3e 33 fd 3e 3e
       4.1352057 -11.074317 0.2882097 0.18651275
000350 62 9a ce 3e a9 c8 a6 bd 35 4a 96 c0 14 9d 41 3f
       0.4035216 -0.08143742 -4.6965585 0.7563031
000360 14 b3 85 3f f8 66 6d 3f 68 36 83 3f 97 aa a0 40
       1.0445275 0.9273524 1.0250978 5.020824
000370 a3 07 ee 3f 97 b2 0c 40 02 3d 1c 40 1a 10 2b 40
       1.859608 2.1984003 2.4412236 2.6728578
000380 96 1c 50 40 a5 21 39 40 cd 87 2f 40 b2 cb 38 40
       3.2517447 2.8926785 2.7426636 2.8874326
000390 12 76 36 40 4e 47 86 c0 39 dc 49 40 fa e8 4f 40
       2.8509564 -4.196204 3.1540663 3.2485948
0003a0 96 cc 57 40 e1 32 57 40 f9 59 08 c1 03 67 b4 3f
       3.371862 3.3624804 -8.521966 1.4093937
0003b0 15 c5 b8 3f 4f 4b a0 3f 93 e7 c4 3f 94 76 fa be
       1.4435145 1.2522982 1.5383171 -0.48918593
0003c0 95 b9 cf bd 4e f3 c9 3d e0 26 d1 3e c9 ce 1e 3f
       -0.10142819 0.0986086 0.40849972 0.6203428
0003d0 bf 13 49 c0 ac 9b 6a 40 eb 45 6a 40 a7 12 77 40
       -3.1418302 3.6657515 3.6605175 3.8605134
0003e0 e2 a8 77 40 16 7f 0d 3f 40 75 4b 40 8e c0 5a 40
       3.8696828 0.5527204 3.1790314 3.4180026
0003f0 dc 85 61 40 c8 2b 68 40 1b 04 de be 0f 56 4b 3f
       3.5237951 3.6276722 -0.43362507 0.7942819

weight_hh_l0 f4 [192, 64]
000000 45 2a 19 40 ee d2 01 40 40 61 a5 3e 09 88 65 bf
       2.393205 2.0284991 0.32300758 -0.896607
000010 28 4a 53 bf 6f b6 3f 40 3c 2b 1d be a6 ef 2c bf
       -0.8253503 2.9955099 -0.15348524 -0.67553174
000020 49 ed 98 bf 4d cc 1e bf c5 95 13 40 e8 d9 f8 bf
       -1.1947414 -0.6203049 2.3060162 -1.94415
000030 02 cf e7 be f6 b6 4a bf e5 a2 4e bf b8 67 3e 3e
       -0.45275122 -0.79185426 -0.8071731 0.18594253
000040 2d 54 26 40 28 2b e5 bf 38 d0 4a c0 dd 39 10 c0
       2.5988877 -1.7903795 -3.1689587 -2.2535317
000050 b0 37 9a be ba 02 86 3f 9e 76 ca 3f 28 9b 09 40
       -0.3012061 1.0469582 1.5817449 2.150095
000060 dd 76 b6 3f 05 9a dd bc fa d5 ae bf eb f1 81 bd
       1.4255024 -0.027050981 -1.365905 -0.0634497
000070 1a 94 e3 be a8 83 c5 3e a1 68 ec bf ce 6b c4 3e
       -0.4444893 0.38577008 -1.846943 0.38363498
000080 da 57 99 3f 4f a7 a7 3e e3 71 0e c0 d9 ee 04 40
       1.1979935 0.32744834 -2.225701 2.077078
000090 9f b0 f1 3f be 9f a1 3d 47 b0 52 3f 78 08 6a bc
       1.8882025 0.078917965 0.8230023 -0.014284246
0000a0 bb e9 ce be d3 8f e2 bf a2 6a 63 3f ec e1 3e 3f
       -0.40412697 -1.7700142 0.88834584 0.7456348
0000b0 51 15 15 bf fe 20 6c 3e 1b 19 5d bf 7e 32 17 bf
       -0.5823565 0.2305946 -0.8636643 -0.5906142
0000c0 c0 ae 82 3e 1a b9 45 40 3d 0a 5a 3f 47 e2 e2 3f
       0.2552395 3.0894227 0.8517187 1.7725304
0000d0 59 c0 96 be a7 7e 83 bf 29 5d fc bf 39 35 58 3f
       -0.29443625 -1.0273026 -1.971593 0.8445621
0000e0 46 3f 75 3c 7e d7 a2 bd f6 b4 22 40 75 2b 4d 3f
       0.014968699 -0.07951258 2.542295 0.80144435
0000f0 b1 5f fd bf 69 f0 4f 3e d7 96 a3 bf 19 1d 80 3f
       -1.9794828 0.20306553 -1.2780408 1.000888
000100 0a 2f b3 bf d8 3d 63 3e bf 29 35 c0 90 0b 95 be
       -1.399873 0.2219156 -2.830673 -0.29110384
000110 45 e3 3c bf a8 5e ae 3e 99 68 b9 3f 94 9c 43 bf
       -0.73784286 0.34056592 1.4485046 -0.76410794
000120 6a ee a9 3d ed bb 1d 3f 0a 1f 37 3f db b4 1f 3e
       0.08297427 0.61614877 0.71531737 0.15596335
000130 ed 40 98 bf a9 0b 89 bf 00 89 c2 bf 64 47 fd bf
       -1.1894814 -1.0706683 -1.5198059 -1.9787412
000140 5b 72 b2 bf 7e 96 11 3f d1 69 f6 3e 22 4f cb 3e
       -1.3941149 0.5687026 0.48127607 0.3970881
000150 7c 95 ad be bc a5 32 bf 2a 5f 3c bf d2 81 a8 40
       -0.3390311 -0.6978414 -0.7358271 5.265847
000160 94 ee 0b 3f 68 6a d5 bf dc b0 2d 3e b3 80 0b 3e
       0.54660916 -1.6673098 0.16961998 0.13623314
000170 6b de e9 3f 91 6a cf 3f f7 20 d7 3e 64 69 91 3f
       1.8271002 1.6204396 0.42017338 1.1360288
000180 51 6d 50 bf 74 63 a1 bf 72 6d f7 bf 79 64 f4 3f
       -0.81416804 -1.2608476 -1.9330275 1.9093162
000190 b1 f2 ba bf 2b 8f 52 c0 22 12 6f bf e2 83 b2 3f
       -1.4605314 -3.2899883 -0.93387043 1.3946497
0001a0 ec d4 ea 3c 38 df 42 3f 64 14 86 3e f3 a4 b3 3f
       0.028665982 0.76121855 0.26187432 1.4034714
0001b0 3f 2d 89 3d 54 59 d1 be 26 32 0b c0 45 b9 06 c0
       0.06698083 -0.40888464 -2.1749358 -2.105058
0001c0 79 fd df be 12 ee 0d 40 f5 b3 c1 3e b8 91 53 c0
       -0.43748072 2.2176557 0.3783261 -3.305769
0001d0 08 71 57 be fd 58 30 bf 22 26 08 c0 81 56 c3 bf
       -0.21039212 -0.68885785 -2.1273274 -1.5260774
0001e0 2a 6b 6b 3f fc ae d0 be fb 01 eb 3f 0a 48 96 bf
       0.91960394 -0.40758502 1.8359979 -1.1740735
0001f0 58 a7 df 3e 05 d3 35 c0 61 90 08 40 13 d3 0d 3f
       0.4368236 -2.8410046 2.1338122 0.554002
000200 55 b0 a0 c0 b4 c5 93 c0 b5 07 28 40 2e 27 6f 40
       -5.021525 -4.6178837 2.6254704 3.7367663
000210 eb 39 61 3e 16 67 a8 3f e7 a0 7f 40 e3 b2 de bf
       0.2199475 1.3156459 3.9941957 -1.7398342
000220 1d cd 05 40 df 28 04 40 a6 be 10 c0 38 66 67 40
       2.0906441 2.0649946 -2.2616363 3.615614
000230 9b 83 2b c0 72 a8 20 c0 aa 13 6a c0 25 55 7b c0
       -2.6799076 -2.510281 -3.6574502 -3.9270718
000240 1c 42 e9 bc af 5c f8 be 28 f7 42 40 a3 6f cd be
       -0.028473906 -0.48508212 3.0463352 -0.40124235
000250 3d 48 69 3f a4 e3 3b bf cd 04 80 c0 ea c7 58 40
       0.9112585 -0.7339423 -4.000586 3.3872018
000260 ee bf 6d 3f 83 83 9f bf 5d d9 3f 3f ac 48 32 bf
       0.92870986 -1.2462009 0.74941045 -0.6964214
000270 63 d4 86 bf 28 b0 a5 3f 12 df 30 3f a4 cc 03 40
       -1.0533565 1.2944384 0.6909038 2.0593653
000280 f6 30 f1 3d a7 05 cd 3f b5 16 72 bf aa e1 ac 3f
       0.11776917 1.601735 -0.945659 1.3506367
000290 72 b8 6b c0 2a 73 48 c0 08 25 5e 3f ed 8d 1a 40
       -3.6831326 -3.132029 0.86775255 2.4149125
0002a0 67 f3 7f bd 3a ca 30 40 31 b8 37 c0 46 7e 40 3f
       -0.062487986 2.762343 -2.8706172 0.7519268
0002b0 9b 90 08 3f 60 20 42 bf 5e dd 8d c0 1f eb a3 3f
       0.5334565 -0.7583065 -4.4332724 1.2806128
0002c0 ef 56 d1 bc 49 18 8e 3f 68 64 52 40 7a a8 27 bf
       -0.025554148 1.1101161 3.2873783 -0.6549145
0002d0 05 66 2d 3e 24 59 d7 3e cf 51 1a bf 31 f8 3e bf
       0.16933449 0.42060196 -0.6028108 -0.7459746
0002e0 29 37 eb 3d c0 d9 ce 3f 2e ea e4 be 3e 28 ab bd
       0.1148513 1.6160202 -0.44709915 -0.08357285
0002f0 a0 16 53 40 cd ff be 3d 6c c2 dc 3f eb 0b 14 c0
       3.298256 0.09326134 1.7246833 -2.3132274
000300 06 4f e3 be 90 6a 8d be df c3 c4 bf 3e 38 26 bf
       -0.44396228 -0.27620363 -1.5372275 -0.6492957
000310 68 07 ca 3e b7 f8 22 bf 3e 17 0e 40 6a 85 a7 bf
       0.39458776 -0.6366076 2.2201686 -1.308759
000320 5a 79 5d bf c0 c2 52 bf 0f df ec 3e ef 9f 2c 3f
       -0.8651329 -0.82328415 0.4626393 0.6743154
000330 15 c5 25 3f b0 12 64 bf b2 65 a2 bf 31 b8 30 c0
       0.6475385 -0.89091015 -1.2687285 -2.7612422
000340 68 99 71 bd 2d 0a e5 3d 98 a1 25 3f 58 8c aa be
       -0.05898419 0.111835815 0.646997 -0.333102
000350 9d 73 d3 3f 81 8c f1 be 47 31 df bf c3 03 d7 40
       1.6519657 -0.47177508 -1.7436913 6.719209
000360 73 27 a3 3f 5e 3f a1 be c6 b3 db 3f e2 24 cf be
       1.2746414 -0.31493658 1.7164237 -0.40457827
000370 b9 f0 e5 3f 68 41 b9 3e 8f 6d e7 3e 1b 9d 05 3e
       1.7964088 0.36182714 0.45200774 0.13048212
000380 33 cb cf bf dc 46 c6 3d ec b0 81 bd 56 bf 14 3f
       -1.6233886 0.09681484 -0.06332573 0.58104455
000390 ac 74 98 3d 8d dd b2 c0 72 6e f4 be 66 09 fd be
       0.074441284 -5.589545 -0.47740513 -0.49421233
0003a0 33 a8 2f bc cb 86 c9 3e 4a 71 b9 bf 80 97 a7 bd
       -0.010721254 0.3936065 -1.4487698 -0.08183193
0003b0 81 56 b0 bd 94 cd 45 c0 54 16 bb bf a1 97 27 be
       -0.08610249 -3.0906725 -1.4616189 -0.16366436
0003c0 2d b5 52 3f 58 b9 92 bd a1 fb e8 3f 84 45 97 3e
       0.823077 -0.07164258 1.8201791 0.29545224
0003d0 31 cf 51 40 a1 c4 b0 3f 13 4e 2b bf 6d d1 6f bf
       3.278271 1.3810006 -0.66916007 -0.93678933
0003e0 8b 8b 18 3f 11 00 a5 3e 39 2e 7b bf c1 7b 4a be
       0.59587926 0.32226613 -0.98117405 -0.19773771
0003f0 93 a8 fe 3e 49 f8 97 bf 19 77 e7 3f d5 e3 c5 3b
       0.49737987 -1.1872646 1.8083221 0.0060391226

bias_ih_l0 f4 [192]
000000 04 c8 b6 bf 85 c9 fe bf ca a5 2f bf 3e e8 e6 be
       -1.427979 -1.9905249 -0.6861235 -0.45099062
000010 80 be 89 3f 44 80 45 3f 97 e6 61 40 11 09 68 3f
       1.0761261 0.7714884 3.529699 0.90638834
000020 b2 5a 06 c0 ac 61 c6 3f 96 f1 45 c0 a2 4f db bf
       -2.0992856 1.5498557 -3.0928702 -1.7133677
000030 b6 11 05 c0 88 9b d1 3d a1 74 00 3f 96 4e 5f 3e
       -2.079206 0.10234743 0.5017796 0.21807322
000040 5f 31 f3 bc d2 37 18 be 8a ed b9 bf d0 c4 81 bf
       -0.029686628 -0.14865044 -1.4525616 -1.0138187
000050 12 27 24 bf f6 a5 69 bf 8b 18 8e bf 78 29 21 c0
       -0.64122117 -0.9126886 -1.110124 -2.518156
000060 08 12 3c 3f 63 dd c2 bf 44 8f ab be 7a a9 7b bf
       0.73465014 -1.5223812 -0.3350774 -0.98305476
000070 a6 7d 70 3e fd 56 13 3f ea 28 fe be 03 c7 b5 bd
       0.23485431 0.5755461 -0.4964059 -0.08875849
000080 cd 92 67 3f ba 17 37 bf a1 76 ed 3f 47 2b 45 be
       0.90458375 -0.7152058 1.8551828 -0.1925479
000090 59 4e a6 bf 09 d5 83 c0 24 fc aa bf 4b cc 89 3f
       -1.299266 -4.1197553 -1.3358197 1.076547
0000a0 f1 5d 8a 3f f4 52 fc be 54 c6 8c bf 76 09 bf 3f
       1.0809919 -0.49282038 -1.0998025 1.4924762
0000b0 ff d0 88 3f cd 71 d3 be a1 f3 b1 bf d8 a9 11 40
       1.068878 -0.4129776 -1.3902475 2.2759914
0000c0 5d 09 0f bf 83 9c 0a 40 80 30 01 bf 0f 28 50 3f
       -0.5587366 2.1658027 -0.5046463 0.81311125
0000d0 b5 5b 2f 3e eb 2c 5c bf 36 e2 f0 3f ed 59 6e 3e
       0.17124827 -0.8600604 1.8819034 0.23276491
0000e0 d0 0e 17 3f 89 90 7d bf 8f b2 d9 bf aa c4 ee bf
       0.5900698 -0.9904867 -1.7007617 -1.8653767
0000f0 50 24 f2 bf 0b bb d7 bf 36 69 6b be 21 ff f1 bf
       -1.8917332 -1.6853956 -0.22989354 -1.8905984
000100 c1 ee 4a bf bf 36 67 bf c7 ba 52 3f bd 8b fa bf
       -0.7927056 -0.9031791 0.8231625 -1.9573895
000110 7e 48 bd 3d 66 4c cd 3e d1 d9 f5 3f f8 0c 49 3e
       0.092423424 0.4009735 1.9207097 0.19633853
000120 41 41 04 bf cb 82 8c be 22 35 36 c0 67 20 f5 be
       -0.5166207 -0.27443537 -2.846993 -0.47876284
000130 b6 0e af 3f 38 f8 22 be e4 ff 1b c0 39 eb a9 3e
       1.3676364 -0.15915 -2.4374933 0.33187273
000140 f9 fe cb 3e ef fe a1 be 43 01 05 c0 4d 85 b0 bf
       0.39842966 -0.3163981 -2.078202 -1.379068
000150 bc 5b ef 3f fd 45 86 bf c3 d4 d5 bf 24 b9 05 c0
       1.869987 -1.0490109 -1.6705555 -2.089425
000160 78 57 a1 bf f9 d4 a0 bf cc 8d da bf 87 00 91 be
       -1.2604818 -1.2564994 -1.7074523 -0.28320715
000170 f5 0e d5 bf bc 05 6b bf e1 08 d8 bf 74 88 1a 3f
       -1.664519 -0.91805625 -1.687771 0.6036446
000180 37 83 89 3e 50 2d 67 bf 81 e1 2f bf 34 1d d2 be
       0.2685792 -0.90303516 -0.68703467 -0.41037905
000190 c7 71 6f bf 0e 56 46 3e 92 7d 18 40 dc 39 51 3f
       -0.93532985 0.19368765 2.3826642 0.8172891
0001a0 09 9a 92 3e ec 2d 0b c0 b7 8e 1d 3f 3c 0f 1e bf
       0.28633144 -2.1746778 0.6154589 -0.61741996
0001b0 c8 6b e6 3f 25 fd 06 bf 6a 68 99 bf 9a 4d e8 bf
       1.8001642 -0.5273002 -1.198499 -1.8148682
0001c0 eb 16 8d 3f 4e 14 91 bf 4b b4 ba bf 08 0e e5 be
       1.1022619 -1.1334321 -1.4586271 -0.44737267
0001d0 54 64 66 3f ed 54 e3 3f 74 cc 72 3e d3 2b d9 3f
       0.8999684 1.7760292 0.23710805 1.6966499
0001e0 2e 3d ef bf 67 ed 63 bf b8 1e ca be 23 05 44 3f
       -1.8690546 -0.8903412 -0.39476562 0.7657034
0001f0 cb fd 8f bf 45 18 33 3f 81 50 d4 bf ae 3a 67 bf
       -1.1249326 0.6995891 -1.6587068 -0.90323913
000200 f0 35 03 40 a2 4b bc 3f 46 76 a3 3f 80 e2 e8 bf
       2.050167 1.4710581 1.2770469 -1.8194122
000210 52 61 93 bb bf f2 c8 3f 10 f8 52 3f 34 75 5d 3f
       -0.0044976855 1.569908 0.82409763 0.8650696
000220 62 89 da bf a4 0a 43 bf 24 a4 f9 3f 00 bb c3 bf
       -1.7073176 -0.7618811 1.9503217 -1.5291443
000230 6f 2f a5 3f 52 ce 0c 40 34 3f 51 40 da 00 55 40
       1.29051 2.2000928 3.2694826 3.328177
000240 21 8d 8b bd c0 8d 35 3f 12 c2 cd bf 01 e9 0e 3f
       -0.068140276 0.7091942 -1.607485 0.55824286
000250 96 f8 3d 3f 58 64 cd 3f 5e e3 8f 3f a9 ec 81 c0
       0.7420744 1.6046247 1.1241262 -4.060139
000260 ff 81 06 40 f0 66 3f 40 82 d7 8d bf ae 52 f2 3f
       2.1016843 2.9906578 -1.1081393 1.8931482
000270 c4 2d d7 3f 65 ef a1 bf 54 6f b5 bf 8d fb f0 bf
       1.6810842 -1.2651182 -1.41746 -1.8826767
000280 1f 6b b8 bf e2 16 5d bf 17 a0 18 40 4d dd d3 bf
       -1.4407691 -0.8636304 2.384771 -1.6551911
000290 0d 75 f3 3f 49 88 67 40 5c 30 84 3f 8f eb cd bf
       1.9020096 3.6176932 1.0327258 -1.6087512
0002a0 36 c2 95 3f eb 52 9a bf ef b9 44 40 98 ed d9 bf
       1.1699893 -1.2056555 3.0738485 -1.7025633
0002b0 a0 cc c0 bf 41 42 1c 40 51 a3 e7 3f 9e 64 25 40
       -1.5062447 2.4415438 1.8096715 2.5842662
0002c0 73 9c 55 c0 c1 27 e8 bf b3 a1 1e c0 8f 0c 15 40
       -3.337674 -1.8137132 -2.4786193 2.3288915
0002d0 6e f6 14 c0 a2 66 dc 3f 9f 3c ca 3f 52 12 18 3f
       -2.3275409 1.7218821 1.579975 0.59402955
0002e0 d6 fd 1f 40 34 d1 56 bf 22 d0 1a 40 89 11 8d 3f
       2.499868 -0.8391297 2.4189534 1.1020976
0002f0 3c 31 c8 bf f0 25 52 bf 2b 02 38 c0 16 91 a3 3f
       -1.5640025 -0.8208914 -2.8751323 1.2778652

bias_hh_l0 f4 [192]
000000 a2 b5 cc bf 78 4e 03 c0 a9 54 3c bf 72 ec f9 be
       -1.599293 -2.0516644 -0.7356668 -0.48813206
000010 82 19 86 3f a8 01 3a 3f fb f2 60 40 f9 be 58 3f
       1.0476534 0.7265878 3.5148304 0.846664
000020 d6 2a f9 bf 5f fb bc 3f fb e2 49 c0 a4 e4 f5 bf
       -1.9466197 1.4764212 -3.1544788 -1.92104
000030 76 28 02 c0 6a 57 93 3d ba d8 f3 3e 16 bd 81 3e
       -2.0337195 0.07194407 0.47626287 0.25339574
000040 92 d2 8b be c6 63 a2 be 7b 3a d4 bf f8 a4 7e bf
       -0.2730909 -0.31716746 -1.6580347 -0.9947047
000050 14 3e 0b bf 35 46 6d bf e8 7d a6 bf 3e bd 2a c0
       -0.543916 -0.9268525 -1.3007174 -2.6678004
000060 5d 18 25 3f 84 de b6 bf 0c e9 f2 be a9 d0 87 bf
       0.644903 -1.4286656 -0.47443426 -1.0610553
000070 25 3a a2 3d 0b 28 fe 3e 80 40 2b bf 47 b8 a6 bc
       0.079212464 0.49639925 -0.66895294 -0.020351542
000080 ad c0 50 3f 37 e8 34 bf 34 35 e6 3f 7d 7f 39 be
       0.81544 -0.7066683 1.7984986 -0.18115039
000090 0e 1f a6 bf bc a4 81 c0 e7 2c ab bf b2 c9 70 3f
       -1.2978227 -4.051359 -1.3373078 0.9405776
0000a0 13 4e 93 3f b1 2e 07 bf 44 84 84 bf 41 b8 cf 3f
       1.1508201 -0.5280562 -1.0352864 1.6228105
0000b0 87 f6 91 3f a7 bb c2 be 2b b5 ad bf ab 7f 18 40
       1.1403359 -0.38033792 -1.3570913 2.3827922
0000c0 66 90 fd be c8 8d 13 40 c8 71 fa be b5 32 56 3f
       -0.4952423 2.3055286 -0.48914933 0.8367112
0000d0 38 64 51 3e 6d 11 7a bf bb cd ea 3f 3d 17 41 3e
       0.20448387 -0.9768284 1.8344034 0.18856521
0000e0 0a c8 1b 3f 18 23 76 bf f2 66 c4 bf cd 40 dc bf
       0.6085211 -0.961473 -1.5343916 -1.7207276
0000f0 c4 ac ef bf a9 ff ea bf 59 a6 83 be a5 e3 fa bf
       -1.8724599 -1.8359271 -0.2571285 -1.9600722
000100 dc 4c 4d bf d2 6f 5d bf fb eb 2c 3f a7 46 08 c0
       -0.80195403 -0.8649875 0.6754758 -2.1293123
000110 ea 80 19 3e 38 e1 c3 3e 1e 9b dd 3f 0b a1 a6 3e
       0.14990583 0.38257766 1.7312963 0.3254474
000120 f8 44 29 bf b8 81 7d be ad 60 38 c0 7c 61 c6 be
       -0.6612086 -0.24756515 -2.8809006 -0.3874625
000130 83 54 ab 3f 88 fc 8e 3c 06 d7 1c c0 df 6d 5f 3e
       1.3385166 0.0174544 -2.450624 0.21819256
000140 be 5b 15 3f 55 1c 73 be 62 28 00 c0 ee 3d a6 bf
       0.5834311 -0.23741277 -2.0024648 -1.298765
000150 fc 11 ee 3f d3 cb 93 bf 54 68 ba bf 81 c3 02 c0
       1.8599238 -1.1546577 -1.4563088 -2.0431826
000160 e3 d5 aa bf 06 a5 95 bf 71 e6 dc bf 97 0c 9f be
       -1.3346523 -1.1690986 -1.7257825 -0.31064293
000170 4d 9b bb bf 35 7a 85 bf 1b c1 d0 bf 97 4d f5 3e
       -1.4656769 -1.042792 -1.6308931 0.4791076
000180 0a 71 91 3e 6e 9c 73 bf 7c 5c 21 bf d1 d4 cd be
       0.28406554 -0.9516057 -0.63031745 -0.4020143
000190 eb a6 8f bf 56 cd 68 3e 10 1c 18 40 72 c0 3c 3f
       -1.1222814 0.2273458 2.3767128 0.7373115
0001a0 6c b2 4a 3e 7d 76 10 c0 78 b0 24 3f eb 3f 29 bf
       0.19794625 -2.257232 0.6433177 -0.66113156
0001b0 79 3c eb 3f 5f 9c 18 bf 90 a6 af bf f3 b7 e6 bf
       1.837783 -0.59613603 -1.3722706 -1.8024887
0001c0 f4 dc 80 3f bd 7b 77 bf e6 db ba bf 82 04 db be
       1.006743 -0.96673185 -1.4598358 -0.42776877
0001d0 2d d4 56 3f 75 f6 e3 3f 0d 6c 8b 3e b8 f1 d9 3f
       0.83917505 1.7809588 0.27230874 1.7026892
0001e0 60 30 d6 bf c4 9f 85 bf 60 7b c2 be 91 0c 2a 3f
       -1.6733513 -1.0439382 -0.37984753 0.66425425
0001f0 85 c8 82 bf b7 56 1f 3f aa 5a c7 bf 0b a8 6f bf
       -1.0217444 0.6224169 -1.5574543 -0.9361579
000200 e7 40 32 bf 11 25 44 3f d1 ee 60 3d 01 49 49 bd
       -0.69630283 0.7661906 0.054915253 -0.049141888
000210 9b 25 ae bf 66 2f e3 3f f7 4c 71 3f 5d 07 17 40
       -1.3605226 1.774884 0.94258064 2.3598244
000220 cd bf 34 bf 3f 2c 0c c0 8a 95 54 bf c3 ce c3 bf
       -0.70605165 -2.1902006 -0.8304068 -1.5297474
000230 0e ea cc 3e fe 0e dd bf 70 09 cc 3f 34 3f c5 3e
       0.4002232 -1.72702 1.594038 0.38524783
000240 18 90 1d be 27 9f f7 3f 83 8f 02 c0 f2 ec c3 bc
       -0.15386999 1.9345444 -2.0400093 -0.023916695
000250 5d 38 1b be da da 98 3e bc 14 d2 3f 6b 31 97 be
       -0.1515822 0.2985447 1.6412578 -0.2952989
000260 71 ba c7 3f d4 0f 91 bc b5 bf 0e bf 59 de 5c 3d
       1.5603772 -0.017707743 -0.5576127 0.053922985
000270 7e 8b 3c bf 36 8d 25 c0 33 25 2a bf ad 5f 29 bf
       -0.7365035 -2.5867438 -0.6646301 -0.66161615
000280 e4 ca 05 40 ec 04 fd bf 8f cb 20 40 9a d4 95 3f
       2.0905085 -1.9767127 2.5124242 1.1705506
000290 76 b7 28 bf c6 60 db bc 5d 14 8b bf ec e7 f8 3f
       -0.6590494 -0.026779544 -1.0865589 1.9445777
0002a0 75 fc 50 3f 53 e4 10 c0 59 da 0b 3f 4f 01 be bf
       0.8163522 -2.2639358 0.5463005 -1.4844149
0002b0 78 cc 03 40 cf 32 09 c0 d3 1d 04 40 f1 c9 5a 40
       2.0593548 -2.143726 2.0643203 3.4185755
0002c0 81 22 9f 3f 59 81 e7 bf 97 e3 93 be 39 46 43 3f
       1.2432405 -1.8086349 -0.28884575 0.76279026
0002d0 cd 3b 53 bf 50 4c 2c 3d 74 11 7a 3f a2 b3 39 bf
       -0.82513124 0.042064965 0.9768288 -0.7253972
0002e0 4d 31 d7 3f 9f 6d be bf a3 40 24 40 b8 fe 85 bf
       1.681192 -1.4877204 2.566445 -1.0468359
0002f0 96 1b a3 bf af c5 5b 3f 98 08 bd bf 0d 0c f2 be
       -1.2742794 0.85848516 -1.4768248 -0.4727482

weight f4 [1, 64]
000000 03 0f f0 c1 2a 5d 08 c2 f6 90 2f 42 80 3d e7 41
       -30.00733 -34.09098 43.891563 28.90503
000010 11 3f 2b c2 6a aa 59 c2 74 9d 31 c2 2b 8c 1d 42
       -42.81159 -54.41642 -44.403763 39.386883
000020 5d ff 49 42 65 18 c0 41 e1 a1 37 c2 59 cf 1b 42
       50.49938 24.011911 -45.908085 38.952488
000030 f8 7a 17 42 ed 77 30 c2 33 ae b3 c1 a3 b1 0e c2
       37.870087 -44.117115 -22.460058 -35.673473
000040 26 6e 34 42 f2 9a eb c1 47 6c 0d 42 31 aa 92 41
       45.107567 -29.450657 35.35574 18.333101
000050 a6 5e cf 41 52 03 f3 41 c8 32 fa c1 7a 4c 8d 41
       25.921215 30.376621 -31.274796 17.662342
000060 7e 96 f6 c1 1c a2 2d 42 e5 e5 3a 42 9b 51 3a c2
       -30.823483 43.40831 46.724506 -46.579693
000070 2c cf 02 c2 e6 58 2c c2 02 95 46 42 c3 51 2f c2
       -32.702316 -43.086815 49.645515 -43.829845
000080 8a 3c 2c 42 c2 fd 5a 42 92 e1 34 42 53 f4 69 c1
       43.05912 54.74781 45.220284 -14.622149
000090 bb b2 10 c2 8a 9f ce c1 22 b2 3d 42 68 c5 b5 c1
       -36.17454 -25.8279 47.423958 -22.72139
0000a0 98 b5 27 42 8f 07 d5 41 d9 35 6b c1 91 65 1b c2
       41.927338 26.62869 -14.700646 -38.849186
0000b0 56 a5 18 c2 d8 d5 0d c2 d2 60 00 c2 f9 c8 e5 41
       -38.16146 -35.45883 -32.09455 28.723131
0000c0 f5 55 32 c2 b3 d3 00 c2 3f 80 3a 42 49 cd 15 42
       -44.583942 -32.206738 46.62524 37.450474
0000d0 60 5e 0a c2 d9 3b 42 c2 7d e7 22 42 f0 74 4b c2
       -34.592163 -48.558445 40.726063 -50.864197
0000e0 4a cd 41 c2 27 b6 58 42 02 2a ab c1 6b 86 3c 42
       -48.450478 54.177883 -21.395512 47.131268
0000f0 8c 75 07 42 c5 23 58 42 3f 6e 4b 42 b3 e0 2d c2
       33.86479 54.03493 50.857662 -43.469433
