GRU/models/test_1001.pth (torch, 58146 bytes, 5 tensors)

weight_ih_l0 f4 [192, 5]
0	0x401c1c3b	2.439223
1	0x4026d4d3	2.6067398
2	0x403e7e02	2.976441
3	0x40560e9a	3.3446412
4	0xc09a412a	-4.8204546
5	0x400a2b34	2.158887
6	0x40150b52	2.328816
7	0x40339011	2.805668
8	0x40517785	3.27292
9	0xc0d0647b	-6.5122657
10	0x3fbe782a	1.4880421
11	0x3fcb96d0	1.5905399
12	0x3fbd8da6	1.4808853
13	0x3fc96bca	1.573602
14	0xbdf77f6b	-0.1208485
15	0x3ff46529	1.9093372
16	0x40099e39	2.1502821
17	0x3ff8ea78	1.9446554
18	0x400b1c71	2.173611
19	0xbf2e7637	-0.6814913
20	0x3f586b2b	0.84538525
21	0x3f62ac4f	0.8854417
22	0x3f858dbd	1.043388
23	0x3f4a4aac	0.7902019
24	0x3f26d045	0.65161544
25	0x403a77d0	2.9135628
26	0x40350a5d	2.8287575
27	0x4041f228	3.030405
28	0x403c50a6	2.9424224
29	0xc08ee4d2	-4.465432
30	0x4066efc5	3.6083844
31	0x40735134	3.8018312
32	0x4074ade9	3.8231146
33	0x4080b24b	4.0217643
34	0x40966585	4.6998925
35	0x3f3c325c	0.7351434
36	0x3f6e81bb	0.93166703
37	0x3f4df7d1	0.8045626
38	0x3f7a515b	0.9778039
39	0x3fc61288	1.5474405
40	0x403ccff3	2.9501922
41	0x40391e47	2.892473
42	0x405f2d70	3.4871483
43	0x407182fa	3.7736192
44	0xc12dd229	-10.863809
45	0xbe36b88b	-0.17843835
46	0x3daab203	0.08334734
47	0x3d84c297	0.064824276
48	0x3e891459	0.26773337
49	0xbf01aa3f	-0.506504
50	0x4010616c	2.2559462
51	0x4018ddc2	2.388535
52	0x40316254	2.7716265
53	0x403b91a2	2.9307637
54	0xc0071ed9	-2.1112578
55	0x4018b147	2.3858202
56	0x402e0448	2.7190113
57	0x4056e931	3.3579829
58	0x4088a2a4	4.2698536
59	0xc11c46ed	-9.767316
60	0xbf4bae3b	-0.7956273
61	0xbf1fa011	-0.62353617
62	0xbf2320d4	-0.63721967
63	0xbee01220	-0.43763828
64	0x3ede57ee	0.4342646
65	0x4044e200	3.076294
66	0x406beee2	3.6864552
67	0x407f518f	3.989353
68	0x4092840c	4.578619
69	0xc0086957	-2.1314294
70	0xc0033f19	-2.0507262
71	0xc00c852a	-2.1956277
72	0xc0122b6a	-2.2838998
73	0xc02c572b	-2.6928203
74	0x3fc0d243	1.5064167
75	0x4064b223	3.5733726
76	0x405e04b7	3.4690378
77	0x40668275	3.6017125
78	0x4068539b	3.6301029
79	0xc075db4f	-3.8415105
80	0xbe80ffc0	-0.25195122
81	0xbef2fa9c	-0.47456825
82	0xbf0c0a3f	-0.54703134
83	0xbf492f84	-0.7858813
84	0xbfd7690b	-1.6828932
85	0xc032f8f5	-2.7964451
86	0xc03ba8a4	-2.932168
87	0xc03fb2f5	-2.9952977
88	0xc04ee861	-3.2329333
89	0xbe018822	-0.12649587
90	0x403147f7	2.7700174
91	0x4033efa8	2.8115025
92	0x403cbe57	2.9491174
93	0x404e41b3	3.22276
94	0xbfdcdce6	-1.7254913
95	0x3fd7eb9b	1.6868776
96	0x3fd235a9	1.6422626
97	0x3ff84a48	1.9397669
98	0x40065fdb	2.0996006
99	0xc06d85fd	-3.711303
100	0x400abab0	2.1676445
101	0x4007bf98	2.121069
102	0x400d9839	2.212416
103	0x40082232	2.127087
104	0x4074d5b5	3.8255436
105	0xbf41fc16	-0.7577528
106	0xbf690b26	-0.91032636
107	0xbf3e53ac	-0.74346423
108	0xbf34b5a6	-0.70589674
109	0xbd1c0539	-0.03809092
110	0x402be076	2.685575
111	0x402d1194	2.704198
112	0x402da9a1	2.7134783
113	0x403a0231	2.9063838
114	0xc0c6d102	-6.2130136
115	0x3facca1c	1.3499179
116	0x3f9a172e	1.2038324
117	0x3fb45586	1.40886
118	0x3fbb8f0d	1.4653031
119	0xc0b053a4	-5.51021
120	0xbe09e71b	-0.13467066
121	0xbe689476	-0.22712883
122	0xbeaf6f93	-0.34264812
123	0xbebbf176	-0.36707658
124	0xbe8efe4f	-0.27928397
125	0x3f1ad416	0.6047987
126	0x3f38682c	0.72033954
127	0x3f2f4714	0.6846783
128	0x3f638a43	0.88882846
129	0x401da734	2.4633303
130	0x4033759c	2.8040533
131	0x402bfe99	2.6874144
132	0x40351238	2.829237
133	0x40359a64	2.8375483
134	0xc00bb69d	-2.1830208
135	0xbf989487	-1.1920327
136	0xbfd449bd	-1.6585003
137	0xbfd11e6a	-1.6337407
138	0xc00ac9ce	-2.1685672
139	0x3fbe8d25	1.4886824
140	0xbfb61507	-1.4225167
141	0xbfdb04e7	-1.7110871
142	0xbfed7e3b	-1.8554147
143	0xc026a7c2	-2.6039891
144	0x409d799e	4.921096
145	0x3f7f3509	0.996903
146	0x3f7972c2	0.9744073
147	0x3f54a645	0.8306621
148	0x3f881a21	1.0632974
149	0x40aa78b2	5.3272333
150	0x3ff70abd	1.9300152
151	0x40238855	2.555196
152	0x4038efa6	2.889627
153	0x40795736	3.895948
154	0xc0e1511a	-7.04115
155	0x3f6abeb9	0.9169727
156	0x3f49b54d	0.7879227
157	0x3f2ed767	0.6829743
158	0x3f1499b3	0.58047026
159	0x40590911	3.3911784
160	0x3f05174b	0.5198867
161	0x3ec761d8	0.38941836
162	0x3eb5f829	0.35540894
163	0x3e8c327b	0.27382264
164	0x3f532c6c	0.8248966
165	0x403a3f52	2.9101148
166	0x403623e3	2.8459404
167	0x4038befa	2.8866563
168	0x40400583	3.0003364
169	0xc11280dd	-9.156461
170	0x3ff64a2c	1.9241385
171	0x3fe196fb	1.76242
172	0x3fe8afb4	1.817862
173	0x3fe91330	1.820898
174	0x40775dfa	3.8651109
175	0xc006d659	-2.1068327
176	0xc00bf180	-2.186615
177	0xc017a62b	-2.369517
178	0xc036e84b	-2.857928
179	0x3e740d17	0.23833118
180	0x3fba4a78	1.4553976
181	0x3fbbd15a	1.4673264
182	0x3fc98701	1.5744325
183	0x3fcffebd	1.6249615
184	0xc0a79c68	-5.2378426
185	0x3f55bc36	0.8349031
186	0x3f8bdc52	1.0926611
187	0x3f7b1b1e	0.9808825
188	0x3f8fbf0d	1.1230179
189	0xc0b87363	-5.7640853
190	0xbf89e7a2	-1.0773814
191	0xbf81fb83	-1.015488
192	0xbf77b90c	-0.96766734
193	0xbf8a1661	-1.078808
194	0x3f21d46a	0.63214743
195	0xbe6f1fbf	-0.23351954
196	0xbe806e6d	-0.25084248
197	0x3dca3c16	0.09874742
198	0xbd587821	-0.05284894
199	0xbfa10669	-1.2580081
200	0x3f22e903	0.636368
201	0x3f47273d	0.7779425
202	0x3f2cd037	0.6750521
203	0x3f497fa7	0.78710407
204	0x4081cc2d	4.056174
205	0x4041cbca	3.0280633
206	0x403ff2d8	2.999197
207	0x404a61b0	3.1622124
208	0x405991f5	3.3995335
209	0xc0cf7e63	-6.484178
210	0x3f917509	1.1363841
211	0x3f5507a1	0.83214766
212	0x3f816b48	1.0110865
213	0x3ee0f678	0.4393804
214	0xc09a67d3	-4.825174
215	0x3fd48152	1.6601965
216	0x3fea5848	1.8308191
217	0x3fdfe0fb	1.7490534
218	0x3fde4ff3	1.7368149
219	0x3f847120	1.0347023
220	0x3f9693d7	1.1763867
221	0x3fc12bf6	1.5091541
222	0x3fdae5f7	1.710143
223	0x3ff6c05f	1.9277457
224	0x3ebc111e	0.3673181
225	0x4039c783	2.9028022
226	0x40337ee7	2.8046205
227	0x403b9e26	2.9315276
228	0x403aa4e0	2.9163132
229	0xc097cc71	-4.743706
230	0x402e3c4f	2.722431
231	0x40359565	2.8372433
232	0x4037e25a	2.8731904
233	0x4039187c	2.8921194
234	0xc0d9dd04	-6.8082294
235	0xbc153945	-0.009107892
236	0xbd89bc0f	-0.067253225
237	0xbe7e729b	-0.24848406
238	0xbd00c2a2	-0.031435616
239	0xbfe7fdd1	-1.8124334
240	0x3e379884	0.17929274
241	0x3ed8375f	0.42229745
242	0x3f331d81	0.69966894
243	0x3f6e5d04	0.9311068
244	0xc0b6bff7	-5.710933
245	0x4003ec8d	2.061313
246	0x40071e73	2.1112335
247	0x400f26ef	2.2367513
248	0x4011eb6b	2.2799938
249	0x3f5d6488	0.86481524
250	0x400a7102	2.1631474
251	0x401710bb	2.3603961
252	0x401ca9fc	2.447875
253	0x4020effb	2.5146472
254	0x3ee38358	0.44436145
255	0x3e8799a8	0.26484418

weight_hh_l0 f4 [192, 64]
0	0x3f1621e6	0.58645475
1	0x3effa039	0.49926928
2	0xbfab4c86	-1.3382728
3	0x3d698379	0.057010148
4	0xbd535fc7	-0.051605012
5	0x3fb59f61	1.4189264
6	0x3f2821b4	0.65676427
7	0xbf71e7be	-0.94494236
8	0x3ee1b57b	0.4408377
9	0xbf08a03d	-0.53369504
10	0x3e87ba8d	0.26509514
11	0xbed758fd	-0.4206008
12	0xbf8fb4d3	-1.1227058
13	0xbf4901fd	-0.7851866
14	0xbfbaa587	-1.4581765
15	0xbf005711	-0.5013285
16	0x3fee5118	1.8618498
17	0x3e5e7998	0.21726072
18	0xbef65e38	-0.48118758
19	0xbd510c60	-0.051037192
20	0xbd784c9e	-0.060619943
21	0x3eeb4e7f	0.45958325
22	0xbef96601	-0.48710635
23	0x3fc76a84	1.5579381
24	0xbf6107e2	-0.87902653
25	0xbe6a870a	-0.22903076
26	0xbf1fcda2	-0.62423146
27	0x3e523f9e	0.2053208
28	0xbf9c5b73	-1.2215408
29	0x3e274790	0.16335893
30	0x3d529fe1	0.051422004
31	0x3e13e1b5	0.14441569
32	0x3e416049	0.18884386
33	0x3f127c4e	0.57220924
34	0xbefec4a5	-0.49759403
35	0x3fa27d07	1.2694405
36	0x3f3d3360	0.7390652
37	0xbeac2499	-0.33621672
38	0xbea085d8	-0.31352115
39	0x3ec7ed94	0.39048445
40	0xbe9213c4	-0.28530705
41	0xbf3fa27e	-0.7485732
42	0xbeaf1c79	-0.3420141
43	0x3f7ed81b	0.995485
44	0x3d63583f	0.05550408
45	0x3e71a844	0.23599344
46	0xbf42477c	-0.75890326
47	0xbf87327e	-1.0562284
48	0x3f585f86	0.8452076
49	0x4006eafd	2.1080925
50	0x3ed8b71c	0.423272
51	0xbf35c8f9	-0.71009785
52	0xbe535d05	-0.20640953
53	0x3f3a1272	0.72684395
54	0xbf95a405	-1.169068
55	0xbb1c556d	-0.0023854629
56	0x3fa5fb71	1.2967359
57	0xbf0342a4	-0.5127356
58	0x3fc66cd5	1.5501963
59	0x3ea1bb59	0.31588247
60	0xbf5766ad	-0.84141046
61	0x3f40ffe7	0.75390476
62	0xbc34f57c	-0.011044856
63	0xbf06d741	-0.526722
64	0x3dc2ca2e	0.09511219
65	0x3f0cd30e	0.55009544
66	0xbf809249	-1.0044643
67	0x3ea4b53f	0.3216953
68	0x3e5b3393	0.21406393
69	0x3f573141	0.8405953
70	0x3dd72afb	0.10506245
71	0xbecfc0e4	-0.4057685
72	0x3e3cf622	0.18453267
73	0xbe71635e	-0.23573062
74	0x3d43b98d	0.047784377
75	0xbef4cf65	-0.4781448
76	0xbf922dc2	-1.1420214
77	0xbf234fa3	-0.6379339
78	0x3ed96236	0.42457741
79	0xbfab6b46	-1.3392112
80	0x3f3fa147	0.74855465
81	0x3f3dcba7	0.74138874
82	0x3dcd5666	0.10026245
83	0xbec49308	-0.38393426
84	0xbf39d688	-0.72592974
85	0xbef7bc38	-0.48385787
86	0xbface194	-1.3506341
87	0x3fdc632e	1.7217767
88	0x3e354d96	0.17705378
89	0xbf5cf656	-0.8631338
90	0x3f39865a	0.7247063
91	0x3ea84f95	0.32873216
92	0x3e416da8	0.18889487
93	0x3f1cf5ae	0.6131238
94	0x3e25ef77	0.1620463
95	0x3e8aa473	0.2707859
96	0xbe0509cc	-0.12992018
97	0xbd901e4f	-0.07037031
98	0xbf80f793	-1.0075554
99	0xbd907f55	-0.07055537
100	0x3e79183d	0.24325652
101	0xbe73b9fe	-0.23801419
102	0xbecf140f	-0.4044499
103	0x3e772a55	0.24137242
104	0xbf484889	-0.7823568
105	0xbdcba3dc	-0.09943363
106	0xbf20500e	-0.62622154
107	0x3f78301c	0.9694841
108	0x3f1bccca	0.6085936
109	0xbf0062e9	-0.50150925
110	0xbf5f7358	-0.87285376
111	0xbff470d0	-1.9096928
112	0x3f0013cf	0.50030226
113	0x3fdc9283	1.7232212
114	0x3f6dbf9b	0.9287049
115	0xbee8d8bf	-0.45477864
116	0xbf46ca9f	-0.77652925
117	0x3f90a209	1.1299449
118	0xbfe157de	-1.760494
119	0x3eb2225b	0.34791836
120	0x3f9986a1	1.199421
121	0x3e2d78f2	0.16940668
122	0x3f84dabc	1.0379252
123	0xbc2536d3	-0.010083872
124	0xbf6af255	-0.9177602
125	0xbedd12cd	-0.43178406
126	0x3ee6488f	0.44977233
127	0xbe0963ea	-0.1341702
128	0xbfa7d763	-1.3112606
129	0xbfcdf7fe	-1.6091306
130	0x3ec5cc08	0.38632226
131	0x3ffadaac	1.9597983
132	0xbd96e94e	-0.07368718
133	0xbf1087ab	-0.5645701
134	0x3f754b14	0.95817685
135	0x3b8f9565	0.004381823
136	0x3f8f13bd	1.1177899
137	0x3f4640bc	0.77442527
138	0xbfeecd2b	-1.8656362
139	0x3f88757c	1.0660853
140	0xbe09e17e	-0.13464925
141	0xbfa95798	-1.3229856
142	0xbfc0959c	-1.5045657
143	0xc03a4eb0	-2.9110527
144	0x3f3db0e2	0.74098027
145	0xbf8cc885	-1.0998694
146	0x3f4a3876	0.789924
147	0x3f407a67	0.7518677
148	0x3f462857	0.77405304
149	0x3e447d51	0.1918843
150	0xbfb70edd	-1.4301411
151	0x3f9ca833	1.223883
152	0x3ed9e1d6	0.42555112
153	0x3eb2c93a	0.3491915
154	0x3f6b1c1b	0.9183976
155	0x3e71d4c3	0.23616318
156	0xbebba140	-0.3664646
157	0xbe09490f	-0.13406776
158	0x3f12d1a9	0.57351166
159	0x3cdc08f3	0.026859736
160	0x3e6a4ec2	0.22881606
161	0x401c88d8	2.4458523
162	0x3f0cf695	0.55063754
163	0xbed2818f	-0.4111447
164	0xbed5aa79	-0.41731623
165	0xbfa88050	-1.3164158
166	0x40014f24	2.0204554
167	0x3fae4beb	1.3616918
168	0x3f927def	1.1444682
169	0x3f45b0c9	0.7722288
170	0xc001a3db	-2.025626
171	0x3e7fc3f0	0.24977088
172	0xbf8ff206	-1.1245735
173	0xbf85abb7	-1.0443028
174	0xbf99ecd0	-1.2025394
175	0x3fed4f6c	1.8539863
176	0xbea30dd9	-0.31846502
177	0xbf316e4a	-0.6930891
178	0x3fe1290a	1.7590649
179	0x3e2f1b04	0.1710015
180	0xbf061f6f	-0.52391714
181	0x3f056504	0.5210726
182	0x3e9df55d	0.3085126
183	0xbf55877f	-0.83409876
184	0x3f206b56	0.6266378
185	0x3fa57afc	1.2928157
186	0x3e605967	0.21909104
187	0x3fb0a9a8	1.3801775
188	0x3eb1788b	0.3466228
189	0x3e898550	0.26859522
190	0x3f99a70a	1.2004101
191	0xbfd9e165	-1.702191
192	0x3f27783d	0.65417844
193	0x3f43ad28	0.7643609
194	0xbfa1f364	-1.2652402
195	0x3d983e6e	0.074337825
196	0x3f6b83be	0.919979
197	0xbe416613	-0.18886594
198	0x40340a98	2.8131466
199	0xbf74df68	-0.9565339
200	0xbfb34e30	-1.4008236
201	0xbfbe3cf9	-1.4862357
202	0x3f3c9c0d	0.73675615
203	0xbf3e8986	-0.74428594
204	0xbf04bc93	-0.5185024
205	0x3ed1898f	0.4092526
206	0xbf85821a	-1.0430329
207	0xc00306f1	-2.0472987
208	0x3f77fc63	0.96869487
209	0xbdf38022	-0.11889674
210	0xbf024d85	-0.50899535
211	0xbf7cbc6b	-0.98725003
212	0xbed783ae	-0.4209265
213	0xbf968569	-1.1759464
214	0xbec9871b	-0.3936089
215	0x3f908a88	1.1292276
216	0x3f15cc2b	0.5851466
217	0xbf30b847	-0.69031185
218	0x3f24ace0	0.64326286
219	0x3f51f688	0.820168
220	0x40057bec	2.0856886
221	0x3f25bdc8	0.6474271
222	0xbf15626d	-0.5835331
223	0x3f3eeb47	0.74577755
224	0xbfaf99bf	-1.3718795
225	0xbe9e01d5	-0.30860773
226	0xbee247b1	-0.4419532
227	0x3dec9b15	0.11553017
228	0x3f86ab0d	1.052095
229	0xbe49d81b	-0.19711344
230	0xbc07bc9a	-0.008284712
231	0xbe0cd947	-0.1375476
232	0xbf0198a5	-0.5062354
233	0xbf07d8c3	-0.5306513
234	0x3eb85896	0.36005086
235	0x3f1b1ad1	0.60587794
236	0x3e4bfdfd	0.19921108
237	0xbf36c177	-0.71388954
238	0x3e07141d	0.13191266
239	0xbf23bd09	-0.6396032
240	0x3fda690e	1.706331
241	0x3ec368db	0.38165936
242	0x3e9ca020	0.30590916
243	0xbe8c77ac	-0.27435052
244	0x4017a69c	2.369544
245	0x400fd50e	2.2473788
246	0xbf2156dd	-0.6302317
247	0x3f278709	0.6544042
248	0x3fe0b93d	1.755653
249	0xbec148fe	-0.37751
250	0xbdbdcc66	-0.092675015
251	0xbea2844b	-0.31741557
252	0xbf2d3cd6	-0.67670953
253	0xbf3ed10f	-0.7453775
254	0x3eead826	0.45868033
255	0x3fc647b2	1.549063

bias_ih_l0 f4 [192]
0	0xbf45cccf	-0.7726564
1	0xbf8bc6f7	-1.0920094
2	0x3ef78ebf	0.48351094
3	0xbf2af3f5	-0.667785
4	0x3fb97de2	1.4491541
5	0x3ea4e56f	0.32206294
6	0x4035442f	2.8322866
7	0x3fd43a10	1.6580219
8	0xbf5a198b	-0.85195225
9	0xbea023a1	-0.31277183
10	0xbfc212d1	-1.5161992
11	0xbf63e5cf	-0.89022535
12	0xbf62b240	-0.8855324
13	0xbe69942e	-0.22810432
14	0x3d9151b4	0.07095662
15	0x3e9417e2	0.2892447
16	0x3e74bf4b	0.23901097
17	0xbe415dd7	-0.18883453
18	0xbf6cbeeb	-0.9247882
19	0xbf8c3a28	-1.0955248
20	0xbde003b2	-0.10938205
21	0xbf461aa4	-0.773844
22	0xbf86fc04	-1.0545659
23	0xbfcbec42	-1.5931475
24	0x3d23b938	0.03997156
25	0x3fac8c36	1.3480289
26	0xbf42424f	-0.7588243
27	0xbe60e1d8	-0.21961153
28	0x3f46b473	0.77619094
29	0x3fdae3a0	1.7100716
30	0xbf841b14	-1.0320764
31	0x3f85f8ff	1.0466613
32	0x3f49dd49	0.7885328
33	0xbfa2705e	-1.2690542
34	0x40495baa	3.1462197
35	0xbebc5a32	-0.36787564
36	0xbfda0cf8	-1.7035208
37	0xbfc413a9	-1.53185
38	0xbf804352	-1.0020545
39	0x3f85b37f	1.0445403
40	0x3fc207b9	1.5158607
41	0xbcd88bba	-0.026433814
42	0xbe3c1e17	-0.18370853
43	0x3f95ba55	1.1697489
44	0x3f6face9	0.93623215
45	0xbefa2a5f	-0.48860452
46	0xbf811a1e	-1.0086095
47	0x3f33c3ad	0.7022045
48	0xbee57da5	-0.44822422
49	0x3f84887a	1.0354149
50	0xbf05e849	-0.52307564
51	0x3eeaddfb	0.45872483
52	0x3f02584b	0.50915974
53	0xbea78421	-0.32717994
54	0x400930f9	2.143614
55	0x3f4c40c2	0.7978631
56	0x3e204671	0.15651871
57	0xbf2ee2e1	-0.6831494
58	0xbfb1b01f	-1.3881873
59	0xbfdddd2d	-1.7333122
60	0xbfa8eafd	-1.3196713
61	0x3e98039b	0.2969025
62	0xbd6507da	-0.05591569
63	0xbf800508	-1.0001535
64	0xbf0a74b5	-0.5408433
65	0xbeaf030f	-0.3418202
66	0x3f25dc85	0.6478961
67	0xbf158834	-0.58410954
68	0x3d55d0c6	0.052201055
69	0xbe5cdf6d	-0.21569605
70	0x3f3889cf	0.7208528
71	0x3f092ecb	0.53587025
72	0xbe99de13	-0.30052242
73	0xbf94c3b1	-1.162222
74	0xbf425205	-0.759064
75	0xbf000471	-0.5000678
76	0x3f27fa59	0.65616375
77	0xbf4ea8ab	-0.80726117
78	0xbecf90f9	-0.40540293
79	0xbf295929	-0.6615167
80	0xbef2a294	-0.47389662
81	0xbf5c423e	-0.8603858
82	0xbefd291b	-0.49445423
83	0xbfc18589	-1.5118877
84	0x3e5a326b	0.21308295
85	0x3f0eef6a	0.55834067
86	0xbfd37744	-1.6520772
87	0xbd687ed5	-0.05676158
88	0x3e2727fd	0.16323848
89	0xbef382ab	-0.4756063
90	0xbfb28e99	-1.3949767
91	0x3d3c3c21	0.04595578
92	0xbf6cdbc6	-0.9252285
93	0xbf77b69a	-0.96763
94	0xbf824303	-1.01767
95	0x3f385a47	0.7201275
96	0x3ddd2598	0.10798186
97	0xbe9f9971	-0.31171754
98	0xbe799f0a	-0.24377075
99	0xbf150bb0	-0.5822096
100	0xbf064733	-0.5245239
101	0xbfbc50c3	-1.4712147
102	0x3e39ea32	0.18155745
103	0x3d846c81	0.06466008
104	0xbd1337da	-0.035941936
105	0xbf63a90d	-0.88929826
106	0x3f156e76	0.58371675
107	0xbcf872e0	-0.030328214
108	0x3de8a154	0.11358896
109	0xbf60a0ef	-0.87745565
110	0xbf67ebeb	-0.9059436
111	0xbc8014c8	-0.01563491
112	0x3f319b2f	0.69377416
113	0xbedd37bd	-0.43206587
114	0xbf4a31b2	-0.7898208
115	0x3ef1511a	0.47132188
116	0xbe568e27	-0.20952664
117	0x3f702e02	0.938202
118	0x3dcc9305	0.09988979
119	0x3f1a4ff3	0.6027824
120	0xbedda5d2	-0.43290573
121	0x3e98ebe5	0.29867473
122	0x3e0df16a	0.13861623
123	0x3f298a0f	0.66226286
124	0xbe831e76	-0.25609177
125	0x3efdc0d9	0.49561194
126	0xbe7fa6c9	-0.24965967
127	0xbf21f7c5	-0.6326869
128	0x3f710339	0.9414554
129	0x3f1bfa9d	0.6092928
130	0x3f0d2a0d	0.5514229
131	0xbf8a9ead	-1.0829674
132	0xbe405cb3	-0.18785362
133	0x3f4ec353	0.8076679
134	0x3f3fbd19	0.74897915
135	0x3fd81b6c	1.6883368
136	0xbfca8620	-1.5822182
137	0xbf3024a3	-0.68805903
138	0x3fb0ae19	1.380313
139	0xbf430959	-0.7618614
140	0x3ebcce82	0.36876303
141	0x3fdd1e92	1.7274954
142	0x3fbd51c7	1.4790581
143	0x3ff2103e	1.8911207
144	0x3eb60687	0.35551855
145	0xbeaff96b	-0.34369978
146	0xbf3ae5b0	-0.73006725
147	0x3f7fcb4e	0.99919593
148	0x3f4f2668	0.8091798
149	0x3f4224f6	0.7583765
150	0x3fc0d6be	1.5065534
151	0xc0238f6c	-2.5556288
152	0x3f786e62	0.9704343
153	0x3fd34032	1.6503966
154	0xbfb7404e	-1.4316499
155	0xbc811b79	-0.01576017
156	0xbeeadef2	-0.4587322
157	0xbf9f8170	-1.2461376
158	0xbfeb337a	-1.8375084
159	0xbfa8bf51	-1.3183385
160	0xbdb4b860	-0.08824229
161	0xbf46a685	-0.7759784
162	0x401d862f	2.461315
163	0xbf4b21ff	-0.7934875
164	0x3f4de91e	0.80433834
165	0x400de690	2.2171974
166	0x40045ed2	2.0682874
167	0xbfaeee6b	-1.3666509
168	0x3fdc9ff5	1.7236315
169	0xbf87a922	-1.059849
170	0x40493493	3.1438339
171	0xbf88feda	-1.0702775
172	0xbf2f3bda	-0.684507
173	0x3fc01659	1.500682
174	0x3f99f738	1.202857
175	0x3f40ed9e	0.75362575
176	0xbfa8a69e	-1.3175848
177	0xbf2b7477	-0.66974586
178	0xbf83cd2a	-1.0296986
179	0x3fe1f0ba	1.7651589
180	0xbfb3fa1a	-1.40607
181	0x3fba09a8	1.4534197
182	0x3f789532	0.97102654
183	0xbfb3a428	-1.4034472
184	0x3fc2ddf9	1.5223991
185	0xbeee0a3a	-0.46492177
186	0x3fe2d9cc	1.7722716
187	0x3f172b21	0.59050184
188	0xbece007d	-0.40234748
189	0xbe049575	-0.12947638
190	0xbfa69d0f	-1.301668
191	0x3fc38b34	1.5276856

bias_hh_l0 f4 [192]
0	0xbf71b5f2	-0.9441825
1	0xbf939a7f	-1.1531523
2	0x3ede3345	0.4339849
3	0xbf34766b	-0.7049319
4	0x3fb5d7ef	1.4206523
5	0x3e8deb42	0.2771855
6	0x40345093	2.8174179
7	0x3fcc943b	1.5982736
8	0xbf3303b0	-0.699275
9	0xbec5bce1	-0.38620666
10	0xbfc9f719	-1.5778533
11	0xbf8c8992	-1.0979483
12	0xbf570e24	-0.8400595
13	0xbe845ab6	-0.25850457
14	0x3d3a1100	0.04542637
15	0x3ea62c7f	0.32455823
16	0xbb8f9a94	-0.004382441
17	0xbeb6f5c2	-0.35734373
18	0xbf90aba1	-1.1302377
19	0xbf89c825	-1.0764204
20	0xbc4609bc	-0.012087282
21	0xbf49bb36	-0.78801286
22	0xbf9f609c	-1.2451358
23	0xbfdf15c8	-1.7428522
24	0xbd4bd837	-0.049766745
25	0x3fb88b9c	1.4417605
26	0xbf65ee1e	-0.89816463
27	0xbe9856de	-0.29753774
28	0x3f1edcef	0.6205587
29	0x3fd0c372	1.6309645
30	0xbf9a30b4	-1.2046113
31	0x3f8eb9be	1.1150434
32	0x3f3308a3	0.69935054
33	0xbfa15875	-1.260512
34	0x4045b948	3.0894337
35	0xbeb683f7	-0.35647556
36	0xbfd9ddad	-1.7020775
37	0xbfbb52b9	-1.463462
38	0xbf80740f	-1.0035418
39	0x3f689928	0.908587
40	0x3fcaf7fd	1.585693
41	0xbd7c9bbe	-0.061671965
42	0xbdf42980	-0.11921978
43	0x3fa66920	1.3000832
44	0x3f80fb67	1.0076722
45	0xbee975d2	-0.45597702
46	0xbf79b709	-0.97544914
47	0x3f4f1b74	0.80901265
48	0xbec4fc1c	-0.38473594
49	0x3f966b2c	1.1751456
50	0xbf01f002	-0.5075685
51	0x3ef6f3bb	0.48232827
52	0x3f0ad9cd	0.5423859
53	0xbee352c5	-0.44399086
54	0x400626ee	2.096126
55	0x3f40ee84	0.75363946
56	0x3e332ad7	0.17496811
57	0xbf27761d	-0.654146
58	0xbf9c6769	-1.2219058
59	0xbfcb5d29	-1.5887805
60	0xbfa6732b	-1.3003896
61	0x3e15d96c	0.14633721
62	0xbdaa4add	-0.0831506
63	0xbf88eaeb	-1.0696691
64	0xbf0cd2d0	-0.55009174
65	0xbe9b75fa	-0.30363446
66	0x3f000e33	0.50021666
67	0xbf418923	-0.7559988
68	0x3de09f36	0.10967867
69	0xbe6fb462	-0.23408654
70	0x3f080f67	0.531485
71	0x3f2a3b1d	0.6649645
72	0xbee3e595	-0.44511095
73	0xbf915349	-1.1353542
74	0xbf4b0123	-0.7929861
75	0xbed148fe	-0.40876
76	0x3f208568	0.6270356
77	0xbf2174c2	-0.63068783
78	0xbed64b46	-0.41854304
79	0xbf4671b7	-0.77517265
80	0xbe93eadf	-0.2889013
81	0xbf480a9b	-0.7814118
82	0xbed66216	-0.4187171
83	0xbfb73d96	-1.431567
84	0x3e4fe72d	0.2030303
85	0x3ee7c685	0.45268646
86	0xbfb80ad9	-1.437831
87	0xbc2c47b0	-0.0105151385
88	0x3db65ca2	0.08904387
89	0xbec6c590	-0.38822603
90	0xbfb4e73e	-1.413307
91	0x3c97c7cc	0.018527888
92	0xbf39f633	-0.72641295
93	0xbf8bd267	-1.0923585
94	0xbf75f6b5	-0.9607957
95	0x3f1878d7	0.59559387
96	0x3dfcde4d	0.12347088
97	0xbeb8789d	-0.3602952
98	0xbe3f89cf	-0.18704914
99	0xbf12e7c1	-0.5738488
100	0xbf3623e4	-0.71148515
101	0xbfb801bd	-1.437553
102	0x3e33d1b8	0.1756047
103	0xbc7afe22	-0.015319379
104	0xbdfe9d05	-0.12432293
105	0xbf78cb4b	-0.971852
106	0x3f1c8da9	0.61153656
107	0xbd9796cf	-0.07401811
108	0x3e1ad9af	0.15122102
109	0xbf724004	-0.9462893
110	0xbf8a33dd	-1.0797077
111	0xbb557a7e	-0.0032574232
112	0x3f192783	0.59825915
113	0xbe87dca0	-0.2653551
114	0xbf4a810b	-0.79103154
115	0x3efb5bbe	0.4909343
116	0xbe8a69f5	-0.27033964
117	0x3f717273	0.9431526
118	0x3e0a550c	0.13509005
119	0x3f1bdc4f	0.6088304
120	0xbe72da89	-0.23716177
121	0x3e14918e	0.1450865
122	0x3e1d380f	0.15353416
123	0x3f0f9226	0.5608238
124	0xbe1c94b6	-0.15291104
125	0x3ed63d4b	0.41843638
126	0xbe17fc42	-0.14842322
127	0xbf2a6508	-0.6656041
128	0xbeeb3d03	-0.45944986
129	0x3bb36e0d	0.0054757656
130	0xbf140320	-0.5781727
131	0xbd0f3b85	-0.03496887
132	0xbef2a28d	-0.4738964
133	0x3f55cd60	0.835165
134	0x3f4e8f50	0.8068743
135	0x3fdb1593	1.7115959
136	0x3f258620	0.64657784
137	0xbf5ebb3c	-0.87004447
138	0xbf84df2b	-1.0380605
139	0x3f391e70	0.7231207
140	0x3da578a5	0.08079652
141	0xbff0f142	-1.8823626
142	0x3ef405ec	0.47660768
143	0x3eb32efd	0.34996787
144	0xbeee94f0	-0.46598005
145	0x4007d688	2.122469
146	0xbece1d68	-0.4025681
147	0x3efb454f	0.49076316
148	0x3f2e12c3	0.6799738
149	0x3e54700c	0.20745867
150	0x3f0c75ed	0.5486744
151	0xbe9235a2	-0.28556544
152	0x3eeb85d1	0.4600053
153	0x3f9114d5	1.1334482
154	0xbf5de84e	-0.86682594
155	0x3e9b1118	0.3028648
156	0xbf03b450	-0.5144701
157	0xc03e519b	-2.9737308
158	0x3ecbebd4	0.3982836
159	0xbf2b62e0	-0.66947746
160	0x3f32e965	0.6988738
161	0xbe709367	-0.2349373
162	0x40188fab	2.3837688
163	0x3f486a3b	0.78287095
164	0xbf20d0fc	-0.62818885
165	0xbf1b4429	-0.6065088
166	0xbdce275e	-0.100661024
167	0x3fc15275	1.5103289
168	0x3fe673ce	1.8004091
169	0xbeefbfd7	-0.4682605
170	0xbfa9ab2f	-1.3255366
171	0xbf5c29a0	-0.86001015
172	0x3eff3b31	0.49849847
173	0x3f6213e8	0.88311625
174	0x3eefd23b	0.4684008
175	0x3f8f193e	1.1179578
176	0x3f82a382	1.0206149
177	0xbf6410e2	-0.8908826
178	0xbf0bd697	-0.54624313
179	0x3f496b7c	0.78679633
180	0xbf183db7	-0.5946917
181	0x3f4ba805	0.7955325
182	0x3f833cd2	1.0252936
183	0xbfd29d53	-1.6454262
184	0x3f06a166	0.52590024
185	0xbf211250	-0.6291857
186	0xbdb9ec0b	-0.09078225
187	0xbd8b6dea	-0.06808074
188	0x3d7a0321	0.06103814
189	0xbea0ef4e	-0.31432575
190	0xbec39092	-0.38196236
191	0xbfb2ade0	-1.3959312

weight f4 [1, 64]
0	0xc20f5336	-35.83126
1	0xc20fa8af	-35.91473
2	0x420d3b8c	35.30815
3	0x420f7bfa	35.87107
4	0xc201a469	-32.410557
5	0xc20faac8	-35.91678
6	0xc205586a	-33.33634
7	0x42044479	33.066868
8	0x4210bf41	36.18677
9	0x420696f9	33.647434
10	0xc20f7d06	-35.872093
11	0x420d63d4	35.34749
12	0x420a5df0	34.591736
13	0xc221ee01	-40.482426
14	0xc20313ab	-32.769207
15	0xc210a749	-36.163364
16	0x42067265	33.611713
17	0xc209db10	-34.46393
18	0x420e6804	35.601578
19	0x420913cb	34.26933
20	0x420cdd0e	35.215874
21	0x4205e3ef	33.47259
22	0xc21126f1	-36.28803
23	0x420c1690	35.022034
24	0xc1fdb5df	-31.713804
25	0x420375dd	32.8651
26	0x420ee792	35.726143
27	0xc2117c3b	-36.37132
28	0xc1f74dfe	-30.913082
29	0xc2020392	-32.503487
30	0x420fa970	35.915466
31	0xc202f6b2	-32.740913
32	0x4204bf19	33.18662
33	0x420f3106	35.797874
34	0x42040a65	33.01015
35	0xc2085bec	-34.089767
36	0xc20ec2ad	-35.690113
37	0xc20feb1f	-35.97961
38	0x420cfa47	35.24441
39	0xc1d9f849	-27.246233
40	0x420b0544	34.755142
41	0x420f9948	35.89969
42	0xc1fb78c6	-31.433971
43	0xc2082fcb	-34.046673
44	0xc20be828	-34.976715
45	0xc210bf96	-36.187096
46	0xc2143091	-37.04743
47	0x420b2719	34.78818
48	0xc209780b	-34.36723
49	0xc20e0c9f	-35.512325
50	0x420c941a	35.14463
51	0x420162b4	32.34639
52	0xc20295dc	-32.646347
53	0xc20778c7	-33.867947
54	0x4205f2ff	33.4873
55	0xc214bbe2	-37.18348
56	0xc20adb58	-34.714203
57	0x420effe8	35.74991
58	0xc206d76f	-33.710384
59	0x42102877	36.039516
60	0x420d47c4	35.320084
61	0x42046a6e	33.103935
62	0x42151f6d	37.28069
63	0xc20e874e	-35.632133
