GRU/models/test_9001.pth (torch, 58146 bytes, 5 tensors)

weight_ih_l0 f4 [192, 5]
-0.6233866 -0.5273934 -0.12797101 0.28555265 -6.697556 2.7740667 3.0393307 3.7370028
4.3024397 -12.67065 3.584765 3.8070095 3.7674232 3.9261463 -5.4879684 3.8134477
4.2496715 4.067915 4.468786 4.3863673 1.0380168 1.2281036 1.5841146 1.5782938
0.9553406 2.0340781 1.9441341 2.1433592 2.004988 -0.5585995 7.0706186 7.3011117
7.282101 7.555849 -0.21014981 -0.089416 0.22553505 0.10966275 0.39280787 0.017605346
5.716242 5.6690373 6.5458846 6.790197 -13.312216 4.844777 5.183214 5.1070395
5.450478 0.7804485 2.7186248 2.7745254 3.3701038 3.5033789 -6.504011 3.6025176
3.947346 5.158082 6.04994 -24.988415 -2.4664087 -2.244852 -2.397903 -2.0222733
-1.0388163 4.6620693 5.3213115 5.7032566 6.4442554 -6.333434 -3.0049706 -3.0875003
-3.278306 -3.631088 3.0377822 8.313042 8.4079685 8.489237 8.657578 7.157245
2.0937033 1.9068245 1.9130807 1.6639154 -6.663616 -2.5393856 -3.1642184 -3.627193
-4.708217 10.789217 1.8168529 2.1937702 2.4030807 2.9880633 -2.0670278 2.768536
2.655425 2.8968673 2.9863298 -5.119883 1.0719928 0.96921325 1.0722699 0.9626477
-5.9360824 -1.090478 -1.1861135 -1.0615854 -0.91305673 -1.234257 4.7213874 5.08415
5.088883 5.5537214 -5.0288506 -0.22684304 0.16395853 -0.13435364 -0.14661385 -2.238444
1.7388314 1.6300093 1.5654242 1.5938066 1.5072 -0.5014959 -0.2838751 -0.3323303
-0.026221877 2.3402555 4.6667724 4.470788 4.9009767 4.6768966 -5.4880486 -3.4547668
-4.222113 -4.177032 -5.108295 4.887211 -3.3030381 -4.414929 -4.7851167 -6.5551133
7.17726 -1.3667188 -1.3624358 -1.5400205 -1.1896396 1.1728733 11.269305 11.933431
12.452273 13.45441 6.4529967 1.3265935 1.1238726 0.8550172 0.8010484 1.0689781
2.29766 2.4246774 2.417006 2.3860505 19.384287 4.522868 4.508184 4.6256504
4.7135167 -8.885435 -0.60255736 -0.81708896 -0.8518501 -0.80177766 -1.5372072 -1.6313387
-1.7134932 -1.8766994 -2.3473296 3.5323143 3.0432181 3.0216131 3.056376 3.1522493
2.4480155 -0.5228877 -0.27612278 -0.38233855 -0.28448057 -13.42143 -1.5458869 -1.5044248
-1.4925605 -1.5858921 3.5958061 4.5581574 4.970334 5.290343 5.4242363 -0.94156337
-1.1909859 -0.91478205 -1.1494598 -0.83069754 12.744748 3.1815712 3.1580913 3.4391327
3.7059124 -11.291982 -0.619781 -0.6790029 -0.4517707 -0.90332466 -1.0944504 1.3132728
1.6685491 1.5465475 1.7093505 9.628639 3.1143847 3.4815822 3.7401838 3.9861848
1.2708883 2.004485 1.8239708 1.8075701 1.8655049 -0.63536984 2.0195336 2.1302886
2.2448878 2.2489672 -7.3551645 3.9625888 3.9974878 3.8066127 4.0809927 1.2638111
-1.182687 -0.9803051 -0.69798464 -0.4931874 -2.125259 1.4000242 1.4753807 1.6218907
1.7051578 -2.357723 3.9719522 4.2197413 4.299113 4.3847756 0.49937192 0.82902
00000000: 4496 1fbf 4103 07bf d50a 03be f533 923e
00000010: 6152 d6c0 4f8a 3140 6584 4240 0e2b 6f40
00000020: 96ad 8940 fbba 4ac1 ca6c 6540 0ba6 7340
00000030: 761d 7140 fb45 7b40 709d afc0 870f 7440
00000040: 4ffd 8740 5c2c 8240 4b00 8f40 1f5d 8c40
00000050: bcdd 843f 8032 9d3f 44c4 ca3f 8805 ca3f
00000060: 3491 743f 562e 0240 63d9 f83f cc2c 0940
00000070: b951 0040 6000 0fbf 8242 e240 b5a2 e940
00000080: f906 e940 84c9 f140 8331 57be bc1f b7bd
00000090: a9f2 663e dd96 e03d 1d1e c93e 1639 903c
000000a0: 74eb b640 c168 b540 e377 d140 4b49 d940
000000b0: d6fe 54c1 6a08 9b40 e4dc a540 de6c a340
000000c0: 516a ae40 79cb 473f f3fd 2d40 d391 3140
000000d0: c8af 5740 5c37 6040 dc20 d0c0 a68f 6640
000000e0: 51a1 7c40 020f a540 1c99 c140 46e8 c7c1
000000f0: a4d9 1dc0 a8ab 0fc0 3e77 19c0 ed6c 01c0
00000100: eff7 84bf ac2f 9540 2f48 aa40 1481 b640
00000110: 5737 ce40 7eab cac0 7051 40c0 9b99 45c0
00000120: c4cf 51c0 bf63 68c0 066b 4240 3802 0541
00000130: 0a87 0641 ead3 0741 7185 0a41 2708 e540
00000140: 3cff 0540 d312 f43f d4df f43f 2efb d43f
00000150: 583c d5c0 4b85 22c0 8e82 4ac0 ee23 68c0
00000160: b7a9 96c0 a2a0 2c41 a38e e83f bb66 0c40
00000170: 13cc 1940 6e3c 3f40 2f4a 04c0 b22f 3140
00000180: 7cf2 2940 4666 3940 0720 3f40 15d6 a3c0
00000190: 0f37 893f 5c1e 783f 2440 893f 1470 763f
000001a0: 63f4 bdc0 c894 8bbf 91d2 97bf 08e2 87bf
000001b0: 16be 69bf 22fc 9dbf 9b15 9740 5bb1 a240
000001c0: 21d8 a240 16b8 b140 58ec a0c0 8b49 68be
000001d0: bfe4 273e 0094 09be f121 16be ab42 0fc0
000001e0: 0792 de3f 25a4 d03f d25f c83f db01 cc3f
000001f0: eeeb c03f 0962 00bf 1458 91be 3227 aabe
00000200: 43cf d6bc bfc6 1540 3356 9540 b210 8f40
00000210: cdd4 9c40 23a9 9540 189e afc0 e61a 5dc0
00000220: 8d1b 87c0 3faa 85c0 2777 a3c0 0864 9c40
00000230: fa64 53c0 1947 8dc0 ad1f 99c0 7dc3 d1c0
00000240: 1dac e540 a4f0 aebf 4c64 aebf 641f c5bf
00000250: 1c46 98bf b620 963f 134f 3441 55ef 3e41
00000260: 833c 4741 4345 5741 f37e ce40 d1cd a93f
00000270: 0fdb 8f3f 68e2 5a3f 8211 4d3f 46d4 883f
00000280: dd0c 1340 ea2d 1b40 3ab0 1a40 0db5 1840
00000290: 0513 9b41 56bb 9040 0b43 9040 5405 9440
000002a0: 21d5 9640 be2a 0ec1 3341 1abf be2c 51bf
000002b0: d912 5abf 4d41 4dbf 35c3 c4bf b5cf d0bf
000002c0: bf53 dbbf b037 f0bf a63a 16c0 7011 6240
000002d0: 16c4 4240 1c62 4140 aa9b 4340 74be 4940
000002e0: 49ac 1c40 f8db 05bf f75f 8dbe e1c1 c3be
000002f0: 70a7 91be 2dbe 56c1 9fdf c5bf fe90 c0bf
00000300: 390c bfbf 83fe cabf b021 6640 6ddc 9140
00000310: fa0c 9f40 7d4a a940 5893 ad40 4c0a 71bf
00000320: 3a72 98bf 282f 6abf 8021 93bf 98a8 54bf
00000330: 7dea 4b41 dd9e 4b40 2b1e 4a40 c01a 5c40
00000340: ab2d 6d40 f5ab 34c1 f8a9 1ebf 22d3 2dbf
00000350: 7d4e e7be 4940 67bf f316 8cbf 5319 a83f
00000360: 0493 d53f 45f5 c53f ffcb da3f e80e 1a41
00000370: 1452 4740 3ed2 5e40 2c5f 6f40 a71d 7f40
00000380: 78ac a23f 7b49 0040 e077 e93f 755e e73f
00000390: ddc8 ee3f 99a7 22bf 0a40 0140 a656 0840
000003a0: 3eac 0f40 14ef 0f40 825d ebc0 0e9b 7d40
000003b0: d7d6 7f40 8b9f 7340 7e97 8240 90c4 a13f
000003c0: 4a62 97bf 46f5 7abf 1faf 32bf 0f83 fcbe
000003d0: 3e04 08c0 fe33 b33f 46d9 bc3f 1d9a cf3f
000003e0: 9c42 da3f efe4 16c0 7734 7e40 1f08 8740
000003f0: 5592 8940 1550 8c40 adad ff3e a83a 543f

weight_hh_l0 f4 [192, 64]
2.7443962 1.6828767 0.8844559 -0.2010846 -1.0146111 3.685478 1.1260899 -0.42379418
-1.7618585 -1.3462914 2.4348524 -3.6258352 -2.865467 -0.057557657 -0.9710511 -0.11911473
3.3457 -0.76185477 -4.903262 -1.6193779 0.48144397 0.5483656 0.34339035 0.16246124
0.9426616 -0.71854115 -4.2424784 0.14442429 -1.2684741 1.2761929 -3.7254422 2.0477357
2.3141263 -0.85173774 -4.63803 2.4363441 1.6633197 1.4614682 0.0051900777 1.5796186
-1.1820253 -1.0315212 1.0696424 2.542598 -0.10700916 2.110706 -0.55932564 -1.050241
0.42227915 2.5621893 0.5360124 2.2775779 0.002146559 -2.0258143 -1.5189198 1.6801666
1.6462173 -1.7355249 1.5464559 -0.06545991 -3.325407 -0.012872225 -2.2492785 2.6090415
-1.1000196 1.6661794 1.1331052 -0.132138 -0.94482833 1.6228595 -0.12935914 2.7945356
2.7453578 -2.6699607 -1.099043 0.16141586 2.7494366 0.66245973 0.32367152 -1.4098004
-2.2257664 -0.5028049 -0.8603909 -3.0893793 1.3372072 0.7710669 -4.0017104 5.250635
5.307406 -0.6889097 -0.8532685 0.53296816 1.1944909 0.43942928 0.30530807 1.183127
-0.71168405 -3.3582 -2.3469298 2.1700222 -0.23434651 -5.1843333 0.506278 0.015443148
1.1609969 -0.8176538 -3.537889 -0.50864774 1.757897 0.10405936 -0.5803583 0.25292838
-2.445579 1.4298573 -1.1300548 -2.1022525 -1.5766102 -0.42240396 1.2651607 4.2450147
2.4728737 1.3077141 3.7519102 1.6378002 0.6618608 -1.9395317 1.4946694 0.015322756
-5.0829206 -4.266364 4.3841853 2.333353 -2.3158083 -0.94248295 4.4543977 -0.5470272
1.4715214 0.93789357 -2.156311 3.8802812 -2.3743918 -3.3102198 -1.8824575 -6.0194225
1.882362 -1.4967108 2.4326875 -2.2623076 -0.3288896 -0.45566773 -6.758482 5.205198
1.0783634 0.95976764 1.4905565 -2.9861417 -1.301729 -2.8749352 0.019284109 1.3516665
1.7869043 1.6356674 1.0015525 1.3301895 -2.3216534 0.29971993 1.3104986 2.7414043
1.3893173 4.515767 -3.6044023 6.2877345 -1.441248 -2.180404 -2.1397688 3.0924885
-1.0207124 -0.29420528 2.7674212 -0.6302467 -0.00594 0.13586746 -0.5730209 -1.3960726
1.449215 2.9865263 0.4929482 2.8789122 4.5911293 2.3812833 1.1590334 -3.0507836
3.1393404 0.5714746 0.7165494 -2.926134 0.25154024 1.61058 1.9596992 0.27590197
0.26108155 -2.0411978 1.6268445 0.023883428 2.2421045 -3.5342202 2.0091057 -3.2920706
4.2571487 0.19978878 1.5881908 -2.3168678 -5.801481 1.4686247 -3.1782796 6.6955028
2.8012123 0.98150754 1.0493965 0.10322467 1.2883387 0.12939692 -0.17139834 0.009872697
0.51637125 -1.1823744 -0.19062597 -0.06662032 0.2922232 -5.591151 -1.003712 1.6790618
2.3690093 -0.37639228 -0.3650301 1.9780095 -1.3072182 -3.5858004 -2.4239302 -0.8696858
-1.7653853 -1.4024029 2.0490117 0.76809233 2.8096168 4.8221164 -0.8209977 -1.4155582
-0.27969024 0.59062004 1.2667233 -0.31074497 -3.1115165 -4.3811765 3.2654297 1.788597
00000000: 30a4 2f40 8168 d73f b46b 623f 1fe9 4dbe
00000010: c7de 81bf dfde 6b40 b723 903f 8dfb d8be
00000020: 9484 e1bf 4753 acbf 9fd4 1b40 af0d 68c0
00000030: d063 37c0 94c1 6bbd ce96 78bf 6cf2 f3bd
00000040: f31f 5640 ea08 43bf 86e7 9cc0 c647 cfbf
00000050: d37f f63e b061 0c3f dcd0 af3e 3d5c 263e
00000060: 4552 713f 50f2 37bf 62c2 87c0 f6e3 133e
00000070: 5c5d a2bf 4a5a a33f a56d 6ec0 1a0e 0340
00000080: a51a 1440 7c0b 5abf be6a 94c0 10ed 1b40
00000090: a9e7 d43f 6411 bb3f 8711 aa3b f130 ca3f
000000a0: 9b4c 97bf e308 84bf 0bea 883f edb9 2240
000000b0: 9e27 dbbd cf15 0740 f72f 0fbf 4c6e 86bf
000000c0: f934 d83e e9fa 2340 1c38 093f d6c3 1140
000000d0: 49ad 0c3b f1a6 01c0 f76b c2bf b30f d73f
000000e0: 40b7 d23f ae25 debf 44f2 c53f d80f 86bd
000000f0: 78d3 54c0 06e6 52bc 2ef4 0fc0 89fa 2640
00000100: 71cd 8cbf 5e45 d53f 9709 913f 2f4f 07be
00000110: 45e0 71bf dcb9 cf3f b976 04be acd9 3240
00000120: f1b3 2f40 a3e0 2ac0 71ad 8cbf 334a 253e
00000130: c5f6 2f40 f696 293f 46b8 a53e 5774 b4bf
00000140: f572 0ec0 d2b7 00bf 9442 5cbf 64b8 45c0
00000150: 9b29 ab3f a464 453f 030e 80c0 3405 a840
00000160: 45d6 a940 635c 30bf ce6f 5abf 9a70 083f
00000170: 14e5 983f e0fc e03e 5751 9c3e b570 973f
00000180: ed30 36bf c0ec 56c0 1934 16c0 a5e1 0a40
00000190: 88f8 6fbe 0fe6 a5c0 6f9b 013f 4205 7d3c
000001a0: 8c9b 943f c251 51bf c66c 62c0 bd36 02bf
000001b0: c502 e13f 131d d53d 5d92 14bf d47f 813e
000001c0: 5e84 1cc0 9005 b73f a3a5 90bf 4e8b 06c0
000001d0: 5dce c9bf 5545 d8be c9f0 a13f 29d7 8740
000001e0: 9043 1e40 2d63 a73f 4c1f 7040 70a3 d13f
000001f0: b66f 293f 9342 f8bf 5451 bf3f 4c0c 7b3c
00000200: 49a7 a2c0 0e86 88c0 3f4b 8c40 a855 1540
00000210: 3436 14c0 9046 71bf 6d8a 8e40 f909 0cbf
00000220: d05a bc3f cb19 703f 0001 0ac0 8756 7840
00000230: 09f6 17c0 a4da 53c0 5ef4 f0bf 1c9f c0c0
00000240: 3df1 f03f 3894 bfbf 27b1 1b40 a6c9 10c0
00000250: 3864 a8be 484d e9be 7c45 d8c0 fb90 a640
00000260: d007 8a3f 55b3 753f 8eca be3f f21c 3fc0
00000270: 0e9f a6bf f0fe 37c0 b5f9 9d3c 6803 ad3f
00000280: 48b9 e43f 8d5d d13f df32 803f a643 aa3f
00000290: f895 14c0 e474 993e 6bbe a73f 2b73 2f40
000002a0: 26d5 b13f 2a81 9040 87ae 66c0 1f35 c940
000002b0: d17a b8bf bd8b 0bc0 f9f1 08c0 55eb 4540
000002c0: b4a6 82bf 13a2 96be 6e1d 3140 d957 21bf
000002d0: 55a4 c2bb d720 0b3e 7fb1 12bf 82b2 b2bf
000002e0: e17f b93f 3f23 3f40 b563 fc3e 1940 3840
000002f0: 88ea 9240 f266 1840 355b 943f 0a40 43c0
00000300: f4ea 4840 294c 123f c86f 373f c845 3bc0
00000310: e2c9 803e 7c27 ce3f 6cd7 fa3f 0643 8d3e
00000320: 7bac 853e fca2 02c0 713c d03f 2ea7 c33c
00000330: a47e 0f40 aa30 62c0 3095 0040 49b1 52c0
00000340: 903a 8840 6e95 4c3e d649 cb3f 9047 14c0
00000350: bba5 b9c0 e5fb bb3f ef68 4bc0 8f41 d640
00000360: 1047 3340 1444 7b3f a052 863f 7567 d33d
00000370: 48e8 a43f a080 043e 0c83 2fbe 18c1 213c
00000380: e830 043f 0b58 97bf 7433 43be 3c70 88bd
00000390: 479e 953e b6ea b2c0 a379 80bf 7feb d63f
000003a0: d99d 1740 7db6 c0be 3ae5 babe 6a2f fd3f
000003b0: ed52 a7bf c17d 65c0 ac21 1bc0 bba3 5ebf
000003c0: 25f8 e1bf f081 b3bf 0223 0340 b3a1 443f
000003d0: c3d0 3340 c74e 9a40 e82c 52bf 0331 b5bf
000003e0: 8f33 8fbe e032 173f fd23 a23f f719 9fbe
000003f0: 1623 47c0 9932 8cc0 cdfc 5040 bff0 e43f

bias_ih_l0 f4 [192]
-3.7859604 -1.1913857 2.225618 -0.19015035 2.1731572 0.24335013 2.8766954 0.77173364
-1.4079132 1.6416844 -2.9541328 -1.2571986 -4.079599 -0.44222653 0.20848748 3.1738718
-0.0009868941 1.5339069 -3.38387 -1.0136851 -2.3582103 -0.5347045 -1.5002408 -2.9830544
1.0154463 -0.6641091 -2.6283045 -0.70553786 -0.18216233 1.29039 -0.84184176 -0.32626587
0.9655115 -0.4731523 0.25273055 2.8391645 -1.362413 -2.9384215 -0.2034062 2.9474618
1.2738943 -0.75145906 -3.6559465 2.949838 -0.59173393 -2.0521896 -2.831165 4.829536
-1.6447237 0.4263576 -0.19215904 1.0543616 1.3735176 0.5339313 2.0908349 -5.1738405
-2.5391877 1.0369285 0.03493299 -1.623553 -1.6545779 -2.328192 1.7676643 -2.7996323
-0.4747414 -1.4692258 0.2249333 0.0680933 1.9303442 -0.9677553 -0.36395392 1.7406226
0.45042154 -1.9343611 -2.801791 0.9537517 1.8280398 1.3987736 -3.176905 1.0367596
0.35812512 -0.5885707 -2.5494452 -2.6402652 1.8105874 -2.0830078 -1.4721876 -0.5854367
-0.48946464 -0.43429795 1.0141933 0.1953895 -1.3309869 0.40533102 -3.1802125 0.81571287
0.96471614 -1.3959409 0.27778348 -0.65256953 -0.33085772 0.53123367 1.5640683 2.639437
-0.66174793 -3.5314584 2.7163823 0.06672276 1.6785564 -1.1452384 -0.88894427 0.115396015
1.1373699 -0.6167869 -2.8532526 -0.9210036 -0.3802017 0.88456976 0.22073075 1.5457242
-2.8868754 0.13780084 -0.4726825 0.63140565 -2.687217 1.8361079 -1.6109617 -1.1514175
1.8768687 1.1068224 0.086662374 -2.0562322 1.0741364 1.1691298 -0.40482354 0.08540468
0.17062183 -0.9737718 3.8646553 -1.3191491 -2.9855444 2.4541411 2.3062334 1.8579092
0.07022682 2.0416803 -0.49705887 1.4804884 2.1455882 1.8839128 0.1938323 -5.0322394
3.2136962 4.10994 -0.2947819 2.1768305 4.1109967 1.1307104 -1.3929126 0.107142285
-2.6586611 -1.1850474 1.7504115 1.0777481 1.7928009 3.5969632 -2.4960501 -0.056683626
2.767781 -0.8975964 3.0238411 -1.2237093 -1.0614438 3.0976405 1.2185639 2.3938665
-1.3276241 -2.6229718 -2.6615493 0.8398905 -3.4769413 2.4071434 2.0164583 2.7700694
0.6514098 -1.9425099 1.9453787 -0.52715766 -0.55488235 -2.6851254 -2.2408307 1.0078868
00000000: 2d4d 72c0 547f 98bf 8670 0e40 c6b6 42be
00000010: 0215 0b40 c730 793e c71b 3840 5690 453f
00000020: 8036 b4bf b722 d23f 8310 3dc0 e2eb a0bf
00000030: 138c 82c0 846b e2be be7d 553e b720 4b40
00000040: ac5a 81ba 1057 c43f 5391 58c0 6fc0 81bf
00000050: ebec 16c0 65e2 08bf e407 c0bf 5dea 3ec0
00000060: 25fa 813f 0e03 2abf 2436 28c0 219e 34bf
00000070: c388 3abe 802b a53f f182 57bf 520c a7be
00000080: c32b 773f 0541 f2be e665 813e dfb4 3540
00000090: 8d63 aebf 190f 3cc0 b749 50be 37a3 3c40
000000a0: f80e a33f 9f5f 40bf 07fb 69c0 25ca 3c40
000000b0: e07b 17bf 1357 03c0 cf31 35c0 8f8b 9a40
000000c0: 4e86 d2bf 8b4b da3e 57c5 44be 52f5 863f
000000d0: 6dcf af3f b9af 083f 3dd0 0540 1a90 a5c0
000000e0: 0d82 22c0 13ba 843f e515 0f3d 96d0 cfbf
000000f0: 35c9 d3bf 1901 15c0 d342 e23f 2d2d 33c0
00000100: 4e11 f3be 970f bcbf ea54 663e 8074 8b3d
00000110: 8515 f73f d0be 77bf 2b58 babe b9cc de3f
00000120: a79d e63e 2599 f7bf 8b50 33c0 1229 743f
00000130: 35fd e93f 030b b33f 6952 4bc0 8ab4 843f
00000140: 2d5c b73e 92ac 16bf 1c2a 23c0 1bfa 28c0
00000150: 54c1 e73f 0050 05c0 a570 bcbf 2edf 15bf
00000160: 1c9b fabe 4d5c debe 16d1 813f 2f14 483e
00000170: c75d aabf 8c87 cf3e 9a88 4bc0 8fd2 503f
00000180: a3f7 763f 31ae b2bf a339 8e3e cc0e 27bf
00000190: 2f66 a9be eefe 073f 6433 c83f 89ec 2840
000001a0: 5068 29bf 6a03 62c0 35d9 2d40 f1a5 883d
000001b0: f0da d63f 2c97 92bf da91 63bf bf54 ec3d
000001c0: 5695 913f bfe5 1dbf b19b 36c0 e4c6 6bbf
000001d0: cca9 c2be 2a73 623f 3e07 623e 4ada c53f
000001e0: 91c2 38c0 aa1b 0d3e 7103 f2be cda3 213f
000001f0: 5dfb 2bc0 9505 eb3f fe33 cebf a661 93bf
00000200: 3c3d f03f 5bac 8d3f 0b7c b13d 4f99 03c0
00000210: 4d7d 893f 0ca6 953f 0845 cfbe a6e8 ae3d
00000220: 7db7 2e3e 1c49 79bf 8356 7740 e1d9 a8bf
00000230: 2913 3fc0 a610 1d40 5499 1340 f8cf ed3f
00000240: 14d3 8f3d e4aa 0240 807e febe a580 bd3f
00000250: 5151 0940 0e24 f13f f97b 463e 1b08 a1c0
00000260: 33ad 4d40 a184 8340 a7ed 96be 3151 0b40
00000270: 498d 8340 1ebb 903f f64a b2bf 6a6d db3d
00000280: 8127 2ac0 a2af 97bf 7c0d e03f a6f3 893f
00000290: 807a e53f a534 6640 49bf 1fc0 172d 68bd
000002a0: 5323 3140 e1c8 65bf 9d86 4140 82a2 9cbf
000002b0: 64dd 87bf be3f 4640 e7f9 9b3f 1c35 1940
000002c0: 96ef a9bf c5de 27c0 d356 2ac0 1003 573f
000002d0: 3586 5ec0 a30e 1a40 a70d 0140 d148 3140
000002e0: cbc2 263f 2aa4 f8bf 2b02 f93f cef3 06bf
000002f0: c50c 0ebf 18d9 2bc0 c569 0fc0 6f02 813f

bias_hh_l0 f4 [192]
-3.9571786 -1.2525638 2.1761224 -0.22730495 2.1446893 0.19834946 2.8618267 0.711958
-1.2553138 1.5681821 -3.0157413 -1.4647484 -4.034106 -0.47265095 0.18297307 3.209177
-0.24439546 1.3655181 -3.589017 -0.9945477 -2.260881 -0.54886454 -1.690832 -3.1327107
0.9256103 -0.5703837 -2.7677598 -0.78349656 -0.33801082 1.2112323 -1.0137922 -0.25784588
0.8763154 -0.46458757 0.1959927 2.8505707 -1.3609693 -2.8700395 -0.20489408 2.8117955
1.3437953 -0.7867044 -3.591495 3.0802126 -0.5202648 -2.01954 -2.7980187 4.9367623
-1.5812106 0.56589866 -0.1766756 1.0779845 1.406785 0.41714686 2.0433297 -5.21804
-2.5207117 1.0659425 0.20127067 -1.4789721 -1.6353186 -2.478791 1.7404228 -2.869095
-0.48401758 -1.4310755 0.077216886 -0.10377835 1.9875401 -0.9861383 -0.5534423 1.8697146
0.30575654 -1.9074632 -2.8356986 1.0449321 1.7988917 1.5754569 -3.1901705 0.9228987
0.54311424 -0.50966364 -2.473758 -2.5599546 1.800562 -2.1886106 -1.2579302 -0.5391973
-0.56366897 -0.346863 0.995855 0.16789061 -1.1321291 0.28057185 -3.1233232 0.6911908
0.9801953 -1.4443549 0.33448306 -0.64420944 -0.5179118 0.5649188 1.558128 2.5594082
-0.7500724 -3.6139865 2.7438993 0.022981748 1.7161632 -1.2141911 -1.0625978 0.12774059
1.0417264 -0.45026878 -2.8544483 -0.90137964 -0.4409908 0.8894789 0.25592232 1.5517911
-2.6911752 -0.015791615 -0.4577825 0.52991515 -2.5840018 1.7590342 -1.5096548 -1.184306
0.022132749 -1.035274 0.8369441 -0.060731824 -3.293672 -1.6872134 0.43292776 1.5379636
2.2707026 -1.5123277 -1.4129386 -2.2726414 -1.2313437 -1.6346071 0.9457625 -0.41219482
-0.9372243 3.2791235 -2.0465982 1.5271916 0.5283007 1.1946917 0.5981947 -0.41013712
2.2915392 2.488345 0.5082201 0.17364898 -1.9568893 -4.6478868 -0.92729 -1.5932868
2.0785658 -2.299825 1.0400056 5.7268248 -1.5189769 -1.8708252 -2.87829 3.655574
3.161585 -0.92789257 1.9770569 -0.80650145 2.3773284 -2.8439949 0.1786116 4.7272916
1.0254625 -1.0390418 3.3059459 -0.21905392 -1.487677 0.15555178 -0.19400644 0.13118854
-0.016041126 -3.0751407 3.8338661 -0.68032223 -0.632053 -0.2983804 0.23927082 1.7165459
00000000: 6a42 7dc0 0354 a0bf 9745 0b40 a1c2 68be
00000010: 9742 0940 1f1c 4b3e 2b28 3740 e142 363f
00000020: 1fae a0bf 31ba c83f e801 41c0 e07c bbbf
00000030: 6517 81c0 4eff f1be 4b5d 3b3e 2863 4d40
00000040: ce42 7abe 4cc9 ae3f 74b2 65c0 ae9a 7ebf
00000050: 46b2 10c0 6382 0cbf 2f6d d8bf 557e 48c0
00000060: ccf4 6c3f ab04 12bf fa22 31c0 3b93 48bf
00000070: c10f adbe a909 9b3f f1c3 81bf 6004 84be
00000080: 3556 603f 6cde edbe 4fb2 483e c06f 3640
00000090: 3e34 aebf baae 37c0 c1cf 51be 75f4 3340
000000a0: 7c01 ac3f 7665 49bf 0edb 65c0 3422 4540
000000b0: 1330 05bf 2540 01c0 bd12 33c0 f5f9 9d40
000000c0: 1c65 cabf bcde 103f 73ea 34be 65fb 893f
000000d0: 8811 b43f 4694 d53e eac5 0240 2ffa a6c0
000000e0: 5753 21c0 ce70 883f e619 4e3e f54e bdbf
000000f0: 1f52 d1bf 83a4 1ec0 2dc6 de3f 419f 37c0
00000100: 27d1 f7be 7b2d b7bf e323 9e3d be89 d4bd
00000110: b767 fe3f 8f73 7cbf 65ae 0dbf cf52 ef3f
00000120: 1f8c 9c3e c127 f4bf 167c 35c0 56c0 853f
00000130: 1542 e63f 92a8 c93f c12b 4cc0 1743 6c3f
00000140: 8909 0b3f 5179 02bf 0d52 1ec0 4cd6 23c0
00000150: d178 e63f 3212 0cc0 db03 a1bf d608 0abf
00000160: 9c4c 10bf 0798 b1be 5af0 7e3f 84eb 2b3e
00000170: 9be9 90bf 1da7 8f3e 87e4 47c0 e1f1 303f
00000180: 14ee 7a3f 9fe0 b8bf 5d41 ab3e e9ea 24bf
00000190: de95 04bf 859e 103f bd70 c73f 58cd 2340
000001a0: bf04 40bf 8e4b 67c0 0c9c 2f40 3844 bc3c
000001b0: 3cab db3f 9d6a 9bbf 3403 88bf 6ece 023e
000001c0: 4a57 853f a189 e6be 48af 36c0 d1c0 66bf
000001d0: 8cc9 e1be e4b4 633f 4008 833e 17a1 c63f
000001e0: 373c 2cc0 6b5d 81bc 7862 eabe 85a8 073f
000001f0: 4960 25c0 0828 e13f 5e3c c1bf 5797 97bf
00000200: bd4f b53c dc83 84bf f841 563f efc1 78bd
00000210: 86cb 52c0 9cf6 d7bf b5a8 dd3e fedb c43f
00000220: 3153 1140 f493 c1bf 2cdb b4bf f572 11c0
00000230: ac9c 9dbf ce3a d1bf 7e1d 723f 330b d3be
00000240: efed 6fbf 29dd 5140 77fb 02c0 047b c33f
00000250: b73e 073f a8eb 983f 4a23 193f 7efd d1be
00000260: 94a8 1240 0b41 1f40 b61a 023f 0ad1 313e
00000270: 597b fabf 7dbb 94c0 e162 6dbf d2f0 cbbf
00000280: 3907 0540 5530 13c0 e71e 853f 2642 b740
00000290: d66d c2bf 3377 efbf e735 38c0 edf4 6940
000002a0: 6957 4a40 5e8a 6dbf 3310 fd3f e176 4ebf
000002b0: 2626 1840 0304 36c0 f6e5 363e f945 9740
000002c0: 5b42 833f 52ff 84bf 9e94 5340 ac4f 60be
000002d0: 336c bebf f748 1f3e a0a9 46be 4a56 063e
000002e0: ae68 83bc 1bcf 44c0 105e 7540 9929 2ebf
000002f0: 3ace 21bf 51c5 98be 6903 753e c7b7 db3f

weight f4 [1, 64]
-48.184387 -15.484308 91.71134 -20.301903 -23.871883 -12.118192 -33.139275 44.04096
19.56771 28.123278 -6.007508 25.550827 -14.399588 -25.345785 -20.402773 -2.6415472
61.66339 3.8645906 7.5027604 22.082376 -36.29706 26.814657 17.567236 -19.964008
-46.726055 125.36896 34.59711 -79.41391 -8.017324 -55.669662 -17.65732 -23.267952
204.94032 18.585535 -20.430779 -76.61503 -127.45126 -107.98857 16.055521 53.208607
45.325188 44.265507 36.55188 -95.964554 -51.927666 -41.930244 -29.880548 10.972451
43.63931 -58.73307 182.55765 -16.228188 -67.82214 -1.3026975 12.577774 -20.774363
-22.162907 7.988349 41.520653 3.1456337 30.474169 10.911769 41.753746 26.648834
00000000: d0bc 40c2 babf 77c1 356c b742 4c6a a2c1
00000010: 9ef9 bec1 1de4 41c1 9e8e 04c2 f129 3042
00000020: ac8a 9c41 79fc e041 813d c0c0 1868 cc41
00000030: b664 66c1 2bc4 cac1 e138 a3c1 1c0f 29c0
00000040: 50a7 7642 7455 7740 9d16 f040 b5a8 b041
00000050: 3030 11c2 6b84 d641 b389 8c41 4ab6 9fc1
00000060: 7be7 3ac2 e8bc fa42 7163 0a42 ecd3 9ec2
00000070: f646 00c1 bcad 5ec2 3142 8dc1 c424 bac1
00000080: b9f0 4c43 2daf 9441 3c72 a3c1 e53a 99c2
00000090: 0ce7 fec2 26fa d7c2 b571 8041 9dd5 5442
000000a0: fe4c 3542 e10f 3142 2035 1242 daed bfc2
000000b0: eeb5 4fc2 92b8 27c2 5d0b efc1 298f 2f41
000000c0: a78e 2e42 aaee 6ac2 c28e 3643 54d3 81c1
000000d0: f0a4 87c2 cbbe a6bf 903e 4941 e531 a6c1
000000e0: a24d b1c1 8ea0 ff40 2615 2642 1052 4940
000000f0: 19cb f341 9b96 2e41 d603 2742 d030 d541
