GRU/models/test_1.pth (torch, 57997 bytes, 5 tensors)

weight_ih_l0 f4 [192, 5]
00000000: dfe5 b93d 8ede 923c bc14 ba3d 4dae be3d
00000010: 99bf 143e c13d 60bd 57c6 51bd 1d36 d93b
00000020: 36f6 1c3e 8b32 a43d 96f6 2b3e 1c04 1e3e
00000030: baf1 843d 4ca2 bb3d bbf4 873d 091a 093d
00000040: d7ba cb3d e7ff 88bd ca2b 0a3b 28d9 143e
00000050: 0e0e e5bc a4b6 9b3c 4f3e b93d 532a 82bd
00000060: b9df 303d e9dd aa3c 15d7 6abd 211f b13d
00000070: de35 333d 6a76 fc3d 9bb1 78bd 307a 813c
00000080: a797 46bc 6247 9d3d 23eb 623d f087 a7bb
00000090: 41ab 123e ee3f e13c 89a9 103e be29 643d
000000a0: ae49 053e cf0a 9fbd b640 803d 887e 153e
000000b0: 3afc a83d 4ea4 90bd 1434 193d 7eaa 873c
000000c0: bf35 153d 2901 373e c1fd 693b 15e8 5ebd
000000d0: 62bb da3d 345e b1bc 1851 213e 7873 ec3d
000000e0: b997 a4bc c2f4 af3c b08d 1b3e 2580 593d
000000f0: 10da 8bbd d409 9fbb 5cd9 733d 4733 d73d
00000100: 0265 18bd 07bb 2ebd 98f5 9a3d d028 8c3d
00000110: 852a ae3d 72d2 403d 45ec 3f3d 5b99 f13d
00000120: a62d 1a3e 6139 b1bd 032c 093e 3829 213e
00000130: 2d61 c93c fcad 1c3e 7e10 253e 59ef 0e3e
00000140: 75a7 5e3d a989 533d 915a b4bd 018a d0bc
00000150: f598 b1bc a0a6 dcbc 1885 e83b faa6 c03c
00000160: f759 97bd be8f a0bc f2b9 1b3e b1ec 4e3c
00000170: 59f8 483d 9591 c23d a910 9d3d 74df 143c
00000180: 9983 7dbd 39be 3d3d 8748 c43d 86ff 803d
00000190: d834 ebbb 8747 8abc c7c7 be3d fc7c 23bd
000001a0: 6600 bb3d 21dd 5c3c cc79 96bd cae9 ee3d
000001b0: 4eca 223d 8a65 113e 9554 83bc 4968 7d3a
000001c0: 03ed 68bd 08d7 093e d9cd d83c b3b8 163e
000001d0: ecdf 08bd 5cea 0d3e 427c 133e e6cf a93d
000001e0: 7993 c93d 85ff 383d 1f0f 9abd f935 2b3c
000001f0: 544a b83d e902 a4bd e82f 0abc 1e4e 31bc
00000200: 5702 c13c 0e21 b6bd fce9 dd3d 6109 6e3c
00000210: 3969 873d 8412 013e a77e 1d3d 4b2a 70bb
00000220: 00a8 a1bd 4da1 e33d e759 cd3c 34bb a03d
00000230: 3caf 9ebd fbb1 0cbd b7a1 9d3d 6541 f4ba
00000240: 10b9 b93d 4697 483d eff6 673b e012 9dbd
00000250: c652 ff3d d536 193e bf48 e83d 6f96 a9bd
00000260: a6f9 9bbd b893 b93c 06da fdb9 03de cd3d
00000270: eced 6f3d 3a81 8e3d c5b4 b5bc 76e9 31bd
00000280: 0034 db3d 3ee9 e03c 3c77 d2bb d4d9 2cbc
00000290: a13c e53d af30 203e 7cd8 803d 1bb1 0abd
000002a0: 26ab 693d 741e d7bb d6cc 923d 7dac 9fbd
000002b0: 4adc 3e3d edc7 f8bc e782 323e 4f52 9cbd
000002c0: 17a0 273d 75bd 273e 3f46 aeba 9658 df3d
000002d0: 77ab 023e defb d43d 82bb 76bd a7c8 80bd
000002e0: 22e1 e4ba 02c7 31bd 683a 153e f6aa 5fbd
000002f0: 3720 dd3c 0209 503c 2dbd 9e3c 11d8 163e
00000300: 6f6c 0e3e e739 0c3e 7c09 d43d 2f9b 6a3d
00000310: aa75 b0bd 3e2f b83d 58ab 44bd 594e d83d
00000320: 2519 97bb aede 9dbc 5440 853d f26c 98bd
00000330: 9977 1bbd 1b4f 1b3e f5e2 cbbc 7777 19bd
00000340: fc4c 1a3d ccac cd3d 57c1 bfbc de5c 953d
00000350: 35bc 99bc 12a9 51bd 6d07 013e c62b f63c
00000360: 9054 013e 2978 353d cb9f 80bc 7b1b 303e
00000370: bca3 9abd 8238 0b3d c5e4 dc3d 875f 80ba
00000380: 5c48 133d d41a 133e 9bc4 bcbb 4c31 f53c
00000390: 2451 ddba a46c b3bc 13e4 013e 1e24 043e
000003a0: 5be4 bb3d 6648 dc3c 7c93 68bd 9fd9 133e
000003b0: 4450 d93d 53d6 80bd b3f5 163e bc3e ae3d
000003c0: 4fbd 7cbd a369 a73c 2d7b f53d a7eb 873a
000003d0: 4d02 0fbd 478d a3bd ce35 013d e7da aa3d
000003e0: 6716 fa3d 3457 1b3e 304b 81bd a954 01bd
000003f0: 4b71 2f3d ba13 c7bc 3583 d83c 151a 13bd
0.090770476 0.017928388 0.09085986 0.09310589 0.14526214 -0.054746393 -0.051214542 0.0066287653
0.15328297 0.08017453 0.16793284 0.15431255 0.06491418 0.09161815 0.066384755 0.033472095
0.09947746 -0.066894345 0.002108323 0.14535964 -0.027960803 0.019007988 0.090450875 -0.06355729
0.04318211 0.020857768 -0.057334024 0.086485155 0.043752544 0.12327273 -0.060716253 0.015805334
-0.012121118 0.07679631 0.055400025 -0.0051126406 0.1432314 0.027496304 0.14127173 0.05570387
0.13016388 -0.077657335 0.06262343 0.14599049 0.082512334 -0.07062589 0.03740318 0.01656079
0.03642821 0.17871536 0.0035704228 -0.05442055 0.10680272 -0.021651365 0.15753591 0.115454614
-0.020091878 0.021479014 0.15190768 0.053100724 -0.068287015 -0.0048534665 0.059533462 0.10507827
-0.037205704 -0.042658832 0.075663745 0.06843722 0.08504204 0.047075696 0.046856184 0.11796828
0.15056476 -0.08653522 0.13395695 0.1573838 0.02458247 0.15300745 0.16119573 0.13958491
0.05435892 0.051644955 -0.08806337 -0.02545643 -0.02167938 -0.026934922 0.007095944 0.02351712
-0.07390206 -0.019599792 0.15207651 0.012629674 0.049064968 0.09500424 0.07669193 0.0090864785
-0.06189308 0.04632399 0.09584146 0.06298737 -0.0071779303 -0.01687981 0.09315448 -0.039914116
0.09130935 0.013480456 -0.0734745 0.116656855 0.039743714 0.1419889 -0.016031543 0.0009666724
-0.056866657 0.13460934 0.026465343 0.14718895 -0.033416674 0.13858932 0.1440287 0.082916066
0.09842581 0.045165557 -0.07522415 0.01044988 0.08998552 -0.080083676 -0.008434273 -0.010821847
0.023560686 -0.088930234 0.108356446 0.014528603 0.066118665 0.1260472 0.038450863 -0.0036646302
-0.078933716 0.1111475 0.025067283 0.07848206 -0.07748267 -0.034349423 0.0769686 -0.0018635212
0.09068501 0.04897239 0.0035394987 -0.07669616 0.1246696 0.14962323 0.11342 -0.08280646
-0.07615976 0.022653446 -0.0004841836 0.10052111 0.05857651 0.06958242 -0.022180924 -0.043435536
0.107032776 0.027454969 -0.0064229053 -0.010549981 0.11193205 0.15643571 0.06291291 -0.033860307
0.057047985 -0.0065649096 0.071679756 -0.077965714 0.046596803 -0.03036877 0.17432748 -0.076328866
0.040924158 0.16380866 -0.0013296081 0.10905568 0.12760721 0.10399602 -0.060237415 -0.062882714
-0.0017462114 -0.04340268 0.14573061 -0.0546064 0.0269929 0.01269746 0.019377315 0.1473086
0.13908552 0.13693963 0.103533715 0.0572769 -0.08616193 0.08993386 -0.04801497 0.10561819
-0.0046111518 -0.019271221 0.0650641 -0.07442655 -0.037955854 0.15166895 -0.024888495 -0.037467446
0.037671074 0.10042724 -0.023407621 0.07293104 -0.018766502 -0.05118663 0.12600489 0.03005017
0.12629914 0.044304047 -0.015701195 0.17197983 -0.07550761 0.033989437 0.10785822 -0.0009794094
0.03595768 0.14365703 -0.005760742 0.029930733 -0.0016885144 -0.02190239 0.1268466 0.12904403
0.09174415 0.026889991 -0.056781277 0.14438485 0.106110126 -0.06290879 0.14742164 0.085080594
-0.061703976 0.020436114 0.119863845 0.0010369912 -0.034914304 -0.07985931 0.031545453 0.083425336
0.12211304 0.15169984 -0.06313169 -0.03157488 0.042832654 -0.024301399 0.026429752 -0.035913546

weight_hh_l0 f4 [192, 64]
00000000: 70bc 813d d6ef 05be e76e e63d b992 003e
00000010: 8058 b9bd 8db9 58bd ffbc 5dbd e170 b03c
00000020: 9914 86bd c8ea 1f3e 0d50 cdbd 1b0a 5cbd
00000030: ffa3 123d fb07 7dbc d7bb 39be 30f6 01be
00000040: 220d b53d 06e1 91bc b5e0 c73d c046 efba
00000050: 23e3 be3b 8102 f63d dcab 9f3a 24e2 54bd
00000060: bbcd aa3d 9dc7 123e 66e7 83bc 7c95 36be
00000070: b790 d1bd 2ebf 10be fc32 34bc 510b f1bd
00000080: c347 923c 90d8 953d 1260 b43d 8e6a 65bd
00000090: 9a11 49bd 6556 87bd 2ed6 363e 8ac0 02bd
000000a0: a875 e0bc 5c77 ee3d c9fc 1abe 3234 c9bd
000000b0: d128 76bd b271 d4bd 8de7 dbbd 7efa 943d
000000c0: 799c 39bd 2aa2 5bbd 0839 073d 121d 123c
000000d0: 4a30 b13d 6cbd 4d3d f5d3 8d3d 704e d2bd
000000e0: c805 7f3d 17fe a9bd 8255 813d f7a9 1e3e
000000f0: 6b82 233d 8e05 b33b 5687 06bd 0125 bebd
00000100: a0d3 4abe 2054 1abe 6f2d 783c 289d 773d
00000110: fb8e 65bd 6963 33be d678 2c3d 04ff 4a3d
00000120: d959 633d af17 1f3e ea85 6d3c a5c1 9d3c
00000130: 823e 243e 0abc 2cbd 2096 3fbd 7460 0fbe
00000140: 4c29 1f3c 2bf5 1dbe cbd8 333e 3f8c 243e
00000150: 4556 923d d5c5 f03d ea0c 753b d55d 0bbd
00000160: 0cbf a0bd e17f 5f3d 0d42 5ebc 1a12 7cbe
00000170: a470 bf3c 86db 24be 599d 013e 83e1 47bd
00000180: 84d5 0d3e 6863 003d 2c5a 563b 1b6b 00be
00000190: 6b7d fcbd c138 953d 4882 903d 6f2f 39be
000001a0: 5ad8 bd3c d039 12bd fbfb 113d c09f acbd
000001b0: 8294 26bd 5a7a 42bd 0368 c4bd 7038 1c3e
000001c0: b471 f3bd 9d17 17be 8ae3 11bc 3d02 963d
000001d0: 452d 22be 9620 03be 50a5 573d c212 563d
000001e0: ae03 2ebe ea93 323d 7ec0 f9bd 10f2 a63d
000001f0: 5b0c 223d f85c 663d 7af7 1e3e f467 55bb
00000200: 8190 d1bd 6989 10be 5f6c 41bd 7318 8f3d
00000210: c599 793d 1cde 4ebe f57a 9a3d e5c1 863d
00000220: 645c 413e f9f3 303e 0aea 12be 22f3 ea3c
00000230: d6c2 87bd c91a aebc 36f7 fdbd 5ffd efbd
00000240: 368a 333e eb9a f0bd 09e4 153d 7477 523d
00000250: 01cb 8dbb d190 5d3c 7b15 b6bd f810 553d
00000260: ed90 4c3c a589 223d 02d3 a2bc e8be 06be
00000270: 2f11 1b3d b7af 2cbe a9ce a2bc f6aa 0a3d
00000280: 02e7 aa3d 07f3 013e 6082 f93b 525e e0bd
00000290: f5ca bbbd a871 0cbd 198a 03bd 8e09 babd
000002a0: 5e98 b93d 9938 953d fb58 83bc 55e8 773d
000002b0: 7a61 2a3d 2d60 13bd f792 11be 9aed 15bd
000002c0: 6d67 653c adae 33be 4465 183e f682 c13d
000002d0: a3a2 42bd d413 30bc 3b5b fa3d 6c91 823d
000002e0: e0c4 6f3d d012 9d3c 378e 9dbc 8b60 eb39
000002f0: 6c0a 143d d297 1b3e 93f7 153e 81bd 21bd
00000300: 2db9 00be 88a3 34bd eeac ce3d 4bf3 9e3d
00000310: 663c 05bd de89 0bbe bf15 a33c e99a 4cbd
00000320: 452c 503a 5f24 dbbc dd12 d4bd c177 993d
00000330: 6450 543d eea6 2c3d 819e 55bd dc18 44bd
00000340: 922c a9bc 51c8 5b3c 5ccc 9e3d a747 7a3d
00000350: 0731 dc3d 3a56 273e 7caa e2bd 64a1 933b
00000360: be48 443c 8801 e63d 6bad 88bd 23cd 96be
00000370: 031a d0bd 7636 953d 8abd 48bd beb7 26bd
00000380: 1724 123e 3310 18bd 39b7 333c 8c16 6ebc
00000390: ee31 e4bb e3a1 093d 3ed0 bd3d 0794 1b3d
000003a0: e71a 113d ff74 b93d 7399 553d ce4e 733d
000003b0: f411 d4bd 6cdd cb3c 9841 1abe fd07 1dba
000003c0: f3cf c93c ff1e 2f3d 3f74 ca3d 0c24 1d3e
000003d0: 641a f6bd 1db2 9bbd afa8 7d3d 2e98 8cbd
000003e0: 7a02 f7bd ab32 1e3c 1d3c f2bd ee7a f0bc
000003f0: 9dfa 80bd 6902 cd3c f5c8 89bd 3353 273d
0.0633477 -0.13079771 0.11251622 0.1255597 -0.09050083 -0.05291133 -0.05413532 0.0215382
-0.065468974 0.15616906 -0.10025034 -0.053720575 0.03580093 -0.015443797 -0.18138061 -0.1269157
0.088403955 -0.017807495 0.09759656 -0.0018255338 0.0058254167 0.12012196 0.0012181955 -0.051973477
0.08340021 0.14333959 -0.01610155 -0.17830461 -0.1023268 -0.1413543 -0.010998484 -0.117697366
0.017856484 0.07316697 0.088073865 -0.05600982 -0.04908905 -0.06608275 0.1785514 -0.0319219
-0.027399853 0.1164386 -0.15135492 -0.098244086 -0.06009752 -0.10373248 -0.10737524 0.0727434
-0.04531524 -0.05362145 0.033013374 0.008918064 0.086517885 0.050229475 0.06925193 -0.10268867
0.062261373 -0.08300417 0.063151374 0.15494524 0.0399193 0.0054633087 -0.03284391 -0.09284402
-0.19807291 -0.15071154 0.015147551 0.06045261 -0.05604456 -0.1751839 0.042107426 0.049559608
0.055505607 0.15536378 0.01449726 0.019257376 0.1603947 -0.042171516 -0.04677403 -0.14001638
0.009714436 -0.15425555 0.17563169 0.16069125 0.07145361 0.117564835 0.003739173 -0.034025032
-0.07848939 0.054565314 -0.013565552 -0.2461628 0.02336914 -0.16099367 0.1265768 -0.04879905
0.13850981 0.0313448 0.0032707555 -0.12540857 -0.12328609 0.072862156 0.07056099 -0.180845
0.023174454 -0.035699666 0.035640698 -0.084289074 -0.04066897 -0.047479965 -0.09590151 0.15255904
-0.118869215 -0.14755102 -0.008904347 0.07324646 -0.15837581 -0.128054 0.05264789 0.052263983
-0.16993591 0.043598093 -0.12194918 0.081516385 0.039562564 0.056241006 0.15524092 -0.0032563182
-0.1023264 -0.14114918 -0.04722249 0.06987085 0.06093766 -0.20201916 0.075429834 0.06579951
0.188829 0.17280568 -0.14347091 0.028680388 -0.06628959 -0.021253007 -0.12400667 -0.117182486
0.17533192 -0.11748298 0.036594424 0.05138345 -0.0043271785 0.013523296 -0.08890816 0.052018136
0.012485725 0.03968205 -0.019876007 -0.13158762 0.037858184 -0.16863905 -0.019873934 0.033854447
0.083448425 0.12690364 0.007614419 -0.1095549 -0.0916957 -0.03428808 -0.032114122 -0.09083854
0.09062265 0.07286186 -0.01603364 0.060524303 0.041596867 -0.035980392 -0.14216219 -0.036603548
0.014001709 -0.17547102 0.1488238 0.09448807 -0.047518384 -0.010746915 0.12224432 0.06375393
0.058537364 0.01917401 -0.019232852 0.00044894623 0.03614275 0.15194634 0.14645223 -0.039487366
-0.12570639 -0.044101268 0.100915775 0.07761248 -0.032528304 -0.13626811 0.01990783 -0.04995242
0.0007941167 -0.026750742 -0.103551604 0.07493544 0.05183448 0.042151384 -0.052153114 -0.04787527
-0.020651136 0.013414458 0.07753822 0.06110349 0.10751539 0.16341487 -0.110676736 0.0045053232
0.011980234 0.11230761 -0.06673702 -0.29453382 -0.10161211 0.07285778 -0.049008884 -0.040702574
0.1427158 -0.037124824 0.010968977 -0.014531743 -0.00696396 0.033601653 0.09268235 0.037982967
0.035426047 0.09055518 0.052148294 0.059401326 -0.10354987 0.024885856 -0.15064085 -0.0005990265
0.02463529 0.04275417 0.098854534 0.15345782 -0.12016752 -0.07602332 0.061928447 -0.068649635
-0.12061019 0.009655635 -0.11827872 -0.029355492 -0.06297801 0.025025563 -0.06727783 0.04085083

bias_ih_l0 f4 [192]
00000000: d5f3 043e 3a8e 1c3e b7d2 913d 8699 e13d
00000010: 892e e23d 3ff0 8c3d 644d 05bb 66ec bb3d
00000020: 617c 51bb f408 0a3d 2eb3 033d 9e79 023e
00000030: 5a0f 283d d078 713d c45a 223e e14d 7b3d
00000040: 5b69 223e 0b85 bc3d 38a3 1d3e 4bb5 403d
00000050: f475 893c 334f 49bd 6ee6 043e aa45 c83d
00000060: ed44 1b3e 24b8 fbbc 89f2 183e f357 e53d
00000070: d424 283e 4087 af3d e741 0e3e 28b8 8b3d
00000080: 7730 633d 46e3 8c3d 2e48 173d ae5e f43c
00000090: 5ea7 4cbc 8307 a23d c805 74bd b87b 703d
000000a0: 46cb 2c3b 3d04 6fbc ac86 3f3d 0111 223d
000000b0: 20f1 23bd 9bbc c83c 5271 ccbb edf2 943d
000000c0: 6949 b63d 1e24 dabc 6e35 f03c b020 123e
000000d0: 6fae b13d 9ef0 e83d 8fdd b5bc 5841 3f3e
000000e0: 5fac 09bd fbe7 3e3d 63ac 76bd dc27 41bd
000000f0: a8b8 24bb e565 373e 97bd 67bc 594f 2a3e
00000100: 44d3 52bd c8bc 06be 3817 963d 0ef8 303d
00000110: efb0 00bd a7ee 48bd 3983 d73d 1d20 2bbd
00000120: c023 953c d6dc e1bd 7661 b2bd 29f4 a0bd
00000130: 32bf fe3d 71e1 efbd 8a4b 043e ba70 b13d
00000140: 096c f6bd 8de5 813b cab9 c1bd 875a 1abe
00000150: f50c 583d 221f 7f3d 5160 d5bd 0013 583d
00000160: f9b2 abbc 6cc1 90bd d9c3 8e3d e9ea 47bd
00000170: 169f c8bd 7d01 8d3d 6787 56bd a7a7 ad3d
00000180: c113 f7bc d9a3 ca3d 0e32 35bd 0736 f5bd
00000190: 3bc2 1a3d e51e 763d 33a0 d73d 3aa2 413d
000001a0: 0ef2 25bc ed44 9b3c a6e3 cc3d 691f c33d
000001b0: 2cf7 41bd 1ff4 783d 246e 153d c7a7 723d
000001c0: 4267 2a3d 1eff 8cbd cfa3 663c 31e0 f0bd
000001d0: 9263 f73c bf96 62bd 2939 13bd 8738 c6bd
000001e0: 8e4a 13be f76d 893d 1222 303d 839f c43d
000001f0: 920f bdbd f4cc b93d e985 0abe 2c23 15bd
00000200: f7be 28be 4fc8 9dbd 5aa6 183e 4932 a53d
00000210: a11c 40bd 703d 8cbd f509 273d afcf a33c
00000220: 75f1 5b3d 8c5d 20bd b9ea 7abd 92e4 2e3d
00000230: e5c9 133d b342 13bd 5a22 c9bc b371 d6bd
00000240: 939a df3d 8479 31bc 3f5d 67bd 1589 033e
00000250: f343 ee3c 48df fe3d 4af4 94bd e897 243e
00000260: 8bac 2cbd b816 193e 18ec 493d 76b0 8ebd
00000270: b02a 58bd 278b e4bd 4a77 d33d cc4f bc3d
00000280: 3796 233e f670 d63d fac5 1e3e 32fb 18be
00000290: e69d 21be 4e11 593d 40c1 c1bc b039 06be
000002a0: b2ac 083e 0d12 963c f437 98bc 97f6 2dbe
000002b0: 4e90 bdbb bcef f5bd d15b 32be 43ce 253e
000002c0: ab6b 2abe 1a80 aabd fbed 1bbd 44ce 323e
000002d0: 613a fdbc b47f bcbd 21b2 83bc 9ca1 833d
000002e0: d1a7 3bbe aba0 f63d 93df 0abe aaf5 7d3d
000002f0: 30bb 063e 3eb2 d33d ac00 b23d 0c1b 9d3c
0.1298364 0.1528863 0.07120269 0.110156104 0.11044032 0.06881761 -0.0020340318 0.09175949
-0.0031965005 0.033699945 0.0321533 0.12741706 0.041030265 0.058953106 0.15854937 0.061353568
0.15860502 0.092050634 0.15394294 0.047047894 0.016779877 -0.049147796 0.12978527 0.09778912
0.15163012 -0.030727454 0.1493627 0.111984156 0.16420299 0.08570719 0.13892327 0.068222344
0.05546614 0.068792865 0.03693407 0.029830303 -0.012491075 0.07911589 -0.059575826 0.058711737
0.0026366278 -0.014588413 0.046759292 0.039566997 -0.040024877 0.024503997 -0.006239095 0.07272897
0.089007206 -0.02662855 0.029322352 0.14270282 0.08675849 0.11374019 -0.022200374 0.1867727
-0.03361165 0.046607953 -0.060222995 -0.047157153 -0.0025134478 0.17909963 -0.014144323 0.16631831
-0.05147101 -0.13157952 0.073286474 0.043205313 -0.031418737 -0.04905572 0.105230756 -0.041778672
0.018205523 -0.11028449 -0.087099954 -0.0785907 0.12438811 -0.117129214 0.12919441 0.08664079
-0.12032325 0.003964132 -0.094592646 -0.15073596 0.05274673 0.06228555 -0.104187615 0.052752495
-0.020959364 -0.07068142 0.06970949 -0.048808012 -0.09795968 0.068850495 -0.052375223 0.08479243
-0.030160787 0.09894533 -0.04423719 -0.119731955 0.03778289 0.060088057 0.105286025 0.047273852
-0.010128511 0.018953765 0.10004358 0.095274754 -0.047354862 0.060779687 0.03648199 0.059242036
0.04160238 -0.06884597 0.014077141 -0.11761511 0.030198846 -0.055319544 -0.035943184 -0.096787505
-0.14383909 0.06710427 0.043001242 0.09600737 -0.092314854 0.09072295 -0.13527645 -0.036410496
-0.16479097 -0.077042215 0.14907208 0.08066232 -0.046902303 -0.06847656 0.04078098 0.019996492
0.05369707 -0.039151713 -0.061259005 0.04269845 0.036081214 -0.03595228 -0.024552513 -0.10470905
0.109181546 -0.010832194 -0.05648541 0.12845261 0.029085135 0.12444931 -0.07273157 0.16073573
-0.042156737 0.14950073 0.049297422 -0.06967251 -0.052775085 -0.11159354 0.10325487 0.091949075
0.15975271 0.10470764 0.1550521 -0.14939573 -0.1578289 0.05299502 -0.02365172 -0.13107944
0.13347128 0.018319154 -0.018581368 -0.16988598 -0.0057850247 -0.12008616 -0.17417838 0.16191964
-0.16642635 -0.08325215 -0.038068753 0.17461497 -0.030911626 -0.09204045 -0.01607615 0.06427309
-0.18325736 0.12042364 -0.1356185 0.06200186 0.13157344 0.103367314 0.086915344 0.019177936

bias_hh_l0 f4 [192]
00000000: 36c9 2abd a1ec bb3d a58f b13c 2187 953d
00000010: 28d1 a73d 961f c43c c478 8abc db24 033d
00000020: 320e 193e fecc 22bd e1a3 f1bc 5894 a4bd
00000030: e127 b13d 5be3 e93c 2a36 083e 89f5 c53d
00000040: 2ca8 adbd 6894 9cbd c9fe 52bd f775 873d
00000050: 629e e93d c8a9 81bd 20eb 78bd 3fa2 54bd
00000060: e37a 7d3d c109 813d 8838 243c 707a 0b3d
00000070: 618e 0c3c 4bb6 d73b d7a7 09bd 29e2 0b3e
00000080: 7241 0abd 3b64 9e3d 65ac a2bc 61df 283d
00000090: 78ff 34bc 6d0c 173e 3b1d 7abd 4926 9ebd
000000a0: 9d6b 943d 9113 4cbd a2d6 e33d b4fa 2d3e
000000b0: d3aa 003d bd0d 6a3d cc8b dc3c b7d7 373e
000000c0: b328 1c3e 7fa1 e73d 69a1 373d b34d 2a3e
000000d0: efb8 f53d 5256 47bb e8ba 8ebd 97f7 113e
000000e0: 7062 78bc 1cd8 9a3d 6a36 d93d 225c c73d
000000f0: ce72 893c 73d5 e93c 0379 29bd f246 c63d
00000100: 8eb6 78bd 6245 bfbd 2f56 98bd c9c2 03be
00000110: d074 d53c a420 8abd 4d52 acbd b0d2 b23d
00000120: d56b 01be a7d8 aabd fadb f7bd 633c 503c
00000130: 0c18 c33d 7875 733d c3ae ed3d 5a7e ddbc
00000140: 0e75 843d 94e0 a93d 1e5a 9abc 9537 90bd
00000150: f0e2 2e3d 2eb3 31bd 4c6a e13d 4ac1 ca3d
00000160: 72dd c2bd 39ce 883c a971 523d 4822 9cbd
00000170: e88e ce3d accd 64bd 01fd 923b eeca 22bd
00000180: 1f69 70bc d456 4e3d 965d 4c3c c517 e4bd
00000190: a9c3 18be 67fc bf3d 3371 cb3d 6fef 05bd
000001a0: 8cc0 c9bd d03a 82bd 3bef 023e 4748 533d
000001b0: 9d44 1fbc 7613 04bc e598 0cbe 42ad 923d
000001c0: 3acb 5cbd f16f c83d 41cd 523c a9b7 c8bd
000001d0: 2ace fabc d84e 4ebd 3f44 3eba ccd5 b9bd
000001e0: 1d8c 543d 9219 b1bd e33d 6d3d aa41 b2bb
000001f0: 3d05 323c 4428 5e3c 2d6b 0bbd 37fa 8dbd
00000200: a770 93bb da29 23bd e65f 89bd eee5 073d
00000210: 5e52 0ebd 04d3 e2bd 8e9e 6cbd cc31 50bd
00000220: 387f 833d ae5b ef3d 3915 bbbd de01 3c3d
00000230: a2e6 213e 2d1f 85bc 482c 7a3d 0621 f7bc
00000240: c8ba 073d eb07 263c 8dbc 213e e5f6 703d
00000250: d6c3 083d dc23 9bbd 71a5 03bc b323 10bd
00000260: 6c13 39be d5c1 6bbd 9126 9c3c a557 13be
00000270: ef90 a73c 6d3e 4bbd 7c48 ea3d 88c4 a8bb
00000280: da39 363c fb92 283b 014f a33d 6feb 25be
00000290: 16f3 44bd cf26 a6bd 46f3 1a3d c77e eebd
000002a0: 077d 8a3c aedc 553d fd52 0bbe 5b83 b0bd
000002b0: a129 44bd 3bf2 db3c 9e5c ecbc 0ee4 043e
000002c0: 82f9 8ebd c3b4 55bd b85f ce3b 0cbd ad3d
000002d0: 124f 09be 058b 96bd 8f55 c6bc 3c53 52bd
000002e0: 8e36 6abd 0d13 823d 2f3a a7bd 3149 b83d
000002f0: b441 3dbd 98b6 5f3d 755b de3c 6d30 15be
-0.041695796 0.09175993 0.02167494 0.073011644 0.0819419 0.023940843 -0.016903289 0.03201757
0.14946821 -0.039746277 -0.029497089 -0.08036107 0.086501844 0.028550794 0.13301912 0.09665973
-0.08479342 -0.07645494 -0.051512513 0.06614297 0.11407162 -0.06331211 -0.060771108 -0.051912542
0.061884772 0.063006885 0.010023244 0.034052312 0.008578868 0.0065830103 -0.03360733 0.13660492
-0.03375382 0.07733961 -0.019857595 0.041228656 -0.011047237 0.14750834 -0.061063033 -0.07722146
0.07247088 -0.049823347 0.11124922 0.16990167 0.03141291 0.057142008 0.02692213 0.17953382
0.152499 0.113101 0.044831667 0.16631202 0.11998164 -0.003041644 -0.06969243 0.14254604
-0.015160188 0.07560751 0.10606082 0.0973437 0.016778376 0.028544163 -0.04137517 0.096815005
-0.060720973 -0.093394056 -0.07438313 -0.12867273 0.026056677 -0.06744507 -0.08414135 0.08731592
-0.12638791 -0.083421044 -0.12102504 0.01270971 0.09526071 0.0594382 0.11605599 -0.027037788
0.06467639 0.08294788 -0.0188418 -0.070418514 0.042696893 -0.04338377 0.11006603 0.09900148
-0.095148936 0.016699897 0.051377926 -0.07623726 0.10085851 -0.055860206 0.004485727 -0.03974431
-0.0146735 0.050375775 0.0124734845 -0.11137346 -0.14918388 0.09374314 0.099337004 -0.032699045
-0.098511785 -0.06358874 0.12786572 0.0515826 -0.0097209485 -0.0080612805 -0.137302 0.071619526
-0.05390475 0.09786976 0.012866319 -0.098006554 -0.030615885 -0.05036816 -0.0007258094 -0.09073982
0.051891435 -0.08647455 0.057920348 -0.0054399567 0.010865507 0.013559405 -0.034037758 -0.0693249
-0.004499513 -0.039834835 -0.06707744 0.033178262 -0.03474652 -0.11075404 -0.057768397 -0.05082874
0.064207494 0.116874084 -0.09134907 0.04590022 0.15810636 -0.016250217 0.061077386 -0.030167114
0.033137113 0.010133724 0.15794583 0.058829207 0.03338989 -0.07575199 -0.00803505 -0.035190295
-0.18073815 -0.0575579 0.019061359 -0.14388902 0.020454852 -0.04962008 0.114396065 -0.0051503815
0.011122191 0.0025722373 0.07974053 -0.16203092 -0.048083387 -0.08112871 0.03782966 -0.116452746
0.01690532 0.05221241 -0.13605876 -0.08618804 -0.047891263 0.026848903 -0.028852757 0.12977621
-0.069811836 -0.05217434 0.0062980317 0.084833235 -0.13409069 -0.073507346 -0.02421072 -0.05134891
-0.057180934 0.0635129 -0.081653945 0.08998335 -0.046205238 0.054617494 0.02714322 -0.14569254

weight f4 [1, 64]
00000000: 210d 78bf 6dcc 80bf bd90 5f3f 9414 763f
00000010: 0fa1 77bf f4da 5dbf c2cd 73bf 9973 793f
00000020: 66a6 503f 378f 693f a559 69bf d4d3 6b3f
00000030: c166 723f c5d8 79bf 9750 70bf 0a23 5fbf
00000040: 7579 7f3f 620c 78bf 5b57 6e3f 85cd 623f
00000050: 9dd8 6c3f 1d06 583f 36c1 5dbf d5ca 683f
00000060: 3baa 64bf 9b78 7d3f cf1e 5d3f 77b4 6cbf
00000070: 7174 73bf 593d 7ebf cbe4 5e3f be4f 67bf
00000080: 7172 723f 20d1 733f 9b91 673f b937 66bf
00000090: 75ca 6dbf d360 6dbf d5a4 763f 0afa 51bf
000000a0: e64c 5f3f 9032 6a3f 19fb 72bf ef01 76bf
000000b0: 7467 5dbf 75fb 80bf be7d 6dbf aef0 5d3f
000000c0: 7d7d 7fbf fe56 68bf bf9d 6c3f 5464 713f
000000d0: 57a6 68bf 3f88 5fbf 0862 793f bf24 61bf
000000e0: 84e9 6fbf bf9e 6f3f bc45 60bf e059 683f
000000f0: 1c99 6d3f 5f01 643f b5a3 7a3f cabd 66bf
-0.96895033 -1.0062386 0.8733023 0.9612515 -0.9673013 -0.8666222 -0.95235837 0.97442013
0.81503904 0.91234154 -0.9115241 0.921201 0.9468804 -0.9759639 -0.9387297 -0.8716284
0.99794704 -0.96893895 0.93102044 0.8859485 0.92518026 0.8438433 -0.8662294 0.909345
-0.8932225 0.99012154 0.86375135 -0.9246287 -0.9509955 -0.9931236 0.8706786 -0.9035605
0.94705874 0.95240974 0.9045655 -0.89928776 -0.9288705 -0.9272587 0.96345264 -0.82022154
0.8722671 0.914834 -0.94914395 -0.960967 -0.8648598 -1.0076739 -0.9276999 0.86695373
-0.99800855 -0.9075774 0.924282 0.94293714 -0.90878814 -0.8731727 0.9741521 -0.87946695
-0.9371569 0.936016 -0.87606406 0.9076214 0.9281175 0.8906459 0.9790605 -0.90133345
